Policy-Gradients/PPO-Space-Shooter-Agent/delta_shooter/Network_barrier_trained_full_size_good.pt (torch, 196009 bytes, 8 tensors)

weight f4 [256, 24]
00000000: 22d6 74be 5751 633e 1a6d f1bd 7969 3b3b
00000010: c25d 12bd 656f 5bbe c46c 303e c756 b83d
00000020: efcd 0a3d 89f9 dbbd 0248 103e ff61 283d
00000030: e35f 11be 34c1 4abe 58c2 ea3c 8e93 33be
00000040: dc24 413d 8cd0 9bbd f62c bebd 2cca 1c3d
00000050: 6dea 36bd dd92 eb3d 9a8d 0e3e bf86 213e
00000060: 5e92 5bbe 91e3 283e 34db cabd 68e1 873e
00000070: c884 833e 22d1 e6bd f984 393e 4d2b eabc
00000080: 4c6d 743e 4b56 26be a612 97bd 6847 d7bc
00000090: 5dd8 08be 7f92 083e 4e9e 29be 0b10 a6bd
000000a0: f63b 523e 2cf0 32bd 6cf3 413e 10ac c8bd
000000b0: 20c9 ce3d 9561 34be 2197 adbd 0caf cc3d
000000c0: 0664 44be 3730 e3bd 75a5 f9bd a284 573e
000000d0: a515 0c3e 8ecc 823e b58b 35be a003 42be
000000e0: 2d37 15be ab92 b03c a0db 2a3e b5be d4bd
000000f0: 095c 1fbe ad6a 0abe 006f 0dbe f135 223e
00000100: ca7b e83c b870 99bc ff66 01be a54e 96bd
00000110: ce24 38be 18b5 3ebe 1453 4a3e 1392 0f3d
00000120: 6a1d b23e 693b 35be bfa7 c1bd b66f 3d3c
00000130: 7f4f d33d 7499 983d 28fd 8cbe 28dd d63d
00000140: 6821 3b3e fe5c a5bd a683 1a3e a26d f6bc
00000150: 3eac ce3d cb4f 97bd 309e 72bd 06f3 5cbd
00000160: 87bd 69be c6b0 b93d de2e 143e 7a60 113b
00000170: 6aa5 333c 54f9 0fbe 6009 e53d d031 923d
00000180: c02e 89bd 8581 1b3d a637 843e 9e7d d93d
00000190: 520a 353e 716f efbd e6d4 193d f5ee 1b3e
000001a0: 47a0 813b 6580 853d 94c9 10be 9121 97bc
000001b0: 2020 33bd a7a2 e4bd 8c71 e13d 4075 08bd
000001c0: b4a9 16be 9eec eabd f828 223e f978 103e
000001d0: fdef 59bd d5ee 67be 53d4 f7bd bf4b 13be
000001e0: f336 68be 4484 a73d aee7 d7bd b706 e83d
000001f0: b7ce 1ebe ff5f 81be 3ef1 e2bd 0b82 4dbe
00000200: bb39 8bbe 9fb8 a13d 8c84 0a3e 6478 e7bc
00000210: e832 71be d98c 6d3d 48ad b23d 553a 46bd
00000220: df1d 003e 20b5 e93d ec19 823d 53c5 003e
00000230: ca89 873d 5500 423e e072 c4bb ab88 963d
00000240: ba91 0abe 95ea 643e 57cc 1fbd efa1 4dbe
00000250: 7a3c 393e 798b d9bd a57f 603e c453 33be
00000260: 882b 753e e416 573e 50a8 d63c 1a17 1c3e
00000270: ec25 dbbd 4d8d f3bd ec7f 15be 7e27 343d
00000280: b10c 09bc 8095 863d 0c7d d03d 5622 b2bd
00000290: a5a3 283e 6502 133d c48c 143d cc48 7d3d
000002a0: 25df acbe f354 22be ebd1 713e ed9f 17bd
000002b0: b6a9 b23e a7e5 623c 4b82 8abd 7c09 de3c
000002c0: 2664 41be 9edc 64bd f06a db3d 7319 2c3e
000002d0: 6a44 b2bd c0ba 32be b0d2 483d 1181 a6bd
000002e0: 4f54 8f3d d69a e53d 2407 0c3e d99f 6d3d
000002f0: a8a9 203c 549c 363e 465c 023e e905 383e
00000300: 29b5 0d3c e12b 28be 3c3d d8bd c074 0f3e
00000310: 3284 973e 8d64 dd3d 24e0 1b3e 42a4 f9bd
00000320: 3281 35be 0efa e7bd da1f 473e 22dc af3d
00000330: b564 163e 64cc b7bc 1c2f 32bd 69c9 20be
00000340: 7b15 243e 8d96 a5bd 69f2 4bbe 4ddc d53d
00000350: 8e4d d13d bef4 50be 6935 14be 7c4a 173c
00000360: a007 ef3d 1eac f53c bcae 663e 209b 94be
00000370: 8666 25be 5bf2 9b3d 466f fdbd 53d4 a0bc
00000380: c628 d4bd 66c3 ccbd f83a 623d e0d4 47bd
00000390: 5647 cfbd 5e52 13be e860 aabc d437 2ebe
000003a0: 41d8 023e cd50 483d b62c 023e 0cbb 23be
000003b0: 8452 ffbc 40be d3bd b45b bf3d 48d2 c93d
000003c0: d4eb 64bc 1d6d 573e 60a6 883e 0cc4 39bd
000003d0: 6640 883d 5e39 44be b2fa 253e 8a08 b5bd
000003e0: 2891 6fbd d735 ad3d a8d4 233e f81d fc3d
000003f0: c50c b0bd 8d85 a13d 90c0 4cbd b15b 33be
-0.2390981 0.22198997 -0.117883876 0.0028596802 -0.035733946 -0.21429212 0.17228991 0.090009265
0.0338878 -0.107409544 0.14089969 0.04110908 -0.14196734 -0.19800264 0.028657123 -0.17536756
0.047154292 -0.076081365 -0.09285919 0.038278744 -0.04465716 0.11502621 0.13921204 0.15774058
-0.21442553 0.1649306 -0.09905091 0.2653916 0.25687242 -0.11270358 0.18117131 -0.0285851
0.23869818 -0.16243856 -0.07376604 -0.026279166 -0.13363786 0.13337134 -0.16564295 -0.08108529
0.20530686 -0.043686077 0.18940514 -0.09798443 0.10096955 -0.1761535 -0.08476091 0.09994325
-0.19178781 -0.110931806 -0.121897615 0.21046689 0.13680132 0.25546688 -0.17729075 -0.18946695
-0.14571829 0.021554312 0.16685343 -0.10387937 -0.15562452 -0.13517256 -0.13811874 0.1584089
0.02837934 -0.018730506 -0.12636946 -0.07339219 -0.1798279 -0.1862377 0.19758254 0.035051417
0.34788066 -0.17698444 -0.09455823 0.0115622785 0.10317897 0.07451144 -0.27536893 0.10491401
0.18274462 -0.080743775 0.15089282 -0.030081574 0.10091446 -0.07388266 -0.05923289 -0.053942703
-0.22826205 0.0906692 0.14471003 0.0022182749 0.010964731 -0.14059955 0.11183429 0.07138407
-0.0669837 0.037965316 0.25823706 0.10619663 0.17679718 -0.11691178 0.03755655 0.15227874
0.003955874 0.0651863 -0.14139396 -0.018448623 -0.04373181 -0.11163836 0.110079855 -0.033314943
-0.14713174 -0.114709124 0.15835941 0.14108647 -0.053207386 -0.22649701 -0.121010445 -0.14384364
-0.22677211 0.081795245 -0.10542236 0.11329406 -0.15508543 -0.25268552 -0.110811695 -0.20069139
-0.27192482 0.07896542 0.13527125 -0.028255649 -0.23554575 0.05799565 0.08724457 -0.048395474
0.12511395 0.114115 0.063526005 0.12575273 0.06618078 0.18945439 -0.0059951395 0.07350286
-0.13532153 0.22355111 -0.039013233 -0.20081304 0.18089476 -0.106223054 0.21923693 -0.17512423
0.23942387 0.21004826 0.026203305 0.15243188 -0.107005924 -0.11892185 -0.1459958 0.043982975
-0.008364842 0.065714836 0.10180101 -0.08697955 0.16468675 0.035890955 0.036267057 0.061837003
-0.33763996 -0.15852718 0.23615234 -0.03701775 0.34895104 0.013848699 -0.06763133 0.027104132
-0.1888586 -0.05587446 0.10713756 0.16806583 -0.08704455 -0.17454052 0.049029052 -0.08130086
0.069985025 0.11211173 0.13674599 0.05801377 0.009806074 0.17833072 0.12730512 0.17971005
0.008649149 -0.16422988 -0.105585545 0.1400938 0.29593045 0.10810194 0.15222222 -0.12189533
-0.17725065 -0.11326991 0.19445744 0.08586909 0.14686854 -0.022436328 -0.04350196 -0.15701832
0.16023819 -0.08085356 -0.19916691 0.1044241 0.102198705 -0.20405862 -0.144735 0.009234067
0.11671376 0.029989298 0.22527593 -0.290246 -0.16152391 0.07614585 -0.12374739 -0.019632494
-0.103593394 -0.09998207 0.05523202 -0.048786998 -0.10121028 -0.1438689 -0.020798162 -0.17013484
0.12777807 0.048905183 0.12712368 -0.15989321 -0.031167276 -0.10339022 0.09343663 0.09854561
-0.013972241 0.21037717 0.26689434 -0.04535298 0.06652908 -0.19162509 0.16208914 -0.08839519
-0.05848804 0.08457535 0.1599909 0.123104036 -0.085961856 0.07886801 -0.04998833 -0.17515446

bias f4 [256]
00000000: 241e edbc 4011 353e e9cc 20be 258a 1dbe
00000010: 8f23 09be 021b bfbd 559b babd ea28 08be
00000020: dd23 fd3c 7a0b 183e 79d9 94bd b6d8 1e3e
00000030: a494 263e 75ff 0b3e 8176 413d 2f07 073e
00000040: 5c01 debd 4c78 b8bd 5a7d e93c e171 c53d
00000050: 5386 e2bd 3321 d83d 163c c7bd 83ec 263e
00000060: a37a 223e 8c22 523e 31c9 35be d711 e53d
00000070: 5f66 acbc 7a97 d7bd f081 29be 36c0 ff3d
00000080: 402c 3a3e e3ab 83bd 8ee1 bfbd 5c87 333e
00000090: 66ec a8bd 97b7 253e b205 0dbc ca59 7d3d
000000a0: 35e3 24be 8c6e c23d bf77 c6bd bbac fd3d
000000b0: 8794 213e 923b 16be 9e0f 10bd 2b16 133e
000000c0: 8c4a 123e fe69 173e 9c64 aabd fe67 1bbd
000000d0: 9496 afbc b92b 243e df3d 233d dd69 d6bd
000000e0: e3a9 9f3d 1b31 e5bc cb2c 18be a91c d6bc
000000f0: 4f93 193e d3dd ec3d 3528 1a3d 3a86 dfbd
00000100: 5088 21bc b219 6ebe a84e 443e 3aac fc3c
00000110: e7bf fdbb 061b 2c3b ee24 343e df8a 4f3e
00000120: 22f4 fd3c 7a36 4dbd 999a 8bbd f036 1f3e
00000130: b2b9 d8bd e226 dc3c 3d81 b43b f1f0 a13d
00000140: 4a2e 04be b6ae f8bd 319e 373d 0b15 e03b
00000150: ce6b ccbd 72cc 09be 99e9 443d a9f6 45bd
00000160: 90b0 de3d 594d 39be e987 cc3d e35a 4b3e
00000170: d400 d93d 5a4e 0d3e 125c 133e 9d13 45bd
00000180: 9f20 8b3d 7df8 b0bc 48e1 f4bc 662f 95bb
00000190: 17a3 2bbe fa17 6cbd fa68 c3bd 0b51 d23d
000001a0: 28ad c33c 6d09 48bd b2a4 cfbd eba9 3f3d
000001b0: 067a 07be c55c d13d 6f93 9ebc 6006 3b3e
000001c0: e4c3 dabb d965 d83d 7b8f 92bd 95c8 d93d
000001d0: e4db 18bd 6a68 32bc 5669 d13d 2183 59bd
000001e0: 581a d9bd 925f 343d e889 c93d fd0c 493c
000001f0: 6d57 6c3d abc9 71bd 45aa 87bd f0ca 8c3c
00000200: 4e82 8c3c b01f 3ebe 2342 a0bc 700b 863d
00000210: 95b9 37bd 82aa 25be d019 eabc 51df e63d
00000220: 53f2 f13d e412 643d 5cab 1cbd 98cc 603e
00000230: 05c2 3bbd 4640 83bc 568a 5abc 4871 acbd
00000240: a460 2b3e 60d7 ff3d 68a4 4dbd 8497 71bd
00000250: 0f2e fabc 35a2 253e 600d 15be 41bd f73c
00000260: b0a5 bd3d 3ff6 10bd 0127 c73d aefd 193e
00000270: 3027 1ebe d1dc ddbd 77a6 ccbd edf4 d63d
00000280: 1e71 533c ad20 8a3d 98cd a13d 37e6 3b3e
00000290: 445c f53c d746 2d3e 9d31 ef3d 1018 203e
000002a0: 423f 463e 6dae 4fbe be78 aabd 91a6 afbd
000002b0: 7e55 003e c364 47bd 68e0 a13d a79e a53d
000002c0: a44c 11be bcec d03d 1051 c0bd 70e3 ddbd
000002d0: d2b3 edbd 5a2c a9bd e63b fb3d 0c67 c6bd
000002e0: 3886 683e cadc 203d 8b96 05be 0636 263e
000002f0: 1f15 75bb 6fd6 1fbd db70 2bbe d221 d9ba
00000300: 4290 043e 965a b2bb 99b7 4dbe ce2e f5bd
00000310: f706 103e 2a6b 0fbe ece6 cbbd 7f66 ebbd
00000320: 52ad 013e 0673 be3d e107 ff3d 9378 ddbd
00000330: 53db 2abd 7bf6 2cbd 1a97 1cbe 6614 463c
00000340: 8917 aa3d d187 d3bd 2fbd 81bd 8e8a a7bd
00000350: ddcb 39be b0e4 3ebe 2902 933b f603 c83c
00000360: a068 063e 0bf7 26be 9440 333e 65af 71bd
00000370: 098d dcbd cb8f 513c 5964 f33d 48d2 403d
00000380: b196 96bd 6d86 91bd eb24 fa3d 5c52 3d3d
00000390: 3733 dabc b495 f13d eec4 5abd 3ee1 203e
000003a0: 99e6 8f3a 4c54 463d b59f bf3d 4e16 743d
000003b0: e2d1 2dbe 3442 27be 8e34 8fbd de21 cbbc
000003c0: 010d 003e ab5c f9bd bc78 7fbc aa2c 7c3d
000003d0: 7e83 283e 7a48 06bd 2b25 12be 7d6f 0bbe
000003e0: 5d96 36bd 8f83 093e 6714 ebbd 8987 ea3d
000003f0: 2003 243d 0b8f 21be 5701 643e 66e4 223e
-0.028945036 0.17682362 -0.15703167 -0.15384729 -0.13392471 -0.09331323 -0.091116585 -0.13296857
0.03090089 0.14848128 -0.07268042 0.15512356 0.1626764 0.13671668 0.047232155 0.13186334
-0.10840103 -0.0900732 0.028502155 0.09640861 -0.110607766 0.10553207 -0.09728257 0.1630116
0.15867095 0.20520991 -0.1775253 0.11185043 -0.021044908 -0.10526939 -0.16553473 0.12487833
0.18180943 -0.06429269 -0.09369193 0.17532104 -0.082482144 0.16183315 -0.008607315 0.061853208
-0.16102298 0.094937414 -0.096908085 0.12386461 0.15779315 -0.14671162 -0.035171144 0.14363925
0.1428625 0.14786527 -0.08319971 -0.03794097 -0.021434106 0.16032304 0.039853927 -0.104694106
0.07796075 -0.027977517 -0.14860837 -0.026136713 0.149976 0.11565747 0.037636 -0.109142736
-0.00985916 -0.2325199 0.1917063 0.030843843 -0.007743824 0.0026261224 0.17592213 0.20267819
0.0310002 -0.05010078 -0.068165965 0.155483 -0.105822936 0.02687401 0.0055085705 0.07907284
-0.12908283 -0.121426985 0.044828597 0.006838446 -0.099814996 -0.13456896 0.04807434 -0.048330937
0.108735204 -0.18095912 0.0998686 0.1985889 0.10595861 0.1379942 0.14390591 -0.048114408
0.06793331 -0.021602863 -0.029892579 -0.0045527695 -0.16761433 -0.057640053 -0.09541507 0.10269364
0.023886278 -0.048837114 -0.10138835 0.046792906 -0.13230142 0.102227725 -0.019357411 0.1826415
-0.006676184 0.10566301 -0.07156273 0.10633961 -0.03731908 -0.010889152 0.10225169 -0.05310357
-0.10600728 0.044036455 0.09840757 0.012271163 0.057700563 -0.059030216 -0.06624273 0.017186612
0.017151978 -0.18566775 -0.019562786 0.0654515 -0.04485472 -0.16178325 -0.028576761 0.11273063
0.11813798 0.055682078 -0.03824936 0.21953046 -0.04583933 -0.016021859 -0.013338646 -0.08420044
0.16736084 0.124922514 -0.05020562 -0.058982387 -0.03053954 0.16175158 -0.14555883 0.03024161
0.09260118 -0.03539109 0.09724236 0.15038177 -0.15444636 -0.10833133 -0.09992688 0.10495935
0.012905387 0.06744514 0.07900542 0.18349539 0.029951222 0.16921555 0.11679385 0.15634179
0.19360068 -0.20281382 -0.08323811 -0.08576692 0.12532613 -0.04868008 0.0790413 0.08086901
-0.14189392 0.102014035 -0.093904614 -0.10834396 -0.11606564 -0.082604125 0.12267284 -0.096876234
0.2270745 0.03927306 -0.13045709 0.16231546 -0.0037396622 -0.03902286 -0.1674227 -0.0016565865
0.12945655 -0.0054429276 -0.20089568 -0.11971818 0.14065157 -0.14005724 -0.09956154 -0.11494159
0.12663773 0.09299283 0.12452675 -0.10814013 -0.04171307 -0.04222725 -0.15292016 0.012089824
0.0830527 -0.10328639 -0.06334912 -0.08180724 -0.18144174 -0.18641925 0.0044863415 0.024415951
0.13125849 -0.16305177 0.17505103 -0.05900516 -0.10769088 0.012790631 0.11884374 0.04707554
-0.07352961 -0.07105718 0.12214073 0.046221122 -0.02663575 0.11796132 -0.053410463 0.15710923
0.0010978758 0.048420236 0.093566336 0.059591584 -0.16974595 -0.16333848 -0.06992446 -0.024796423
0.1250496 -0.12175878 -0.01559275 0.061566032 0.1645641 -0.032783963 -0.14271991 -0.13616748
-0.04457699 0.13429092 -0.11478501 0.114516325 0.040042043 -0.15777223 0.22266136 0.1590744

weight f4 [128, 256]
00000000: 866d dabc a0d8 0c3e a866 cf3d 698b 033d
00000010: fecc 80bd 0973 dfbc 6674 a0bd 4612 b2bc
00000020: 926e 293d 3f38 6e3b aa4e 06be a928 273d
00000030: b007 8f3d 10ae 0c3d d9ac e23d 994f 9b3a
00000040: 2bcd 5dbd 1501 ba3d 9d4d 5bbe ee01 bb3c
00000050: 6f3d c4bc 0ef8 28bd 66a2 57bd 0178 3e3d
00000060: 2c52 8d3d 5cf4 143d ca74 91bc 49d3 54bc
00000070: f6c6 1e3e d1bc c7bc cdd0 2abe 54c9 96bd
00000080: e331 29be 9ff1 c33d 0db6 823c d77e d5bd
00000090: 9467 e83c 3a11 27be e700 663d a972 dd3d
000000a0: ae59 fb3b 2537 ed3d d36f 72bd 262a eebd
000000b0: 72a6 0fbc 9510 9d3c b32b 623d 55f5 6cbd
000000c0: f4d7 683d 725a 293d e556 e43b 2072 a13d
000000d0: 9c9e e83c a8bc 20bd 61a4 68bd c193 88bc
000000e0: 0c4a ef3d d129 a2bd 4e47 aa3c bc3c 0e3d
000000f0: 0fdc e33c 4fae ac3d a485 dfbc 31f0 f33b
00000100: 91cc 9b3d dde1 23bc 0f48 253d 13a7 83bc
00000110: 568a e3bb 897b 123d 287a 3dbd ad84 51bb
00000120: 58ed e2bd bed0 b7bd 05bd 21bb ea57 cbbc
00000130: c39d 29be 3564 42bc f8f4 c9bc 4f9c 88bd
00000140: d697 833d b1bb a8bc 3b04 4e3d 427e 95bd
00000150: 1acb 5abd 2304 38bd 9bdd 073e ce00 cfbd
00000160: 3f76 bc3c 1fd6 d63d defd 933c 722e cabc
00000170: 3666 403d 5fa3 9a3c 2206 e2bd 7a5f e9bd
00000180: 6d2a 9c3d f66b 093e b6fa 24bc 077d 323e
00000190: fe75 a63b 5347 debc 5725 583d ae0d a6bd
000001a0: e325 36bd 5821 583d d535 093d 4ab5 1bbd
000001b0: 686d f9bd 1aca 2dbe 2209 20bd 70da 6f3b
000001c0: b864 a2bd dad3 5cbd a85c 29bd 4c38 bdbd
000001d0: 2efe 583d d125 c5bc f09c 4cbd e956 55bd
000001e0: 4a88 023d d108 6dbe 67e8 8cbd db90 63bd
000001f0: 3371 c83c 75aa d53c c66b bc3c 9194 023d
00000200: acbf 9cbd 5eed adbd 28f1 963d 2289 203d
00000210: a92b 24bc 2bec 9c3b 0cb0 15bd 25ba a93d
00000220: 6043 9b3b bd35 273d d3d0 f5bd f60a 423d
00000230: 78c4 a23d a2ad b6ba 841d ce3d 37d5 d03d
00000240: 5ec0 4abd fa37 6a3c 00ca 3ebc bc11 45be
00000250: 6ae0 f43d 1357 bc3c 2d6d 89bd 3830 d6bd
00000260: 9203 8bbc c019 863d 194f a6ba 75f6 21bc
00000270: e79e 3ebd 00d7 ddbc 05fa 93bc c4e6 b8bd
00000280: e6e9 2c3d cc34 6abc 8e41 65bd 8307 9b3c
00000290: 2137 f7bd a80e cb3c 4abe a43c 6223 cebb
000002a0: 742a 2a3d f9eb 843c 80c3 a8bc 2837 973c
000002b0: 53a8 7d3d 6e3b 00bd f74e 18bb 2397 f93b
000002c0: e8c8 f43c e3d8 4c3d 98c0 283e 87d2 e6bd
000002d0: fb23 11be 5350 0f3e 14bb 58bd a01c b03d
000002e0: d0ff ba3d c285 a3bd 334c 933d 21ef 193d
000002f0: 0db2 b2bd 6df7 5cbc d3b7 903d ae7b ba3d
00000300: 1fc9 cfbd d81b acbd cc3c 44bd dbf8 d2bb
00000310: 1a6d 2f3b 0ad3 653d 1a58 8d3c 12c9 913d
00000320: 2c82 03be ede3 1fbc ba72 b23c 191c 2abc
00000330: 7ed4 82bc be82 013d 07b5 e23d ce4c 2a3d
00000340: 0f20 893c 2da7 9c3d 997c f2bc 4455 b93c
00000350: 1e98 d5bd b82b 60bc 1479 4c3d 3d5e e2bb
00000360: 3bf3 463e 9280 883d a56a 4a3d b9fe 0b3d
00000370: 163e 1dbe b331 35bc 4fbb 8c3d 4f32 0c3d
00000380: d98f 36bc 9429 a33d 3403 c23d 8d1b 313d
00000390: 7ac1 09be e9b0 0c3d ef46 673d 9166 dcbc
000003a0: 15a5 883c 1c3c c23d a84a 99bd b33d b2bd
000003b0: f80f e63d 0092 54bd 312f aa3c 770a d93d
000003c0: b94b 58bc 70f9 59bd c954 6bbd 8701 853d
000003d0: a626 ac3c 26d4 06be 5199 483e c8a5 55bd
000003e0: 6bd8 d93d efa9 00be 588b 9d3d 6b80 373d
000003f0: 7cbf 023d ee2f 5bbc 9157 943c 674b 98bd
-0.026663553 0.13754511 0.10127002 0.032115374 -0.06289099 -0.027276533 -0.07834701 -0.02173723
0.041365214 0.0036349443 -0.13115945 0.04081026 0.06983888 0.034345686 0.11068124 0.0011849283
-0.05415074 0.09082238 -0.21416326 0.022828069 -0.023955075 -0.04125219 -0.05264511 0.046501163
0.06900439 0.03636585 -0.017755885 -0.012989827 0.15505585 -0.024382027 -0.16681214 -0.07362619
-0.16522937 0.0956757 0.01595595 -0.104245834 0.028369702 -0.16315165 0.056153204 0.10812885
0.0076706028 0.115827836 -0.059188675 -0.11629133 -0.008767711 0.019172946 0.055217456 -0.057851154
0.056846574 0.04134602 0.0069683664 0.07883096 0.028395943 -0.039242417 -0.05679739 -0.016672017
0.11684045 -0.07918132 0.020785954 0.03472589 0.027814893 0.08431684 -0.027285405 0.0074444045
0.07607377 -0.0100025805 0.040351924 -0.016070878 -0.006943981 0.035762344 -0.046259075 -0.003196995
-0.11080426 -0.08975361 -0.0024679315 -0.024822194 -0.16564088 -0.0118647115 -0.024652943 -0.066704385
0.06425445 -0.02059731 0.050297003 -0.072994724 -0.05341635 -0.04492582 0.1326813 -0.10107575
0.023005603 0.10490059 0.01806539 -0.02468035 0.046972476 0.01887673 -0.11036326 -0.11395164
0.076252796 0.1342009 -0.01006954 0.17430507 0.0050799837 -0.02713362 0.052769985 -0.08108078
-0.044469725 0.052766174 0.033498604 -0.038014688 -0.12179071 -0.16971627 -0.03907121 0.0036598705
-0.07929367 -0.053912975 -0.04134813 -0.092392534 0.05297678 -0.024065884 -0.049954355 -0.052084837
0.031868257 -0.23147894 -0.06880265 -0.055558067 0.02446804 0.026082257 0.02300061 0.031879965
-0.07653746 -0.0849254 0.07370216 0.03919328 -0.010020175 0.0047888956 -0.036544845 0.082874574
0.0047382563 0.040822733 -0.12002721 0.047373734 0.0794763 -0.0013937245 0.100642234 0.101969175
-0.049499862 0.014295572 -0.01164484 -0.19245046 0.11956866 0.022990739 -0.06710277 -0.10458416
-0.016969476 0.0654788 -0.0012688368 -0.00988542 -0.04653826 -0.027080059 -0.018063555 -0.0902839
0.04221525 -0.014294814 -0.05597072 0.01892448 -0.12071062 0.024787262 0.020110268 -0.006290839
0.041544393 0.016225802 -0.020601034 0.018458918 0.061928105 -0.031306677 -0.0023240426 0.007616894
0.029880956 0.050011527 0.16479719 -0.11270624 -0.14173882 0.13995485 -0.052912787 0.0859921
0.091308236 -0.07984497 0.07192268 0.037581567 -0.08725367 -0.013486725 0.07066312 0.09105621
-0.10145783 -0.08403748 -0.047909543 -0.0064383573 0.002676791 0.056109466 0.017253924 0.07118429
-0.12842625 -0.009758932 0.021783222 -0.010382676 -0.015970465 0.031618826 0.110696845 0.041577153
0.01673892 0.07649074 -0.029600428 0.022623666 -0.10429405 -0.013682298 0.049920157 -0.0069082067
0.19428723 0.06665148 0.04941811 0.03417847 -0.15355715 -0.0110592125 0.06871664 0.034227666
-0.011142694 0.07966915 0.09473267 0.043239165 -0.13452712 0.034348402 0.056464132 -0.026904376
0.01668028 0.09484121 -0.07484943 -0.087031744 0.112335145 -0.05189705 0.020774456 0.10597699
-0.013201647 -0.053216398 -0.057453904 0.06494432 0.021014523 -0.13166866 0.19589736 -0.052160054
0.106369816 -0.12564825 0.07692593 0.044800203 0.031920895 -0.013378127 0.018108161 -0.07436257

bias f4 [128]
00000000: 57a0 29bd 5813 303d cb3a 1c3c 63e1 6b3d
00000010: d315 37bd ded0 453d 4ba5 203c 32f6 5abd
00000020: 12b3 cebc 9a86 863d 3ea9 36bd c8ff d7bb
00000030: 27bd 2bbd 5fef b13c 9ca4 433d a22f 87bc
00000040: bb36 0ebc 58b7 5d3d 58a7 96bc 7410 733d
00000050: 27c1 60bd 7202 ef3c 2c32 f33c 9b92 6a3d
00000060: ac95 40bd 8caa 8d3c 8fc1 853c f203 003d
00000070: ac21 96bc c156 60bc b252 debc c274 89bd
00000080: bd3f 313c c9b3 11bd 2504 823d 638d 8d3c
00000090: 0e39 623d 8e8d 54bd d8f2 7e3d 80b1 fabc
000000a0: 4c6c 3bbc f423 a33c 27bd dd3c 2d1f 903c
000000b0: 9cf2 5c3d a1cc dc3b 5176 36bd 3737 ec3c
000000c0: 3871 3fbc c25d 4a3c 8ff8 1dbd 5747 513d
000000d0: 23bb 933d 6370 a5bc 45e0 3f3d 743d c63c
000000e0: d1c8 933c 705c 0c3d f65a e43c 42c6 40bd
000000f0: 42e0 663d 0959 7ebc 2576 133d fc02 4ebd
00000100: 0153 8e3c 7da3 ae3c 74b1 f4bb 474a 65bd
00000110: 8845 9b3c 93a4 22bd ccbf 453d 66ab 043d
00000120: 8d0a 733d cb15 a3bd 6102 693d 6e41 153d
00000130: 154c bdbb 2d93 783d 0a64 3b3d 831d 16bc
00000140: a07d 5ebb 8fb0 9abc 1742 cb3c e1c8 87bc
00000150: a4fc a13c 3144 38bd 1485 01bd 5964 2fbd
00000160: 7bc2 6fbb 73b2 613b 9990 bfbd 2d9a 3f3d
00000170: d95a fabc 25a8 99bb cea1 5abb c800 80bd
00000180: 494e 553c 9c53 833c c2fc 23bd e9e8 7e3d
00000190: beea d3bc ce3f 283d c2a2 54bd bd43 62bd
000001a0: 45e2 1e3d be1a c43c e40b f23b 8fa7 033d
000001b0: 8bdf 193d 1b7b 983c 2ef1 77bd 048d d1bb
000001c0: e964 90bd 288b 0f3d 857f 463d 75fd a53c
000001d0: f2b6 693d c6e2 173c 3faa fcbc 2821 ab3b
000001e0: c354 1fbd aaa7 dc3c 3096 2cbc 4048 41bd
000001f0: e19e b93c ac57 8abc d939 fa3c b91e 80bc
-0.041412678 0.042987198 0.009535502 0.057587992 -0.044698548 0.048294894 0.009805034 -0.053457446
-0.025231872 0.06568642 -0.044594996 -0.006591771 -0.041928437 0.021720586 0.047764406 -0.016502205
-0.008680041 0.05412993 -0.018390343 0.059341863 -0.054871704 0.02917597 0.02968701 0.05726872
-0.04701774 0.017293237 0.016327647 0.031253763 -0.018326603 -0.013692559 -0.027139042 -0.06711723
0.010818419 -0.035571847 0.06348447 0.017279333 0.055230193 -0.05189281 0.062243313 -0.030602217
-0.011439394 0.019914605 0.027067734 0.01759299 0.053942308 0.006738261 -0.04454643 0.028834922
-0.011684708 0.012351455 -0.038567122 0.051093426 0.07213428 -0.020195192 0.04684474 0.024199225
0.018040093 0.034267843 0.027875405 -0.047064073 0.056366213 -0.015524157 0.036001343 -0.050295815
0.017373564 0.021318192 -0.007467443 -0.05597904 0.018954054 -0.03970773 0.048278615 0.03239002
0.059336234 -0.07963141 0.056887034 0.03643935 -0.005776892 0.060687233 0.0457497 -0.00916231
-0.003394939 -0.018883018 0.024811788 -0.016575279 0.019773789 -0.044986907 -0.031621054 -0.04282031
-0.0036584425 0.003443864 -0.09353752 0.046777893 -0.030560898 -0.004689234 -0.0033360603 -0.06250149
0.013019153 0.016031079 -0.04003597 0.06223384 -0.02586877 0.041076474 -0.05191303 -0.05524038
0.038790006 0.023938533 0.0073866714 0.03214222 0.037566703 0.018613389 -0.06053274 -0.006394984
-0.07050497 0.03504482 0.048461456 0.02026246 0.057059236 0.009270376 -0.030842898 0.0052224584
-0.038899194 0.026935417 -0.010533854 -0.047188044 0.022658767 -0.016887508 0.030545162 -0.01563965

weight f4 [64, 128]
00000000: 3f6a babd 0f58 fcbc f847 483d 5f4b eebd
00000010: 81bf a9bd af17 fb3d 9abc 3d3d 91d9 ef3d
00000020: 2a59 1cbd 7c20 35bd 335f 753d 5ffe 5abd
00000030: cca8 a6bd 24ca e63b 9757 6fbd 22c6 173d
00000040: e7d4 98bd 9bcb cdbc fe93 23be a460 97bd
00000050: c15c 85bd b5b0 ea3b e1eb 4f3d a199 323e
00000060: 6fdf a13d 2e02 3d3d 9402 a63c 0b02 85bd
00000070: a901 ef3d 8c0d cc3a f8c2 7cbd 357f 8c3d
00000080: 5870 123d 8b70 08bd 4854 a4bd a26a 69bc
00000090: d3c6 eb3d 9524 ccbd 5994 073e a97a 8ebd
000000a0: 9a8c 013e 373b 49be 6ec4 16bc 0dd4 5fbd
000000b0: db9d 003d d7cf 253d 79d7 0cbe 2448 47bb
000000c0: aab1 a13d faab 703d fe61 e53d 0105 e5bd
000000d0: 758d 4a3d a0aa 7b3d 08ba d43d 76b1 783d
000000e0: dbc2 e1bc f194 e0bd 515b 323d 94fe 39bd
000000f0: a5de a93d b488 053d 80ea 153e 93d4 023e
00000100: 9c58 253d 263f a93d 3aa0 abbd 7359 253e
00000110: e2d4 4ebd 2616 49bd 514f ea3d 69db b73d
00000120: 1249 093d befa 433d 4fda 013e f8b3 8a3c
00000130: 70c5 0bbe 2653 223c 3ee7 a1bd f3ff 173d
00000140: 3f5f f83c 2190 7e3d 8853 3dbc b42b 2b3d
00000150: c87f 533d 17b1 8f3c ced7 52bd ad69 193d
00000160: 6332 143c bea6 923d 7bb1 a3bd f7bf f6bd
00000170: 83df 3f3d 7c2d c0bd 3944 24be 6f2a ebbd
00000180: 3486 2a3d 9930 d53d d438 5bbc e56f cebc
00000190: b594 673c cc43 8cbd 7a7f bfbd 3e88 e7bd
000001a0: d3f0 17bd 3612 1bbd a830 043e 8118 eebd
000001b0: 8c5a f53d d96f 3e3c 4486 43bd 26cd 87bd
000001c0: 57da 2dbc d85b 1e3d 665b 063e 7be3 9ebd
000001d0: 5ba5 943c cc52 c23c c57e de3d 78fc 343c
000001e0: 008f cf3c 3b75 37bd 01f2 673d 5d01 8e3d
000001f0: a9c7 a9bd dfe4 c23d 20cc 663d 23d4 033e
00000200: f8ac 19bd 5fd3 9f3d 5ff9 2f3d 419d bebd
00000210: 0186 913c 7c55 90bc 73f4 ae3c c7f1 ec3c
00000220: d94e e03c 5a2a 56bd 9aac d53c 02a6 b4bd
00000230: cb72 20be 1443 6fbc 1d5c 05bc 9e0d 7b3c
00000240: c64a c63b 32db 683d a7b4 823d 688e 603c
00000250: 9ca4 06be 8f81 f13c acb1 a73c d4bc 5b3c
00000260: 81cc a33d 21d2 573c 034b 2b3d af3f 813d
00000270: 687f 863d a4a9 203e af5e 4b3d 0792 bf3c
00000280: f34e a03d 2259 3ebd 3219 5b3d 610a 4b3c
00000290: d133 313d 6c15 0cbe 527d 31bd a891 1bbe
000002a0: c863 0cbd c426 ba3c 9c32 c63d d36f 043d
000002b0: e922 a2bc 7d9b e23b 52a3 96bd 768f 4e3d
000002c0: 1009 053e d8f2 793d 659d 03bd 0ad2 89bd
000002d0: 0ae8 e5ba d55e eebd 9b8e 883d 63b7 753d
000002e0: e58a 883d abb5 a6bd e24f 9cbc 9077 e43d
000002f0: 1023 183c fbb4 2d3d 88e1 3c3c 5e10 81bd
00000300: aaf7 a13d 836e 93bd 266f d63d 0cbd 17bd
00000310: 9b91 cf3c e1ba f0bc 918c 4d3c d0f2 9a3d
00000320: cb2c 1b3e 5943 d7bc 9d3c b13d 840f a13d
00000330: f90c 1dbd 5af7 4f3d 37a8 92bc e338 0d3e
00000340: 9374 de3d 306a a3bd 857e f0bb 7696 923c
00000350: 2b4e bc3d 815b 75bd 444f 413c 64f3 a73d
00000360: b565 2dbc 0f7d 9bbd e5ea bc3d 0f4d 9fbc
00000370: a7a9 fdbc f659 363e cda4 29be 88c5 d0bc
00000380: 2e34 8a3d d3f9 0dbc ff8f 1cbd c2b3 003e
00000390: b22f 193d 011e 3e3d a18e a63d 825a ddbd
000003a0: 3c9a b83d e60b f43d 1687 a43c 4378 58bd
000003b0: 484b 63bd 01e8 ce3c 4eba b63d e8ed 0dbe
000003c0: f7b7 983d 606d bfbd 5ce9 19bd f68a 61bb
000003d0: 7ba2 cf3d 8bc5 96bc c694 54bb b27a fabc
000003e0: 2961 5cbd 915c 8fbd 781d bc3d 138a bc3c
000003f0: b70f c03d fb07 61bd 27bb 1f3d 41a6 0f3d
-0.09102296 -0.030803708 0.04889676 -0.1163547 -0.082884796 0.12260377 0.046322443 0.117114194
-0.03817097 -0.044220433 0.059905242 -0.053465243 -0.08137664 0.00704314 -0.05843314 0.03705419
-0.07462483 -0.0251215 -0.15974423 -0.073914796 -0.06511832 0.0071621784 0.05076206 0.17441417
0.07903945 0.046144657 0.020264901 -0.0649453 0.116702385 0.0015568002 -0.061709374 0.068602
0.03575167 -0.033310454 -0.08023888 -0.014246615 0.11512532 -0.09967915 0.13240184 -0.06956989
0.12651291 -0.19651495 -0.009202106 -0.054645587 0.031400543 0.040481415 -0.13754071 -0.003040799
0.07895215 0.05875776 0.11200331 -0.11182595 0.04945131 0.061442018 0.10387045 0.060716115
-0.027558735 -0.10965908 0.043544117 -0.0454088 0.08294419 0.032601073 0.14640236 0.12776403
0.040367708 0.08263998 -0.0838017 0.16147403 -0.05049599 -0.049093388 0.1144091 0.08977396
0.03351695 0.04784655 0.12680934 0.016931519 -0.13649535 0.009907519 -0.07905434 0.037109327
0.030318854 0.06214917 -0.01155556 0.041789725 0.051635534 0.017540498 -0.05147534 0.037454296
0.009045216 0.0716071 -0.07992836 -0.12048333 0.046844017 -0.093836755 -0.1604165 -0.11482703
0.041631892 0.1040966 -0.013380248 -0.02519984 0.014134576 -0.06848869 -0.09350486 -0.11305283
-0.037094902 -0.037859164 0.12909186 -0.116257675 0.11980161 0.011623346 -0.047735468 -0.06630926
-0.010611138 0.038661808 0.13120803 -0.07758232 0.018145254 0.023721121 0.10864023 0.011046521
0.025336742 -0.044789534 0.056627277 0.06933854 -0.08290035 0.0951631 0.056347013 0.12873892
-0.03751847 0.07803988 0.04296243 -0.093073376 0.017764093 -0.017618887 0.021356797 0.028923882
0.027381347 -0.052286483 0.02608328 -0.08820726 -0.1566879 -0.014603395 -0.008139637 0.015323071
0.006051394 0.056849666 0.06382113 0.013705827 -0.13148731 0.029480724 0.020470463 0.013411719
0.079979904 0.013172657 0.041819584 0.06310975 0.065672696 0.15689713 0.049650844 0.023385061
0.07827558 -0.046471722 0.053490825 0.012392611 0.043262307 -0.13680047 -0.043332405 -0.15192282
-0.034274846 0.022723563 0.09677622 0.032333206 -0.019792037 0.0069155083 -0.0735537 0.050429784
0.12991738 0.06102261 -0.032132525 -0.06729515 -0.0017540467 -0.116391815 0.06667825 0.059989344
0.06667117 -0.08140119 -0.01908106 0.11155617 0.009285703 0.042408925 0.01152838 -0.0630195
0.07908566 -0.07198813 0.10470419 -0.037045524 0.025337985 -0.029385986 0.012545721 0.07565844
0.15153806 -0.026277231 0.08654139 0.078642875 -0.03834245 0.050773002 -0.017902477 0.13791232
0.108620785 -0.07979238 -0.007339301 0.017894011 0.09194597 -0.059901718 0.011798684 0.0820072
-0.010583331 -0.075922124 0.0922449 -0.019445924 -0.030964686 0.17807755 -0.16566773 -0.025484815
0.06748234 -0.00866552 -0.038223263 0.12568572 0.037399 0.046415333 0.08132673 -0.108082786
0.09013793 0.11916332 0.020083945 -0.052849066 -0.055491716 0.025257112 0.089222535 -0.13860285
0.074569635 -0.093470335 -0.037576064 -0.0034415103 0.101384126 -0.018404743 -0.0032437309 -0.030576084
-0.053803597 -0.070000775 0.09185308 0.023015058 0.09377997 -0.05493925 0.03899684 0.03507066

bias f4 [64]
00000000: ee05 00bd d6af 8d3d c560 76bd d82a f5bb
00000010: 86b7 4c3d 588e 423d 2f27 973d 1412 793d
00000020: 0540 85bc e0cd 523b 3a6c 483c d972 833d
00000030: 6515 7ebc 09bc 8b3d b0d5 923d a69e 81bd
00000040: 1d93 4f3d 8a4c 68bd 4df1 0b3d c6e2 67bd
00000050: 30ed bd3b 7070 763d 1272 a63d cd28 8c3c
00000060: 1b3b b63d d7c2 183d 7c3b 3ebc b8aa fe3b
00000070: 4785 ef3c c664 9c3d fde6 95bd 6f1d 5d3d
00000080: 9322 aebd eecb 0b3d 751a 15bb d251 8a3d
00000090: 3f25 82bc b419 4bbd f4d6 0b3c f604 90bd
000000a0: 6426 31bd 832a 9fbd 5cd5 9c3d 2d93 543d
000000b0: cff8 30bd 218a e9bc 15c5 f0bd c0cd 6c3d
000000c0: 47c3 053c 34a4 5b3d 1cb6 b93d c0c9 253d
000000d0: 930c e0bd 9cdc a63d fe8a 88bd 99ad febc
000000e0: 8563 ca3d 34ca 26bb cc1d 643d 1f1d 9d3b
000000f0: 9fad 643d 9c02 233c 3e1d 983d 8c41 c23d
-0.031255655 0.06918304 -0.06015088 -0.007481914 0.04997971 0.04749903 0.073805206 0.060808256
-0.016265878 0.0032166168 0.0122328345 0.0641839 -0.015508031 0.06822974 0.07169664 -0.06329088
0.050677408 -0.05671362 0.03416567 -0.056612752 0.005796097 0.060165823 0.08127226 0.0171093
0.08897992 0.03729519 -0.011610862 0.007771816 0.029238356 0.076364085 -0.07319448 0.05398315
-0.08502688 0.03413003 -0.0022751365 0.06753887 -0.015886901 -0.04958506 0.008535136 -0.07032196
-0.043249503 -0.0777178 0.076578826 0.05189817 -0.043206032 -0.028508248 -0.117563404 0.057813406
0.0081642335 0.053623393 0.09067938 0.040475607 -0.10939898 0.08147547 -0.06667136 -0.031088637
0.09882263 -0.0025450112 0.05569248 0.0047947313 0.05582964 0.009949353 0.074274525 0.09485158

weight f4 [6, 64]
00000000: f7c5 8bbd 96d6 fdbc 7b26 87be 640d 403e
00000010: 0b46 7f3c 9d06 e2bd 950a bd3b 0c68 c9bc
00000020: e022 913d b5eb 4ebe 937d 1f3e 0642 35bd
00000030: 0460 8a3e f192 353e 465e 07be fe7d 36bd
00000040: a484 a33c 6476 82be c4c6 88bd 9796 013e
00000050: c387 1fbd e67e 88be d277 16be 4aec 8cbc
00000060: 1e5f c6bb e77b b9bd 03b1 68be 418a 95be
00000070: 4e29 5abe eeda 5abe df79 6a3e d7d9 5fbe
00000080: 3057 df3d 479f c73d 0a9f 3fbe 5e9a 58bd
00000090: 843a 3ebe 2144 043e 3b64 1ebd 4e59 133e
000000a0: 67f6 2c3d b526 123e 4fae 9f3d 04ac 023e
000000b0: 17ef 133e dfb6 a03e 91ec cebd 028a 043e
000000c0: 7332 793c 2836 133e 9715 03be 2ddc 68be
000000d0: 6758 11bd e2b5 0e3e 2f05 153a 5057 1b3e
000000e0: a931 c93d 52fb 2bbe efb4 6abd 75cf 283d
000000f0: 1766 293d 6027 53bd fab2 8f3e bb2e 9ebd
00000100: 9725 d63d 5083 fcbd 08de 4e3e 9045 56bd
00000110: a4b9 1e3e 4c74 42bd 44fe 793c 2cfd b9bb
00000120: b0f6 65be 3463 7e3d 58e3 4fbe 6a67 e43d
00000130: 3929 20be 755f 6bbe e6db 11be c419 18be
00000140: f407 053e 2698 6c3e d7ae b3bd 091c 27be
00000150: b624 93bd b333 143e 69c3 a33c 99ef eebd
00000160: 3dca ea3d fa71 0c3e 5cd2 f23d 9eba 35bd
00000170: c8bc 573e 14b1 623e 144d 7bbe 7614 0d3e
00000180: e4b9 74bd 37cd 093d a405 d43d d004 3c3e
00000190: bc3d 863d 58f2 ba3d 6f4f b1bc e976 88be
000001a0: 14b8 3abc f213 9bbd e238 34be 5f92 73be
000001b0: 43f1 f4bd 9388 b7be 5fac 88bd 42a6 613c
000001c0: fd27 3c3e 80ad 4cbe e4a0 b83d 02fd f53d
000001d0: 4c95 d9bd f7e3 33be 77b6 09be bdd1 71be
000001e0: ed52 c1bd 864c f03d da2b 04be b225 86be
000001f0: a772 883d 35ee 0cbe 8eed 8abe 1956 5d3d
00000200: 3cb2 96bd 0517 18be d55f b2bd 5b6b 2dbd
00000210: 746f e63d cc22 d63d e801 493c f3d5 8e3d
00000220: aac6 41bc 1973 4e3d d3c6 9abd e4e1 c2bd
00000230: 2985 b53d 3919 3abb b4eb 1b3e e017 a43c
00000240: c6dc 5ebd b9e6 6c3d 10ad 89bd 0f85 5c3d
00000250: 72fb cd3d e707 f03d 860c 97bd 0b25 6abe
00000260: fb8f 9dbd 2510 41be 1c43 83bd 974e 97bd
00000270: d066 9cbd b2dc 013e 3514 413d 7f43 ebbd
00000280: ab77 bb3d d728 1abc e5a4 7fbc c85d c1bd
00000290: 7dac 4fbd 7351 2a3e e5c9 1fbd a813 28bd
000002a0: 7053 c6bd 0f5b 6bbd cb77 49be 26e6 bfbc
000002b0: dc97 5b3d 6570 a6bd bc64 e13d b66a 26be
000002c0: bbe3 f1bd 0520 f83c e4c5 b9bc ed35 adbb
000002d0: 2110 843d 87a1 b2bd cb58 0b3e f835 acbd
000002e0: 008e 51be f7de 343d 65c5 253c a714 d63c
000002f0: 2834 20bd 37c6 8e3d 2bde 7f3d b6b5 57bd
00000300: 3161 203e 1fcd 133e 4912 c9bd 48af 103e
00000310: 06da 863d 980b 903c 2f28 bfbd e39e 85bd
00000320: 0ed1 cd3d 2560 14bd 8689 113e 694a 06ba
00000330: 4918 78be 4238 173a 40dd c73d 4bb9 9c3d
00000340: d8c4 d3bd e28b 313e 7e04 e93d da9a 193e
00000350: 4e1f b23d 8465 cebd a6c4 d83d fd6f 983d
00000360: a5e0 0d3d 4897 593b 21a3 803d 11f6 5e3e
00000370: 9608 95bd 5bd7 21be c497 af3d f99d 29bd
00000380: d08f 8cbd e839 aabd acc1 9d3d e11b ef3d
00000390: 0f0e 87bd 24e9 72be 36bc 94bd 7f26 143e
000003a0: 55eb a43d 1620 bd3d 3066 e03c dfce 8ebd
000003b0: d198 54be 91e3 bdbd 0fd6 87bd 756a 773d
000003c0: 9419 cabd 1cfe 5cbe 6f03 063e 0624 2abe
000003d0: 0909 c2bd 7d9a 5b3d 2666 de3c e17d e7bc
000003e0: 551c 1b3e 9fe4 8f3d f12c 153e 6505 15bd
000003f0: fe58 90bd ef21 bebd c67b 40be 96f1 0b3e
-0.06824868 -0.030986112 -0.26396546 0.18755108 0.015580664 -0.11036418 0.0057690837 -0.024585746
0.0708673 -0.20207103 0.15575247 -0.044252418 0.2702638 0.17731835 -0.13219556 -0.04455375
0.019960709 -0.2548095 -0.066785365 0.12655102 -0.03894783 -0.26659316 -0.14694145 -0.017202515
-0.0060538193 -0.090568356 -0.22723775 -0.29207042 -0.21304819 -0.21372578 0.22898053 -0.21860443
0.109053016 0.097471766 -0.18713012 -0.05288159 -0.1857701 0.12916614 -0.038669806 0.14389536
0.042227175 0.14272578 0.077969186 0.12760931 0.14446674 0.3138952 -0.10103715 0.12943271
0.015209782 0.14376128 -0.12801205 -0.2274024 -0.035484698 0.1393657 0.00056846713 0.15170026
0.09823925 -0.1679509 -0.057301458 0.04121347 0.041357126 -0.051551223 0.28066236 -0.07723757
0.104563884 -0.12329733 0.20201886 -0.052312434 0.15500504 -0.04747419 0.015258376 -0.0056759324
-0.22457385 0.062106326 -0.20301569 0.11152537 -0.15640725 -0.22985633 -0.14244041 -0.14853579
0.12991315 0.23104915 -0.087735824 -0.16319288 -0.071847364 0.14472847 0.01999064 -0.116667934
0.11464355 0.13715354 0.11856529 -0.044367425 0.21068108 0.22137862 -0.24541122 0.13777336
-0.05974759 0.033642974 0.10352638 0.18361211 0.06554744 0.09128255 -0.021644322 -0.2665322
-0.011396427 -0.07572164 -0.17599824 -0.23786305 -0.119600795 -0.35846385 -0.06673502 0.013772549
0.1837463 -0.1998806 0.090150625 0.12011148 -0.10624179 -0.1756743 -0.13448511 -0.23615165
-0.09439645 0.11733346 -0.12907353 -0.26200634 0.06662493 -0.13762744 -0.27134365 0.054037187
-0.07358214 -0.14852531 -0.08709685 -0.04233871 0.11251727 0.10455856 0.012268521 0.06974401
-0.01182715 0.050402734 -0.07557454 -0.095157415 0.08863289 -0.0028396382 0.15226632 0.020030916
-0.054409765 0.05783722 -0.06722462 0.053837832 0.10057725 0.11720257 -0.073754355 -0.22865693
-0.07693478 -0.18853815 -0.064092845 -0.07388037 -0.076367974 0.12681845 0.04713841 -0.11487483
0.09153684 -0.009409151 -0.015603279 -0.094417155 -0.050701607 0.16632633 -0.0390109 -0.04103437
-0.09683883 -0.057459887 -0.19674604 -0.023425173 0.05361162 -0.08126906 0.11005542 -0.16251644
-0.11811014 0.030288706 -0.02267737 -0.0052859695 0.06448389 -0.08722215 0.1360809 -0.08408731
-0.20464325 0.04415795 0.010117863 0.026132895 -0.03911224 0.069714 0.062467735 -0.052663527
0.15662076 0.14433716 -0.09817941 0.14129364 0.065845534 0.017583653 -0.09333836 -0.06524446
0.1004964 -0.036224503 0.14212617 -0.00051227823 -0.24228014 0.0005768576 0.09758997 0.07652529
-0.10340279 0.17338517 0.1137781 0.15000477 0.08697377 -0.10077956 0.10584383 0.07443235
0.034638066 0.0033201743 0.06281114 0.21773554 -0.07277028 -0.15804808 0.08573869 -0.04141042
-0.068633676 -0.08311826 0.077029556 0.11675239 -0.06594478 -0.23721749 -0.07262461 0.1446781
0.080526985 0.092346355 0.027392477 -0.06973051 -0.2076142 -0.092719205 -0.06632625 0.06040426
-0.0986816 -0.2158131 0.13087247 -0.16615304 -0.094743796 0.05361413 0.027148318 -0.028258266
0.15147527 0.07026028 0.14567925 -0.036382098 -0.07048224 -0.09283816 -0.18797216 0.13666376

bias f4 [6]
00000000: a21b a43d 3414 ea3c 903a 04be 4c1c df3c
00000010: 03c7 c43d 63d1 673d
0.08013083 0.028574087 -0.12912965 0.027235173 0.09608271 0.05659617
