Policy-Gradients/PPO-Space-Shooter-Agent/delta_shooter/Network_barrier_trained_full_size.pt (torch, 195999 bytes, 8 tensors)

weight f4 [256, 24]
000000 0e 10 0b be 18 bc 14 bd 9c 4d 0e 3d de 61 b8 be
       -0.13580343 -0.036312193 0.034741983 -0.36012167
000010 7f a0 26 bd 1c bd 45 bd 99 cd a6 bd 7e 24 0c 3e
       -0.040680405 -0.048276052 -0.081446834 0.13685796
000020 bf 4f da bb aa 96 e6 bd 2f 04 e0 bd 7b 78 af bc
       -0.0066623385 -0.11259206 -0.10938298 -0.021419754
000030 dd 8e 33 be 19 1a 12 bd e9 e9 1c be 37 d3 8b 3d
       -0.17534967 -0.03566942 -0.15323605 0.068273954
000040 01 08 4c 3e 18 cb 98 bd 18 70 c0 3d 97 c5 88 3c
       0.19924928 -0.07460612 0.0939638 0.01669578
000050 42 5f 71 3e 4f cf 67 3c c8 b7 62 3d 01 76 00 3c
       0.23571494 0.014148547 0.05535105 0.007840634
000060 5b 3b 8f 3e 44 05 d6 bd de 7b c4 bd 59 06 c6 3d
       0.27974972 -0.10450223 -0.09593938 0.096691795
000070 b7 76 bd bc 57 52 ae bd 22 bd 85 be 63 1a da bd
       -0.023127897 -0.08511799 -0.2612086 -0.10649564
000080 de aa fe bd e9 8b ba bd d8 54 0a 3e 8a b3 da 3b
       -0.12434934 -0.09108717 0.13508928 0.0066742348
000090 c8 cd e9 3c c8 ff 59 3d e0 89 16 be 32 91 89 bd
       0.028540507 0.053222448 -0.14701033 -0.06717147
0000a0 af 6f cf 3d 46 42 11 be 6c 6f a4 3d 32 95 6c 3e
       0.10128724 -0.14185438 0.080290645 0.23103788
0000b0 80 5a 35 3e e6 b4 5a 3e 92 fb 37 be 58 2b ec 3d
       0.17710304 0.2135807 -0.1796706 0.11531705
0000c0 1f 7e 34 3d b1 a6 0a 3d 7e 76 1a bd 33 99 e0 3e
       0.04406559 0.033850376 -0.03771066 0.43866882
0000d0 25 7a 13 be e1 71 08 3e 7b 33 a7 3d ea 0f 53 bd
       -0.14402063 0.13324691 0.08164116 -0.05152885
0000e0 06 28 6c 3e 3c 49 c2 3d 4a ff 2d 3e 67 9c eb bd
       0.23062143 0.094866246 0.16991916 -0.11504441
0000f0 dd 79 05 be 75 40 69 3e ba cf 22 be 30 22 92 3c
       -0.13034768 0.22778495 -0.15899554 0.017838567
000100 56 96 6a 3d 6d fa 9b 3d f2 9d 4f 3e be d1 b6 3d
       0.057272278 0.07616124 0.20275095 0.08926724
000110 0d ce ad bd f3 3d 06 bd 64 f8 aa 3d 7a 9f 72 3d
       -0.08486567 -0.032773923 0.08348158 0.05923412
000120 38 82 05 be 55 51 03 be 66 10 5d be 96 86 d9 3d
       -0.13037956 -0.12823994 -0.21588287 0.10621373
000130 d2 a7 a8 bc 87 1d 4a 3e 32 b2 53 3d d5 a0 cd bd
       -0.020587835 0.19737826 0.051683612 -0.10040442
000140 7b f5 37 be d2 06 84 bd 28 7f e2 3d 66 78 40 3d
       -0.17964737 -0.06446613 0.110594094 0.04698982
000150 b5 d4 05 be fb c6 3e 3c dc 50 1e 3e 26 fc 14 3e
       -0.13069423 0.01164412 0.15460533 0.14549312
000160 44 75 5d 3e c0 29 10 be e8 5b ef 3d 17 b3 5b 3d
       0.21626765 -0.14078426 0.116874516 0.05363759
000170 eb 02 56 3e 1d 71 f9 3d f6 8c 01 be 30 3f 0e be
       0.2089955 0.12179778 -0.12651429 -0.13891292
000180 e3 c3 3c be 71 af 5e bd 89 b7 99 be cd 48 13 be
       -0.184341 -0.054366533 -0.3002284 -0.1438324
000190 13 98 5c 3e 45 4b 4c 3d 1c b7 79 3d 1f e5 93 bd
       0.21542387 0.04987647 0.060965642 -0.07221436
0001a0 0c 47 3e 3c c6 27 07 3e 24 78 ee 3d 29 e2 03 be
       0.011613619 0.13198766 0.11644009 -0.12879242
0001b0 e8 94 90 3b 23 3a bb 3b 44 cd 0c 3d cd 3e 94 bd
       0.0044122823 0.0057137175 0.034375444 -0.07238541
0001c0 85 e6 e3 bd 13 ef a2 3e 0c 92 65 bd de 92 cd bc
       -0.111279525 0.31823024 -0.056047484 -0.025094446
0001d0 f8 f2 74 3c 71 a9 44 bc 20 cb 6f bd 66 9c 35 3e
       0.014950506 -0.012003289 -0.058543324 0.17735443
0001e0 68 4c 3a 3d e4 2c 26 3e 6c 3f 33 be 0d 45 2f be
       0.045483023 0.16228062 -0.17504662 -0.17116185
0001f0 d1 d6 0d 3c e4 f2 c9 3c 95 dc 7f bd b3 08 f5 bd
       0.008657173 0.024651952 -0.062466223 -0.1196455
000200 eb 3e 11 3e 4e 2a 91 bc a9 8e 11 be e0 1c 82 3d
       0.14184158 -0.017720368 -0.14214577 0.06353164
000210 97 b5 34 3e 48 2f aa 3d 76 be 26 be 0d ad d2 3c
       0.17647396 0.083097994 -0.16283593 0.025717283
000220 6e 06 4c bd 17 ea 19 3e 92 5e 48 be d8 45 0c 3e
       -0.04981082 0.15030704 -0.19567326 0.13698518
000230 83 eb dd 3d eb 02 9d bc 3c 35 7a bd a3 d5 38 bd
       0.10835936 -0.01916643 -0.061085925 -0.045125615
000240 ba 68 32 3d 41 f2 5b be c3 a9 67 3b 6b 62 1b 3e
       0.043556906 -0.21479131 0.0035348989 0.15174262
000250 42 3d 3b 3d b7 c5 92 3e fe 75 6d be 78 b6 d9 3d
       0.045712717 0.2866647 -0.23189542 0.10630506
000260 6e 42 2c 3e 63 b8 e9 bd 67 58 c8 bd 50 61 f5 bc
       0.16822216 -0.11412122 -0.097824864 -0.029953629
000270 43 a4 54 bd d7 a0 9f bd fa 6f 34 3e 27 79 bb bb
       -0.051914465 -0.0779435 0.1762084 -0.0057212296
000280 a6 cf 14 3e 26 01 5e be a0 8a b3 3c 83 61 22 be
       0.14532337 -0.21680126 0.021916687 -0.1585751
000290 cf 45 87 3d 6d a6 dd bd 76 d7 19 be f3 18 89 bd
       0.06605112 -0.10822759 -0.15023598 -0.06694212
0002a0 86 86 3e 3d 73 d8 93 bd 37 84 9c be 40 b0 e5 bd
       0.04651501 -0.07219019 -0.30569622 -0.11215258
0002b0 f8 20 74 3e 9b 9e d8 3d cd 93 9e 3b 22 09 2a be
       0.23840702 0.105771266 0.0048393966 -0.16605046
0002c0 42 45 3e 3d 67 30 9b be 18 31 92 bd 5b 7e b2 bc
       0.04645277 -0.30310366 -0.0713827 -0.021788767
0002d0 f3 04 63 3d 72 e8 8b 3d 80 3d 0c 3e 12 bc 4b bd
       0.05542464 0.06831445 0.13695335 -0.049739905
0002e0 72 cf d1 bd 8f 1f 92 be d8 cb 07 be d4 7c c2 bd
       -0.10244645 -0.28539702 -0.13261354 -0.09496465
0002f0 38 cb 00 3e 09 39 37 be c4 af e4 bd b9 7a 7b 3e
       0.12577522 -0.17892851 -0.11166337 0.24558534
000300 ef 4c 0c 3e 31 0d 78 bc d7 c5 01 3e 74 24 80 3e
       0.13701223 -0.015139864 0.12673126 0.25027812
000310 4f 00 7c 3e 03 f9 99 be fa 64 81 be 54 8a 24 3e
       0.24609493 -0.30072793 -0.25272352 0.16068393
000320 47 c4 3b 3e 89 f7 19 be 29 5f 4b be 90 9e 56 be
       0.18336593 -0.15035833 -0.1986052 -0.20958924
000330 73 b0 2b 3e dd 9b 9f 3c 08 38 09 3d ba 4b 1c 3e
       0.16766529 0.019483501 0.0335007 0.15263262
000340 89 37 20 be 86 c8 f1 bd 7e 73 19 3e 56 48 06 be
       -0.15646185 -0.11805825 0.14985463 -0.13113531
000350 0c 03 f2 bd ab 72 a0 bd 88 08 41 3d 66 96 53 bd
       -0.118169874 -0.07834371 0.047127277 -0.051657103
000360 b7 96 05 bd bf fa 29 3e cb ef 85 be d2 ca 95 be
       -0.032614436 0.16599558 -0.2615951 -0.29256302
000370 7f dd 5d be fd 1e 85 be 3e 9c b7 3d b6 70 fb 3c
       -0.21666525 -0.26000205 0.08965348 0.030693393
000380 98 7a 67 3e 1f 64 28 bc 6f b3 f3 bd ce 23 36 3d
       0.2260536 -0.010277777 -0.118994586 0.04446774
000390 ef 2c c8 bd 4f ba 53 3e 5e cb f3 bd 56 26 aa 3d
       -0.097741954 0.2067654 -0.119040236 0.08308093
0003a0 23 f6 52 3d ca e3 69 be 7c 5b 2a 3d 76 07 c2 3d
       0.051504266 -0.22840801 0.041591153 0.09474079
0003b0 b0 58 3c bd b3 88 3e bd 4a 81 11 3e 0f 8b f5 3b
       -0.045983016 -0.046517085 0.14209476 0.0074933837
0003c0 77 04 84 be d2 37 42 3e d9 57 bd 3e 87 70 a6 3d
       -0.25784656 0.18966606 0.36981085 0.08126932
0003d0 b7 1f 9f 3e 3f b5 80 be 5e dd 11 3e e0 73 5b 3d
       0.31078884 -0.2513828 0.14244601 0.053577304
0003e0 85 a8 0b be 69 fc b8 bd 1c e8 ef 3d 01 fb 79 3d
       -0.13638504 -0.090325184 0.11714193 0.06103039
0003f0 e0 b3 77 bd ab 68 9f bd b4 40 5b bd 8d bf 19 be
       -0.060474277 -0.07783636 -0.053528503 -0.15014477

bias f4 [256]
000000 49 06 47 3d 30 a0 a0 bd b3 19 bc 3d 3d 1d 01 be
       0.04858998 -0.07843053 0.09184589 -0.1260881
000010 7c a2 e4 bd 54 6d 44 3d af f2 06 3e 25 14 72 bd
       -0.11163804 0.047955826 0.13178514 -0.059101243
000020 64 76 f0 bc 00 b9 45 be 5f b1 25 3e 18 4c 5d 3c
       -0.029353328 -0.19308853 0.16180943 0.013506912
000030 e1 15 23 bc 05 eb 8a bd 46 4e d3 bd cf ed 13 3d
       -0.009953947 -0.06783108 -0.10317664 0.036115464
000040 c1 ed 00 be 85 e1 08 3e 23 f7 42 be 43 6b 1f be
       -0.12590696 0.13367279 -0.19039588 -0.15568261
000050 20 c3 93 3c 9b 39 58 3d 1f a5 58 be 51 0f 03 bb
       0.018037379 0.05278931 -0.21156739 -0.0019998143
000060 6d 83 1a bb a8 dc 2c be cd 33 d3 bc 22 16 36 3e
       -0.002357687 -0.16881049 -0.025781536 0.1778188
000070 99 c5 e0 bd 02 16 e0 bd 17 a1 0a 3b 3f f8 fc 3d
       -0.10975189 -0.10941698 0.0021153146 0.12352037
000080 d9 bf 76 bd 78 88 9f 3d 69 af 2a 3e 01 0d c0 bc
       -0.060241554 0.07789701 0.16668476 -0.0234437
000090 d6 c4 3a 3e 7e cc bb bc 22 f4 d6 3c 1e 7b b6 bd
       0.1823915 -0.022924658 0.026239458 -0.089102015
0000a0 21 be e4 3d 9d d9 15 be 6b cc 12 be 0e 93 07 3e
       0.11169077 -0.14633794 -0.14335792 0.1323969
0000b0 9a 5b c3 bc 56 35 56 3c 36 ed 04 3e 03 97 de 3c
       -0.02384739 0.01307424 0.12981114 0.027171617
0000c0 92 e7 a9 3d a4 41 93 bd cb 92 01 3b 2d 27 cc bd
       0.08296122 -0.07190254 0.0019771333 -0.0996841
0000d0 ef 92 ff 3d 50 24 28 3d 69 1a c3 bd a8 0e 1b 3e
       0.12479197 0.041050255 -0.09526522 0.1514231
0000e0 52 bc 10 3e 1d da 1d be f9 70 1e 3d b4 c5 f0 bd
       0.14134338 -0.15415235 0.038681958 -0.11756459
0000f0 f2 2a 26 3e 33 95 23 bc c7 a7 e6 3d 27 a4 18 3e
       0.1622732 -0.009984302 0.1126247 0.14906369
000100 30 df fd 3c cc 1a eb bc 63 2e 14 be 3e 96 d7 3d
       0.030990213 -0.028699301 -0.1447082 0.10526703
000110 8e 25 fe bd 89 4e 1a 3e 15 e0 ba bd 0d 6c 2c be
       -0.12409507 0.15069021 -0.091247715 -0.16838093
000120 88 06 1e bd 32 cc 44 bd f8 49 8a bd 7e 51 07 3c
       -0.038580447 -0.0480463 -0.0675239 0.008259175
000130 72 b0 03 3d 4b 1a 17 bd 66 01 04 3d e7 4d 66 be
       0.032150693 -0.03689031 0.032227896 -0.22490655
000140 9b 7a 44 bb ef 59 0a be 03 f0 97 bc cd a0 ab bd
       -0.0029980305 -0.1351087 -0.018547064 -0.0838028
000150 fc 93 19 bd 3e 80 2e be 97 db 19 3e 72 76 69 be
       -0.037494645 -0.17041108 0.15025173 -0.2279909
000160 10 63 9a bd f5 d1 f7 3d 04 23 17 3e 7f 31 45 3d
       -0.07538426 0.12100593 0.14759451 0.048142906
000170 04 5b f0 bc 21 0d 2a 3e 5e 74 a4 3d 3a c1 92 3d
       -0.029340275 0.16606571 0.08030008 0.07165761
000180 ce 58 50 be f2 7f 04 3e ba a6 87 bc f8 58 10 3d
       -0.20346376 0.12939432 -0.016558994 0.035241097
000190 37 d4 95 bb 7f 04 84 3d c2 b1 d1 bd 38 1e 69 bd
       -0.004572417 0.0644617 -0.10238983 -0.056913584
0001a0 23 ad b3 3d 3c 5f 76 3d 1f 03 3a 3e e0 f4 a4 3c
       0.087732576 0.060149416 0.18165253 0.020136297
0001b0 9e b4 e2 3d 02 11 46 be ea 7a a0 bd 31 4a 65 3d
       0.11069606 -0.19342425 -0.07835944 0.055978958
0001c0 a2 f0 2b 3d f0 c8 c7 bd 20 27 3d bc 3e 68 d4 bd
       0.041977532 -0.09755123 -0.011544973 -0.10371445
0001d0 c2 7d 17 be 8f 3f 3d 3e 3c 34 06 3e 59 5c 0e 3e
       -0.14794067 0.18481277 0.13105863 0.13902415
0001e0 f7 51 a7 bd 3e cb 2a 3e 45 7a 2a be db 09 4c 3c
       -0.081699304 0.16679093 -0.16648205 0.012453522
0001f0 43 6d bb bc 29 9f cb 3d 9d ed 12 be 8c 61 a0 3d
       -0.022879248 0.09942467 -0.14348455 0.078311056
000200 35 b2 22 3e b5 25 2b 3e a1 22 46 bd ed f2 2d be
       0.15888293 0.16713603 -0.04837287 -0.169872
000210 bd 20 cb 3d a8 3d 79 bd 75 05 e4 3d c9 43 f2 3d
       0.09918354 -0.060849816 0.11133853 0.11829335
000220 06 c4 0a 3e 69 6a 57 3d 79 b2 1f be 69 d4 d5 3c
       0.1355134 0.052591715 -0.15595426 0.026102262
000230 ca 5f 7d 3c b1 1b fb bd b3 88 26 be 98 ee 9c 3d
       0.015464732 -0.12261141 -0.16263084 0.07662696
000240 5b 6e a2 bc 1f e2 fc 3b 6d 35 41 be 2f 77 24 be
       -0.019828012 0.0077173854 -0.18868037 -0.1606109
000250 1b 6b c8 3c 16 9c 08 bb 18 0c a4 bd c7 66 10 ba
       0.024465134 -0.0020844988 -0.08010119 -0.0005508479
000260 36 23 50 be 1a 93 34 3e aa 65 3f bd 78 a8 d6 bd
       -0.20325932 0.1763424 -0.046727814 -0.104813516
000270 0d 11 79 3e f8 d8 72 bc 62 98 3f be 9e 2b 8c 3c
       0.2432291 -0.014822237 -0.18710473 0.017110642
000280 67 6b 5a 3e 1b dc 16 3d 15 b6 bf 3d 45 56 38 3d
       0.21330033 0.036831003 0.09360901 0.045004148
000290 34 bf 61 3d 69 35 b8 bd 51 3a fc bd 2b 91 bb bd
       0.055113986 -0.08994562 -0.123158105 -0.09158548
0002a0 24 9d 97 bd 17 52 67 3c 67 b8 11 3e 1d ba 4f 3e
       -0.07403019 0.014118693 0.142305 0.2028584
0002b0 e7 6a eb bc c7 3d 43 be 2c 44 c9 bd 0c 66 bb bd
       -0.028737498 -0.19066535 -0.09827456 -0.09150323
0002c0 17 a5 08 3e 39 78 00 3e 90 8a ff bd 0a 5b ca 3d
       0.13344227 0.12545861 -0.124776006 0.098806456
0002d0 0c da 83 3d 7f d7 d2 bd 41 ff 3a 3d b4 54 eb bd
       0.064380735 -0.10295009 0.045653585 -0.11490765
0002e0 6c c5 80 3d 80 ef aa bd f6 99 b5 3d 50 70 06 bd
       0.06287655 -0.08346462 0.08867256 -0.032821953
0002f0 2b 58 ef 3c 04 be 57 bd 5c 21 c1 3d 3e a5 d9 3d
       0.029216846 -0.052671447 0.09430191 0.106272206
000300 f2 95 94 3d d9 17 c4 3d 49 ed 90 bd 98 76 96 bd
       0.07255162 0.09574861 -0.070765086 -0.07346839
000310 96 38 25 3c a6 38 eb bc 8a c8 0f be 1b 21 7c bd
       0.010084292 -0.028713536 -0.14041343 -0.06155501
000320 8c 51 dd bd fc 23 1c 3e b9 69 43 3e 72 b1 d4 bd
       -0.108065695 0.15248102 0.19083299 -0.103854075
000330 b6 81 02 bc 39 f0 d8 3d 61 75 0f 3c df df a8 bc
       -0.007965496 0.10592694 0.008756013 -0.020614563
000340 23 9d 54 3e bd f3 f8 bc 04 e3 0d be 81 58 10 bd
       0.20763068 -0.030389661 -0.13856131 -0.035240654
000350 b6 03 81 3b 7b 6f 39 bb 58 f4 38 be 18 a0 77 bd
       0.00393721 -0.0028295207 -0.1806196 -0.06045541
000360 5e d4 90 bb 1b 90 17 bc e2 20 01 be 4d 94 0f 3e
       -0.0044198474 -0.009250666 -0.126102 0.14021416
000370 4d 2c a4 3c 22 b5 3e 3e 92 8e 80 3d f5 03 31 3e
       0.020040656 0.18623784 0.06277193 0.17286666
000380 68 fe 47 3e 63 6f 15 3d b3 c6 fc bd 59 93 1d be
       0.19530642 0.03648318 -0.12342586 -0.1538824
000390 cc a2 08 3e 8b 4c 9f 3d bb e2 7d 3c 4e 70 07 be
       0.13343352 0.07778271 0.015495951 -0.13226435
0003a0 ed 99 07 3e e6 90 f4 bd 78 7d 74 bc d2 68 bc bc
       0.13242312 -0.119417 -0.014922492 -0.022999201
0003b0 61 4d e5 bd fe 56 28 3e 81 e8 e0 3c 38 78 dc 3d
       -0.111963995 0.16439435 0.027454617 0.107651174
0003c0 9d d3 bc 3d f4 07 aa 3d c8 19 c6 bc 4f 2c 18 3e
       0.092200495 0.08302298 -0.024182215 0.14860652
0003d0 4a 9c 84 bd 47 6a d1 bd 7b cf 22 be da 40 03 bd
       -0.06475122 -0.10225349 -0.1589946 -0.03204427
0003e0 62 c0 91 bc c8 2f 22 3d e5 68 a8 3d ee 55 5b 3e
       -0.01779193 0.03959635 0.08223132 0.21419498
0003f0 af b2 32 3e ca 67 c7 bd d6 56 8b 3d 04 e2 19 be
       0.17450975 -0.09736593 0.06803672 -0.15027624

weight f4 [128, 256]
000000 23 e0 f6 bb 4d 05 9e bd 48 18 39 bd 7c 96 5f bd
       -0.0075340434 -0.07715855 -0.045189172 -0.054586872
000010 5a 29 1b bd bf 4d 1a 3d 7d 5a 7b 3c 26 2a 9b 3c
       -0.037881233 0.0376718 0.015341398 0.018940996
000020 b5 a5 a3 3d 35 cb 94 bd fa 8a 43 bd 36 1b 9c bd
       0.079905905 -0.07265321 -0.04773996 -0.076223776
000030 3d 83 c7 bc 0f 5e e2 3d 11 d4 65 3d 3f 23 26 3d
       -0.024354571 0.110530965 0.056110445 0.040560957
000040 07 5f d3 3c a4 fd 6e 3d 56 0f 33 3d 6d b5 0c 3d
       0.025802149 0.05834736 0.043715797 0.03435271
000050 60 94 85 bd a5 74 77 bd 37 20 01 bd fc ec ef bd
       -0.06522441 -0.060413975 -0.031524863 -0.11715123
000060 fe 56 04 bd ef 7b 5b bc e7 51 15 bd 38 19 51 3d
       -0.032309525 -0.013396247 -0.03645506 0.05104944
000070 fc bf 9f bd a0 75 75 3c d8 82 1b bd 0f 75 b8 bd
       -0.0780029 0.014981657 -0.03796658 -0.09006702
000080 a2 10 32 3d fc be c4 bd cd 92 5c 3c a5 54 09 be
       0.043472894 -0.0960674 0.013462734 -0.13411196
000090 00 28 a4 3d da b9 bb 3d 56 f0 93 bd 2e bb 59 3d
       0.08015442 0.09166308 -0.07223575 0.053157024
0000a0 b3 f8 31 3c 57 db b4 bc b2 3c 1b bd 81 a8 78 3b
       0.010862517 -0.022077246 -0.03789968 0.0037942233
0000b0 38 a7 2a 3d fc 86 21 bd 62 e5 63 3c 4e ee bd bd
       0.04166338 -0.03943537 0.01390967 -0.09273969
0000c0 6d 9f c3 bc df f5 c8 bd 55 37 80 3b 42 56 99 bd
       -0.023879731 -0.09812521 0.003912846 -0.074871555
0000d0 4b 78 80 3d 8c a1 24 bd a8 82 0a bd a8 7e 88 bd
       0.06272944 -0.040193126 -0.03381601 -0.06664783
0000e0 01 3d 4f bd 79 a3 c6 bd 38 64 bf 3d 7b 6e 9b 3a
       -0.050595287 -0.09699149 0.09345287 0.0011858487
0000f0 4e 23 90 3c d3 4d 95 bd 8a a1 26 bd c9 a3 c1 bd
       0.01759496 -0.072902344 -0.0406814 -0.09455068
000100 80 1e bf 3c 3d 0c ba 3c 67 54 fb bd cb 53 65 bd
       0.023329973 0.022710914 -0.12271958 -0.055988114
000110 88 84 cd bc fb ef 93 bd be ff c4 bc 8b 5e 98 bd
       -0.02508761 -0.07223507 -0.024047729 -0.07439908
000120 37 47 52 bd 6f 9f cf 3c 52 91 c1 bc 48 f8 64 3c
       -0.051337447 0.025344579 -0.023628864 0.0139752105
000130 52 33 68 bb 95 46 db 3c c0 55 c7 bc 14 27 a8 bd
       -0.003543098 0.026767055 -0.024332881 -0.082105786
000140 65 76 1c bb 05 1a 94 bd ea 1a 75 bd b0 97 e1 3c
       -0.002387428 -0.07231525 -0.05984012 0.02753815
000150 35 66 09 be ac e4 aa bd 5c a2 75 3d 8c fe 12 bd
       -0.13417895 -0.08344397 0.05996929 -0.035887286
000160 a5 af 12 3d 5e e7 d7 3d 8a ab a1 3c d1 df 82 3c
       0.03581204 0.10542177 0.019735117 0.015975865
000170 e3 96 ff bd 45 45 a4 3c da de 91 bd d1 28 55 bd
       -0.12479951 0.020052562 -0.07122584 -0.05204088
000180 f5 cc 06 3c b8 ba 19 bd 05 14 66 bd 9e 76 f0 ba
       0.0082275765 -0.037531585 -0.056171436 -0.0018345898
000190 b3 28 e0 bd c3 cf 5a 3c 0b 2f cc bd cb 7a 84 3c
       -0.10945263 0.013355198 -0.0996991 0.016171834
0001a0 ba b3 2e 3a 12 37 8d bd bb 73 24 3d 7b 2e e0 ba
       0.00066643546 -0.068952695 0.04014943 -0.0017103696
0001b0 13 bb 89 3d 73 43 95 bc d7 67 19 bc 0a 50 4a 3d
       0.06725135 -0.018220639 -0.009363136 0.049392737
0001c0 de a6 23 3e 8a 76 f0 3c db 1b 7e 3c 68 51 db 3c
       0.15981624 0.029353399 0.015509571 0.026772216
0001d0 6e 74 86 bd b7 6c 10 be 8b 93 87 3d 5d 5f e8 bd
       -0.06565176 -0.14103971 0.066199385 -0.11346314
0001e0 5e ba 9d 3d 20 ab 88 bd 6d a3 07 be 41 01 79 3d
       0.07701562 -0.066732645 -0.13245936 0.06079221
0001f0 5a 52 8d bc 89 1e 7b bc 33 47 28 3c fa 79 6c 3d
       -0.017251182 -0.015327104 0.0102708815 0.057733513
000200 03 eb ac 3d 01 66 b8 3c 2b 1a 0a bd e5 5e 9c bd
       0.084432624 0.022509577 -0.033716362 -0.07635287
000210 29 43 d2 bd 5b 91 96 ba 17 53 b6 3c e8 41 ab 3c
       -0.10266716 -0.0011487411 0.022256417 0.02090545
000220 9f 0c 54 3a 47 73 19 be 3e 9d eb bd aa 66 b0 bd
       0.0008089039 -0.14985381 -0.11504601 -0.086133316
000230 74 db 7e 3d f3 cf 38 be bd 52 44 3d 01 f7 c5 bc
       0.062221006 -0.18048076 0.047930468 -0.024165632
000240 49 ff 89 bd 7c e8 a3 bc b0 06 9c bc 69 3a 3d 3c
       -0.06738145 -0.020008318 -0.019046158 0.011549571
000250 71 43 93 3d 1c 2f 76 3c 75 ae 9d bd 78 36 c4 bd
       0.07190598 0.01502588 -0.07699291 -0.095807016
000260 6b c5 a9 bd e8 e9 8b 3c 53 e8 d6 3c b9 ed f0 bd
       -0.082896076 0.017079309 0.026233828 -0.11764092
000270 88 0e 8e bd 01 3b 0d 3b 82 e1 c3 3d 32 c5 0d bd
       -0.06936365 0.0021550062 0.095644966 -0.03461189
000280 16 d5 a5 bd 5e 1d ff bd 9f 7b db bd cd 14 00 be
       -0.080972835 -0.12456773 -0.10716938 -0.12507935
000290 86 4d 84 bd 29 6d 9d 3c 5d e4 ea bb c7 74 1e 3d
       -0.06460099 0.01921709 -0.0071683363 0.038685586
0002a0 38 be 2d bd f3 32 d2 bd 3d e9 0a 3c cf 0c d0 bd
       -0.042417735 -0.10263624 0.00847846 -0.10158693
0002b0 48 cb 4a be 08 bb 89 3b 6f c8 ee bd ac 5f 91 3c
       -0.19804108 0.004203204 -0.116593234 0.017745815
0002c0 d2 cb 22 be a3 e1 39 3c 60 b0 c0 bd 92 8e ea bc
       -0.15898064 0.0113453 -0.09408641 -0.028632436
0002d0 d2 91 5f bd d5 c8 a6 bd 2b e0 80 3c 59 a2 b0 3c
       -0.054582424 -0.081437744 0.015731892 0.021561788
0002e0 9b 79 af 3a 1a 94 1a 3c be ef 80 ba 2c 0c d5 bd
       0.0013387682 0.009434724 -0.0009837074 -0.10402712
0002f0 a8 98 4a bd d3 98 06 3d e2 21 04 be aa fc 9f bc
       -0.04946199 0.03286059 -0.1290355 -0.01952966
000300 47 85 4c bd c0 db a9 bd b4 32 b1 bd fe 1b 5c 3d
       -0.04993179 -0.08293867 -0.08652249 0.053737633
000310 e5 68 1c 3e e9 73 51 3d 3c 3c bc bc d6 b5 06 3d
       0.15274389 0.05113593 -0.02297794 0.032888256
000320 14 c4 0e 3d b6 c8 93 bd b7 e1 a9 bd 42 33 1f 3d
       0.034854963 -0.07216017 -0.08295005 0.038867243
000330 97 39 aa ba 54 9e 22 bd 20 30 23 be 61 d7 9f bd
       -0.0012987134 -0.039701775 -0.15936327 -0.07804752
000340 93 22 03 bc c8 c1 ee 3c 47 c5 6b 3d fe 26 80 bc
       -0.008003849 0.029145136 0.057561185 -0.015643593
000350 97 87 9d bd b7 f7 be 3c 9a 04 24 3e 3b cf cd bd
       -0.07691877 0.023311479 0.1601738 -0.10049292
000360 55 99 95 bd e4 63 31 bd bd 3c 0a 3d 13 ed 04 be
       -0.073046364 -0.043308154 0.03374933 -0.12981062
000370 a1 31 a7 3c 72 48 00 bc b2 20 8d bb 3e a1 95 3d
       0.020409407 -0.007829772 -0.004306876 0.07306145
000380 d9 77 f8 bb c5 37 4a bd 41 9f bd bc 89 d8 53 bd
       -0.0075826463 -0.049369592 -0.023147227 -0.051720176
000390 94 02 64 bd ed f0 11 3d 04 09 8d bb 58 87 98 3d
       -0.05566652 0.035630155 -0.0043040533 0.0744769
0003a0 d9 80 5d bc 14 88 3e bd 36 b6 ca bd 7e f3 70 bd
       -0.013519489 -0.046516493 -0.09898035 -0.058825962
0003b0 6d 8e 17 bd 7e 50 4e 3d 53 57 4c 3d 90 6c 0d bc
       -0.037001062 0.050369732 0.049887966 -0.00863184
0003c0 45 d8 92 bd ad 56 0c bd 7e 0d 97 bd b1 c4 4f bd
       -0.071701564 -0.034262348 -0.0737562 -0.05072469
0003d0 a9 c3 01 3d 21 03 11 3d 08 38 00 bd f8 76 75 bd
       0.031680737 0.035403375 -0.031303436 -0.05992791
0003e0 03 ed 3d bc fc df 0d 3d 1e a1 7c 3d 1f d7 80 bd
       -0.0115921525 0.034637436 0.06167709 -0.06291031
0003f0 ba 04 0f bd 96 e9 0f be 07 18 96 bb 00 c4 a2 bd
       -0.034916617 -0.1405395 -0.004580501 -0.0794754

bias f4 [128]
000000 0b a6 93 bd e4 24 b2 bd a6 7c 82 ba ef 39 29 bd
       -0.072094046 -0.086984426 -0.0009955361 -0.041315015
000010 60 e7 1b 3d 8c 12 f6 3c 1d e7 08 bd ef c8 f4 bb
       0.038062453 0.03003814 -0.03342353 -0.007470242
000020 b5 30 61 3d ec a4 02 bd 2b ae 93 bd 21 ab 81 bd
       0.05497809 -0.031895563 -0.07210954 -0.063314684
000030 9b f2 f5 3a 5b 22 1e bd 69 43 6e bd 32 59 58 bd
       0.0018764319 -0.038606983 -0.058169756 -0.05281944
000040 34 5d 19 3d f6 3f 8a bd 14 4e c9 bc 4f 4f 4e bc
       0.0374424 -0.06750481 -0.024573363 -0.012592151
000050 12 da 89 bd d1 41 8f 3d f8 47 81 3d 36 ee d4 3b
       -0.06731047 0.06994975 0.06312555 0.0064981235
000060 fd d5 3f 3d 88 41 3f 3d 9f 58 28 bd 1b 06 55 3d
       0.046834935 0.046693355 -0.04110014 0.052007776
000070 20 1d 9a bb 05 2a dc bb ff be 41 3c 9f f4 08 3b
       -0.004703179 -0.0067188763 0.011825322 0.0020897759
000080 18 6e b4 bc 00 b8 c4 bc 39 4c 38 3d b1 69 ea 3c
       -0.022025153 -0.02401352 0.044994567 0.02861485
000090 f4 b1 4b bd 24 1e 4b bd 63 92 33 3d cf 78 90 bc
       -0.049730256 -0.04958929 0.043840777 -0.017635731
0000a0 96 a9 79 3d bc 45 86 3c cf eb 17 bd de 6c 16 bd
       0.060952745 0.016390674 -0.03709012 -0.036724918
0000b0 da 66 1a bd 65 04 4a bd 5e bb c2 39 74 82 29 bd
       -0.037695743 -0.049320597 0.00037142163 -0.041384175
0000c0 b2 40 6a 3d 96 08 ae bc f5 79 20 3c 48 fc 36 3d
       0.057190605 -0.021244328 0.009794702 0.044674188
0000d0 6f 78 29 3d 51 eb 65 bc 3a 4f 8d bb 47 63 25 bd
       0.04137462 -0.014033155 -0.004312423 -0.04037788
0000e0 0c 58 5e 3d 32 cb 27 bd b6 24 c6 3b e1 f9 76 bd
       0.054283187 -0.040965267 0.0060468568 -0.060296897
0000f0 ae b8 94 bc d7 4b 90 3d 07 68 65 bd 76 a6 57 3d
       -0.018154468 0.07045715 -0.05600741 0.052648984
000100 49 e0 5c 3d 7f 38 89 bc 11 8d 8b 3c ba 65 74 bd
       0.053924832 -0.016750572 0.01703504 -0.059667327
000110 dc f6 5c bd ec 88 af 3c 0b bf 96 3c 8e 0b 71 bc
       -0.05394636 0.021427594 0.018401643 -0.0147122275
000120 6f c0 41 bc 54 78 91 bc 7c 02 4b ba 26 cb 84 3c
       -0.011825665 -0.017757572 -0.00077442056 0.01621015
000130 5c 20 3c 3d 8f a2 cb 3c a9 eb 65 3c 89 a4 47 bd
       0.045929298 0.024857787 0.014033237 -0.048740897
000140 a2 10 1a bc 7e 21 53 bd 8b a9 df 3c 5f f3 ee 3c
       -0.00940338 -0.051545613 0.027302524 0.029168783
000150 2d 58 3f 3c 8c 61 4e bd c0 8c 46 bd 37 87 78 bc
       0.011678738 -0.050385997 -0.048474073 -0.0151689565
000160 ce 8f 80 3d 25 cd a8 bd 89 d0 88 3a ac 03 72 3d
       0.062774286 -0.08242253 0.0010438125 0.059085533
000170 f3 e2 3d 3d 3f 42 9b 3c 57 5f 9f 3b ef 0a 8a 3d
       0.046359014 0.018952487 0.0048636603 0.06740367
000180 d6 5f aa bc ac 7a 8c 3d ab d7 9c bb 45 3b 0d bd
       -0.020797651 0.06859335 -0.004786452 -0.034480352
000190 cb 66 61 bc 17 1a 37 bd 69 31 05 3c 50 b1 7d bd
       -0.013757418 -0.044702616 0.008129456 -0.061936677
0001a0 44 69 70 3d a6 c5 0d 3b 29 d6 ff 3c 96 0b 27 bc
       0.05869414 0.00216327 0.03123005 -0.010195633
0001b0 80 4f 8a 3c 31 8e dc 3c 08 f8 09 3d 98 be 64 bc
       0.016883612 0.02692327 0.033683807 -0.013961457
0001c0 14 e9 33 3c bd 9f 84 3d 79 31 36 3d 29 62 31 3d
       0.010980863 0.0647578 0.044480775 0.043306503
0001d0 65 85 4c 3c 8d 10 11 3b 42 36 93 bb 1b 37 8a bc
       0.012482976 0.002213511 -0.004492552 -0.01687198
0001e0 24 41 75 bb fa 22 6f bd 6a 6d 9a bc 6c bb 69 bb
       -0.003742286 -0.058382966 -0.018851 -0.003566469
0001f0 15 de 82 3c d9 38 04 bd 39 bf 7b bc cb 34 18 3b
       0.015975038 -0.032280777 -0.015365415 0.0023224826

weight f4 [64, 128]
000000 20 04 07 3e 29 9c 6f 3d fd bd 2b 3d 60 33 44 bd
       0.13185167 0.058498535 0.041929234 -0.047900558
000010 2c 6e 1e 3e 03 8a 06 be 72 c1 67 3b d1 26 11 3e
       0.15471715 -0.13138585 0.0035363105 0.14174964
000020 9d 9e 1d be f4 f4 0b be 02 45 b0 3d 20 d8 85 bd
       -0.15392537 -0.13667661 0.08606912 -0.06535363
000030 63 83 20 bd f0 5d be bd 28 3d 1a bc 6f d4 41 3d
       -0.0391878 -0.09295261 -0.009413995 0.047321733
000040 bf 2d 07 be cd bc 39 3d 23 e7 53 ba 9c 3e 0d bd
       -0.13201044 0.04534607 -0.0008083453 -0.034483537
000050 b6 87 e6 bd 5f 99 eb 3d c0 dd 58 3d 46 b5 98 bd
       -0.112563536 0.115038626 0.052945852 -0.0745645
000060 7e 25 62 3e da ce 06 be c7 31 e1 3d ec eb 11 bd
       0.22084615 -0.13164845 0.109958224 -0.035625383
000070 27 48 21 3c 15 e3 c4 3d d7 c5 3f bd b1 29 25 3c
       0.009843863 0.09613625 -0.046819534 0.010080741
000080 a6 ef 0a bc 64 94 33 bd f4 c3 1d 3e 07 dc 01 3d
       -0.008479988 -0.04384269 0.15406781 0.031703975
000090 1f 84 ec 3b 7c 97 4a bd f1 84 e3 bc 7b d3 2d bd
       0.0072178985 -0.049460873 -0.027773352 -0.04243801
0000a0 f9 26 cb 3d 25 d1 b2 bc f0 5e 13 bd 1b 4a a2 3c
       0.09919543 -0.021828244 -0.03597921 0.019810727
0000b0 2c 20 62 bd 6d 92 2f be b8 3f ff bc 46 9e ba bc
       -0.055206463 -0.17145701 -0.031158313 -0.022780549
0000c0 32 69 5e 3c 2f 4d fc 3b 51 7c 99 3d a4 88 b3 bd
       0.013574885 0.0076996307 0.074944146 -0.087662965
0000d0 f8 71 a2 3d 53 fe 29 3d da c3 88 bb b2 bd 09 3e
       0.07931894 0.041502308 -0.004173738 0.1345127
0000e0 86 17 e7 3c 00 a0 86 bc 2e 5a 36 3e 25 56 be bd
       0.028209459 -0.016433716 0.17807838 -0.092937745
0000f0 a2 7e a0 bd 58 ea fc bd 25 b4 8c 3c 3f c7 f5 3d
       -0.07836653 -0.12349385 0.017175743 0.12000894
000100 1d c3 ec 3c 71 51 1d 3e 3c 5a 4c bd 97 62 e7 bc
       0.028901631 0.15363099 -0.04989074 -0.028245253
000110 ba 84 bb 3d 40 6a 4a ba 82 50 d1 3d db 97 22 bd
       0.09156175 -0.0007721521 0.10220434 -0.039695602
000120 a7 0f c2 3c 4b 2e cd bd 4b 3b 9d bd 01 5f 99 bd
       0.023689104 -0.10018595 -0.07677325 -0.07488824
000130 65 e3 19 3e 73 71 0c be c6 0f 63 bd b1 2e 25 3e
       0.1502815 -0.13715152 -0.055434965 0.16131093
000140 f2 0d 1e bd 54 f2 d3 3d 4f 07 32 3d 90 6d 5a bd
       -0.038587518 0.10348955 0.043464 -0.053327143
000150 68 95 d7 bc f0 92 88 bd 7b e6 c4 3d 32 c6 92 3d
       -0.02631636 -0.06668651 0.09614273 0.07166709
000160 1b 66 ec 3c 87 18 64 3d de 27 26 3d 30 05 67 3d
       0.028857281 0.055687454 0.040565364 0.05640143
000170 0d 70 29 3c 34 24 d8 3d 11 50 da bc 39 69 a4 bd
       0.010341656 0.1055378 -0.026649507 -0.08027882
000180 5d cd db 3d 31 9b b4 3d 7a 14 e1 bd 28 90 57 3d
       0.10732529 0.08818663 -0.10990234 0.052627712
000190 62 83 15 3e b0 c5 97 bd 6e f8 61 3d 02 0d 11 be
       0.146009 -0.07410753 0.05516856 -0.14165118
0001a0 31 ae e8 bd c9 dc b0 3c af 0f 52 b9 1a 4b b4 bd
       -0.113613494 0.021589654 -0.00020033003 -0.08803387
0001b0 41 81 8a 3d bd df 41 3e 4c a7 d5 bc d8 cd 85 3d
       0.067629345 0.18933006 -0.02608075 0.06533402
0001c0 42 8e 92 bd b0 04 51 3e 9d c3 2a 3e 5e 62 13 be
       -0.0715604 0.20411944 0.16676183 -0.14392993
0001d0 48 06 34 3c 65 76 b3 bd 04 d1 ac 3d 11 10 9f 3d
       0.010987826 -0.08762816 0.08438304 0.07766736
0001e0 c0 0e d6 3d 8c ff 87 bb 87 f9 1c 3e e8 27 ae bd
       0.10452032 -0.0041503366 0.15329562 -0.08503705
0001f0 e1 fb 14 be c5 f6 14 be ec 72 5d bc 15 fc f4 bd
       -0.14549209 -0.1454726 -0.013516169 -0.11962143
000200 67 d0 66 bd 57 b1 6f 3d 72 93 e2 3c 0b f6 85 3d
       -0.05635109 0.058518734 0.027658198 0.065410696
000210 36 fa 11 3d b5 71 c3 bd 53 ac d1 3c cd 40 6b bd
       0.03563901 -0.09543172 0.025594866 -0.057434846
000220 51 c9 e3 3d c7 2b 7c 3c 31 db 71 bd 63 b4 80 bd
       0.111223824 0.015391297 -0.059046928 -0.06284406
000230 3b d9 0b bc ba 32 72 bd 8e 80 fd 3c 3a f8 10 be
       -0.0085356785 -0.059130408 0.030945089 -0.14157191
000240 43 d3 6f bd 02 67 63 3c c7 00 27 3d ac 31 49 ba
       -0.058551084 0.013879539 0.040772226 -0.0007674943
000250 22 98 b4 bd 95 13 e2 3c 2a 7a a2 bd b7 c9 32 be
       -0.088180795 0.027597228 -0.07933457 -0.1745976
000260 f4 10 11 be 8a 8a 74 bd 62 5e 86 bd 0d 09 07 3d
       -0.14166623 -0.059702434 -0.06560971 0.032967616
000270 2c ba 46 bd 8e 04 60 bd 3e 39 29 3d 03 ff 8d 3d
       -0.04851739 -0.054691844 0.041314356 0.06933405
000280 f6 b3 2a 3b 89 ea c2 bc 49 49 d1 3c 13 b5 f6 3c
       0.0026047206 -0.023793476 0.02554764 0.03011564
000290 de 89 a6 bd 71 06 fb bd 56 66 62 bd 26 ff 3c bd
       -0.08131765 -0.12257088 -0.055273376 -0.046141766
0002a0 f2 23 3b bc 51 b4 9d 3d c0 99 bc 3c a2 26 98 bd
       -0.011422144 0.07700408 0.023022532 -0.074292436
0002b0 0f cb 0f 3d c2 43 97 bd c8 f1 38 3e 60 f9 9b bd
       0.03510576 -0.07385971 0.18060982 -0.07615924
0002c0 a1 99 dc 3d c7 c4 d8 bd aa 03 99 bd d7 68 8a 3d
       0.1077149 -0.10584407 -0.07471402 0.06758278
0002d0 96 ee 28 be 2c e3 36 bd c6 0e c3 3d 30 a4 4a bd
       -0.16497263 -0.04465024 0.09524302 -0.049472988
0002e0 fb fd 89 3c 53 9d 0d bd 0f 40 a0 3d 55 5c d2 3d
       0.01684474 -0.034573864 0.07824718 0.10271517
0002f0 b8 60 de bd ef 35 04 bd 5f 0f ad 3c 87 35 21 3c
       -0.108582914 -0.032277998 0.021125494 0.009839422
000300 ad 19 bc 3d 70 82 16 3e 60 10 09 bb 74 d3 3a bd
       0.09184585 0.14698195 -0.0020914301 -0.045611814
000310 19 56 42 3c 74 81 65 3c c6 13 06 3e 40 81 ae 3d
       0.011861348 0.014007915 0.1309348 0.08520746
000320 51 6b 0a 3e a3 ea 24 bd c6 5f cc bc 48 c8 67 bc
       0.135175 -0.04026283 -0.024948012 -0.014146872
000330 c6 00 c7 3d 2d 4d 96 bd 61 09 d6 3d aa bc 1a 3d
       0.097169444 -0.07338939 0.10451008 0.03777758
000340 7d 06 39 3d 4d 10 e3 bc 6c 6a 19 3d 94 23 af 3d
       0.045172203 -0.027717734 0.037455007 0.08551708
000350 c0 5c 97 bd d4 cb 81 bd f3 d1 0a bd 4b e1 c2 bc
       -0.073907375 -0.06337705 -0.03389163 -0.023789069
000360 11 f5 94 bd 91 84 1e bc 37 72 83 bd ed 34 c8 3d
       -0.07273305 -0.009675161 -0.06418269 0.0977572
000370 1d 87 52 bc d0 9b 57 3d 67 c4 e4 bb 4d bf ff bd
       -0.012849596 0.05263883 -0.006981421 -0.124876596
000380 8e 92 41 bd 2d 64 92 bd b7 c2 e8 3d 21 dd d1 3d
       -0.047258906 -0.07148013 0.11365264 0.10247255
000390 15 2e a9 bd b6 a5 8b bd 7d 86 ad bd 9d b8 44 bb
       -0.082607426 -0.06818716 -0.08472917 -0.0030017265
0003a0 dd 0f 9b bd 40 6b 9a 3c ca 34 17 3e 81 22 14 bd
       -0.07571385 0.018849969 0.14766231 -0.036165718
0003b0 ba 3f 4a bc 57 74 37 be 26 ec 05 3e f4 0f 2a 3d
       -0.012344295 -0.17915474 0.13078365 0.04151912
0003c0 b6 7a 13 3d c9 44 df 3d c2 be 82 bd a1 c4 ae 3d
       0.0360057 0.109017916 -0.063840404 0.08533598
0003d0 1b 9f 36 bd f9 06 d2 3b 6d af 4a 3c 48 4f ea 3c
       -0.04458533 0.0064095226 0.012370926 0.028602257
0003e0 d6 e2 ba bd 8b 41 8f 3d aa b5 e3 bc a7 0b 10 3d
       -0.09125297 0.06994923 -0.027796585 0.035167363
0003f0 0e d1 21 3d af 50 85 3a 07 a3 02 3d a4 b8 05 bd
       0.03950601 0.001017114 0.031893756 -0.03264679

bias f4 [64]
000000 4f ba 1f 3c 4d 0d 46 bc 11 fd 95 3d 8a b9 94 3d
       0.009749009 -0.012088132 0.07323659 0.07261951
000010 ab 1e 10 be f6 8b fa 3c 47 64 d4 bd 07 85 30 3d
       -0.14074199 0.030584317 -0.10370689 0.043095615
000020 b4 3f 59 bc 92 b3 8f 3d 3c 51 91 3c a9 e9 2b 3d
       -0.013259817 0.07016672 0.01773893 0.041970883
000030 94 8c 19 bc ea d3 82 bd 44 5b af bc 3e 6f c0 3c
       -0.009371895 -0.06388076 -0.021405824 0.023490544
000040 d7 62 b5 3b a1 f9 71 bc f9 18 98 bc a0 7a 9e bc
       0.0055354643 -0.014768989 -0.018566595 -0.019345582
000050 2b e5 95 bc a6 40 85 bd 58 16 ee 3d 86 b0 b1 bc
       -0.018297752 -0.06506471 0.116253555 -0.021690618
000060 ab b5 a4 3d 70 dc 8a 3c 52 11 0c 3d a7 64 43 bc
       0.08042463 0.016950816 0.034196205 -0.011925853
000070 8b 0f e3 bc d6 a8 8c 3d c9 b9 aa bd d5 1a 1c 3c
       -0.027717372 0.068681404 -0.08336217 0.009527882
000080 ad f9 3a 3c 62 52 90 3d 40 fa 94 3a a5 a1 58 3d
       0.011412066 0.07046963 0.0011366084 0.05288853
000090 43 73 9e bc 13 ce 9c bd 53 b6 5d 3d 7f 7c a3 3d
       -0.01934207 -0.07656493 0.054128956 0.0798273
0000a0 44 98 44 3d bd bf 91 bd 9a 1f ed bb 71 6d ad bc
       0.047996774 -0.07116649 -0.007236433 -0.02117035
0000b0 7a 4b 0c bd c4 eb 6b bd 9c 39 9f bb 75 9a 50 bd
       -0.034251668 -0.05759789 -0.0048591625 -0.05092855
0000c0 c1 31 93 3d 36 1e e7 bc 6f c6 ec bd 01 67 48 3d
       0.07187224 -0.028212648 -0.11561286 0.048926357
0000d0 4b ec d1 bc b4 c7 85 3c 70 50 17 bc d4 56 87 bd
       -0.025625369 0.016330577 -0.009235486 -0.06608358
0000e0 44 02 29 bd 57 55 94 3d 9d fe cb bd 66 a9 b1 3d
       -0.041261926 0.0724284 -0.09960673 0.08674888
0000f0 25 ee e7 bc 85 bd 8f 3d ef 75 99 bc 78 d7 6d bc
       -0.028311798 0.0701857 -0.018732993 -0.014516704

weight f4 [6, 64]
000000 0b f8 3c 3e 81 2f cd bd 06 eb 7e 3d b6 82 c1 bd
       0.18453996 -0.10018826 0.062235855 -0.09448759
000010 6b 35 16 3e cd aa fd bd 8c dd 84 3d 11 7a 52 be
       0.14668815 -0.12386093 0.06487569 -0.20554377
000020 f3 bf c5 3c 6d 1f d0 bd 0d 1d 09 3d 16 a1 0d be
       0.02413938 -0.10162244 0.03347497 -0.1383098
000030 93 d6 75 bd ba 19 6a be 0b 24 93 3d 7d b6 69 3e
       -0.060019087 -0.22861376 0.07184609 0.2282352
000040 60 64 8d 3c 4d 0d 84 3c 7b f8 25 bc f8 b9 20 3e
       0.017259777 0.016119624 -0.010130043 0.15695941
000050 7c c4 e0 3b 58 38 01 3e 17 ad 52 bd 08 ab 3d be
       0.0068593603 0.1261915 -0.051434603 -0.18522274
000060 4d a0 8d 3d 95 20 f1 bd d1 a5 06 be 40 40 5a 3e
       0.069153406 -0.11773793 -0.13149191 0.21313572
000070 3e 8d 09 3e 1e 02 62 be e0 1d c7 3e 2c c3 80 3e
       0.13432786 -0.2207112 0.3888998 0.25148904
000080 77 4f 56 3e 90 b4 0b be c2 ec be bc 20 73 8d bc
       0.20928751 -0.13643098 -0.023306254 -0.01726681
000090 32 60 8c 3d 62 b1 3f 3b 4b 26 39 be 01 56 f5 bd
       0.06854285 0.0029250016 -0.18081014 -0.119792946
0000a0 0e 30 56 3e 36 86 13 bc bb fb 88 3b 0a eb da 3d
       0.20916769 -0.009004166 0.0041803992 0.106893614
0000b0 6c c2 69 3d 6e c1 c0 bd ab 19 09 be 42 7a 73 be
       0.05707018 -0.09411894 -0.13388698 -0.23777106
0000c0 59 98 12 be 28 b9 0e be 56 f2 a7 bd 1f b0 37 bd
       -0.14315929 -0.13937819 -0.08200519 -0.044845697
0000d0 ff 43 aa bd 86 dd 81 bd 32 7f 6a 3d 9a 63 73 be
       -0.083137505 -0.0634108 0.05725021 -0.23768464
0000e0 63 4c 51 be 6e 2c 3a be 67 a9 57 3e 31 2f 01 be
       -0.20439295 -0.18181011 0.21060716 -0.12615658
0000f0 57 53 cb bd 24 9d b4 3c b0 c2 73 3e a9 dd 1d be
       -0.09928005 0.022047587 0.23804736 -0.15416588
000100 22 80 81 be f2 fd d0 bd 86 c3 63 be 47 bb 00 be
       -0.2529307 -0.10204686 -0.22242555 -0.1257144
000110 c1 55 b4 3c d8 27 59 3e 45 f3 47 bd c8 bb 5f bd
       0.022013547 0.21206605 -0.048815984 -0.05462244
000120 95 4f 6d bd 6c 80 5e 3e 84 26 47 3e db 04 04 be
       -0.057937223 0.21728677 0.19448286 -0.12892477
000130 8b 36 77 bd 48 cd 74 3e 47 3c a0 3c da 40 e2 bd
       -0.06035475 0.23906434 0.019559992 -0.11047526
000140 c8 c9 3f bd 04 51 8b bc ef 07 8a 3d 81 48 04 be
       -0.046823293 -0.017006405 0.067397945 -0.12918283
000150 44 60 e6 bc 15 c8 b8 bd fa 03 0c 3e 8c 57 c9 3d
       -0.028122075 -0.090225376 0.13673392 0.09831151
000160 39 4a 0b 3c ca 2c 6f 3e 6b 16 c5 bd ea 23 d1 bc
       0.008501583 0.2335693 -0.096234165 -0.02552982
000170 bd 15 51 be e5 4b 81 3d ed 17 d0 bd 9f 0f 80 be
       -0.20418449 0.06313304 -0.101608135 -0.25011918
000180 7e 6e 8a be c7 06 a1 bd fc 5a 04 3d 1d d2 81 3e
       -0.27037424 -0.07862621 0.032313332 0.25355616
000190 01 4b 86 3e c1 35 ae 3d 75 89 dc 3d 89 66 4b 3e
       0.26229098 0.085063465 0.10768405 0.19863333
0001a0 b0 0d f6 3d ad 2d df 3b 18 d2 b9 3d a5 34 d3 bd
       0.120143294 0.006810865 0.09073275 -0.103127755
0001b0 42 f9 d4 3d 17 de ae 3d cb 7b 1d be 82 31 b4 3d
       0.10399105 0.08538454 -0.15379255 0.08798505
0001c0 8a f8 a4 3d 2f d2 17 3e a2 6d c7 3d c7 79 2a 3e
       0.080552176 0.14826272 0.09737708 0.16648017
0001d0 c5 cd e3 bd 78 26 c8 bd 26 7f 59 be 25 27 0f 3e
       -0.11123232 -0.09772962 -0.2123991 0.13979776
0001e0 2d 19 04 3e 44 73 6e 3d fd c9 55 3d 04 cf fd 3d
       0.12900229 0.058215395 0.052194584 0.12393001
0001f0 92 6a 14 3e 61 8f e1 bd cd b4 81 bd a5 5e d4 bd
       0.14493778 -0.110136755 -0.06333313 -0.103696145
000200 42 df 8a 3d d8 08 e8 bd 89 61 95 3d 36 7c 17 3e
       0.06780864 -0.11329812 0.07293994 0.14793476
000210 30 2d 15 be d3 92 35 bb 89 d1 8f 3d 37 da 9b 3c
       -0.14568019 -0.0027705922 0.070223875 0.019024951
000220 46 02 4e be 4f 49 86 bc 9f e2 10 bd fa 82 ce bc
       -0.20118055 -0.016392378 -0.035372373 -0.025208939
000230 8b 90 0a 3e 42 fd d0 3d fa ca b4 3d 8b 9b 62 be
       0.13531701 0.10204555 0.08827777 -0.22129647
000240 23 b5 0a 3e 88 a9 e2 3d 04 e6 f0 3c fc 6b e1 3b
       0.1354566 0.11067492 0.029406555 0.006879328
000250 f9 15 1a bd c7 b2 8e bd 3d 97 12 be 56 ed c0 bd
       -0.03761861 -0.06967693 -0.14315505 -0.09420268
000260 61 9b d8 bc e7 71 e0 bb b8 5f 5d be 10 47 62 be
       -0.026441278 -0.0068495157 -0.21618545 -0.2209742
000270 23 a5 87 3d 32 08 e3 3d 1a f3 02 3e 28 60 d8 bd
       0.06623294 0.110855475 0.12788048 -0.10565215
000280 6e 9d 01 3c 32 7c 06 be d4 42 1b 3d 1a 76 0a bd
       0.007911069 -0.13133314 0.03790553 -0.033804037
000290 3f ef 0f bd 67 9d 7d bd c6 60 1c 3d da 37 cf bc
       -0.035140272 -0.06191769 0.038178228 -0.025295187
0002a0 f4 1d 24 3d 1b 25 b2 3d fc c5 79 bd 97 9b 14 be
       0.040067628 0.086984836 -0.06097983 -0.14512478
0002b0 6b 6b 0e bd 4e e1 1c 3d 23 8c 9f bc 0c 63 23 bd
       -0.03477041 0.038300805 -0.019476002 -0.03988938
0002c0 ce 03 55 3d 1f 45 7b 3e 71 9b a2 3d 00 d0 c9 bc
       0.05200558 0.24538086 0.07939804 -0.024635315
0002d0 e2 e1 0c 3e ba 4d f4 3c 1e e7 82 3d 8c d4 e6 3d
       0.13758042 0.02982222 0.06391738 0.11271009
0002e0 5f 26 9d bd 73 f6 a1 bd fe 87 c4 3d 2a 60 39 3c
       -0.07673334 -0.079083346 0.09596251 0.011314431
0002f0 21 5e 10 3d 87 1c 68 bd b7 0b 00 bd 5c 4c a7 bd
       0.03524602 -0.05666783 -0.031261172 -0.08168861
000300 14 71 53 3b f9 d9 46 3e 5d c4 1c 3e 67 e8 bd 3d
       0.0032263445 0.19419087 0.15309282 0.09272843
000310 75 86 d1 bd ff 52 22 3d cf 1d cb bd a2 37 07 3e
       -0.10230724 0.039629932 -0.09917795 0.13204816
000320 5f f9 f2 3d 52 50 8f bd a2 78 69 bd 40 50 54 3e
       0.1186397 -0.06997742 -0.05699981 0.20733738
000330 4b 57 b2 bd a9 6d 20 be 2f e3 28 be 27 f8 2b 3d
       -0.08708056 -0.15666832 -0.16492914 0.041984703
000340 45 55 00 3d 15 ec 5a bd 60 00 ef ba ea d6 bb 3d
       0.03133132 -0.0534478 -0.0018234365 0.09171851
000350 a1 90 08 3e d9 ed c0 3d 01 f3 c8 3d 9d 44 b9 3d
       0.13336422 0.09420366 0.09811974 0.0904629
000360 90 c1 ee 3d 9d 69 82 be e7 4a a0 3e df b8 20 be
       0.11658013 -0.25471202 0.31307146 -0.15695523
000370 af 6d f7 bd 64 33 c4 3d 2c 7c 65 be ed c7 e7 bc
       -0.12081467 0.095801145 -0.22410649 -0.028293574
000380 e0 ce b3 3d df c8 8f 3d fb 95 a1 3d 36 ed 67 be
       0.08779693 0.07020735 0.07889935 -0.22649083
000390 5d 80 10 be 7f 78 bf 3b 3d 73 da 3d 5f ac 0e be
       -0.14111467 0.0058432217 0.10666511 -0.13932942
0003a0 7b 4a 20 bc 43 f4 5d be 53 9b 38 bc ee b0 fe bc
       -0.0097833825 -0.2167521 -0.011267501 -0.031090226
0003b0 ee 97 32 be f2 66 1e 3e 7d b4 29 3e f8 4c bb bd
       -0.17440769 0.15468958 0.16572757 -0.0914554
0003c0 ea ee c1 bd f2 49 8f 3d 6a 22 45 3c b2 5a ea 3d
       -0.09469397 0.06996526 0.012032131 0.1144308
0003d0 f4 96 dd bd 16 bc 55 3e 4b a0 22 3e 09 00 58 3e
       -0.10819808 0.2087253 0.1588146 0.21093763
0003e0 92 15 ad 3d 99 80 f4 bc 18 11 50 be fc 4f d2 3d
       0.0845138 -0.029846476 -0.20319021 0.10269162
0003f0 bc 45 c7 3c 0b a1 13 3d 91 2b b9 bc 3c 02 ce 3d
       0.024325244 0.036042254 -0.022603782 0.1005902

bias f4 [6]
000000 66 bc 52 bd 69 ef 79 3d 6f a5 a1 3d d7 b2 39 bd
       -0.051449202 0.061019335 0.07892882 -0.04533657
000010 4e 3f b2 bc 84 eb b7 3d
       -0.021758702 0.08980468
