Q-Learning/Pong-Agent/Quantum Chaos_network.pt (torch, 149007 bytes, 8 tensors)

weight f4 [128, 22]
000000 8b 7b 94 3e bd 6f eb be e4 c0 8b be f3 73 75 bc
       0.29000506 -0.45983687 -0.272956 -0.014981258
000010 3c c1 98 3d 4a e7 4e be 05 03 09 3d 52 b0 3e be
       0.074587315 -0.20205417 0.033450145 -0.18621948
000020 b7 e7 38 be 15 04 e3 3d fa a1 29 be 12 8f 04 be
       -0.18057142 0.11084763 -0.16565695 -0.12945202
000030 f7 d4 ae be 60 27 0a 3e 39 ee 33 bd fa bb 7a bd
       -0.34146854 0.13491583 -0.04392836 -0.061214425
000040 03 dd 04 3e 89 da ad 3d df 8b dd bd 2f 8e 1d be
       0.12974934 0.08488948 -0.10817694 -0.1538627
000050 1a d4 73 be 4d c1 c8 3d d1 d0 36 be b8 69 eb be
       -0.23811379 0.09802494 -0.17853095 -0.45979095
000060 de 3f b5 bd ea af 20 be ea 9d 5a be 9d 00 d4 be
       -0.08850072 -0.15692106 -0.21349302 -0.41406718
000070 79 45 74 3e 25 63 c5 3d 52 ff 26 be b8 89 93 3d
       0.23854627 0.09638051 -0.16308334 0.07204002
000080 46 5a 57 bd ca 23 84 3e c1 2e d6 3d 33 8f 03 3d
       -0.052576326 0.25808555 0.10458136 0.032118987
000090 2a 81 52 bd f8 d5 86 bd 88 8b 8d 3d 8e 7c c7 3d
       -0.05139271 -0.0658378 0.06911379 0.09740554
0000a0 04 09 ab bd 4d 6b 20 be a7 65 10 3e 4f 90 ff 3d
       -0.08351329 -0.15665932 0.14101277 0.124786966
0000b0 7e 85 82 be 14 09 13 3e 4b 2a 33 3e e7 2c ea 3d
       -0.2549247 0.14358932 0.17496602 0.11434346
0000c0 94 e3 3b 3e 83 65 9e be 73 2a 95 3e 67 45 2b bc
       0.18348533 -0.30936822 0.2913395 -0.0104535585
0000d0 bb 55 3d 3d 0f cf 1e be 44 9a bf be 68 65 6a be
       0.046224337 -0.15508674 -0.37422383 -0.22890246
0000e0 4b 19 0d be a6 4b a8 3c 03 6b 33 3e 55 b0 d7 bd
       -0.1377918 0.020543884 0.1752129 -0.105316795
0000f0 39 6d 2c be 59 a9 43 be 00 b0 43 be 53 97 fa bc
       -0.1683854 -0.1910757 -0.19110107 -0.030589735
000100 8c b4 4c be af d7 1f 3e 79 a8 a5 bd f3 3b 69 3e
       -0.19990748 0.1560962 -0.08088774 0.22776775
000110 55 41 3a 3c 9b 6c 8d 3e 44 10 a5 3e 77 f7 f3 be
       0.011368115 0.27621922 0.32238972 -0.47649738
000120 ab 9c 82 3e cc 4a 9b be 36 dd ca 39 0c fa 01 3d
       0.25510153 -0.30330503 0.00038693257 0.031732604
000130 bd a2 e2 be 73 0b a6 3e 96 56 44 3e 42 09 28 3e
       -0.44264784 0.3243061 0.19173655 0.16409782
000140 ba b1 84 3e 4c 51 59 3e 59 6d ad 3c 3f 89 90 be
       0.25916845 0.21222419 0.021170305 -0.2822971
000150 2b 68 8c bd 30 b2 b8 3d b5 e7 11 bd a3 a6 76 3d
       -0.06855806 0.090183616 -0.035621364 0.06021751
000160 7d 50 4d 3d 7d 6a 6f be 5f f3 5a 3e 4f 17 d7 bc
       0.050125588 -0.23380466 0.21381901 -0.026256232
000170 ed 2e 38 3e a6 d1 b5 3d 44 bb 4c 3e 95 44 9b bd
       0.17986651 0.08877878 0.19993311 -0.0758144
000180 f6 24 69 be 37 29 c5 bb 0d f2 26 3e 87 72 18 3d
       -0.22768006 -0.006016876 0.16303273 0.037218597
000190 10 6b c3 bd 04 1a a7 3e a3 26 89 bd d4 b3 4d 3c
       -0.09541905 0.32637036 -0.066968225 0.012555081
0001a0 3e a2 56 3e 7b 59 50 be c7 65 91 3d c1 09 28 3e
       0.20960328 -0.20346634 0.070994906 0.16409971
0001b0 1a 3f 04 3e 28 41 e3 3d 86 e5 e0 bd 30 5e 16 bd
       0.12914696 0.11096412 -0.10981278 -0.036710918
0001c0 0a a0 eb ba 5a 58 8a be b9 52 5c bd 50 3c b4 be
       -0.0017976773 -0.27020532 -0.053789828 -0.35202265
0001d0 a3 ac 77 3c 8a 36 a0 be 7d 3c 4d be b0 ab d7 3d
       0.015116843 -0.3129161 -0.20042606 0.10530794
0001e0 66 d8 8e be cc 05 bf 3d 37 95 23 be f8 28 87 3d
       -0.27899474 0.093272775 -0.1597489 0.06599611
0001f0 0c ec b5 bd 6a f5 b0 3d 1c 00 88 be 94 10 a2 3e
       -0.08882913 0.08640559 -0.26562583 0.31653273
000200 1f 95 44 3e 7c 9d 8c bd aa bd db 3d 0f aa b6 be
       0.1919751 -0.06865975 0.10729535 -0.3567662
000210 8f 0f 04 bd d4 b2 a9 bd 03 88 36 3e 99 b3 1c 3e
       -0.0322414 -0.08286062 0.17825322 0.15302886
000220 79 a2 b5 bc 8f 9f 36 bd 27 39 33 3e ec 49 95 3d
       -0.0221722 -0.04458576 0.1750227 0.0728949
000230 d4 ea 3b 3e db 27 a7 3d 8e 71 8d 3d 01 4b a8 3d
       0.18351299 0.08161899 0.069064245 0.08217431
000240 8d 0a 1e 3e b2 19 e0 3d 1e d3 86 3b 07 fc 13 ba
       0.15433712 0.10942401 0.0041145226 -0.000564516
000250 02 81 41 bd 4a fa 42 be da 79 6c bd 32 bc 8c 3d
       -0.047242172 -0.1904079 -0.057733394 0.06871833
000260 27 0b c2 3c 0e c4 72 be 82 58 bd bc 3e ed 32 3e
       0.023686958 -0.23707601 -0.023113493 0.17473313
000270 2f 09 4d be 94 5b fd bc 10 f9 a6 bd a4 10 6e be
       -0.20023035 -0.030927457 -0.08152974 -0.23248535
000280 f0 e1 83 bd 1a 67 6d be de e5 1e be df 4f 37 3e
       -0.064395785 -0.23183861 -0.15517375 0.17901562
000290 77 64 42 bd 56 d0 fc bc c1 c0 1a bd 4f 47 5b bd
       -0.047459092 -0.030861061 -0.03778148 -0.053534802
0002a0 4c 40 b3 3d 68 af 1b be c1 36 a3 bd 3d 4d 38 3d
       0.08752498 -0.15203631 -0.07969428 0.044995535
0002b0 75 10 02 be 27 c2 03 3e 9b d3 18 be f4 e8 71 3e
       -0.1270159 0.12867032 -0.14924471 0.23624021
0002c0 13 ed 1a be 70 c1 b4 3e 0a 5e 55 3c 1c fd d0 3d
       -0.15129499 0.3530383 0.013022909 0.10204527
0002d0 31 8c 22 3a 57 d6 4c be 63 09 05 3c 70 84 5c 3e
       0.00062007 -0.20003639 0.008119914 0.21534896
0002e0 49 a5 a0 3d 91 76 f9 bd 14 73 bd bd 14 31 43 be
       0.07844026 -0.12180818 -0.09250465 -0.1906169
0002f0 f3 7d 5b 3e 47 81 bc 3b e7 15 c0 bd da f1 78 bd
       0.21434765 0.0057527157 -0.093791775 -0.060777523
000300 14 79 b3 bd 75 25 07 3e 03 18 1e 3d 96 e3 4d 3e
       -0.08763328 0.13197882 0.038597118 0.20106348
000310 12 a2 86 3d 61 af bf 3d 50 4e 00 be dc 75 e5 bd
       0.06573881 0.09359623 -0.12529874 -0.112041205
000320 71 36 21 3e cc b7 85 3d ae ff a3 3e 2f 4d b5 3e
       0.15743424 0.06529197 0.32031006 0.3541045
000330 52 5f 26 3d 15 15 e7 bd 15 dd a9 bd 04 16 2d 3e
       0.04061825 -0.11283318 -0.08294121 0.1690293
000340 35 b5 19 3e 87 1a f8 bd 36 87 23 3e ae 7b ae 3d
       0.15010531 -0.12114435 0.15969548 0.08519684
000350 5a 81 9e bd 47 1f bc bc e3 ab ec bd c9 86 04 3e
       -0.077395156 -0.022964133 -0.11556222 0.12942041
000360 ab ed e6 3d 08 3e 0f 3e f0 f4 be bd ea c8 38 be
       0.112758 0.13988507 -0.09324062 -0.18045393
000370 e9 1a e7 bd 81 61 08 3e 5f ee 16 be 6d 53 6a 3e
       -0.112844296 0.13318445 -0.14739369 0.22883387
000380 52 f5 5e be 06 9f 39 be 84 32 5e 3e 70 ad 8b 3e
       -0.2177327 -0.18127069 0.21698958 0.2728076
000390 05 f7 8b bd 2c 18 18 3e 0b 0c ca bd db 58 a1 3e
       -0.068342246 0.14852971 -0.09865578 0.31513104
0003a0 56 38 01 3e ca ac 65 3d 1b a2 e8 bd 23 88 5a 3d
       0.12619147 0.056072988 -0.11359044 0.053352486
0003b0 42 16 a9 be 29 af 97 be 81 db 3f be 8a de 53 3e
       -0.33024794 -0.29625824 -0.18736078 0.2069036
0003c0 16 ad 66 bc 27 9d 01 3e 1f 22 70 3e 63 b0 c8 bd
       -0.014079353 0.12657605 0.23450516 -0.09799268
0003d0 de 48 1f 3e 6a 89 01 be 01 8e ea bd 2a 80 43 be
       0.1555514 -0.12650076 -0.11452866 -0.1909186
0003e0 53 a8 1e be a1 2d 37 be 9c 36 a5 bb 5e 77 f1 bc
       -0.15493898 -0.178885 -0.0050419103 -0.029475864
0003f0 ed 92 93 3d 7b be 82 3e cf 8f 40 3c 0b e2 dc 3b
       0.07205758 0.2553595 0.011753037 0.0067408136

bias f4 [128]
000000 6b 0c d6 bd 1e 68 2d 3e 86 6b f1 bd 54 ee fe bd
       -0.10451587 0.16934249 -0.117880866 -0.12447801
000010 f8 61 09 bd 94 17 27 3d 4c ef 0d 3e 78 a3 55 be
       -0.033540696 0.04079397 0.13860816 -0.2086314
000020 6e c5 9e 3d 24 d5 52 3e 4c c9 36 be bb d9 bb 3d
       0.077525005 0.20589119 -0.17850226 0.09172388
000030 07 87 4b 3e 27 19 06 3e 26 23 60 bc d8 3e 1e be
       0.19875728 0.13095532 -0.013680255 -0.1545366
000040 03 f5 2b be 29 08 4a bd 75 3c 5b bd 38 43 55 3d
       -0.16792683 -0.04932419 -0.053524453 0.052066058
000050 0c e2 fc 3c e4 3d b4 bd 31 91 f5 3b c7 1f 6b be
       0.030869506 -0.08800867 0.007494115 -0.22961341
000060 4a 9a 0a 3c 67 45 8e 3d b8 31 88 3d ee cb e4 3d
       0.008459637 0.06946831 0.06650108 0.11171709
000070 c0 ef ff 3d 22 45 a2 bd 29 13 20 3e 07 b0 c8 3d
       0.124969006 -0.07923342 0.15632309 0.097991996
000080 a2 80 0a 3e e9 9e c3 bd 15 f4 eb 3d 75 14 cf bc
       0.13525632 -0.09551794 0.11521164 -0.02527831
000090 41 a5 7e 3c f2 be 4d 3e a1 ce 07 3e 95 a3 85 3d
       0.015542329 0.20092371 0.13262416 0.065253414
0000a0 2f e4 db 3d db 37 19 be 2d e4 28 3e aa 73 12 be
       0.10736882 -0.14962713 0.16493292 -0.14301935
0000b0 c8 2b 40 3e 9b 3f c4 bc 60 7f 3e 3e 90 57 58 3e
       0.18766701 -0.02395611 0.18603277 0.21127152
0000c0 b9 e1 ed 3d f2 f0 19 3e e7 01 df bb cb 57 26 3e
       0.11615319 0.1503332 -0.0068056467 0.16244428
0000d0 7c d7 ce bd c6 35 8a bc f9 a1 34 be 2d d3 b8 3d
       -0.10099694 -0.016871344 -0.17639913 0.090246536
0000e0 c3 6d 27 be 7f 68 ac 3d 20 7d 20 be c1 1a 43 bd
       -0.16350465 0.084183685 -0.15672731 -0.047632936
0000f0 94 94 61 3e 64 37 0d be 7a d8 9c 3d d1 6a c8 3d
       0.22029334 -0.13790661 0.07658477 0.097859986
000100 d3 f8 54 3e d3 7b ea 3d 51 8a 1a be 44 ea dd bd
       0.20798044 0.11449399 -0.15091826 -0.10835698
000110 86 62 26 bd ca 93 ff bd 99 d2 30 be f9 b0 9a bd
       -0.040621303 -0.124793604 -0.17267837 -0.07553286
000120 5a 22 bc 3d 45 c5 51 3e c6 b9 3d bc 69 12 4d 3d
       0.091862395 0.20485409 -0.011579936 0.050066385
000130 14 61 13 3e 0b 97 fc 3d 4d 64 1a 3e b4 21 d8 bd
       0.14392501 0.12333497 0.15077324 -0.10553303
000140 df cc 4b 3e 69 c7 97 3d 69 7c f7 3d 30 e5 85 3d
       0.19902371 0.07411081 0.12084276 0.06537855
000150 6e 60 b4 bd cd 32 2a 3d 62 5c 19 3c b5 97 bf bc
       -0.08807455 0.041552354 0.009360405 -0.02338777
000160 aa a9 db 3d 9c 76 2b be 71 2d 56 be 48 ad 15 be
       0.1072572 -0.16744465 -0.20915772 -0.14616883
000170 55 2b 40 3e de 10 97 bc 08 55 75 3c 6c 86 06 be
       0.1876653 -0.01844066 0.014973886 -0.13137215
000180 b8 ee 93 3d 79 60 8d 3d 2c 9a af 3c f8 d6 56 3e
       0.07223266 0.06903166 0.02143582 0.20980442
000190 b3 ce e4 bd c9 ad 18 3d e3 a8 3a bd d0 33 5f 3d
       -0.11172237 0.03727511 -0.04557122 0.05449277
0001a0 1e b7 9d 3d 82 63 16 bd dd b1 86 3c 50 dc 27 bd
       0.077009425 -0.03671599 0.016442234 -0.04098159
0001b0 c7 38 fc bd a2 f9 c5 bc f8 41 26 bd 39 e2 09 3d
       -0.12315517 -0.024166886 -0.040590256 0.03366301
0001c0 74 a8 22 be 07 20 ed 3d bb d9 09 be a8 8c 24 bd
       -0.15884572 0.11578374 -0.13461964 -0.040173203
0001d0 3b c7 2b 3e 82 3c f6 3c 76 d5 7e bd a2 f3 fb 3d
       0.16775219 0.03005815 -0.06221529 0.12302329
0001e0 58 2f db 3d 11 5c 7d 3e 33 e3 15 3d 0b 91 4e be
       0.107023895 0.24742152 0.036593627 -0.20172517
0001f0 a4 3f 3c 3e 3e 5f b6 3c 0e ee 19 3e 38 0b 21 3d
       0.18383652 0.022262212 0.15032217 0.03931734

weight f4 [128, 128]
000000 fc 7c 8b 3d 42 02 91 bb fe 9d 27 be ba fe 6b 3d
       0.06810948 -0.004425318 -0.16368863 0.057615973
000010 eb f5 ea 3d d8 b2 50 bd 51 60 10 bd 9e e2 95 3d
       0.114726864 -0.05095181 -0.035248104 0.073186144
000020 f5 44 de 3b 8a b7 de 3c 5a ff 0d be 52 49 6d bd
       0.0067831227 0.027187128 -0.1386694 -0.05793125
000030 5c d5 5d bd ec fa f0 3c 2f 8f b0 3e 12 06 92 be
       -0.054158553 0.029416524 0.3448424 -0.28520256
000040 19 17 c9 bd 4e 45 25 be d1 40 53 3d e1 21 e7 3d
       -0.09818859 -0.16139719 0.051575486 0.11285759
000050 38 43 71 3c 49 52 6d be cd bf 91 bd 03 d5 b3 be
       0.014725499 -0.2317592 -0.07116661 -0.35123453
000060 b8 ef 76 3e df c6 b9 bd ce 41 1f be 61 cb 76 bd
       0.24114883 -0.09071135 -0.15552446 -0.06025255
000070 11 b1 13 3e 3b b6 5d 3e 78 9b ae 3d 87 dd 45 3d
       0.14423014 0.21651547 0.08525747 0.048306968
000080 9c 36 19 3e af a6 24 bd f1 b1 e3 3d a3 c4 d9 bd
       0.14962238 -0.040198024 0.11117924 -0.106332086
000090 31 70 4a bd 31 3c eb 3d 6e 06 78 3c b6 ca 9e 3c
       -0.0494234 0.1148609 0.015138252 0.01938377
0000a0 ba c9 88 3e 17 fa 85 bd ac 5e d9 3d 3c 60 6f bd
       0.26716405 -0.065418415 0.1061376 -0.058441386
0000b0 0f 39 90 bd c2 da b2 3e a1 e0 a3 bc d4 dd d9 bc
       -0.07042133 0.34932524 -0.020004572 -0.026595034
0000c0 d2 18 70 3c 28 79 44 bd d7 fa a3 3d 2f 2c b9 3d
       0.014654355 -0.047967106 0.08006828 0.090416305
0000d0 3a de ee 3c 30 eb 18 bc b8 c2 11 3c 4b aa 05 bd
       0.0291587 -0.009333417 0.008896522 -0.032633107
0000e0 f6 a2 f6 bd 02 73 b5 3d 13 90 1f be b4 51 71 3e
       -0.12042801 0.088598266 -0.15582304 0.23566324
0000f0 10 44 2a 3d 15 05 2d 3d 9e e8 0a 3e 53 83 41 3e
       0.041568816 0.042241175 0.13565299 0.18897752
000100 bd 10 a4 3c fb 76 bf 3d a4 92 73 be d0 6b 3d bd
       0.020027513 0.093488656 -0.23786408 -0.046245396
000110 0d 6e 64 3e dd 08 0d be 43 00 03 3e d1 5a 02 3d
       0.22307606 -0.13772912 0.12793069 0.03182489
000120 af d3 14 be 9b 8e eb 3d ad da 0d be 7b 54 a3 3d
       -0.14533876 0.11501809 -0.1385295 0.07975098
000130 3d 1c 60 3d 2f 18 1d bd 31 eb 52 3d 8b e0 9f bd
       0.05471443 -0.03835314 0.051493827 -0.078065
000140 3c 21 e7 3c 87 aa 1e 3e 2b ad 44 3e ac 2e a2 3d
       0.02821409 0.15494739 0.19206683 0.07919058
000150 17 14 82 be 05 5d 70 3d 8d 02 62 3d 32 27 88 3d
       -0.25405952 0.05868246 0.055178214 0.06648101
000160 77 fd 76 bb 41 6e 04 be 59 f7 04 be 9c 4f 15 3d
       -0.0037687698 -0.12932684 -0.1298498 0.036452875
000170 6d 60 da 3d ef 97 9e 3d 75 26 83 3d e4 40 09 be
       0.10662923 0.07743823 0.064038195 -0.1340366
000180 00 a0 15 3d f6 c4 98 bd 84 82 1d 3e 7e e0 d8 bd
       0.03652954 -0.07459442 0.15381819 -0.105896935
000190 f7 2f 0f be 66 0a 25 bd 7a 9d 67 be 1e eb aa 3d
       -0.13983141 -0.04029312 -0.22618666 0.08345626
0001a0 0b 58 d4 3d f5 67 da 3d 0d 0b 98 bd db 27 6f bd
       0.10368355 0.106643595 -0.07423983 -0.05838762
0001b0 ff 69 5f be ab ac 55 bd 93 2b 30 3e dd 26 ed bb
       -0.21817778 -0.052166622 0.17204122 -0.007237299
0001c0 c5 2a 6b bd a0 10 03 bc 68 fa 0e be a2 16 28 bc
       -0.057413835 -0.007999569 -0.1396271 -0.010259302
0001d0 df 50 eb 3d 8d 2b 82 bd f6 ab c0 bc 4f 1e a9 3d
       0.11490034 -0.06355963 -0.023519497 0.08257734
0001e0 77 1c 11 bd f8 d2 79 bd 15 67 44 bd ed 06 96 be
       -0.035427537 -0.06099221 -0.04794987 -0.2930216
0001f0 03 d5 b8 3b 56 72 3a be e5 47 1f 3e 4a c7 ed bd
       0.0056406274 -0.18207678 0.1555477 -0.11610277
000200 7d 28 2a 3d 13 7b b7 3c b5 02 f3 3d 48 6e 03 3d
       0.04154252 0.022397554 0.11865751 0.032087594
000210 26 6f 25 be f4 2d 95 3c 86 8e 98 3b cd 8a 27 3e
       -0.16155681 0.018210389 0.004655662 0.16361542
000220 94 ab bd 3c bd b9 65 bd 24 54 be 3e ef 55 b5 3d
       0.023153104 -0.056085337 0.3717357 0.08854281
000230 ad 1d 3c bc 55 d1 65 3d 3e 69 bb be 4c 83 61 bd
       -0.011481685 0.056107838 -0.3660373 -0.055056855
000240 cf 94 c6 3d 2d 12 6a 3d 88 5b 96 bc af b9 27 bd
       0.09696352 0.05714624 -0.018354192 -0.040948566
000250 8b 1e 9f 3d 30 c0 18 bb 8d 43 91 bd b8 74 8e bb
       0.077694975 -0.0023307912 -0.070929624 -0.00434741
000260 cf f7 d2 be a2 d1 6b 3d c3 3a 82 bc ff d5 ce 3d
       -0.41204688 0.05757297 -0.01589716 0.1009941
000270 7e 56 1d bd 87 19 2e be 62 7a 27 bd 7e fd 65 be
       -0.038412564 -0.17001925 -0.040888198 -0.22459981
000280 4b ef cc bb 44 f1 95 bd ab 0d 8e bd c9 9e b3 3d
       -0.006254112 -0.073214084 -0.06936201 0.0877052
000290 73 73 8f 3d 17 73 f7 3c ed 79 b0 3d 38 4e 8d be
       0.07004442 0.030206246 0.086170055 -0.2759874
0002a0 a8 4f ff bd 37 6c 8f 3c d2 df f9 bc 71 c4 4b be
       -0.12466365 0.017507656 -0.030502234 -0.19899155
0002b0 0d b2 d2 3d 86 54 71 be 8a 7e a1 3d bb c2 17 bd
       0.10287867 -0.235674 0.078854635 -0.037050944
0002c0 43 c4 aa bd 27 d5 7d 3d a5 8b c8 bc ef e7 5b bd
       -0.08338215 0.061970856 -0.02448065 -0.053687986
0002d0 dc 34 14 bd 23 9e 8b 3d d6 05 e6 bd 75 6a 24 3d
       -0.036183223 0.068172716 -0.11231582 0.040140588
0002e0 be ed 9f bd 4c e9 ee be 01 2c 71 3e 0a 9f 7a be
       -0.078090176 -0.46662366 0.23551942 -0.24474731
0002f0 1b 43 7b 3c ad 96 9c be 8a 07 f8 be 0d 71 b7 be
       0.015335823 -0.30583706 -0.48443252 -0.35828438
000300 28 80 8a bd 57 f8 24 39 13 9b f1 bc 34 65 bb bd
       -0.06762725 0.00015732773 -0.02949289 -0.09150162
000310 dc 1e b6 be 55 70 1a 3e be 3b dc be 3c 7c a2 3d
       -0.3557042 0.15081914 -0.4301433 0.07933852
000320 80 11 92 bd ac ed b9 bd 37 9c 42 3d 6e 5d 3c be
       -0.07132244 -0.090785354 0.04751226 -0.18395016
000330 a1 ee 0e 3d a4 29 30 3a ed 29 ea 3c 48 08 15 3e
       0.034895543 0.0006720072 0.028584445 0.1455394
000340 2c 6c 9d 3d 64 2a b4 be e0 53 a4 be 59 d5 90 bd
       0.07686648 -0.3518859 -0.32095242 -0.07071943
000350 60 57 05 3e d8 42 8d 3d 1f d9 4d bf ba e6 5d 3d
       0.13021612 0.06897515 -0.80409425 0.054175116
000360 47 24 5c bd 13 f1 2f 3d bc fc 2c 3e 3c 84 d0 3c
       -0.053745534 0.042954516 0.16893286 0.02545368
000370 73 c4 1b bf 63 b8 a3 3d 29 01 db 3d dd 9b 12 3e
       -0.6084663 0.07994153 0.10693581 0.1431727
000380 d0 06 ce 3c b8 81 bd 3d 02 13 bd 3c f3 9e 75 3d
       0.025149733 0.092532575 0.023080353 0.05996604
000390 e6 fb 49 3d 77 9b cd 3d da 04 22 bd 81 a1 5f 3c
       0.049312495 0.10039418 -0.039555408 0.013649345
0003a0 10 4a e4 bd 24 3d 8f be fa 11 33 bd e3 68 0a 3e
       -0.11146939 -0.27976334 -0.043718316 0.13516574
0003b0 a5 57 16 3e 89 9e 57 3d bc 53 90 be 03 31 bc 3d
       0.14681871 0.052641425 -0.28188884 0.09189036
0003c0 d9 c4 f4 3c d7 41 b5 3d 2c 9a af 3d 4d 76 ea 3d
       0.02987902 0.088504486 0.08574328 0.11448345
0003d0 3b a3 92 be ca 8f ba 3d 3c 33 36 be 04 6b a5 bd
       -0.2864016 0.09109457 -0.17792982 -0.08077052
0003e0 ef 21 4c 3c 82 77 e7 bc c9 c0 17 3e d2 c6 0e 3e
       0.012459262 -0.028255228 0.14819635 0.13943031
0003f0 fa cf 9a 3d 28 f9 28 3d 86 a8 8a be 8d f7 b1 bd
       0.075592 0.04125324 -0.27081698 -0.08689795

bias f4 [128]
000000 e4 4b e0 3d 33 47 6b 3d fa df e0 3c e9 03 bb 3d
       0.10951975 0.057440948 0.02745055 0.09131605
000010 4a 95 ae 3d e9 5b 23 3e 8d 5c 3e bd a7 74 70 3d
       0.085245684 0.1595303 -0.046474982 0.058705
000020 1e 7b c4 3d 54 85 dd 3c 2d df 1a 3e 79 76 db bc
       0.09593795 0.027041115 0.15124197 -0.02678989
000030 34 bd 82 3d 2a a0 ef 3d ca f6 11 be 89 58 ff 3c
       0.06383744 0.11700471 -0.14254299 0.031170147
000040 c7 76 a5 3d ec 7c bb 3d 29 bb 89 3c ea 1c 92 3d
       0.080792956 0.09154686 0.016812878 0.07134421
000050 71 dc a2 bc 13 9c 63 bd da 36 0a 3d 13 b7 56 bd
       -0.019880505 -0.055568766 0.033743717 -0.052420687
000060 93 d4 c7 3c 65 01 01 bd e0 bb c7 3d ca 18 05 3e
       0.024393355 -0.03149547 0.09752631 0.12997738
000070 d0 42 5b 3d ad 92 f4 bc 70 ed c3 3d 93 4b 16 3d
       0.053530514 -0.029855097 0.09566772 0.036693167
000080 b4 c9 f0 3c 7f a8 cb bc 19 54 53 bb 12 0d 40 bc
       0.029393055 -0.024860619 -0.003224617 -0.011721866
000090 0d b9 ef bc 8c 6e d7 3c 73 af 9f 3d c9 0e 9c 3d
       -0.029263044 0.02629783 0.07797136 0.076200075
0000a0 ce 5a d2 3d 54 f2 2d 3d 4c 54 d5 3c 64 31 8d 3d
       0.10271226 0.04246743 0.026041172 0.06894186
0000b0 07 84 e3 3b 93 8f aa bd 6f 3b 03 3e 1c e1 33 bd
       0.006943229 -0.08328166 0.12815641 -0.043915853
0000c0 61 b6 3e bd 27 04 51 3c 73 6c 2e 3d 83 96 86 3d
       -0.04656065 0.012757338 0.042583894 0.065716766
0000d0 e4 00 1b 3d 83 43 29 3d 21 1b 35 3d ac a4 38 3d
       0.037842646 0.04132415 0.044215325 0.04507892
0000e0 7a 24 88 3d 2c 6b 9a ba a6 75 96 3d 2d a7 34 bd
       0.06647582 -0.0011781207 0.073466584 -0.044104744
0000f0 6b 31 09 bd 66 f2 8d bc e1 57 e5 bc 5c 47 81 bd
       -0.033494394 -0.017327499 -0.027996005 -0.06312439
000100 19 06 e3 bb f3 14 51 bc 3c 9b c9 3d 26 47 bc 3d
       -0.006928217 -0.012761342 0.09844062 0.09193258
000110 43 2d f9 3d 75 52 ec bb b6 d5 db bc b8 a4 da bd
       0.12166836 -0.007211978 -0.026835304 -0.10675949
000120 5b d7 12 3c de ee 64 3d 93 8b bd bd 80 7f 85 bd
       0.008962478 0.055891864 -0.09255137 -0.06518459
000130 9f 2e 5c bc af c9 8e 3d 65 e4 17 bd ba f1 05 3e
       -0.01343885 0.06972062 -0.03708305 0.13080493
000140 02 53 90 bc 00 50 b2 3d ee 6c c4 3d 09 4b 2a 3d
       -0.017617706 0.08706665 0.09591089 0.041575465
000150 10 7c 4d bc d5 8c 27 3c 16 d1 3b 3d e3 70 31 bd
       -0.012541786 0.010226448 0.045853697 -0.043320548
000160 bd c4 63 3d 9b 81 f9 bb dd d8 d4 3d 46 a3 16 bd
       0.055607546 -0.007614327 0.10392926 -0.036776803
000170 67 1b 36 bd 93 de a9 bd e1 f4 b2 3d 82 64 aa bd
       -0.044459727 -0.08294406 0.08738113 -0.083199516
000180 7f 2b 78 3d 58 f1 ee 3c 7e 0d 2c bd 5b 35 5d 3d
       0.060588356 0.029167816 -0.042005055 0.054005962
000190 7a 47 24 3d a8 85 49 3d 51 e4 20 3d f5 d4 94 bd
       0.040107228 0.04919973 0.03928024 -0.07267181
0001a0 41 1a f8 3c a3 58 ec 3c 33 df b1 3b 51 c3 60 bc
       0.030285956 0.028850859 0.0054282187 -0.013718442
0001b0 8f 22 ba 3d 96 96 2d bd b7 ce 01 3c ba d9 55 3b
       0.09088623 -0.042379938 0.00792282 0.0032630996
0001c0 1f 54 2c 3e 50 09 03 3e cd 5b d3 39 17 6c a5 bd
       0.16828965 0.12796521 0.00040313453 -0.08077257
0001d0 5f 5a 6d 3c 97 8b be 3d 3c 8c c0 ba 2c b2 c8 3d
       0.014486878 0.093039684 -0.0014690231 0.097996086
0001e0 82 9b 8b 3c 29 f1 6e 3d 9e b4 1b bc 67 cd 70 bd
       0.017041925 0.058335457 -0.009503512 -0.058789637
0001f0 1f cf ca 3d d0 75 9c 3d 3c 1f b3 3d 8f 49 7d 3d
       0.099027865 0.076396585 0.08746192 0.06183773

weight f4 [128, 128]
000000 2e bc a4 3d 95 c2 75 3d 4c e7 b2 3d 1b 8b 73 bd
       0.08043705 0.06000002 0.08735523 -0.059458833
000010 18 82 90 be 0a 8e 80 3c b6 fb e7 bd 3f 56 1e bb
       -0.28224254 0.01569273 -0.11327307 -0.0024160293
000020 7e cb 0f be 0f 3d 98 bd 39 e3 e2 3d 3e bf c1 3d
       -0.1404247 -0.07433521 0.110784955 0.09460305
000030 17 0f 5f be 29 6a a2 be 7f 58 7a 3b af 33 c6 3d
       -0.217831 -0.3172162 0.003819972 0.096778266
000040 2b b4 81 3e 57 4b 1d bd a1 cd 3c 3c f2 e0 93 be
       0.2533277 -0.038401928 0.011523635 -0.28882557
000050 8f af b4 3e 11 b9 51 3e ca 3e 95 be dd 43 30 3d
       0.3529019 0.20480753 -0.29149467 0.04303347
000060 76 e6 c6 3d 71 cf 8c bc ce 13 4c bd 4e 96 d9 bd
       0.09711926 -0.01718876 -0.049823575 -0.106243715
000070 d2 7d 8f bd a1 49 8d be f9 1c 8d be a7 6b a4 bd
       -0.0700642 -0.27595237 -0.27561167 -0.080283456
000080 d7 88 5b 3e 68 e8 1f 3f 6f 85 cc be f9 93 96 3e
       0.21438919 0.62464 -0.39945552 0.2940977
000090 bf ba ac 3e 18 d1 09 bd bb 5c 73 3e 64 7b a0 bd
       0.33736226 -0.033646673 0.23765843 -0.07836035
0000a0 b8 ef e4 3e 08 2e 8f be 5f b1 9d 3e ff 57 a3 3d
       0.4471414 -0.27964807 0.30799386 0.07975768
0000b0 98 b9 40 3f 8f 81 57 3e 72 94 30 3c d2 9c 34 be
       0.75283194 0.21045516 0.01077758 -0.17637947
0000c0 62 9c 14 3e 71 4a 57 3b 1b 24 a9 3e 27 66 34 be
       0.1451278 0.0032850767 0.3303536 -0.17617093
0000d0 6a 2d 7a be fa 47 c8 bc 4d 1d c6 bd a7 0c de be
       -0.24431387 -0.024448384 -0.096735574 -0.43369028
0000e0 08 f1 a4 bd 61 33 bb 39 0f b8 ae 3e c1 ce 8f bc
       -0.080537856 0.000357057 0.341248 -0.017554643
0000f0 88 c1 51 be d8 c2 b1 3e 17 29 c7 3d 05 dc b8 3d
       -0.20483983 0.34718966 0.09724634 0.090263404
000100 23 84 07 3d f3 db 75 be 54 e7 49 be 8b 08 23 be
       0.033085 -0.24009685 -0.19717151 -0.15921228
000110 83 09 ab bd 21 b9 d5 bc 5f e5 ad be ca d8 2d be
       -0.083514236 -0.026089253 -0.3396406 -0.1697723
000120 46 45 36 be 3e c3 83 be 4d 12 bc be 7d 60 6a 3e
       -0.17799863 -0.25734895 -0.36732712 0.2288837
000130 d0 5d 0c 3f 35 45 18 3e b5 c1 db bd bd cb 66 3d
       0.54830647 0.1487015 -0.10730306 0.056346644
000140 a0 0d ea bd 0d b3 02 bb e1 fc d6 bd eb 00 47 3e
       -0.1142838 -0.0019943148 -0.104974516 0.19433944
000150 29 3b e3 bd 86 c2 bf 3c 33 88 d8 3c 25 30 42 be
       -0.11095268 0.023408186 0.026432132 -0.18963678
000160 f3 58 13 3e ca 79 eb 3e e2 49 40 be c7 a9 93 be
       0.143894 0.45991355 -0.18778184 -0.28840467
000170 1a 88 3f 3d 07 88 8e bd b5 f2 2a be f0 42 29 3e
       0.046760656 -0.06959539 -0.16694148 0.16529441
000180 ad 92 b5 39 32 d4 8b 3d b1 11 c9 3e 32 5c 7f 3e
       0.00034632292 0.068275824 0.3927131 0.24937513
000190 42 66 ab 3c b8 9d 93 3e 28 fe 63 3c 88 8f aa bd
       0.020922784 0.28831267 0.013915576 -0.08328158
0001a0 c6 e1 f8 3c bd b0 a7 be c5 e7 93 be 64 40 df be
       0.030381095 -0.32752028 -0.28887764 -0.43603814
0001b0 a6 3e ac bb 0e 02 28 bd d7 4b c6 bd 04 be b4 be
       -0.0052564917 -0.041017585 -0.09682434 -0.3530122
0001c0 b2 d3 ab 3d 6f 4e 83 3d 94 a9 45 3e c4 9f 87 bd
       0.08389987 0.064114444 0.1930297 -0.0662227
0001d0 b7 5a 28 3b 8b f8 1c 3e ab 65 a6 bd 4d 20 a4 3e
       0.0025688836 0.15329187 -0.081248604 0.32055894
0001e0 48 13 c1 3d 0a 89 ea bd 90 cc 01 3e e9 2f ac 3d
       0.09427506 -0.114519194 0.1267569 0.08407576
0001f0 b4 9e cc 3c 81 8e 86 3c 50 c4 e2 bd 5c 6c 46 3e
       0.02497802 0.016425373 -0.110726 0.19377273
000200 5b 31 08 bd 67 23 b7 bd 4d a6 a3 3e 44 44 ed 3c
       -0.033250194 -0.08942299 0.31962815 0.028963216
000210 c3 8e 87 3d cc 8d da 3d f4 05 4b 3d 01 94 22 bc
       0.066190265 0.10671577 0.049566224 -0.009922982
000220 c0 3d d7 3d 31 25 41 be a6 fa ef 3d 7d 2f a6 3d
       0.10509825 -0.18861844 0.11717729 0.081145264
000230 a2 2b 0d 3c d7 a7 b7 3d 07 1a 08 bd e1 2a 24 be
       0.00861636 0.0896756 -0.033227947 -0.16031982
000240 9c 27 cf be c1 bb ca 3d af 16 db bc b6 48 f0 3d
       -0.40459907 0.098990925 -0.026744215 0.117326185
000250 99 26 a7 be 9c 7a 96 3e fc 36 2c bc 34 64 c5 3c
       -0.32646635 0.2939042 -0.010511156 0.024095632
000260 c3 84 6f 3e 0f b6 ce be 2f 76 4e bc 9b 23 53 bc
       0.23390488 -0.40373275 -0.012601419 -0.012886907
000270 46 36 d0 3c ff d8 d0 bd b1 c0 17 3d c7 62 c3 3d
       0.025416505 -0.10197639 0.037049 0.09540325
000280 5d ea d8 bd 49 75 3a bd cf 2c 08 3d bf f5 86 bd
       -0.10591576 -0.045522008 0.033245858 -0.06589841
000290 99 97 24 3e 4c e7 e3 bc 17 72 76 be ec 11 5b bd
       0.16073455 -0.027820252 -0.2406696 -0.05348389
0002a0 f1 f0 e6 bd 38 e2 2c be 11 17 17 be 9c 40 af 3c
       -0.11276425 -0.1688317 -0.14754893 0.021393113
0002b0 dd e3 60 be b1 8a b6 bd 83 1e 6a 3d b9 e8 b9 be
       -0.21961923 -0.08913172 0.057158004 -0.36310366
0002c0 f3 39 30 3e aa c8 bb be f7 77 20 be 00 c6 5d bd
       0.17209606 -0.36676532 -0.15670763 -0.054143906
0002d0 bd 88 8d bd 80 64 0a bd aa 89 93 be 86 85 6e 3d
       -0.069108464 -0.03378725 -0.28815967 0.058232807
0002e0 79 32 d4 bd 81 00 b5 bd c1 1f 9b bc e7 84 ee be
       -0.103611894 -0.08837987 -0.01893604 -0.4658577
0002f0 71 59 82 3e 71 12 29 be 31 08 24 bd 78 c7 3f 3e
       0.25458863 -0.16510941 -0.040046874 0.18728435
000300 9b 86 9d 3c 8d 2d 26 3d 59 c2 ac 3b 74 2a b0 3c
       0.019229224 0.040570784 0.0052721915 0.021504618
000310 4f 1a 2a 3e 32 dc f0 bd 26 8a 92 bd aa 45 bb bd
       0.16611598 -0.11760749 -0.07155256 -0.09144147
000320 a4 47 38 bd 53 86 8d 3d 44 b9 94 3b 87 5c eb bb
       -0.044990197 0.06910386 0.004538687 -0.007182661
000330 e7 87 2c be e1 68 f5 3a 1b 8f 13 be f7 55 80 3d
       -0.16848718 0.0018723273 -0.14410059 0.062663965
000340 9c 08 d5 3c 13 3b a9 be 32 89 ad 3e e6 1f a1 bc
       0.026005082 -0.33052883 0.33893734 -0.01966853
000350 cc 66 92 3d 12 19 d6 3d 66 da 1d bd ec bf 10 3d
       0.07148513 0.104540005 -0.03853836 0.03533928
000360 6f 4e 3c bd fb 2d 14 3e 3b 8a 20 3c 46 cd 20 bd
       -0.045973238 0.14470665 0.009798582 -0.039258264
000370 b0 ff ac bd eb 6d be be 7b 50 e8 3b 8d 99 d1 be
       -0.08447206 -0.37193236 0.007089672 -0.40937462
000380 e4 96 49 3d 15 9c 28 3d 66 6d b0 3d da 15 ab be
       0.049216166 0.041164476 0.08614616 -0.3341511
000390 4e c2 65 3d 6f 86 52 be 7c 3d e9 be a7 3d 88 bd
       0.056093507 -0.20559095 -0.4555472 -0.06652384
0003a0 c8 e1 ab bd a7 31 fd bb e4 a1 ba bc 2e db 88 3d
       -0.08392674 -0.0077268663 -0.022782274 0.0668243
0003b0 f0 fa c7 3d 5f df 98 bd 56 ef 6f be d2 0e 57 3c
       0.097646594 -0.0746448 -0.23431143 0.013126092
0003c0 bc de c9 bc 96 d9 80 3d 89 cc e1 be 2b b7 eb bd
       -0.02464234 0.06291501 -0.4410136 -0.11509546
0003d0 ee 94 cf bd 5d 02 3d bc 68 c4 e4 be 72 17 95 be
       -0.10135828 -0.011536208 -0.44681096 -0.2911945
0003e0 d3 7c 14 bd 17 9c b9 3d 36 55 05 bb e3 86 1f bd
       -0.036251854 0.09062975 -0.002034498 -0.038946997
0003f0 d9 61 bc bc c9 ee f2 3d 3b c7 91 3c 93 10 e0 3d
       -0.022995876 0.11861951 0.017795196 0.10940661

bias f4 [128]
000000 24 a6 31 bd 96 06 61 bb 3e c7 45 3d 91 b7 86 bd
       -0.043371335 -0.00343362 0.048285715 -0.06577981
000010 9f f1 68 bd 5c e7 14 bd 39 10 45 3d 52 b6 12 3e
       -0.056871053 -0.036353454 0.048111174 0.14327362
000020 1c 98 0d 3d 59 0f b7 bc e9 f1 d1 ba fd e9 5a 3d
       0.03456889 -0.022346186 -0.0016017529 0.053445805
000030 24 c7 dd 3d fb 1a 2f bb c0 b3 16 bd ee bb eb 3d
       0.10828999 -0.0026718962 -0.036792517 0.11510454
000040 af d3 c2 3d bc 7c ba 3d 0d 04 af ba 08 42 91 bc
       0.09513032 0.091058224 -0.0013352648 -0.017731681
000050 9f eb 22 3d a2 db 3b 3d be 79 55 3b 8b 52 fe 3c
       0.039775487 0.045863755 0.0032573785 0.031045219
000060 a8 10 2f 3c 03 ae d4 3d 89 38 e3 3c 24 0e 95 3d
       0.0106851235 0.103847526 0.027736919 0.07278088
000070 f7 20 b8 3d d3 ba c6 3d 15 a5 a0 3d 15 44 11 3c
       0.089906625 0.09703603 0.07843987 0.00886633
000080 79 c0 ac 3d 35 17 b8 3d 20 71 d9 3d 2a 16 d0 3d
       0.08435149 0.089888014 0.1061728 0.101604775
000090 35 04 8e bb ed e9 50 bd c9 48 af bb 78 bd dc 3c
       -0.0043339976 -0.05100434 -0.005349253 0.026945814
0000a0 7d 80 ec 3d dd a2 c1 3c 5d 30 b9 3d 8e fa b7 3d
       0.11547945 0.02363723 0.09042428 0.089833364
0000b0 7a a2 c3 3d 01 51 92 3d cc d2 9b 3c a6 1b dd 3d
       0.09552474 0.071443565 0.019021414 0.10796289
0000c0 f7 24 6c bd 27 07 5a 3d 55 d9 2a 3c d8 54 f2 3b
       -0.05765244 0.053229477 0.010427793 0.007395368
0000d0 73 ee da 3d f0 f4 d2 3d 06 40 04 3e 93 b0 7f bc
       0.10690012 0.10300624 0.12915048 -0.015606063
0000e0 b4 2f b8 3d f4 c6 b5 3d 9a 2c 84 3d 40 fb 44 3d
       0.08993474 0.08875838 0.064538196 0.048091173
0000f0 fc 02 55 bb 15 a5 5b 3d ad 16 ad bc e6 e6 a0 3d
       -0.0032503 0.05362423 -0.021128977 0.078565404
000100 98 ac 32 3d a2 64 53 3c fe cb e8 3c 6b 15 01 bd
       0.04362163 0.012902411 0.028417584 -0.031514566
000110 24 8e ad bc 8b ad f2 3d 47 f7 47 3c 9c 96 d0 bd
       -0.021185942 0.11849507 0.012204952 -0.101849765
000120 a5 6b d8 3d 89 a5 8d 3d 36 37 11 3e 33 20 25 3d
       0.105674066 0.06916339 0.14181218 0.04031391
000130 b2 d2 40 3d d2 68 07 3e b3 69 63 3d 7a 14 7c 3a
       0.047075935 0.1322358 0.055520725 0.00096160884
000140 d8 c7 c6 bd 46 10 e6 bc a8 bd d0 3d d7 6b 6a 3d
       -0.09706086 -0.028083932 0.10192424 0.05723175
000150 83 91 96 3b 8e 22 a4 3d f3 85 3a 3c 7a 16 7e 3d
       0.004594983 0.08014403 0.011384475 0.062033154
000160 76 57 81 3d 11 28 95 3d fd c0 95 3c ac 3e d2 3d
       0.0631551 0.07283033 0.0182805 0.1026586
000170 5c 4e e5 bc 41 ca 5f 3d b6 50 33 3d 1d 9d 0a 3d
       -0.027991466 0.054636244 0.043778144 0.03384124
000180 b4 f4 9e 3c dc 8b 8c 3c 78 53 85 3d 6a 33 16 3d
       0.019403793 0.017156534 0.06510061 0.036670126
000190 34 5b 95 3d 22 b4 74 bc d7 2c 39 3d f2 24 e6 3c
       0.07292786 -0.014935525 0.04520878 0.028093789
0001a0 3b 7f c6 3c cc 5b 06 bd 40 13 9c bc e8 97 02 3e
       0.02423059 -0.032802388 -0.019052148 0.1275326
0001b0 ed bf 0b bd 16 36 36 3d f5 93 29 3d 43 a1 f5 3a
       -0.03411858 0.044485174 0.04140087 0.0018740076
0001c0 31 66 7a bd 93 5f 39 bd 4f 12 74 3d 27 5e 4e bb
       -0.061132614 -0.045257162 0.059587773 -0.0031489225
0001d0 98 79 26 bd f1 10 dc 3d 83 c2 dc 3c 0e 0b 92 bd
       -0.040643305 0.10745419 0.02694822 -0.07131015
0001e0 77 58 b9 3d ef 82 eb 3d 1d 3f ab bc 8d f6 4a 3d
       0.090500765 0.11499583 -0.020904118 0.049551535
0001f0 ad 2e 62 bc 3e f0 16 bc 67 88 8d 3d 6d 51 e0 3d
       -0.013805074 -0.009212552 0.06910782 0.10953031

weight f4 [3, 128]
000000 d1 0b 8f 3e 2a 56 5c 3e ad 3e 03 3e 6c 39 dd be
       0.27938703 0.21517244 0.12816878 -0.43207872
000010 10 85 bf be 1b b7 23 be f8 ae da be 26 ed 3c be
       -0.37406206 -0.15987818 -0.42711616 -0.1844984
000020 78 c5 0d bf 88 6a 84 be 8c 8d 65 be 8b 68 25 be
       -0.5537944 -0.25862527 -0.22417277 -0.16153161
000030 c7 d7 91 3d 10 1b cb bd 3a af 6e 3e 53 a4 ac be
       0.071212344 -0.09917271 0.23309031 -0.3371912
000040 cd b6 2d 3e 95 cc c5 3d 9b 78 85 bd 0a a4 c1 be
       0.16964264 0.096581616 -0.06517144 -0.37820464
000050 8e f4 91 3d b8 fc cd 3e c2 f7 28 bf 8c 69 ef be
       0.07126723 0.40231872 -0.6600305 -0.46760213
000060 40 59 97 3d 2e 44 9a be cc ec a0 ba 73 e1 11 be
       0.0739007 -0.30130142 -0.0012277602 -0.14246158
000070 3c 1d 56 3e ad 27 41 3d 7a 50 df 3d 17 75 e9 be
       0.2090959 0.04715698 0.109040216 -0.45597145
000080 5a 2b 50 3d e1 b7 e3 3d f8 d7 3c 3e 7a 9c ae be
       0.050822593 0.111190565 0.1844176 -0.34103757
000090 ef 02 62 bd 70 1f c5 be 97 4f 51 3e 8b 98 94 bd
       -0.05517858 -0.38500547 0.20440517 -0.07255658
0000a0 aa 59 01 bf d7 93 67 be e5 f4 dc be 53 e3 39 3e
       -0.5052744 -0.2261499 -0.4315559 0.18153124
0000b0 e8 c2 f7 be 41 69 ef be 6b 12 05 3e b0 da 14 3e
       -0.4839089 -0.4675999 0.12995307 0.14536548
0000c0 42 06 8a 3d c5 d4 ca be 05 ed 27 be 54 7a 0a bf
       0.06739475 -0.39615455 -0.1639901 -0.5409291
0000d0 f5 03 c3 3d ca e8 f5 be 2f 91 03 bf 65 70 ac bb
       0.09522239 -0.48029166 -0.5139341 -0.005262422
0000e0 7f 1d 0a 3e f6 15 31 3e 45 6e cb be b4 6b 26 3e
       0.13487814 0.17293534 -0.39732566 0.16252023
0000f0 22 a1 80 3e 47 fb 03 bf af 1b 29 3e 55 18 15 3d
       0.25122935 -0.51555294 0.16514467 0.036400158
000100 f9 9f 3c 3d 73 80 22 bf 57 f3 f3 be 40 4a 28 bf
       0.046051 -0.6347725 -0.4764659 -0.65738297
000110 cc 5c 23 bf 23 b0 e2 bd e3 f5 4e 3e ce 53 41 3e
       -0.6381347 -0.11068752 0.20210986 0.18879625
000120 74 8a b8 3d fb ea 34 3d 7a 4f 05 3c 57 7a e7 be
       0.09010783 0.044169407 0.0081366245 -0.45210525
000130 15 8c 9f 3d 01 a6 f2 3d 08 5f 24 3e 92 69 2b 3e
       0.077903904 0.11848069 0.16051877 0.1673949
000140 02 4c 53 3e da d0 92 3e db c7 db be 6a ee f0 3d
       0.20634463 0.28674966 -0.42925915 0.11764224
000150 27 0b ac 3e 68 f1 0a be f1 66 21 3e 59 4d 73 3d
       0.3360226 -0.13568652 0.15761925 0.059399936
000160 55 28 19 3e 66 b4 5d be 8d de 18 bd ba a2 0c be
       0.14956792 -0.21650848 -0.037321616 -0.1373395
000170 6b 2a a1 3d 28 41 09 bf 1a ed 57 bd fe 63 da be
       0.07869419 -0.53615046 -0.052716352 -0.42654413
000180 db 43 a3 3e 48 62 20 3e 75 c4 00 be 0c dc ed 3d
       0.31887707 0.15662491 -0.12574942 0.11614236
000190 8c bf c7 3d 41 72 c8 be e4 fa b7 3d 80 62 0a 3e
       0.097533315 -0.3914967 0.089834005 0.13514137
0001a0 f7 08 40 3b 69 6c 82 3b b2 73 5e 3e 49 06 81 bd
       0.0029302218 0.0039802087 0.21723822 -0.06300027
0001b0 6c b6 a8 3d ea 48 84 bd da e4 0a bf 57 22 bb bd
       0.08237919 -0.0645922 -0.5425545 -0.09137409
0001c0 5a 08 12 bd 55 86 80 bd 61 42 1f bf 2d 31 93 3d
       -0.035652496 -0.06275622 -0.6221066 0.07187114
0001d0 8e 2c 81 3d 3b fd 4e 3e b8 d3 db 3d 33 34 2c 3e
       0.06307326 0.20213787 0.107337415 0.16816787
0001e0 9d c5 b2 be 2e 09 33 bd 98 36 c0 3e 8a e4 a4 3d
       -0.34916392 -0.043709926 0.37541652 0.08051403
0001f0 aa e7 3f bf 85 af 46 3e fa d5 2a 3e 78 1e 12 3e
       -0.74962866 0.19402893 0.16683188 0.14269435
000200 5a 16 b3 3e c6 3f 04 3e 09 65 ff 3d 97 df b9 be
       0.3497799 0.12914953 0.12470443 -0.36303398
000210 c2 90 4e be 52 58 83 be 35 22 73 3e 5b 67 9e be
       -0.20172408 -0.2565332 0.23743518 -0.3093823
000220 d4 31 d1 bc d3 4c ce be 9d ee f9 be a0 be fe 3e
       -0.025536455 -0.40292987 -0.4881486 0.4975481
000230 ca 41 87 3e cf 68 d0 be c2 72 25 3e 6d 9c b1 be
       0.2641738 -0.40704963 0.16157058 -0.34689656
000240 56 de 70 3d 20 a8 cc 3d a8 90 91 3e ca dd 8c bd
       0.058805786 0.09993005 0.28430676 -0.068782404
000250 3d 0d e4 3d a3 cd 0c be 6d 4a 8b 3e ba 51 94 be
       0.111353375 -0.13750319 0.2720522 -0.28968602
000260 f9 28 59 3e 67 e2 e0 3d 82 74 dd 3d 6a 8c 97 be
       0.21207036 0.10980683 0.10813238 -0.29599315
000270 0c 11 0b be bb 0c dd 3d 49 bf b7 3d f1 f0 41 be
       -0.13580722 0.10793444 0.089720316 -0.18939568
000280 f5 ab 29 3e f9 9c 10 3e 7f 08 0b 3e a5 07 0f be
       0.16569503 0.1412238 0.1357746 -0.1396776
000290 b8 20 ba be a2 88 a2 be aa cf 1f 3e 8e 64 df be
       -0.36353087 -0.31744868 0.15606561 -0.43631405
0002a0 75 43 b0 be 2c 41 c0 be ef 59 59 be ff 59 c8 3d
       -0.34426466 -0.37549722 -0.21225713 0.097827904
0002b0 9f 01 a2 be 7c bc ad be da 9e f5 3d f2 32 09 3e
       -0.31641862 -0.33932865 0.11993189 0.1339834
0002c0 20 a8 10 3e e7 3c a7 be 9f 13 bb be 84 29 e7 be
       0.14126635 -0.32663652 -0.36538407 -0.4514886
0002d0 f6 c9 d6 3d 43 61 08 be be af 9e be 63 fa 1d 3e
       0.1048774 -0.13318352 -0.30993456 0.15427546
0002e0 e1 bb 20 3e d8 f4 33 3e 25 b6 d9 be dc 59 3f 3e
       0.1569667 0.17573869 -0.42521778 0.18686622
0002f0 ee 50 2f 3e 64 68 35 be 63 c4 26 bd 35 e0 80 3d
       0.17120716 -0.17715603 -0.040714633 0.06292764
000300 2a c4 9a be 33 17 78 be e4 58 63 bd f6 a8 27 be
       -0.30227786 -0.242276 -0.055504695 -0.16373047
000310 25 ce a4 bd 08 6e c9 be 9d 97 9b 3e 1a 01 1d 3e
       -0.080471314 -0.3934176 0.3038911 0.15332451
000320 db 17 30 3e a3 32 b5 3d 23 43 24 3e 4c bb b2 be
       0.171966 0.08847549 0.16041236 -0.3490852
000330 68 28 c3 3d 4b 04 04 3d 7e 30 e5 3d 6d b1 91 3c
       0.09529191 0.032230657 0.1119089 0.017784799
000340 3a 14 43 3e 70 a6 2e 3e 68 c0 d0 be d2 5f 69 3e
       0.19050685 0.17055678 -0.40771794 0.22790459
000350 65 2a 27 be f3 62 bb be e9 47 ea 3d 1f 80 d1 3d
       -0.16324766 -0.3659893 0.11439497 0.10229515
000360 91 21 c7 3d 1a bc 36 be 29 b4 63 3e 71 d2 f8 be
       0.09723199 -0.17845193 0.22236694 -0.48598054
000370 ce 0f 86 3d 7e 70 24 be 7c 3d 25 3e 12 01 d0 be
       0.06545983 -0.16058537 0.16136736 -0.40625817
000380 2d 3c b6 3d c7 a2 b7 be 12 e7 77 be 91 c9 8a 3d
       0.08898196 -0.35866377 -0.2420924 0.06776727
000390 a4 19 00 bc 8a e8 f0 be 6d 65 34 3e c0 9f 32 3e
       -0.007818613 -0.47052413 0.17616816 0.17443752
0003a0 d3 3d 9f be b3 1d 1b be cd 0e 11 be 6f fc a1 be
       -0.31101856 -0.15148048 -0.14165802 -0.31637904
0003b0 5c f9 08 be 0e 52 8e be bb e2 69 be 36 0a 9e be
       -0.13376373 -0.27796978 -0.22840397 -0.30867165
0003c0 a1 e3 42 3e 49 19 cc 3d 98 75 4f be 34 b6 03 3e
       0.19032146 0.0996576 -0.20259702 0.12862474
0003d0 d8 ba 39 3e d3 c8 4e 3e 3d de 89 be 8e 3c 91 bd
       0.18137681 0.20193796 -0.26927367 -0.07091628
0003e0 7f 6f 1d bf b5 4d a2 be 6e 58 8a 3e ce f5 0c 3e
       -0.61498255 -0.3169991 0.27020591 0.13765642
0003f0 dd 3a 05 bf db 7b f9 3d 3c 32 a7 3d f1 2b a7 be
       -0.52042943 0.12181827 0.08163878 -0.32650712

bias f4 [3]
000000 f5 ad 28 3d 0e 5c d8 bd 3b 71 99 3c
       0.041181523 -0.10564433 0.01873075
