Policy-Gradients/Poker-Agent/checkpoint_35000.pt (torch, 227369 bytes, 8 tensors)

weight f4 [256, 55]
-0.015460308 -0.038164113 -0.09080796 -0.026967557 0.123427905 0.1535617 -0.03685916 0.037444696
0.08439147 0.08814926 0.1240003 0.0019941172 0.109640405 0.081001386 0.027382558 0.14807205
0.10363902 -0.025846064 -0.011034137 0.11045096 -0.061501548 -0.13950686 -0.046118043 -0.0115178265
-0.0096339155 -0.096917145 -0.10519017 -0.06708393 -0.04682575 0.10118942 -0.1015077 0.0037601648
-0.06426285 0.059690222 0.08628676 -0.09033115 0.027603623 -0.08968008 0.07824208 0.051800016
-0.05391326 -0.0961331 0.10364502 -0.085197486 -0.07613556 0.04554751 -0.03441488 0.036192734
0.011730501 0.02094832 -0.10521237 -0.066670746 0.014303387 -0.026138276 0.12241027 0.07632686
-0.10841808 0.08562747 0.04348628 -0.113425344 -0.0802112 0.11054248 -0.0112540405 -0.054911226
-0.035091188 0.08836057 -0.055685114 -0.0067033544 -0.12595366 0.06963834 -0.007166695 0.09858812
0.12774001 -0.132006 -0.0755159 0.10545732 0.0067477305 0.15217671 -0.07396773 0.04301569
0.022828301 0.069104925 -0.034311224 0.118289284 -0.0024969694 0.004826067 -0.11787902 0.11762055
-0.08942519 0.055892196 -0.046773527 0.04190104 -0.093978964 0.08969132 -0.12242234 -0.100608036
-0.05543422 -0.036510516 0.123414695 -0.044173554 0.07813396 -0.047863 0.09870554 -0.03511539
-0.057839304 0.09490025 -0.05052221 -0.0094097685 0.06455452 -0.07644007 -0.09244312 0.11129352
0.08756938 0.057472225 0.150123 0.08769512 0.08445427 0.078187376 0.093835436 -0.12247343
0.06646522 0.13069987 0.06678314 -0.0014994548 0.11894191 0.047748744 0.07731883 0.122078426
0.0040927553 0.08567342 0.000664451 0.036486797 0.018598279 0.117560595 -0.0076151425 -0.13417879
-0.05243853 0.14432153 -0.048979677 0.05869467 -0.10155896 0.012775091 0.054662958 0.11322535
-0.010259008 -0.07827768 0.106942035 -0.03162117 -0.06056079 0.08362191 -0.031186929 0.054000232
0.12874041 -0.069912136 -0.08662944 -0.09934514 -0.012390122 -0.118873455 0.04628809 -0.009400457
0.11624681 -0.087268256 0.13325286 -0.07782686 0.10369133 -0.029574508 -0.05590474 0.05615427
0.11812157 -0.029264633 -0.00780523 0.059342116 0.12505436 0.2183059 -0.1107313 0.013677736
0.13326664 -0.05294807 0.0506737 -0.091285944 0.06858792 -0.08417233 0.027255965 0.13700792
-0.076960534 0.08635304 -0.14045618 0.124499574 0.119156264 0.18298161 0.029895464 0.011204294
-0.065470554 0.044739865 -0.02471714 -0.086169876 -0.0026489783 -0.0021689038 0.08629635 0.051284052
-0.0142349275 -0.039178878 -0.0852336 -0.019400822 0.100438684 0.032024115 -0.1279405 -0.04521906
0.11399876 -0.07426973 -0.13381916 -0.13475083 -0.0087473 0.096991345 0.06496814 -0.013706154
0.07494135 -0.003041232 0.062878415 0.044690017 0.053235807 0.12775853 -0.088316076 -0.11867323
0.037552502 -0.10798511 -0.038917746 0.073799394 -0.18019336 -0.053998433 -0.09309553 -0.030025404
0.07766591 0.121427916 -0.08491323 -0.06556746 -0.13433851 0.113022566 0.08632112 0.13076356
-0.14454952 -0.076837786 -0.07715807 -0.026043557 0.011204608 -0.104841255 0.022393508 -0.059272267
-0.08101205 -0.11309441 0.14279369 0.050988384 0.06216596 0.058127336 0.0788813 -0.119846046
00000000: 3b4d 7dbc f951 1cbd 86f9 b9bd 11eb dcbc
00000010: c5c7 fc3d 473f 1d3e a1f9 16bd 9c5f 193d
00000020: 6fd5 ac3d 9987 b43d dff3 fd3d bcaf 023b
00000030: 268b e03d 0ee4 a53d 6351 e03c 33a0 173e
00000040: b240 d43d 20bb d3bc 86c8 34bc 1d34 e23d
00000050: 0ce9 7bbd e3da 0ebe 46e6 3cbd 44b5 3cbc
00000060: 92d7 1dbc 7f7c c6bd f26d d7bd 4d63 89bd
00000070: 5ccc 3fbd 663c cf3d 45e3 cfbd 196d 763b
00000080: 3e9c 83bd bc7d 743d 1db7 b03d 8aff b8bd
00000090: fe20 e23c 31aa b7bd 623d a03d 412c 543d
000000a0: 27d4 5cbd 6ee1 c4bd d743 d43d 057c aebd
000000b0: f6ec 9bbd 0790 3a3d 9ef6 0cbd d53e 143d
000000c0: 4a31 403c d09b ab3c 9579 d7bd ac8a 88bd
000000d0: c158 6a3c f01f d6bc 3cb2 fa3d 4251 9c3d
000000e0: 4c0a debd 745d af3d ab1e 323d 8c4b e8bd
000000f0: c545 a4bd 1964 e23d de62 38bc 98ea 60bd
00000100: c7bb 0fbd 63f6 b43d 1316 64bd d0a7 dbbb
00000110: fff9 00be 8c9e 8e3d 98d6 eabb 91e8 c93d
00000120: 47ce 023e 952c 07be 15a8 9abd 02fa d73d
00000130: 111c dd3b 36d4 1b3e 657c 97bd 3831 303d
00000140: 6b02 bb3c e286 8d3d ed89 0cbd a741 f23d
00000150: 32a4 23bb fc23 9e3b 8e6a f1bd 0be3 f03d
00000160: 8e24 b7bd 37ef 643d 9995 3fbd 6da0 2b3d
00000170: 0b78 c0bd 15b0 b73d 90b8 fabd 960b cebd
00000180: fe0e 63bd 0d8c 15bd d8c0 fc3d 54ef 34bd
00000190: b304 a03d fe0b 44bd 2126 ca3d 28d5 0fbd
000001a0: e8e8 6cbd 105b c23d 60f0 4ebd 6e2b 1abc
000001b0: 2935 843d 9d8c 9cbd d252 bdbd dbed e33d
000001c0: 9357 b33d ff67 6b3d d8b9 193e 8099 b33d
000001d0: 5cf6 ac3d b420 a03d cb2c c03d 5ad3 fabd
000001e0: eb1e 883d 30d6 053e 99c5 883d 5b89 c4ba
000001f0: d197 f33d 3094 433d 5659 9e3d 4104 fa3d
00000200: 851c 863b 8c75 af3d 8d2e 2e3a 2e73 153d
00000210: 6b5b 983c 9cc3 f03d 7288 f9bb 2a66 09be
00000220: c9c9 56bd 06c9 133e ea9e 48bd d369 703d
00000230: 25fe cfbd 9e4e 513c 44e6 5f3d b1e2 e73d
00000240: 6615 28bc 0c50 a0bd 6d04 db3d 3385 01bd
00000250: 970e 78bd f741 ab3d bb7b ffbc 592f 5d3d
00000260: 87d4 033e 182e 8fbd c76a b1bd 7775 cbbd
00000270: f0ff 4abc ed73 f3bd 9598 3d3d 6004 1abc
00000280: cf12 ee3d b3b9 b2bd 7073 083e b063 9fbd
00000290: 1f5c d43d 3d46 f2bc 5efc 64bd 0502 663d
000002a0: b9e9 f13d 62bc efbc 04c3 ffbb b810 733d
000002b0: 400e 003e 958b 5f3e 18c7 e2bd 9518 603c
000002c0: 0d77 083e 13e0 58bd 3a8f 4f3d 20f4 babd
000002d0: d377 8c3d 8b62 acbd e747 df3c ce4b 0c3e
000002e0: 7c9d 9dbd ddd9 b03d bfd3 0fbe a2f9 fe3d
000002f0: 3308 f43d 885f 3b3e 55e7 f43c 3792 373c
00000300: 6d15 86bd 2641 373d 997b cabc d579 b0bd
00000310: 7b9a 2dbb 2b24 0ebb 24bc b03d 3a0f 523d
00000320: 9d39 69bc 087a 20bd f48e aebd 79ee 9ebc
00000330: ccb2 cd3d b82b 033d d602 03be 9f37 39bd
00000340: 2f78 e93d ba1a 98bd e407 09be 1ffc 09be
00000350: d650 0fbc 66a3 c63d 040e 853d c78f 60bc
00000360: da7a 993d 684f 47bb 66c6 803d e10c 373d
00000370: ca0d 5a3d 22d3 023e 0fdf b4bd f30a f3bd
00000380: a7d0 193d 4c27 ddbd 3768 1fbd 2324 973d
00000390: 9c84 38be 762d 5dbd dfa8 bebd d6f7 f5bc
000003a0: 4e0f 9f3d 33af f83d fde6 adbd 3c48 86bd
000003b0: 0990 09be 6078 e73d 21c9 b03d e2e6 053e
000003c0: ca04 14be 215d 9dbd 0d05 9ebd 4c59 d5bc
000003d0: 8893 373c 03b7 d6bd 9772 b73c 7ac7 72bd
000003e0: a5e9 a5bd 0b9e e7bd 8238 123e 32d9 503d
000003f0: bca1 7e3d ee16 6e3d 858c a13d d871 f5bd

bias f4 [256]
0.007282853 0.084431954 -0.08556966 0.01568817 -0.025197744 0.14123157 -0.060442995 -0.05600905
-0.024899846 -0.05914307 0.015477686 -0.10417415 0.087731995 0.05535859 0.12967542 0.133149
-0.010686008 0.096448496 0.052136637 0.09871241 0.09874696 0.0972973 -0.047558766 0.12334511
0.073742375 -0.090918384 0.039551806 0.1295623 -0.021223357 0.092626326 0.14756663 -0.02280898
-0.00566444 0.06695618 -0.013399608 0.0081902435 0.11028887 -0.055024207 0.00038446495 -0.066635884
0.124410756 0.16552086 -0.032918718 0.10509289 0.02084633 0.118004486 0.14736992 0.08159668
-0.10813402 0.12590396 -0.1012551 0.11133284 -0.0031529712 -0.13011748 0.0035582904 0.084234215
-0.09584669 0.07418135 -0.12029548 0.044887505 -0.09462068 -0.00017156279 0.013608275 -0.028647957
0.0011276996 0.018946651 -0.03526277 0.15562448 0.029732652 0.0786016 -0.1100967 -0.050713334
-0.08074879 0.049218874 -0.09311108 0.14676215 0.06651895 0.16567856 0.09166881 -0.109456405
-0.020294322 -0.012153227 0.12793198 -0.00475059 -0.12337702 0.07545847 0.048080426 -0.08805101
-0.105371304 0.024968302 -0.13772446 -0.113485195 0.063552536 0.037863176 0.021058984 -0.046309512
-0.08651989 0.08644863 0.012827054 0.061671685 -0.13453867 0.042553823 -0.0682224 -0.10849952
0.10677369 0.11481222 -0.023849677 -0.031440493 0.16378674 -0.095877685 -0.014598445 0.11902153
0.106022514 0.040658884 0.019468118 0.03268797 -0.119506255 -0.08724111 0.1051971 0.03051474
-0.03189003 -0.07466403 0.061337356 -0.11865425 0.03385196 0.053642634 -0.116117045 -0.05991549
0.09728223 0.11743556 -0.10057711 0.091083005 -0.02416093 0.057351902 0.005619013 -0.05363976
0.053693708 0.05904629 -0.014591825 -0.0804741 0.063916944 -0.118195646 0.068551295 -0.041189115
-0.07276609 -0.002268954 -0.11279505 0.048198238 0.026557745 0.15620653 -0.05365218 0.007955777
0.043709412 -0.10506124 -0.12751101 0.10836816 0.07794497 0.09544535 0.110685065 -0.05910759
0.019504253 0.06576956 0.07644111 0.09225716 0.14267676 0.12892918 -0.046421956 0.10413026
0.15561743 0.013292965 -0.095137596 0.030469738 -0.057288364 0.09454677 0.07546905 0.11361785
-0.002479718 -0.05353121 -0.10187915 0.08252646 0.11525794 -0.038903624 -0.077563204 -0.037842896
0.0063230135 -0.10016103 0.057928164 0.14664425 0.112678096 -0.099409245 -0.108147345 0.0953612
0.03483788 0.11947399 0.09555086 0.08640526 0.046538945 0.022319984 -0.0373779 0.08543184
-0.055918608 0.015931934 -0.09211876 0.11746121 0.077334605 -0.027257474 0.021460203 0.021691177
-0.07706841 -0.051676877 0.011350994 0.1075315 -0.04403903 0.11582005 -0.107371375 0.033104014
-0.024998596 -0.016373398 0.03155114 0.010240123 -0.11615644 0.16287468 -0.07565336 0.0540521
-0.055782393 0.1606457 -0.09773978 0.08366318 0.010563687 0.11179786 -0.10059291 -0.11525949
0.1005249 0.031249862 -0.01565582 0.07917046 -0.029645981 -0.05179115 0.08539466 -0.022329342
0.06530399 0.050672486 0.016755013 0.025781704 -0.030402433 0.12912737 -0.033724006 0.10099723
0.06387687 0.118128516 -0.03131618 0.03383516 0.053866845 0.079561606 -0.027798682 0.06110004
00000000: 00a5 ee3b a9ea ac3d 253f afbd 7a84 803c
00000010: 806b cebc 029f 103e 1393 77bd bf69 65bd
00000020: c3fa cbbc 0140 72bd 1f96 7d3c 4259 d5bd
00000030: d5ac b33d b0bf 623d a2c9 043e 3658 083e
00000040: 5e14 2fbc ca86 c53d 3a8d 553d bb29 ca3d
00000050: d93b ca3d cf43 c73d fbcc 42bd 5c9c fc3d
00000060: 3e06 973d 6b33 babd 1301 223d fbab 043e
00000070: 9bdc adbc dfb2 bd3d b51b 173e e6d9 babc
00000080: c49c b9bb 5220 893d 088a 5bbc 5f30 063c
00000090: 22df e13d 1061 61bd 0392 c939 6578 88bd
000000a0: 11cb fe3d 4d7e 293e c7d5 06bd f13a d73d
000000b0: ecc5 aa3c 56ac f13d 24e8 163e 291c a73d
000000c0: 5e75 ddbd f8ec 003e d55e cfbd 7902 e43d
000000d0: 14a2 4ebb 843d 05be 3532 693b fd82 ac3d
000000e0: 454b c4bd 64ec 973d 7a5d f6bd f6db 373d
000000f0: 7dc8 c1bd 89e5 33b9 3ef5 5e3c 1faf eabc
00000100: 52cf 933a 0236 9b3c b26f 10bd 065c 1f3e
00000110: e491 f33c e0f9 a03d 617a e1bd c9b8 4fbd
00000120: 9f5f a5bd bb99 493d 06b1 bebd d148 163e
00000130: 163b 883d a4a7 293e dbbc bb3d ae2a e0bd
00000140: 4740 a6bc 541e 47bc 9a00 033e d6aa 9bbb
00000150: 17ad fcbd f889 9a3d fbef 443d 1754 b4bd
00000160: e9cc d7bd 538a cc3c a407 0dbe ed6a e8bd
00000170: d527 823d 6b16 1b3d e483 ac3c 0baf 3dbd
00000180: 5731 b1bd fb0b b13d 9028 523c 739b 7c3d
00000190: 81c4 09be eb4c 2e3d 30b8 8bbd ff34 debd
000001a0: 2aac da3d ab22 eb3d 6660 c3bc bfc7 00bd
000001b0: b6b7 273e 855b c4bd 512e 6fbc 8fc1 f33d
000001c0: 5522 d93d ee89 263d 9a7b 9f3c d2e3 053d
000001d0: b2bf f4bd 78ab b2bd 9471 d73d 0cfa f93c
000001e0: 1f9f 02bd 74e9 98bd e13c 7b3d 0001 f3bd
000001f0: 5aa8 0a3d 61b8 5b3d c6ce edbd f269 75bd
00000200: e83b c73d 0e82 f03d 5ffb cdbd ba89 ba3d
00000210: 25ed c5bc d4e9 6a3d b31f b83b 5db5 5bbd
00000220: efed 5b3d 86da 713d 8d12 6fbc 9bcf a4bd
00000230: e3e6 823d 8f10 f2bd 9f64 8c3d ebb5 28bd
00000240: 6306 95bd bbb2 14bb 1701 e7bd 846b 453d
00000250: a18f d93c 9bf4 1f3e 63c2 5bbd f358 023c
00000260: a408 333d 592a d7bd 3f92 02be 20f0 dd3d
00000270: 9da1 9f3d da78 c33d daae e23d cd1a 72bd
00000280: 62c7 9f3c 31b2 863d 288d 9c3d 52f1 bc3d
00000290: db19 123e 0306 043e f324 3ebd 3f42 d53d
000002a0: 2d5a 1f3e bcca 593c 80d7 c2bd ac9b f93c
000002b0: 34a7 6abd bda1 c13d 848f 9a3d 7ab0 e83d
000002c0: c482 22bb 8b43 5bbd 04a6 d0bd a203 a93d
000002d0: 5b0c ec3d 6859 1fbd 75d9 9ebd 2701 1bbd
000002e0: 4831 cf3b 3a21 cdbd 1546 6d3d e929 163e
000002f0: c6c3 e63d 1397 cbbd 5b7c ddbd bc4c c33d
00000300: 2ab2 0e3d c7ae f43d 2bb0 c33d 3ef5 b03d
00000310: 9f9f 3e3d 66d8 b63c 9219 19bd e3f6 ae3d
00000320: e90a 65bd b083 823c c3a8 bcbd 818f f03d
00000330: 9b61 9e3d 114b dfbc 4fcd af3c b2b1 b13c
00000340: 0bd6 9dbd 22ab 53bd 85f9 393c 7a39 dc3d
00000350: 4562 34bd 1033 ed3d 86e5 dbbd 1398 073d
00000360: dbc9 ccbc 8121 86bc c53b 013d 30c6 273c
00000370: 6de3 edbd 9fc8 263e 26f0 9abd bc65 5d3d
00000380: 147c 64bd 4e80 243e cb2b c8bd 9a57 ab3d
00000390: 5113 2d3c 47f6 e43d a803 cebd 2b0d ecbd
000003a0: 00e0 cd3d b6ff ff3c a240 80bc 1f24 a23d
000003b0: 21dc f2bc f522 54bd 65e3 ae3d 06ec b6bc
000003c0: 19be 853d f48d 4f3d cf41 893c 2734 d33c
000003d0: 860e f9bc f739 043e 2f22 0abd a3d7 ce3d
000003e0: e0d1 823d 5ded f13d 6545 00bd bd96 0a3d
000003f0: 7ba3 5c3d 32f1 a23d 10ba e3bc 0944 7a3d

weight f4 [128, 256]
0.0837421 -0.0058925087 0.047401104 0.042128634 -0.04659583 0.054305386 0.03909323 0.08253959
-0.03767035 -0.021091223 0.026656717 0.048423268 0.011817858 0.045302242 -0.03448935 0.08831618
0.052870546 0.00985424 0.04116788 -0.05409795 -0.028044013 -0.040534858 0.03661664 -0.032015588
0.038863175 -0.037708215 0.04722731 0.045958374 0.09199419 -0.030001525 -0.03415436 0.025647096
0.026163375 0.039889608 0.09056016 -0.030525573 0.031976473 0.047377683 -0.10001044 0.0077764313
0.055269357 -0.0459988 0.0016288668 0.028369064 -0.044861007 0.04913023 0.042692434 0.03590752
0.060223304 0.0052961665 -0.0009832949 -0.021140914 -0.007812838 0.058085416 -0.069974676 0.07460174
0.040212367 0.025003467 0.05805653 -0.021079805 -0.03804108 0.03618081 0.0072427243 -0.015808841
-0.003570883 0.00363674 -0.03715208 -0.0011987138 0.021842955 0.0149890715 0.02808955 -0.058527015
0.0071854442 0.040267646 -0.0057541206 -0.073953435 -0.013682446 -0.045171455 0.050816435 0.07172952
0.072096996 -0.03292621 0.029170152 0.06748654 -0.027970558 -0.004396075 0.060310554 0.05601397
0.009516314 0.05664356 -0.041962463 0.013594031 0.04609777 -0.044211514 -0.012222118 -0.021444103
-0.004849207 0.06461503 0.07579343 0.04788683 -0.023521546 0.014275252 -0.044321526 0.050748896
-0.05195148 -0.014910375 -0.0016289876 -0.049767513 -0.05510825 -0.0282074 -0.05818134 0.033997558
-0.060036384 -0.05996808 0.06308591 0.04696485 -0.0042505716 0.04975946 0.014397135 0.07411459
0.056028374 0.043617666 0.0549205 -0.0056845406 -0.059886567 0.05109169 0.045358077 0.028760456
-0.028379858 -0.05128101 0.038092986 0.0074993805 -0.0039165146 0.07569112 0.08571837 -0.013988701
-0.065586306 0.057361845 -0.0384601 0.010035051 -0.0131995175 0.070571706 -0.0044427714 0.1005677
0.044267908 0.0069419276 0.028507804 -0.05052495 0.013978034 0.028589742 -0.0033358228 -0.060198538
-0.0063642045 0.048981983 0.027973084 0.0065597454 0.008501007 0.015545213 -0.0049039586 -0.024181828
0.035542194 -0.010212553 -0.045460973 0.01689185 0.044131834 0.020691516 0.046912182 -0.008804291
0.056562666 0.051564466 0.03803285 -0.011273338 0.060089823 -0.0014345569 -0.06318947 0.009138857
0.0725518 0.015993116 0.060181193 0.011047554 -0.022040771 -0.016270908 -0.048277922 -0.021130748
-0.04431836 -0.03074257 -0.036491137 0.015401504 0.047725067 0.090402804 0.046996877 0.00080891966
0.0215389 0.06264665 -0.061686903 0.018700032 0.049638618 -0.058058508 0.007722946 -0.08030526
0.04750684 0.0650262 -0.0030031453 -0.0011795176 -0.0234971 -0.038421355 0.0010719757 0.044893797
0.06535603 0.061314087 -0.005396731 0.012301043 -0.028066859 -0.042465404 -0.0018897518 0.025392013
-0.0077437754 0.0044105654 0.0043461574 0.009931688 -0.050834175 0.06010181 -0.0007779251 0.07415883
-0.057554808 0.003430814 0.07732517 0.019623172 -0.0035089655 0.07808387 0.002719305 0.051236775
0.058946535 -0.029043574 0.023815889 -0.021715468 -0.06951322 0.038721923 -0.073456146 0.014071185
0.020661077 -0.024672356 0.050620403 0.09430897 0.07983209 0.051999066 -0.019281812 0.055452958
-0.026817925 -0.002372887 -0.03123887 -0.018505389 0.018448103 -0.01108988 -0.050868154 -0.03370578
00000000: fa80 ab3d f215 c1bb a927 423d 138f 2c3d
00000010: 45db 3ebd 536f 5e3d 3920 203d 840a a93d
00000020: 3a4c 1abd 80c7 acbc 305f da3c 7a57 463d
00000030: b09f 413c d88e 393d b444 0dbd 1ddf b43d
00000040: c98e 583d ae73 213c a79f 283d d095 5dbd
00000050: 8fbc e5bc e107 26bd 54fb 153d c722 03bd
00000060: fe2e 1f3d ee73 1abd 6c71 413d d93e 3c3d
00000070: 7367 bc3d c2c5 f5bc 71e5 0bbd dc19 d23c
00000080: 9354 d63c 4963 233d 9b77 b93d c410 fabc
00000090: c3f9 023d 1a0f 423d 46d2 ccbd 6fd1 fe3b
000000a0: 1f62 623d 3d69 3cbd b37f d53a 3d66 e83c
000000b0: 2dc0 37bd c83c 493d 43de 2e3d c413 133d
000000c0: b6ac 763d 778b ad3b e7e1 80ba b62f adbc
000000d0: 6b01 00bc f9ea 6d3d e24e 8fbd ccc8 983d
000000e0: b9b5 243d 12d4 cc3c afcc 6d3d 8eaf acbc
000000f0: f7d0 1bbd 5432 143d 6054 ed3b 8b81 81bc
00000100: 7a05 6abb 5f56 6e3b c82c 18bd 291e 9dba
00000110: ffef b23c b994 753c 0e1c e63c 06ba 6fbd
00000120: e073 eb3b b0ef 243d 108d bcbb e674 97bd
00000130: 572c 60bc b405 39bd e524 503d ede6 923d
00000140: 97a7 933d a2dd 06bd 3ef6 ee3c 6236 8a3d
00000150: 8322 e5bc f30c 90bb 3308 773d e86e 653d
00000160: 50ea 1b3c 1403 683d d5e0 2bbd 80b9 5e3c
00000170: 04d1 3c3d 2217 35bd 473f 48bc 8bab afbc
00000180: 19e6 9ebb e354 843d 9639 9b3d fb24 443d
00000190: 42b0 c0bc bfe2 693c 7d8a 35bd 13de 4f3d
000001a0: 13cb 54bd a54a 74bc c183 d5ba 05d9 4bbd
000001b0: 30b9 61bd 3513 e7bc 8f4f 6ebd 0641 0b3d
000001c0: b6e8 75bd 17a1 75bd 3033 813d 375e 403d
000001d0: 6148 8bbb 93d0 4b3d f6e1 6b3c 64c9 973d
000001e0: 027e 653d 70a8 323d 51f4 603d 6245 babb
000001f0: 9e4b 75bd 8545 513d 64c9 393d 0c9b eb3c
00000200: e07c e8bc 090c 52bd 6407 1c3d 5dbd f53b
00000210: 1b56 80bb f203 9b3d 1d8d af3d dd30 65bc
00000220: 1d52 86bd 41f4 6a3d 5688 1dbd 0e6a 243c
00000230: ca42 58bc e687 903d ab94 91bb 70f6 cd3d
00000240: 4452 353d 1c79 e33b 3389 e93c 40f3 4ebd
00000250: 2004 653c 0935 ea3c d29d 5abb be92 76bd
00000260: d18a d0bb 55a1 483d cf27 e53c 22f3 d63b
00000270: cf47 0b3c 59b1 7e3c 63b1 a0bb f818 c6bc
00000280: b194 113d 8d52 27bc 4935 3abd c760 8a3c
00000290: 95c3 343d 4181 a93c fd26 403d df3f 10bc
000002a0: 41ae 673d 4335 533d 55c8 1b3d cfb3 38bc
000002b0: bf20 763d be07 bcba 7b69 81bd 25bb 153c
000002c0: 0a96 943d ff03 833c 8e80 763d cd00 353c
000002d0: d98e b4bc 914a 85bc 12bf 45bd 641a adbc
000002e0: 2b87 35bd d8d7 fbbc bb77 15bd 9756 7c3c
000002f0: 5c7b 433d 1b25 b93d cc7f 403d ae0d 543a
00000300: 5972 b03c e34c 803d 68ab 7cbd cf30 993c
00000310: dd51 4b3d c2ce 6dbd c410 fd3b 1677 a4bd
00000320: 8896 423d 752c 853d 6bd0 44bb 0b9a 9aba
00000330: fe7c c0bc b65f 1dbd 8981 8c3a 8fe2 373d
00000340: 62d9 853d 7b24 7b3d 10d7 b0bb 508a 493c
00000350: 78ec e5bc 34f0 2dbd 8cb1 f7ba e902 d03c
00000360: 7fbf fdbb 8186 903b 366a 8e3b 85b8 223c
00000370: 7f37 50bd 512d 763d abed 4bba 96e0 973d
00000380: 97be 6bbd 82d7 603b a95c 9e3d c6c0 a03c
00000390: acf6 65bb 70ea 9f3d 5e36 323b a7dd 513d
000003a0: ec71 713d caec edbc 8a19 c33c a3e4 b1bc
000003b0: f25c 8ebd e19a 1e3d 2d70 96bd d48a 663c
000003c0: 6b41 a93c ae1d cabc 5757 4f3d 1025 c13d
000003d0: 027f a33d f9fc 543d e4f4 9dbc a422 633d
000003e0: 44b1 dbbc 7082 1bbb a9e8 ffbc 9d98 97bc
000003f0: 7a20 973c 54b2 35bc 205b 50bd 120f 0abd

bias f4 [128]
-0.03732055 -0.0046043578 0.07062072 0.009780411 0.028987927 0.02698851 -0.009673205 -0.02695971
0.043743018 -0.016394103 0.02896505 -0.025063802 -0.03644093 0.044343304 0.025117695 -0.0033884551
0.026399914 -0.026565919 0.049681474 0.048325576 0.041374825 0.02867713 -0.040929217 -0.031106256
0.059741635 -0.037793178 -0.0453106 0.05879048 -0.073525295 0.045350097 0.05601634 0.07258302
0.0066152825 0.064330235 0.0010351863 -0.037348025 0.034311116 0.0080052335 -0.019995246 0.038828798
0.044619728 -0.012597794 0.05113179 -0.02559589 0.019411266 0.053161524 0.057585895 -0.04413332
-0.046722792 0.022332875 0.030324392 -0.05716072 -0.028024875 0.029421696 0.028366834 0.026317656
0.06725551 0.0013051566 -0.0124866655 0.037680324 -0.064300515 -0.024506854 0.026331294 0.0053454223
0.004409499 -0.010692306 0.035033725 -0.046423163 0.047818854 -0.039658017 0.0024337603 -0.031976778
-0.011845287 0.025193233 0.025808292 0.0094229635 -0.0012970455 0.08191877 0.05724103 -0.007448202
0.0446983 0.049059547 0.06409016 0.017057396 -0.065242596 0.063556835 -0.0392221 -0.0061651906
-0.01509751 0.021907058 0.07315997 0.033403937 -0.01559888 0.042869393 0.040011097 0.04261082
0.053633112 0.029656077 0.033522002 0.029514847 -0.023829054 -0.030887114 -0.041351575 -0.048606973
0.045468226 0.029478135 0.033550676 -0.01294895 -0.025754707 -0.018699424 0.060957685 0.035371788
0.020335192 0.033366956 0.029843153 -0.049405087 -0.0011974307 -0.015184339 -0.053922016 0.022290202
0.04625461 -0.050499465 0.070786834 0.05614793 0.011624801 0.076340154 -0.012599374 -0.0066094827
00000000: 6fdd 18bd 27e0 96bb 99a1 903d 043e 203c
00000010: 1778 ed3c 0217 dd3c 5d7c 1ebc 9cda dcbc
00000020: e12b 333d ed4c 86bc 1d48 ed3c 9a52 cdbc
00000030: 1643 15bd 53a1 353d a0c3 cd3c d810 5ebb
00000040: a244 d83c c5a0 d9bc cd7e 4b3d 0af1 453d
00000050: a678 293d 4dec ea3c 65a5 27bd 8cd2 febc
00000060: a5b3 743d 05cd 1abd 9c97 39bd 49ce 703d
00000070: 6e94 96bd 06c1 393d 6471 653d 68a6 943d
00000080: 03c5 d83b 92bf 833d 17af 873a 3efa 18bd
00000090: d089 0c3d 6228 033c 12cd a3bc f20a 1f3d
000000a0: 2dc3 363d fa66 4ebc 916f 513d 79ae d1bc
000000b0: 6004 9f3c e6bf 593d 30df 6b3d 24c5 34bd
000000c0: 6660 3fbd 6ff3 b63c dc6a f83c 5c21 6abd
000000d0: 6c94 e5bc c505 f13c 9061 e83c 2098 d73c
000000e0: 42bd 893d ca11 ab3a df94 4cbc af56 1a3d
000000f0: fdaf 83bd 99c2 c8bc bab4 d73c a728 af3b
00000100: 8f7d 903b c82e 2fbc 867f 0f3d 3726 3ebd
00000110: b4dd 433d 7270 22bd b97f 1f3b 15fa 02bd
00000120: bc12 42bc 0a62 ce3c e96b d33c c662 1a3c
00000130: a001 aaba 07c5 a73d 9275 6a3d 0c10 f4bb
00000140: 9115 373d aaf2 483d b441 833d f4bb 8b3c
00000150: e99d 85bd 162a 823d 5aa7 20bd 5e05 cabb
00000160: 8c5b 77bc 6e76 b33c e5d4 953d 91d2 083d
00000170: 7292 7fbc d197 2f3d ade2 233d af88 2e3d
00000180: 65ae 5b3d 4df1 f23c 5e4e 093d 1fc9 f13c
00000190: 2635 c3bc f906 fdbc 4560 29bd 1b18 47bd
000001a0: e43c 3a3d 217c f13c 6f6c 093d d527 54bc
000001b0: 89fb d2bc 892f 99bc c4ae 793d 02e2 103d
000001c0: fd95 a63c caab 083d a179 f43c fd5c 4abd
000001d0: 1bf3 9cba bcc7 78bc 55dd 5cbd f199 b63c
000001e0: 7975 3d3d 87d8 4ebd b0f8 903d 5ffb 653d
000001f0: f375 3e3c 3a58 9c3d 9b6d 4ebc 5c94 d8bb

weight f4 [64, 128]
0.03194051 0.013716723 -0.008415024 -0.061812688 0.056489747 0.071852654 -0.022588827 -0.029135844
-0.026711905 -0.004544598 0.048032265 -0.0070377067 0.068377815 0.035733122 0.055044577 0.05159216
-0.053458884 0.055927746 -0.027749686 0.004743219 -0.041830137 0.07148529 0.015403599 0.005891239
0.03815979 -0.06314949 -0.04931241 -0.09515529 0.0666327 -0.0062203845 -0.07185881 0.05219393
-0.04598246 -0.037541956 -0.060948394 0.10495985 0.04337281 0.027562235 -0.0698345 0.033808902
-0.010858569 -0.08943413 -0.053232674 -0.050394714 0.050622594 0.026661133 -0.008911776 -0.012413955
0.087065555 0.0024755439 0.009934487 0.072683476 -0.05652458 -0.037937034 -0.0012118879 0.004882725
0.030907601 0.083292395 -0.057642154 0.03957057 0.09142943 -0.0057065985 0.07241397 0.04036505
-0.08017106 0.01350397 -0.027259212 -0.0023792372 0.07530945 0.09587418 -0.030444978 0.054409415
0.052102312 -0.09067908 0.044864234 -0.0594142 0.091097265 -0.05062571 -0.027925659 0.04708263
0.05821379 0.09433508 -0.055862043 0.08504637 0.060211543 -0.08029692 -0.016032781 -0.008527874
0.0918001 -0.022302834 0.054196764 -0.009099644 -0.088397585 0.01569951 -0.00078934035 0.019057347
-0.0338956 0.027053809 0.081528574 -0.008620216 0.03700563 0.054359276 -0.050592385 -0.0038471047
-0.038290545 0.055861585 0.0010672294 -0.03413781 0.021245984 0.008500848 0.02629249 -0.020893684
0.08727803 -0.061226677 0.0032731763 0.10707113 -0.077601284 0.023316592 0.08171233 0.0611402
-0.03847403 -0.059817888 -0.0058394317 0.003910859 -0.033012334 -0.050631013 -0.012640181 -0.014516551
0.08733202 -0.0224569 0.06424417 0.10766128 0.018394291 -0.056492254 0.103546984 0.028430043
0.021566898 -0.08534776 0.11116414 -0.06319966 0.04180264 0.07221552 0.08258526 0.079205
0.06403037 -0.014035592 0.07657814 0.07067386 0.043643728 -0.004670357 0.11412822 0.05102478
-0.0643307 0.106870905 0.07050913 -0.045719367 -0.023607437 -0.076368496 0.095865965 -0.045151856
0.02188932 -0.026625236 0.01426398 -0.025193468 -0.04314583 -0.039799288 0.023366224 -0.019872544
-0.036627296 -0.09799937 -0.060951814 -0.058368698 -0.057668105 0.0223815 0.019965569 -0.043956622
-0.062294733 0.058105327 -0.010232399 0.11282095 -0.098254435 0.025069712 0.07410321 0.08549545
0.028168 0.0986086 0.050625607 0.09063487 -0.06182385 -0.05757542 -0.09132417 0.010663145
-0.037056863 0.058241095 0.04100667 0.039645676 0.0033241832 0.07754351 -0.05078308 0.113564335
-0.05872344 -0.020933878 -0.022569211 0.06936382 -0.032009315 -0.037958324 -0.062395558 0.07935541
-0.014064533 0.08017715 0.002632394 0.027819294 -0.04360269 -0.031610034 -0.07182535 -0.002381315
0.11117866 -0.013471037 0.010056917 0.08840689 -0.032576766 0.022132818 0.00018427915 -0.09784475
-0.0037697363 -0.022220213 0.080114685 -0.02790256 0.051822472 0.024828454 0.08307662 0.061513226
-0.09588493 -0.05029766 0.05813515 -0.07540688 0.10108431 -0.060326442 0.07651032 -0.060801223
-0.046439774 0.053504452 0.034579135 0.045100022 -0.03626479 -0.10184812 -0.06287038 -0.03345396
-0.03512138 0.053327616 -0.001912203 -0.079406016 0.12035872 0.021529406 0.07311214 0.050077856
00000000: 0dd4 023d 1bbc 603c 2bdf 09bc 4d2f 7dbd
00000010: cb61 673d 7c27 933d 340c b9bc 4bae eebc
00000020: edd2 dabc daea 94bb 7bbd 443d 909c e6bb
00000030: ab09 8c3d e55c 123d 6c76 613d 4d52 533d
00000040: b4f7 5abd 7e14 653d 4f53 e3bc 016d 9b3b
00000050: 1456 2bbd e166 923d 605f 7c3c 4b0b c13b
00000060: 714d 1c3d 8554 81bd cffb 49bd c7e0 c2bd
00000070: ba76 883d 5ed4 cbbb b62a 93bd 4dc9 553d
00000080: 1b58 3cbd 98c5 19bd 06a5 79bd 31f5 d63d
00000090: b0a7 313d 32ca e13c 6405 8fbd 347b 0a3d
000000a0: 24e8 31bc 3e29 b7bd 810a 5abd b06a 4ebd
000000b0: a359 4f3d 7368 da3c b302 12bc e763 4bbc
000000c0: 6d4f b23d bc3c 223b 42c4 223c 13db 943d
000000d0: 5186 67bd dd63 1bbd 36d8 9eba 44ff 9f3b
000000e0: f031 fd3c 3495 aa3d 2e1a 6cbd c014 223d
000000f0: 5a3f bb3d 6bfe babb c74d 943d d355 253d
00000100: ba30 a4bd c13f 5d3c b64e dfbc faec 1bbb
00000110: d73b 9a3d af59 c43d bf67 f9bc 68dc 5e3d
00000120: 3c69 553d f4b5 b9bd 8fc3 373d 4e5c 73bd
00000130: 3491 ba3d e85c 4fbd 5ac4 e4bc b7d9 403d
00000140: 9571 6e3d c032 c13d 99cf 64bd cb2c ae3d
00000150: 61a0 763d b672 a4bd 2e57 83bc 7fb8 0bbc
00000160: b101 bc3d 6fb4 b6bc 6dfd 5d3d ac16 15bc
00000170: cb09 b5bd 429c 803c bceb 4eba 271e 9c3c
00000180: 1dd6 0abd f39f dd3c 74f8 a63d ce3b 0dbc
00000190: 3793 173d d5a7 5e3d f639 4fbd b51f 7cbb
000001a0: 8cd6 1cbd 1ecf 643d 47e2 8b3a 17d4 0bbd
000001b0: 0f0c ae3c 2447 0b3c 5963 d73c 3b29 abbc
000001c0: d3be b23d d3c8 7abd c982 563b 1c48 db3d
000001d0: 6ced 9ebd 7002 bf3c cb58 a73d 256e 7a3d
000001e0: f296 1dbd 9a03 75bd b458 bfbb aa26 803b
000001f0: f137 07bd 7762 4fbd c318 4fbc d4d6 6dbc
00000200: 21db b23d 88f7 b7bc 7392 833d 847d dc3d
00000210: a0af 963c 6c64 67bd 7110 d43d 1fe6 e83c
00000220: 10ad b03c ceca aebd 06aa e33d d36e 81bd
00000230: 3f39 2b3d bbe5 933d 7622 a93d 3b36 a23d
00000240: 5b22 833d 8af5 65bc 00d5 9c3d 75bd 903d
00000250: c4c3 323d cb09 99bb 0ebc e93d 5cff 503d
00000260: d0bf 83bd 22df da3d 1767 903d 3b44 3bbd
00000270: 6264 c1bc 1667 9cbd 6055 c43d 27f1 38bd
00000280: 3b51 b33c 2b1d dabc 78b3 693c 8862 cebc
00000290: afb9 30bd 9404 23bd 866a bf3c bfcb a2bc
000002a0: 8106 16bd e5b3 c8bd 9ca8 79bd 0414 6fbd
000002b0: 6435 6cbd 6859 b73c d58e a33c dc0b 34bd
000002c0: c328 7fbd daff 6d3d cba5 27bc ac0e e73d
000002d0: 9f39 c9bd ff5e cd3c 6cc3 973d 3d18 af3d
000002e0: 94c0 e63c 4ef3 c93d cc5c 4f3d c69e b93d
000002f0: 013b 7dbd 34d4 6bbd 2b08 bbbd 79b4 2e3c
00000300: f0c8 17bd 378e 6e3d 9cf6 273d 8163 223d
00000310: 8ada 593b 22cf 9e3d eb01 50bd 6b94 e83d
00000320: fd87 70bd 867d abbc 11e3 b8bc 9e0e 8e3d
00000330: 331c 03bd 307a 1bbd 7c92 7fbd 1785 a23d
00000340: ed6e 66bc eb33 a43d 3e84 2c3b 4ae5 e33c
00000350: bc98 32bd 8679 01bd 2b19 93bd d60f 1cbb
00000360: a3b1 e33d a0b5 5cbc c4c5 243c ac0e b53d
00000370: 376f 05bd e24f b53c 0f3b 4139 d462 c8bd
00000380: ae0d 77bb 2a07 b6bc 2b13 a43d e993 e4bc
00000390: cd43 543d 0b65 cb3c 1324 aa3d 4bf5 7b3d
000003a0: 515f c4bd eb04 4ebd 1f1f 6e3d ec6e 9abd
000003b0: 4a05 cf3d dc18 77bd 71b1 9c3d b40a 79bd
000003c0: a237 3ebd 7c27 5b3d daa2 0d3d cdba 383d
000003d0: 638a 14bd bf95 d0bd 30c2 80bd 0507 09bd
000003e0: 70db 0fbd 0f6e 5a3d e3a2 faba 9f9f a2bd
000003f0: a27e f63d 705e b03c d1bb 953d 701e 4d3d

bias f4 [64]
-0.067441486 -0.03980683 -0.014732321 -0.06460143 -0.03784399 -0.0264857 0.024496919 0.08018
-0.07505796 -0.028810486 -0.001824046 0.0126677295 -0.0359789 -0.03931712 0.05956058 0.030561153
-0.083936214 0.047805 -0.08312275 0.020282958 0.04449151 0.045453638 0.088788144 -0.046620578
0.023592858 0.060795076 0.046515275 0.04820645 -0.059439294 -0.052541036 0.06819929 0.020841558
0.061367158 0.07583415 -0.019034792 -0.007089882 0.09364198 -0.027039373 -0.044332393 -0.07672563
-0.08858841 0.031877548 -0.031857837 -0.07979509 0.0501724 -0.0402543 0.06768558 -0.002899995
-0.058648467 -0.009630594 -0.080431394 0.060125675 0.098663755 -0.00782434 0.020674359 0.055984918
-0.064639986 -0.06610666 0.09787989 -0.060527682 -0.04480572 0.0104583865 -0.1038295 -0.03439294
00000000: c31e 8abd 7d0c 23bd d55f 71bc c14d 84bd
00000010: 4d02 1bbd 8af8 d8bc c3ad c83c 6935 a43d
00000020: fdb7 99bd f803 ecbc d414 efba 4f8c 4f3c
00000030: 9c5e 13bd fd0a 21bd cbf5 733d 625b fa3c
00000040: c0e6 abbd 2dcf 433d 433c aabd 7228 a63c
00000050: bb3c 363d 982d 3a3d 8fd6 b53d 38f5 3ebd
00000060: cf45 c13c 4204 793d cd86 3e3d 2074 453d
00000070: 9e76 73bd 4535 57bd 12ac 8b3d eabb aa3c
00000080: 215c 7b3d ef4e 9b3d daee 9bbc 3e52 e8bb
00000090: 5ec7 bf3d ad81 ddbc e295 35bd 5422 9dbd
000000a0: d76d b5bd 0892 023d 5d7d 02bd 9c6b a3bd
000000b0: 9381 4d3d b1e1 24bd bd9e 8a3d d80d 3ebb
000000c0: 6039 70bd a4c9 1dbc 37b9 a4bd 5746 763d
000000d0: 3910 ca3d a931 00bc 465d a93c 7150 653d
000000e0: f861 84bd ee62 87bd 4075 c83d e0eb 77bd
000000f0: 3486 37bd a759 2b3c 90a4 d4bd 9ddf 0cbd

weight f4 [5, 64]
-0.09740075 -0.09613683 0.036864292 0.10429266 0.0283128 0.1308238 -0.12296245 -0.0739487
-0.03885051 0.02314526 -0.1330756 -0.09899095 0.04644291 -0.029976374 0.04551485 0.08465503
-0.1241839 0.012445391 0.07747458 -0.049304135 -0.056341685 -0.10352115 -0.12452146 -0.07806221
-0.036633775 0.10666645 0.05556607 0.079043224 -0.11076087 0.15933673 0.050286956 0.051680237
-0.13632582 0.011695983 -0.12505645 -0.026717996 -0.1599015 0.040021643 0.116702005 -0.107234456
0.02486126 -0.06326674 0.10794587 -0.008544017 -0.00746278 0.03390488 -0.100593865 0.11771599
-0.034235638 -0.07699957 -0.079076044 0.048494212 0.16606893 0.14153028 0.07298583 0.13681456
0.16856655 0.050299082 0.06586001 -0.11536288 -0.15654163 0.009130831 0.01721633 0.048391297
-0.042067528 0.07260972 0.060450368 -0.13191265 0.07687733 0.050968945 0.06922703 0.04828858
-0.02726113 -0.099187925 0.032310273 -0.004625975 -0.10980661 -0.007821383 -0.0043012407 0.08094748
0.047850735 0.04128541 0.118089005 0.09104191 -0.022365246 -0.031118136 0.12584147 -0.064617686
-0.064771295 -0.073728666 0.14178394 0.09682786 0.08473115 -0.099457584 0.05184577 -0.019595565
0.021536978 0.04018305 -0.007134842 0.06502178 0.11533508 -0.0943524 0.113655224 -0.005758863
-0.146024 -0.0858843 -0.04813202 0.002229936 -0.015519827 -0.0061399834 -0.006438808 -0.014905692
0.101303376 -0.0008748662 0.12036459 0.046528794 -0.031052098 0.051379047 0.10965129 0.13358682
-0.11545956 -0.00952106 -0.0334322 -0.068679266 0.06110715 -0.085645385 -0.11319739 0.024995713
0.08953647 -0.07298158 0.027642936 -0.09655927 -0.059626464 0.09566171 -0.04486071 0.009793532
0.010084956 -0.009511859 0.038221087 0.05122947 0.10252498 -0.010750495 0.081761286 0.025509803
0.10986822 0.05744471 -0.0048068124 0.024183933 0.091112144 0.030124016 0.113383085 0.064496994
-0.08368522 0.046431188 0.08237748 -0.015336448 0.055955738 0.027102273 0.07456486 -0.031580914
0.0782314 -0.11268856 0.026668178 0.09465515 0.067977406 -0.003426808 -0.013055021 0.014312102
0.0015747834 0.048458144 -0.02501095 -0.04551706 0.011728796 -0.033966944 0.10158206 0.08772535
0.014514 -0.103590645 -0.004257324 0.05732867 -0.09663337 0.089716025 -0.037974287 0.03630075
0.08971685 0.124778904 -0.11201611 0.017485455 -0.095069475 0.014328682 -0.041081373 -0.075251706
0.011592564 -0.0077354913 0.010933291 -0.085437514 0.06902772 -0.044598926 -0.08208536 0.045820415
0.1114037 -0.037644643 0.006009206 -0.06593193 0.07901012 0.08210262 -0.005211033 -0.065413885
-0.0034476859 -0.004058538 0.031299893 -0.094868645 -0.0984242 0.026151562 0.10715678 -0.014723605
0.11254654 -0.06239758 -0.022607211 0.033240594 -0.0147431 -0.057279453 0.04370577 0.12670448
0.11181364 -0.06536639 0.060380477 -0.10746061 0.092251055 -0.048204478 0.046649687 -0.06347863
0.06898557 -0.0820183 0.014406309 -0.10952048 -0.073681585 0.08448869 -0.09276772 -0.07206891
-0.051925883 0.058480643 0.04870633 0.090926595 -0.06308784 0.08901368 0.068781234 0.028544568
0.0026073197 0.08438058 0.13296619 -0.12542677 0.05879957 0.00012336066 -0.05355287 0.061232876
00000000: 0b7a c7bd 63e3 c4bd 03ff 163d 6497 d53d
00000010: 3ff0 e73c adf6 053e bdd3 fbbd 6b72 97bd
00000020: b621 1fbd 219b bd3c f844 08be c4bb cabd
00000030: ec3a 3e3d 0391 f5bc c86d 3a3d 9e5f ad3d
00000040: 2154 febd c1e7 4b3c feaa 9e3d 22f3 49bd
00000050: 8ac6 66bd e602 d4bd 1b05 ffbd 14df 9fbd
00000060: 4c0d 16bd f173 da3d 3f99 633d 6ae1 a13d
00000070: 98d6 e2bd 2b29 233e b2f9 4d3d a8ae 533d
00000080: ff98 0bbe 82a0 3f3c cc0e 00be b3df dabc
00000090: 38bd 23be bced 233d 7601 ef3d bd9d dbbd
000000a0: d7a9 cb3c fe91 81bd b912 dd3d 34fc 0bbc
000000b0: 568a f4bb d8df 0a3d 2804 cebd 1515 f13d
000000c0: ab3a 0cbd f3b1 9dbd 9ff2 a1bd dea1 463d
000000d0: f90d 2a3e 50ed 103e 9879 953d 1e19 0c3e
000000e0: b69c 2c3e 6906 4e3d 9de1 863d 6043 ecbd
000000f0: 734c 20be 7b99 153c 4309 8d3c f435 463d
00000100: 004f 2cbd 68b4 943d ce9a 773d 1c14 07be
00000110: dd71 9d3d d0c4 503d e7c6 8d3d 3fca 453d
00000120: bc52 dfbc 0a23 cbbd c757 043d 7e95 97bb
00000130: 4ae2 e0bd 4225 00bc 6cf1 8cbb cbc7 a53d
00000140: 22ff 433d e41a 293d a6d8 f13d 2e74 ba3d
00000150: 5237 b7bc 76eb febc 96dc 003e 4756 84bd
00000160: d0a6 84bd 0eff 96bd cf2f 113e af4d c63d
00000170: 8687 ad3d 6bb0 cbbd 3b5c 543d e186 a0bc
00000180: 516e b03c fb96 243d 65cb e9bb 242a 853d
00000190: cc34 ec3d d53b c1bd 12c4 e83d d8b4 bcbb
000001a0: 5187 15be 1ce4 afbd 1526 45bd 1e24 123b
000001b0: df46 7ebc ea31 c9bb a3fc d2bb 0137 74bc
000001c0: 2578 cf3d 4757 65ba b681 f63d fa94 3e3d
000001d0: f860 febc d672 523d db90 e03d fcca 083e
000001e0: 1076 ecbd 38fe 1bbc 34f0 08bd b7a7 8cbd
000001f0: 7e4b 7a3d d966 afbd 09d4 e7bd cfc3 cc3c
00000200: e65e b73d 5e77 95bd 7073 e23c dec0 c5bd
00000210: e13a 74bd 49ea c33d ddbf 37bd 0d75 203c
00000220: 5f3b 253c a1d7 1bbc b78d 1c3d fed5 513d
00000230: 9ef8 d13d d822 30bc 7672 a73d eff9 d03c
00000240: 9702 e13d 254b 6b3d 7782 9dbb 621d c63c
00000250: 0199 ba3d a4c6 f63c 6435 e83d 0017 843d
00000260: 2863 abbd a12e 3e3d 86b5 a83d ba45 7bbc
00000270: d831 653d 9605 de3c 76b5 983d fd5a 01bd
00000280: c937 a03d 42c9 e6bd 3977 da3c 8fda c13d
00000290: bd37 8b3d 4c94 60bb bae4 55bc 4f7d 6a3c
000002a0: f668 ce3a 0c7c 463d c4e3 ccbc 1970 3abd
000002b0: 232a 403c ec20 0bbd 410a d03d 59a9 b33d
000002c0: 21cc 6d3c 5527 d4bd 0681 8bbb 78d1 6a3d
000002d0: b7e7 c5bd 09bd b73d ed8a 1bbd 18b0 143d
000002e0: 78bd b73d 158c ff3d b468 e5bd a83d 8f3c
000002f0: c9b3 c2bd d9c2 6a3c f144 28bd 911d 9abd
00000300: bdee 3d3c 017a fdbb 8c21 333c ddf9 aebd
00000310: 685e 8d3d 5dad 36bd 5f1c a8bd 30ae 3b3d
00000320: a027 e43d 4531 1abd e0e8 c43b 5207 87bd
00000330: 0fd0 a13d 6b25 a83d 50c1 aabb b7f7 85bd
00000340: 92f2 61bb 7cfd 84bb 5134 003d 7e4a c2bd
00000350: a192 c9bd cd3b d63c 0475 db3d 463b 71bc
00000360: cd7e e63d 9b94 7fbd c232 b9bc 4a27 083d
00000370: 0b8d 71bc dc9d 6abd d204 333d d2be 013e
00000380: 8dfe e43d d0de 85bd 8551 773d 4f14 dcbd
00000390: 1fee bc3d 0f72 45bd be13 3f3d 1501 82bd
000003a0: 4e48 8d3d 36f9 a7bd 7108 6c3c 464c e0bd
000003b0: 5fe6 96bd 6808 ad3d 01fd bdbd dd98 93bd
000003c0: 3cb0 54bd 6689 6f3d 4a80 473d b937 ba3d
000003d0: 3334 81bd ce4c b63d 2ddd 8c3d 4cd6 e93c
000003e0: 91df 2a3b bacf ac3d 4a28 083e e06f 00be
000003f0: d1d7 703d 605a 0139 415a 5bbd 53cf 7a3d

bias f4 [5]
0.004196396 0.044648018 -0.056517728 -0.031655498 -0.08918372
00000000: ec81 893b d7e0 363d 227f 67bd 32a9 01bd
00000010: f4a5 b6bd
