Policy-Gradients/Poker-Agent/checkpoint_15000.pt (torch, 227369 bytes, 8 tensors)

weight f4 [256, 55]
000000 4d cf dc 3c d2 e7 af bd 71 36 86 bd c1 90 37 bd
       0.026954317 -0.08589138 -0.065533526 -0.044815782
000010 d1 d6 64 3d 56 48 38 3d 34 d7 4f 3d 48 60 33 3e
       0.055868927 0.04499086 0.050742343 0.17517197
000020 0b fd b8 3d c3 9e ef 3c 94 16 f7 bd bb a4 d6 bd
       0.09032639 0.029250508 -0.12064853 -0.104806386
000030 c0 e0 e6 3d a9 6b b1 bb 54 a3 03 bd 0b 1d 9f bd
       0.112733364 -0.0054144454 -0.032138184 -0.077692114
000040 d6 e5 e0 3b 69 f4 8d 3d 34 32 93 3d 98 97 ca bd
       0.006863336 0.06931383 0.0718731 -0.098921955
000050 6b 33 0b bc ec f3 0b be 78 d6 3e bd 5a cb d7 3d
       -0.008496146 -0.13667268 -0.046591252 0.10536833
000060 3a de 2f 3e a5 a7 37 bd 3b ec 8a bd be 61 0a 3e
       0.17174616 -0.044837613 -0.06783339 0.13513848
000070 c9 4b 45 bd d5 5c d3 3c 9f 57 f7 3d 25 e2 8c 3d
       -0.048167977 0.025801102 0.12077259 0.06879071
000080 ee 25 24 bc 76 d2 af 3d 92 3e d6 bd d9 bf ca 3c
       -0.010018809 0.08585064 -0.10461153 0.024749683
000090 bc e7 05 bb 04 17 ed bd 86 b8 7f bd 41 2a 3c bc
       -0.0020432314 -0.115766555 -0.062431835 -0.0114846835
0000a0 af 49 0d be d4 ea 87 bc 0a e0 50 3d 41 0d 35 3c
       -0.1379764 -0.016591467 0.05099491 0.011050523
0000b0 6a 46 03 be 84 3c 2f bd 0c f0 4b bd 48 de 65 3d
       -0.1281983 -0.04278232 -0.049789473 0.056120187
0000c0 7f b7 a0 bc 82 eb 3f 3d 64 0f 02 3e 7c b8 c3 3a
       -0.019618748 0.046855457 0.12701184 0.00149323
0000d0 2c 9a d1 bd dd 35 8b 3d d7 da 8b bd 91 e7 15 3d
       -0.10234484 0.06797383 -0.0682885 0.036597792
0000e0 95 46 a2 bd 82 ff e3 3d 81 fd 85 bc ac c7 c4 3d
       -0.07923619 0.111327186 -0.016356232 0.09608397
0000f0 07 87 16 3e 71 29 a0 3b 9c 28 44 bb 46 51 e1 3d
       0.14699946 0.0048877527 -0.0029931432 0.1100183
000100 91 c8 0e 3e c6 99 ce 3b 6c 4e 20 3e 1f 0e 15 3e
       0.13943698 0.0063049523 0.15654916 0.14556168
000110 46 3d 94 3d e3 43 30 bd 2a fd 39 3d 0b e7 df bc
       0.072382495 -0.04303349 0.04540745 -0.02733185
000120 73 ea 88 bd 20 e5 d8 bd 6c 69 e2 3d 61 04 16 3d
       -0.06685343 -0.10590577 0.11055264 0.03662527
000130 2a 34 f3 3c c3 d5 b1 bd 98 7b 19 bd ca f9 21 3e
       0.02968796 -0.0868335 -0.037471384 0.15817943
000140 38 61 00 3d 28 2c d5 bd 97 4b 87 bd 7f 0d 9f 39
       0.031342715 -0.10408813 -0.066062145 0.000303369
000150 db 8d a5 bd 98 34 a8 bd 69 01 b7 bd 62 05 29 3e
       -0.080836974 -0.082131565 -0.08935816 0.1650596
000160 9e cc 73 bd 2c 9e 11 3e c8 55 43 3d 1a b5 10 bd
       -0.05952131 0.14220494 0.04768923 -0.035328962
000170 06 4f 67 3d 5a 86 71 bc 35 74 91 3d 0e 30 e4 bd
       0.056471847 -0.014741505 0.07102243 -0.11141978
000180 9b 57 ab 3d a5 13 f0 3a 99 b6 f4 3d fe 70 d5 3d
       0.08366319 0.0018316401 0.1194889 0.10421942
000190 43 fe 82 bd 3a c2 f5 3d 67 1e 01 3e aa 13 ea bc
       -0.06396153 0.119999364 0.12609254 -0.02857383
0001a0 7b 7f 09 bd 77 b3 96 3d 56 1d fb bd 77 64 d5 bd
       -0.03356884 0.07358449 -0.12261455 -0.10419553
0001b0 58 63 07 3e 62 53 95 bd fa 70 19 3d a8 ed b0 3c
       0.1322149 -0.07291295 0.03746126 0.021597698
0001c0 63 84 1b bc d9 97 d9 3b 7c de 4a 3d 8d 27 a6 3d
       -0.009492013 0.006640416 0.049528584 0.081130125
0001d0 7c d8 d1 3d 65 9c ee bd 36 3f b4 bd 82 a8 74 3d
       0.10246369 -0.11650924 -0.08801119 0.059731014
0001e0 a5 67 91 bc fa 6c 1f be 4a ed 40 bc 28 43 d5 bd
       -0.017749617 -0.15568915 -0.011775324 -0.104132
0001f0 73 c1 e5 bc fa 25 32 bd 2e 44 9b bc f1 00 b2 bd
       -0.028046345 -0.04349325 -0.018953409 -0.08691586
000200 d1 9b e3 3d 38 3d df bd d7 84 d7 bd 53 ed 72 3d
       0.11113704 -0.109003484 -0.10523384 0.05930836
000210 96 12 0d bd 7d ed 8c bd 21 08 08 bb 62 6b 86 3c
       -0.034441553 -0.06881235 -0.0020756798 0.016408626
000220 c7 43 2f bd 64 1e c9 3d f6 13 bd bd fc 50 38 3c
       -0.042789247 0.0982025 -0.09232323 0.011249777
000230 82 a0 86 3d b2 e4 d1 bd 7d b6 0d be 28 9d 91 bd
       0.06573583 -0.10248698 -0.13839145 -0.07110053
000240 c9 09 f3 3d 1a fd fc bc 7b aa 57 bc e2 61 80 bd
       0.11867101 -0.030882407 -0.013163204 -0.0626867
000250 f3 f5 39 bd 2c fd 29 bd ae b9 ac bd b8 d3 95 bd
       -0.04540057 -0.04150121 -0.08433853 -0.07315773
000260 6a 9a 8d 3c 5a 4c 95 3d 34 0c cd 3d a2 e8 2a bd
       0.017285544 0.072899535 0.10012093 -0.041725762
000270 75 ef cb bd 2a 5c a3 3d a1 65 b3 bd 2f a6 30 bc
       -0.09957782 0.07976563 -0.087596186 -0.010781809
000280 ab 55 99 3c 0b c5 05 3e 82 6b 3f bd f4 75 ea 3b
       0.018717607 0.13063447 -0.046733387 0.0071551744
000290 6c 33 0a 3e 32 fc e0 3d d4 27 e4 3d 0c da 41 bd
       0.13496178 0.109856024 0.11140409 -0.047327086
0002a0 89 f1 4b bd 79 20 61 bc 15 2f ce 3c f1 39 0d bd
       -0.049790893 -0.013740652 0.025168935 -0.034479085
0002b0 a6 6c dd bc fd 96 eb bd 12 f7 a9 bc b7 d3 f3 bd
       -0.027029347 -0.11503408 -0.020747695 -0.11905616
0002c0 b9 72 ad bd 5c a7 c7 3b 4a c6 a8 bd 07 35 f3 3c
       -0.08469147 0.006092949 -0.08240946 0.029688371
0002d0 fe 17 cc 3d 3a 8b 33 3c e1 7b f4 3d 4d 21 fb 3d
       0.09965514 0.010958487 0.119376905 0.12262211
0002e0 ca 75 03 3e 20 c2 af 3d 69 63 47 3d d5 4f 24 bd
       0.12837902 0.08581948 0.04867879 -0.040115196
0002f0 d2 12 59 bd 19 24 02 bd a5 32 89 bd a7 0f 84 3d
       -0.052996464 -0.031772707 -0.06699113 0.06448298
000300 7f 55 6f 3d a3 05 b5 3d 7d 2a f3 3d dd 61 c9 bd
       0.058431145 0.08838966 0.11873338 -0.09833119
000310 1c fa fc bd a6 af 7d 3c 45 30 c2 3d e5 90 69 bd
       -0.12352392 0.015483772 0.09481863 -0.057022948
000320 fc 83 f6 bc 67 6e 34 bd b1 1c 8b 3c ef f3 ac bd
       -0.030092232 -0.0440506 0.016981455 -0.08444964
000330 74 4a 35 3b 5d 19 a2 3d e0 55 a7 bd df 72 64 bc
       0.0027662786 0.07914994 -0.08170676 -0.013943403
000340 c0 6c 96 3c c3 3b 7a bd d3 f8 e9 bd 90 a2 73 bc
       0.018362403 -0.06109215 -0.114244126 -0.014870301
000350 02 f0 6f bd 50 e9 cb 3d 65 44 a7 bb 37 48 df 3d
       -0.0585785 0.0995661 -0.005104589 0.10902446
000360 90 de de 3d 44 5f b6 3c bf 1d c6 3d f4 83 6b 3c
       0.10882294 0.022262223 0.09673642 0.014374722
000370 6f fe f1 bd 58 58 88 bd a7 af a6 3d 86 60 80 bd
       -0.118161075 -0.06657475 0.08138972 -0.062684104
000380 7f 57 f7 3d b4 50 e1 3c 03 ec 6f bd f9 0c ca 3d
       0.120772354 0.027504303 -0.058574688 0.098657556
000390 66 66 76 3d 08 b4 1b 3d ca 0b b0 bc 8a 61 2f 3e
       0.06015625 0.038013488 -0.021489996 0.17127052
0003a0 f4 7c 6a bc b6 0f 18 bd d4 36 fd 3d 6e c6 d0 3d
       -0.014312018 -0.037124358 0.12363973 0.101940975
0003b0 e0 3f e0 3d 41 e1 8a 3b b5 b5 0b 3e 65 66 fe bd
       0.10949683 0.004238278 0.13643534 -0.12421874
0003c0 90 18 cb 3d 24 72 d4 bd 3c a0 4c bd 5b bd 12 3e
       0.09916794 -0.10373333 -0.0499575 0.14330046
0003d0 89 fa 2c 3e 08 fd c2 bd f5 7c ff 3c 39 04 c2 3d
       0.16892447 -0.09520918 0.031187514 0.09473462
0003e0 a4 d8 91 3d a1 76 50 3d ea a7 2b bb bd 85 20 3d
       0.07121399 0.050894383 -0.0026192614 0.039190043
0003f0 21 ba c6 bd 8c d3 13 3e 27 43 32 3d 9c 28 b9 3d
       -0.0970347 0.14436167 0.043521073 0.09040949

bias f4 [256]
000000 a6 94 91 3d ae fe 96 bd 0b 07 0e 3e db 67 aa bd
       0.071084306 -0.07372795 0.13869874 -0.0832059
000010 4a da b0 3d ef bc c2 3d e9 ad 96 bc 1e 3a ac bd
       0.08635385 0.095086925 -0.018393474 -0.084095225
000020 da c2 55 bd c3 68 7a 3b 7c e3 b9 bd 36 ea ce 3d
       -0.052187778 0.0038209416 -0.09076592 0.10103266
000030 26 b9 71 3d 3b 3e 06 3d ea 11 0d 3e 11 d8 83 bd
       0.059014462 0.03277419 0.13776365 -0.06437696
000040 29 e0 96 bd 84 68 0b 3e 96 82 59 3b 6d 07 8b bc
       -0.07366974 0.13614088 0.0033189408 -0.016971314
000050 02 41 8c bd e4 fd 40 3d 71 47 1b 3d 93 b5 a2 3d
       -0.06848337 0.04711713 0.03790993 0.07944789
000060 fd 2c c3 3d eb 81 40 3d 40 4e bf 3d 39 e6 1b 3e
       0.09530065 0.0469989 0.09341097 0.15224542
000070 9f 89 a7 bd a2 b6 1b 3d 36 4a 27 3e 90 c6 e6 bd
       -0.08180546 0.03801597 0.16336903 -0.112683415
000080 ec f3 47 3d 7d d7 e0 3d 38 58 2b bd 2a 41 ea 3b
       0.048816606 0.10978601 -0.04183218 0.0071488814
000090 10 db b8 bd f6 bf 0f bd 2b fc 8d 3d 6b a1 0a 3e
       -0.09026158 -0.035095178 0.06932863 0.13538139
0000a0 72 1d 2e 3d b1 cb d2 bd 8f c8 22 3d 37 ff 34 3d
       0.04250855 -0.10292757 0.03974205 0.044188704
0000b0 60 b5 a1 3d 76 a6 04 bd a9 f4 e9 3d 9a fe 81 3c
       0.07895923 -0.032385312 0.11423618 0.015868474
0000c0 8d f1 fb bc 24 ad 60 bd 31 44 b1 3d 6a be 86 3c
       -0.030754829 -0.05485262 0.086555846 0.016448218
0000d0 09 02 cf bd a5 28 96 bd a5 67 d3 3d 05 4a 97 3d
       -0.1010781 -0.07331971 0.10322503 0.07387165
0000e0 3d 71 94 bd 82 ef 6d bc 79 50 c9 bd 0a 74 b1 3d
       -0.07248161 -0.014522435 -0.09829802 0.08664711
0000f0 cf 44 7a 3d f1 bd 06 bd 18 69 ae 3d 34 eb 76 3c
       0.061100777 -0.032895986 0.08516139 0.015070725
000100 5d f6 66 3c d4 2f 05 be 82 6c 3b 3c 6f 0f 1a 3e
       0.0140968235 -0.13006526 0.0114394445 0.1504495
000110 7c 4c 04 be a2 de ae bd d9 03 6b 3d 96 3a ab bc
       -0.12919801 -0.085385576 0.057376716 -0.02090196
000120 9b e7 1e 3d 00 ae 12 3e 37 db b9 bc be d8 bf 3d
       0.038795095 0.14324188 -0.022687538 0.09367512
000130 13 c3 1c 3d 2d 18 09 bd 2c cc 57 3d 60 26 24 bd
       0.038271975 -0.03347032 0.052684948 -0.04007566
000140 c1 f6 f0 bd ab e1 94 3c 1e 7e d4 3d e7 b5 f9 bd
       -0.117658146 0.018174013 0.103756174 -0.12192898
000150 c5 2a a5 3c f4 57 90 bc b9 4a 91 bc 82 a7 ea 3d
       0.020161996 -0.017620064 -0.017735826 0.11457731
000160 02 1f fa 3d d5 43 66 bd d3 03 cb bd ce c7 8b 3c
       0.122129455 -0.056217033 -0.09912839 0.017063048
000170 ad 36 0a 3d 82 eb ca bd f5 fd f0 3c 5a 18 0a 3e
       0.03374355 -0.09908201 0.029417971 0.13485852
000180 4e ac bd bc 10 6e be bd 6a 82 ab bc d8 ff 86 bb
       -0.02315345 -0.092983365 -0.02093621 -0.0041198544
000190 67 94 fc bc 44 e1 00 be 54 29 e5 bd 6e a1 06 3d
       -0.030832483 -0.12585932 -0.11189523 0.032868795
0001a0 c1 f9 6c bd 7d 2f 57 3c a5 b2 d7 3b ee 40 14 bd
       -0.05785537 0.013133881 0.0065825754 -0.036194734
0001b0 84 34 f2 bd 57 bd 72 3d cb ff ea bb 7b f2 f3 3c
       -0.11826423 0.0592626 -0.007171606 0.02977871
0001c0 a6 b6 1f bd 91 19 82 bc c4 03 16 3e 0a c4 f5 3c
       -0.038992546 -0.015881332 0.14649874 0.030000705
0001d0 3c 90 03 bd 41 61 b7 bd b5 40 09 be a4 56 02 3e
       -0.032119974 -0.089540966 -0.1340359 0.12728363
0001e0 fa 44 0c bc db 99 8d bd aa a0 ec 3d 43 a7 54 bd
       -0.008561367 -0.06914111 0.11554082 -0.051917326
0001f0 06 db 68 3d 5a d6 d2 bd 80 58 02 3e 1c 2e 2d 3d
       0.056849502 -0.102947906 0.12729073 0.0422803
000200 e1 81 4a 3d 99 b3 dd bd 39 73 ba 3d 21 56 30 bd
       0.04944027 -0.10825271 0.09104008 -0.04305089
000210 a0 2f af bc 79 35 cf bc 22 f4 b8 bd cd 60 55 3d
       -0.021385014 -0.025294052 -0.0903094 0.05209427
000220 91 66 a9 bc f5 58 cf 3d 71 dc c9 3d aa 5e 05 3e
       -0.02067879 0.10124389 0.09856499 0.13024393
000230 da 0f aa 3d 20 04 b4 3d dc ff b9 bd 95 5f d5 bd
       0.08303805 0.08789849 -0.090820044 -0.104186215
000240 6a 40 44 bd 4e 16 e7 bc 89 b3 0b bd 0e f6 09 bd
       -0.047912993 -0.028208878 -0.034106765 -0.03368192
000250 ba 6d 93 3d 44 01 01 be 46 1d dd 3b 03 88 e5 3c
       0.07198663 -0.12598139 0.0067478744 0.028018957
000260 0c f2 06 3d f6 04 50 bd 04 8c 6e 3d f7 97 7f 3d
       0.032945678 -0.05078598 0.058238998 0.062400784
000270 13 0f 1c 3d da 2d cc bc 19 31 90 bc f4 9e 94 bd
       0.038100313 -0.024924207 -0.017601537 -0.072568804
000280 ee 0f 18 bc a0 da 97 bd 0e cf 1b 3d af cd b7 3d
       -0.009281142 -0.07414746 0.03803926 0.08974778
000290 c4 23 e3 3d 93 ed 0c 3e f5 3f 34 3c 39 4e c7 3d
       0.11090806 0.13762502 0.011001577 0.09731717
0002a0 3a bb d8 bc f1 14 51 3d 3c 22 87 bc 3d 34 94 3d
       -0.026456464 0.051045362 -0.016495816 0.07236526
0002b0 73 b9 f1 3d 78 6f a0 3d c0 f7 0b bd 99 2d f7 3d
       0.1180295 0.07833761 -0.03417182 0.12069244
0002c0 6b 42 b1 3b db 1c 7d bd 84 49 ba 3d 14 a6 f1 3d
       0.005409529 -0.061795097 0.09096053 0.11799255
0002d0 2b 75 88 bd d0 4e 23 bc 4c 29 d6 3d 04 4c 54 3d
       -0.06662973 -0.009967521 0.104570955 0.051830307
0002e0 78 cb f4 3d 06 8c a7 bc 0f f0 90 3d 01 38 7b 3b
       0.11952871 -0.02045251 0.070770375 0.0038332941
0002f0 a9 ff 71 bd c3 a6 83 3c 57 c1 8d bd 5a 99 c5 3d
       -0.059081707 0.01607073 -0.06921642 0.0964839
000300 f8 6c 48 3d ab ce f5 3d 76 80 ac bd 74 9f 9e bd
       0.048932046 0.120023094 -0.084229395 -0.07745257
000310 41 c4 be bd 44 b7 7d bd f4 c3 75 bd 8f 10 13 3e
       -0.09314776 -0.061942354 -0.06000133 0.14361785
000320 34 18 7d 3d 5b 5a 9a 3b 7a aa 05 3d 08 2d 64 bd
       0.06179066 0.0047104782 0.032633282 -0.055707008
000330 b8 7a e8 3d 75 6e 83 bd 80 53 c7 bd af 15 1a 3d
       0.11351532 -0.064175524 -0.09732723 0.037618335
000340 95 03 c2 bd 97 96 24 3e 02 0f ce 3c 4a 82 5f 3d
       -0.094733395 0.1607307 0.02515364 0.054567613
000350 f5 fd c0 3c e6 5f 37 bc aa b6 f0 3d 00 6a ad bd
       0.023558596 -0.011192298 0.117535904 -0.084674835
000360 80 eb 1a be 05 a8 b2 bd 8b 80 47 3c ea a4 75 3d
       -0.15128899 -0.087234534 0.012176643 0.059971727
000370 be 76 7f 3d f2 c4 35 bd b9 cf 9a bd e9 e5 89 bd
       0.0623691 -0.044377275 -0.07559151 -0.06733305
000380 b8 ec 94 3c 3a 88 95 3c 5c b6 85 3d 14 6d e8 bd
       0.018179283 0.018253434 0.06528923 -0.1134893
000390 7c db c8 3d 9d e0 d2 3d 35 74 66 bd 0b f0 b4 3a
       0.09807488 0.10296748 -0.056263167 0.0013804449
0003a0 d1 56 c2 bd 32 dd 65 bd da ef d4 3d c4 dd 0e 3d
       -0.09489215 -0.05611915 0.103973106 0.03487946
0003b0 ea d3 c8 3d d2 3c de bd de a2 ea 3d 1f 45 09 be
       0.098060444 -0.10851444 0.11456846 -0.13405274
0003c0 ba bc 80 bd 92 5a b9 3d a2 0c db bd a7 48 a4 3d
       -0.06285997 0.09050478 -0.10695769 0.0802167
0003d0 13 6e 72 3d 08 d7 b5 3d 56 30 8b bd c7 43 39 bd
       0.059187006 0.088789046 -0.06796329 -0.045230653
0003e0 97 a8 e7 bc 05 b5 9d 3d e3 e6 e3 3d 99 41 f3 3d
       -0.028278632 0.07700542 0.111280225 0.11877746
0003f0 05 74 e6 3c 3c 42 94 3d b6 49 eb 39 9a cb 82 bc
       0.028131494 0.07239196 0.00044877612 -0.015966225

weight f4 [128, 256]
000000 29 63 e2 bc e3 9d 87 bd c7 13 7c 3d e1 4e 95 3d
       -0.027635174 -0.066219114 0.0615423 0.072904356
000010 ee f4 0d 3d 2f 2e b0 bb e3 b0 0d 3d be a8 d5 bb
       0.03465741 -0.0053765993 0.03459252 -0.00652036
000020 41 7c 09 3b b1 0f 83 3d 91 1f 05 bd 3e 29 61 3d
       0.0020978602 0.06399477 -0.032500807 0.054970972
000030 a6 90 14 3d d8 31 c2 bc ab 20 82 3d e1 5b bd 3d
       0.03627076 -0.023705408 0.06353887 0.0924604
000040 e6 e0 71 bd 35 5d 98 3d 97 9b f7 bc 8d d3 8b 3d
       -0.05905237 0.07439653 -0.030225558 0.068274595
000050 e2 b5 d2 3c 97 a9 41 3d f3 be 85 3d 1a 4d 63 bd
       0.025721494 0.047280874 0.06530561 -0.05549345
000060 4e 6d da 3c f0 d3 f3 3c 27 2d bd bc 88 bb 2a 3c
       0.026663449 0.029764146 -0.02309282 0.0104206875
000070 76 d1 b2 bd 19 cf 9d 3d ea a2 39 3d d5 9f 4d bb
       -0.08731358 0.07705516 0.045321383 -0.0031375785
000080 82 69 58 3d f5 66 70 3d d8 07 ec bc ed 11 06 bd
       0.052834995 0.058691937 -0.028812334 -0.03273194
000090 43 df 1d bd 6f 57 2d 3d 64 89 8d bc fc 3a dc 3c
       -0.038542997 0.04231971 -0.017277427 0.026883595
0000a0 6e db 8f 3c 75 0b a6 3d 9f 0e 0b bd 0a c8 2c bd
       0.017560687 0.08107654 -0.03394949 -0.04218296
0000b0 22 41 80 bd e9 f1 78 3c e8 c2 18 3d 83 b9 b2 3c
       -0.06262423 0.015194395 0.037295252 0.021816975
0000c0 1b 96 be bc 9d 56 8d bc 40 af 7e bc ad 7e 87 3d
       -0.023264935 -0.017253214 -0.015544713 0.06615958
0000d0 88 9a 91 bc 05 03 9c bc 9c db 85 3c 69 2b 6c bd
       -0.017773882 -0.019044409 0.01634007 -0.057658587
0000e0 f8 d6 ab 3c e0 84 3b 3d ab cb bb bc ed 45 13 3d
       0.020976529 0.045781016 -0.022924265 0.03595536
0000f0 df 29 82 bd dc 2e bc 3c 4a cc 62 3d 80 28 e0 bc
       -0.063556425 0.022971563 0.055370606 -0.027363062
000100 d9 5c 08 bd 8e 9e 5b 3d 72 cb c8 3c a1 85 8d 3d
       -0.03329167 0.053618006 0.024511073 0.06910253
000110 20 ab 4d 3d 33 5e f1 bc 68 8f 17 3d 8d 63 1b bd
       0.050212026 -0.029463863 0.037001997 -0.037936736
000120 5a ac ec 3c d1 88 25 bd 46 c4 3a bd 52 5e 7c bd
       0.028890777 -0.04041368 -0.045597337 -0.06161339
000130 a0 63 f3 bc 6b 2f b0 bc 5e c9 98 3d f1 33 51 bd
       -0.02971059 -0.021506986 0.07460283 -0.051074926
000140 4e a1 e3 3c 05 7d 3a bc bf 4e 8b bd f9 a5 b4 bc
       0.027786877 -0.011382346 -0.06802129 -0.022051798
000150 09 3e 30 bd 98 59 07 3d a0 e5 78 3d 40 84 93 3d
       -0.04302791 0.033044428 0.060765862 0.07202959
000160 ba e2 54 3d 86 72 26 3d 59 51 49 bd f2 9a 83 bd
       0.051974036 0.04063656 -0.049149845 -0.06426038
000170 a7 88 c6 3c d5 03 a5 bc 4c d4 56 bc f5 d0 a6 3c
       0.024235083 -0.020143429 -0.013112139 0.02036331
000180 48 9f 52 bd 9c 9d dc bc 53 d2 21 3d e0 d1 12 3d
       -0.051421434 -0.026930623 0.03950722 0.035844684
000190 0e ef 10 3d 4e be 11 bd 2a 17 65 bc 75 28 d2 bc
       0.03538423 -0.03558188 -0.0139825735 -0.025654057
0001a0 cb 7a 07 3c d9 1d 1b 3d 7a cf c4 3c d7 3d 88 3d
       0.008269022 0.03787026 0.024024714 0.0665242
0001b0 2f 87 31 3b af 54 ef bc d5 d8 ff 3c 44 e9 e0 bb
       0.0027088632 -0.029215185 0.031231323 -0.006863745
0001c0 38 9d ac bd 96 f7 48 bc 53 8e 00 bd 2a 6a 53 3d
       -0.084284246 -0.01226606 -0.03138573 0.051614918
0001d0 06 62 b1 bb 82 1f a3 bd 15 bf 6a bd 75 47 21 3d
       -0.0054132966 -0.07964994 -0.057311136 0.039374787
0001e0 1a 27 8b bc 03 5d e9 ba d9 50 16 3c 87 0b 16 bc
       -0.016986419 -0.0017804209 0.009174549 -0.009158022
0001f0 b8 24 b3 3b fb 5c 83 3d 5f be aa 3d bb cf bd 3d
       0.0054670237 0.06414219 0.08337092 0.09268137
000200 04 16 7f bd 82 3f 1f bd 8d 4f ad bc 9a f3 66 bc
       -0.062276855 -0.038878925 -0.021156097 -0.014096165
000210 0c 3f 2d bc 6b 95 73 3c 2b 46 9c bd 52 f0 0b 3a
       -0.010574114 0.014867167 -0.07630571 0.000533824
000220 f3 cb 6f bd c6 0a 84 3d 68 ba be bc 85 b2 80 3d
       -0.05854411 0.06447367 -0.023282245 0.0628405
000230 30 1a 01 3d 3c 81 7f 3c f4 d6 a0 bc b6 f3 40 bd
       0.031519115 0.015594777 -0.019633748 -0.04710742
000240 5c f4 9f bc e6 cf 2c bc 28 15 49 bd 5a 50 1a 3d
       -0.0195257 -0.010547614 -0.04909244 0.037674285
000250 ec 66 cd bc 0c db 96 bd 4c 37 a4 3d 60 e0 0e bd
       -0.025073491 -0.073659986 0.080183595 -0.03488195
000260 3b 31 30 3d 77 6e 95 bc 9c 56 e3 3c 13 43 79 bc
       0.0430157 -0.01824115 0.02775126 -0.015213746
000270 85 34 71 bd 23 cd b9 3c 6c ba c1 3b 10 04 14 3d
       -0.058887977 0.022680825 0.005912116 0.036136687
000280 9c d6 99 bc a3 04 4b bc 6d 1a e4 bc 3c ae 92 3c
       -0.018779092 -0.012391242 -0.027844632 0.017905347
000290 2d db 39 bd 98 72 04 bd 19 9f c3 3d bf 70 02 bd
       -0.045375038 -0.032335848 0.0955183 -0.031845804
0002a0 d3 88 56 bc 6c 24 61 3c e9 b5 90 bc e8 f8 f4 bc
       -0.013094145 0.013741594 -0.017664867 -0.029903844
0002b0 9b 17 32 bc 0f 00 5e bc 63 fb 9d ba a8 0e f7 bc
       -0.010869886 -0.013549819 -0.0012053068 -0.030158356
0002c0 fd 84 3f 3d 22 8f 72 3c 1b 4f f6 bc 0e d0 8c bd
       0.046757687 0.014804633 -0.030067017 -0.06875621
0002d0 4c f9 4f 3c 41 5a 10 bd e7 f9 d3 bc 6e da 06 3c
       0.012693714 -0.035242323 -0.025875999 0.008230789
0002e0 1d ca 9f 3d b1 19 c6 bc 9b a2 f1 3c a9 fd 7f bc
       0.07802222 -0.024182172 0.029496482 -0.015624442
0002f0 35 8b dc 3c fc 39 3b bd 13 5f 23 3d b2 1b 0f 3d
       0.026921848 -0.045709595 0.03988559 0.03493852
000300 73 0a 47 bc 8b 6e 25 3b 4c 91 8d bd cd 66 01 3d
       -0.012148487 0.002524289 -0.06912479 0.03159218
000310 ac 8d de 3c 1a b1 e4 3c 00 b6 9b 3d 45 2f 8c 3d
       0.027167164 0.02791648 0.07603073 0.068449534
000320 64 35 a2 3b d6 be 93 3c 1e ac 15 bd 2f cf aa bd
       0.0049502123 0.018035334 -0.036541097 -0.083402984
000330 11 e6 24 bd ce 12 ab bd c5 3b 92 bd 22 59 8f 3b
       -0.04025847 -0.08353196 -0.071403064 0.004374639
000340 08 23 fc 3c b3 69 ac 3d b4 c0 59 3d 8c da 4e bc
       0.030778423 0.08418598 0.05316229 -0.012625348
000350 dd d5 32 bd d7 d0 80 3d 83 5f 9c bb be 6e a9 3d
       -0.043660987 0.06289833 -0.004772128 0.082730755
000360 d6 6c a1 3c 0b cc 11 bd 79 4f e1 bc 29 58 06 3d
       0.019705217 -0.03559498 -0.027503716 0.03279892
000370 28 da 26 3d 98 c2 4c bc 28 06 f7 3c 97 3b 04 3c
       0.040735394 -0.012497567 0.030154303 0.008070848
000380 53 6c 46 bc 7e 8a 8c 3d 65 65 0d bd 7b bf 39 3d
       -0.012110787 0.06862353 -0.034520525 0.045348626
000390 80 db 52 bd 6a d5 0e 3d a4 7b a2 3c b3 1e 57 3c
       -0.051478863 0.034871496 0.019834347 0.013129878
0003a0 e7 a1 bf 3c c3 4f 9f bd 20 2e b9 bc 25 ff a1 3d
       0.02339263 -0.07778885 -0.022605002 0.07909993
0003b0 36 45 02 3d 8a dc c0 3c d3 c7 f7 bc ec a7 74 bd
       0.031804286 0.023542661 -0.03024665 -0.059730455
0003c0 cc c4 f7 3c 54 e4 d3 bc e7 91 a0 3c 29 21 db 3c
       0.030245207 -0.025865711 0.019600822 0.02674921
0003d0 8c 15 8e bd e7 f0 3e 3c 3d 2e 3c 3d 8e ac 8a 3d
       -0.069377035 0.011654115 0.045942534 0.067711934
0003e0 35 63 62 bd fe 6a df bc 39 c3 33 bd 93 9b ab 3c
       -0.055270392 -0.027272698 -0.04388735 0.020948207
0003f0 d7 c1 d0 ba c2 bd c3 bc 3e b9 d6 3b 32 f4 2c bd
       -0.0015926909 -0.023894195 0.0065528443 -0.04222507

bias f4 [128]
000000 1e f4 51 3d f5 00 6c 3c 2c 56 51 3c 20 bd 17 3d
       0.0512582 0.014404525 0.012776893 0.037045598
000010 01 77 a5 bc d8 9a f3 3b 24 4f 2f bc 69 3d 39 3d
       -0.020198347 0.0074342303 -0.010700021 0.04522458
000020 91 2c 98 3d 3b 1b 3a 3d 7b e2 c0 bc bc ec ae bb
       0.07430375 0.045436125 -0.023545494 -0.0053382795
000030 2c cd 0b bc 54 96 1b bd 09 36 d6 3c b6 30 90 3d
       -0.0085328035 -0.03798516 0.026148813 0.07040541
000040 37 ee 63 3d 86 63 86 bd 88 cd 90 bd 93 ff 0e 3d
       0.0556471 -0.06561951 -0.07070452 0.034911703
000050 5d 64 a4 bc fd 53 1b bd 67 fb c0 3c ed 5e a7 3c
       -0.020067388 -0.037921894 0.023557378 0.020431006
000060 b4 7a cb bc 91 da 73 bc 86 da 4f bd 56 6b 96 3d
       -0.024838783 -0.014883653 -0.05074551 0.073446915
000070 d4 14 1d 3d 86 a5 0d 3d cf 87 f1 bb cb 24 8a bd
       0.03834994 0.034581684 -0.007370926 -0.06745299
000080 f8 e2 c7 bb 17 4b 21 3d 84 d0 4f 3c b2 03 88 3c
       -0.006100055 0.039378252 0.012683991 0.016603325
000090 09 15 82 bd 9b 86 d8 bc 62 dc f9 bc 7c 11 e8 bc
       -0.063516684 -0.026431372 -0.030500595 -0.02832865
0000a0 73 fa 8d 3d c4 6c f5 bc b0 38 41 3a 5c 57 92 3d
       0.06932535 -0.02995909 0.0007370813 0.07145569
0000b0 77 ba dc bc 2f 7e 02 3d 5b e9 ec 3b 06 fd 94 bc
       -0.026944382 0.03185862 0.0072299666 -0.018187057
0000c0 5b 79 aa bb 65 65 02 bc 8a 55 21 3d 2c b3 7d 3d
       -0.005202455 -0.007958745 0.039388217 0.06193845
0000d0 0a 54 a0 3d c0 a0 1f bd da 61 3e bd ed 1e 54 bd
       0.07828529 -0.038971663 -0.046480037 -0.051787306
0000e0 bc c5 25 3d e2 11 32 bd aa 92 d0 3c 7d 27 91 3d
       0.040471777 -0.043474086 0.02546056 0.0708761
0000f0 b4 d2 cf bc 4d 68 2d 3d 32 8e 16 bd b5 9e 61 3d
       -0.025369026 0.042335797 -0.0367567 0.055082995
000100 83 0d 66 3d 32 42 67 3d d9 68 90 bc 2f bf 59 3d
       0.05616523 0.056459613 -0.01762812 0.053160843
000110 cf 03 82 3b 8b 75 84 3c d3 cb e3 3c 5b 1b a5 3c
       0.003967739 0.01616933 0.027807152 0.020154646
000120 db 6e 4d 3d 41 9d 09 bd b2 79 10 3d 4b 49 15 bb
       0.05015455 -0.033597235 0.035272308 -0.0022779282
000130 60 68 64 3d 3d 28 63 bd bf 80 ed bc 6c a8 99 bc
       0.055763602 -0.055458296 -0.028992055 -0.018757068
000140 15 8b db 3c ec cc 10 3d f8 fa 00 bd d6 b6 3f 3d
       0.026799718 0.03535168 -0.031489342 0.046805225
000150 2d bf a5 bc d5 1a 4e 3c db 3d 23 bd 70 d4 74 3d
       -0.020232761 0.012579639 -0.03985391 0.05977291
000160 7f 51 67 3d 89 7f e1 bc 32 2d 39 3c a3 54 49 3d
       0.056474205 -0.027526634 0.011302279 0.04915298
000170 93 18 10 3d d2 9f 05 bd 1c fc 4e 3c 97 65 3b 3d
       0.035179686 -0.03262312 0.01263335 0.04575118
000180 37 f9 0a 3d 1e 86 4d bd 78 27 de ba fb 1f 52 3d
       0.033929076 -0.050176732 -0.0016949018 0.05130003
000190 46 ad 5a bc 4e ad 03 3d fe e4 5d bc f9 6e 4b 3d
       -0.013346976 0.032147698 -0.0135433655 0.04966638
0001a0 8a c7 64 3d f7 ac ec 3c 1a 15 86 3d 63 83 0a bc
       0.055854358 0.02889107 0.065469936 -0.008454177
0001b0 77 d0 2c bd d6 d3 cf 3c c1 49 41 3d 40 9e 1b 3d
       -0.042190995 0.025369566 0.047189478 0.037992716
0001c0 f1 f3 be bb bb 76 42 bc 87 ac 29 bc 89 91 59 3d
       -0.00582742 -0.011869128 -0.010356075 0.05311731
0001d0 09 ca b3 bc 7c d0 bf bb 85 e5 da bc 09 68 5f 3c
       -0.021946924 -0.0058537107 -0.026720772 0.013635644
0001e0 f0 d1 64 3d c0 23 7b bc fe 94 35 bc 40 9f 76 3d
       0.055864275 -0.015328348 -0.011082886 0.060210466
0001f0 06 3c 4c 3d 0d 7a 09 3d 90 9b 85 3b 31 8f 60 3c
       0.04986193 0.033563662 0.0040773824 0.0137060145

weight f4 [64, 128]
000000 82 fd 0c 3d 82 01 3e 3c 88 f6 8c 3d f9 d0 85 3d
       0.03442145 0.011597039 0.068829596 0.06533999
000010 e1 2f 7b 3a da 85 bf 3d 39 bc 60 bd d5 88 c6 bd
       0.00095820246 0.09351702 -0.054867003 -0.096940674
000020 8a 3d 90 3c 70 f3 77 3c 9f ff ba bd c5 33 b8 3c
       0.01760747 0.015133724 -0.09130787 0.022485623
000030 76 6d 8a 3d c1 9c 9d bb 6b e4 d1 3b 0b e4 e2 3c
       0.06759159 -0.0048099463 0.0064054034 0.02769663
000040 54 ac b3 3d b8 83 28 3c 49 f4 90 bb 6d 10 9d 3d
       0.08773103 0.01028531 -0.0044236523 0.076691486
000050 29 37 f3 3c b1 43 83 3d f5 7f cc 3d 5f fe c6 3d
       0.029689388 0.064093955 0.09985343 0.09716486
000060 0a 9e 99 3d c8 44 d6 bc 56 b6 6a 3c 97 9b 6d 3d
       0.07500847 -0.026155844 0.014325699 0.05800971
000070 d1 cb 66 bd c4 49 8f bd 1e 72 c3 3c 91 d3 33 3d
       -0.05634672 -0.069964916 0.023858126 0.043902937
000080 c1 f1 14 3d cc 11 ad bc 07 3d 86 bd c6 85 c4 3c
       0.036363367 -0.02112665 -0.06554609 0.02398957
000090 19 b8 eb 3b 84 20 81 3d ea c5 5b bd ea a2 21 bc
       0.007193577 0.0630503 -0.053655542 -0.009865502
0000a0 d9 b8 1e 3d 7d 54 a9 3c 81 c6 86 bc 3f 12 82 3c
       0.038750503 0.02067017 -0.016452076 0.015877841
0000b0 ef e6 f9 bc 57 3e c0 3d 65 f7 8c bd 27 10 01 3d
       -0.030505626 0.093868904 -0.06883124 0.031509545
0000c0 6d 52 40 bd 9c 73 8f 3d 4a 77 81 3b 81 d0 25 bd
       -0.046953607 0.070044726 0.003950988 -0.040482048
0000d0 4c cb 13 bd 08 21 66 bd c0 7b 60 bd a5 e2 67 bd
       -0.03608255 -0.056183845 -0.054805517 -0.05661263
0000e0 ce a6 4d 3d ae 30 df 3c 0c 95 bb bd 3c 92 98 3d
       0.050207905 0.027244892 -0.09159288 0.07449767
0000f0 bf 0f 18 bd 5a 88 1b bd dc 58 25 3d 50 d6 04 3d
       -0.03712439 -0.03797183 0.040367946 0.032430947
000100 2d 60 60 3d 66 06 64 3d b3 ee d4 bc 0a 69 22 bd
       0.05477922 0.055670165 -0.025992727 -0.039650954
000110 f9 6f 83 3c 49 5a eb bc bc 22 12 bd 7c 5e 79 3d
       0.016044604 -0.028729575 -0.035677657 0.060881123
000120 f3 fa a7 bd 2b 40 bf bd f2 21 c3 3d 1f 27 f5 3b
       -0.08202162 -0.09338411 0.09527959 0.0074814702
000130 8f 4f 8b 3d 7d df e8 bc 65 31 05 bc a8 d8 2c bd
       0.06802284 -0.02842688 -0.008129452 -0.042198807
000140 75 7b 8e 3c a5 da 05 3d e7 48 25 bc df 7e 8f bc
       0.017392853 0.03267922 -0.010088182 -0.017516552
000150 d3 0a af 3c 65 ff df 3a a0 c7 18 3d 3a ae 13 3c
       0.021367466 0.0017089663 0.037299752 0.009013707
000160 2a aa 92 3c cc 25 5c ba 32 83 24 bd e3 38 2b 3d
       0.017903406 -0.0008397966 -0.04016418 0.0418023
000170 fe e4 9d 3d 19 cf d9 bb 89 dd ad bc ca ab da bc
       0.077096924 -0.0066470024 -0.0212238 -0.026693244
000180 9a 70 97 bd e2 92 95 bc 16 86 90 3d 6b 2b 15 bc
       -0.07394524 -0.018258516 0.07056825 -0.00910459
000190 c2 c1 77 bc cb a5 94 3c 47 9f c2 bd 17 22 c7 3c
       -0.015121879 0.018145462 -0.09503036 0.024308247
0001a0 6d 6f a3 bd ec 6f 88 3b a2 e9 2b 3d df 14 52 3d
       -0.07980237 0.0041637328 0.041970856 0.051289435
0001b0 7c 8e 70 3d f7 35 54 3c f6 5d b6 3b d9 90 90 3d
       0.058729634 0.012952319 0.0055654002 0.070588775
0001c0 29 77 37 3d 96 71 6f 3c 95 93 91 3d 62 18 bf bc
       0.044791374 0.014614483 0.07108227 -0.023327056
0001d0 e4 ea e8 3b 6b 07 3b bd cb e5 6a 3d fd 7f 60 bc
       0.0071080793 -0.04566137 0.057348054 -0.01370239
0001e0 e8 43 c0 bc 0f d1 88 bd fa b2 22 bd 7e 97 80 3d
       -0.02346988 -0.066805 -0.039721467 0.06278895
0001f0 2d 18 96 bd 57 78 8d 3c a9 03 09 3d 33 6b 95 bd
       -0.0732883 0.017269297 0.033450756 -0.07295837
000200 36 54 89 bd c6 5b 6d 3d 13 fa fa 3c d8 a5 a1 3d
       -0.06705515 0.05794885 0.030636823 0.0789296
000210 2f a9 a0 bd 7e 13 3e bc 98 66 e7 3c 1b 9d a4 bd
       -0.07844769 -0.011601327 0.028247163 -0.08037778
000220 e3 6c e9 3c 18 5e 6a bd e9 e3 9c bd 17 67 9c bd
       0.028494304 -0.05721864 -0.07660658 -0.0763685
000230 29 67 df bc e4 c8 44 3d cd 75 5d bc 89 59 d2 bb
       -0.02727087 0.048043147 -0.013516855 -0.006419365
000240 93 e2 1d bd db 58 a0 3d 40 98 92 bd 60 65 ad 3c
       -0.038546156 0.07829448 -0.07157946 0.021166503
000250 ef 6a b5 3c f8 6d 62 3d 05 f8 81 bd a1 41 a7 3d
       0.022145716 0.055280656 -0.06346134 0.081668146
000260 e3 1c 84 bd af 58 33 3d cc b5 0b bd 95 86 6b 3d
       -0.06450822 0.043785747 -0.034108922 0.057501394
000270 fb e9 d7 bc cf ee 0c 3d 99 54 f0 3c e1 9d 38 3d
       -0.026356688 0.034407433 0.029337214 0.04507244
000280 7a af a9 bd 0f d5 87 3c 02 88 f9 bc 1d 0a 8c 3b
       -0.082854226 0.016581086 -0.030460361 0.0042736665
000290 19 ae 18 3d 13 e8 b7 3d 18 48 89 bb 83 6d 86 3d
       0.037275407 0.089798115 -0.0041895024 0.065638565
0002a0 65 6d 07 3d 5b 01 93 3c 57 5b 89 bd 40 36 c2 3b
       0.03306331 0.017944982 -0.06706875 0.0059268773
0002b0 18 66 c1 bc b9 4d 2a 3c 8a c8 ab 3c b0 d2 04 bd
       -0.023608252 0.010394507 0.020969648 -0.03242749
0002c0 2e 89 24 3d 8a 5c 61 3d 83 99 95 bd 6c d5 25 bd
       0.040169887 0.055019893 -0.07304671 -0.040486738
0002d0 7a 9e 8c bd 09 8e 0b bd 22 05 3c 3a 31 24 ab 3d
       -0.068661645 -0.034071002 0.00071723957 0.08356512
0002e0 7c 7c 1c bd 7e 4a eb 3c 59 c6 9d bd ac d8 8d bd
       -0.038204655 0.028722044 -0.077038474 -0.069260925
0002f0 9b 7d 14 bc c1 a9 36 ba 6c 9a 86 3d 7b 11 b6 3d
       -0.00906315 -0.00069680443 0.065724224 0.08890053
000300 d2 3e a5 bd de 54 c2 bd 54 23 ae bd 6b 45 1e 3d
       -0.08068623 -0.094888434 -0.08502832 0.03864042
000310 67 72 88 bd 79 22 b2 bd 2a 0e 89 bc 0d 8a cc 3d
       -0.066624455 -0.086979814 -0.016730387 0.099872686
000320 92 20 5c bd c0 dd 65 3d 63 48 6c 3c bf f7 cb 3d
       -0.053742 0.05611968 0.014421555 0.09959363
000330 77 49 4c 3c b9 a1 63 3d 6e 3c 26 3a a4 d1 8f bc
       0.012468687 0.055574153 0.0006341402 -0.01755602
000340 d7 7d 81 bd 76 da 90 3d 49 e0 2f bd ad c7 8b 3a
       -0.0632283 0.07072918 -0.042938504 0.0010664366
000350 75 34 9a 3d ba a9 55 3c 1a f9 9a 3d 35 95 20 bd
       0.07529537 0.013040954 0.075670436 -0.039204795
000360 43 40 86 bd e6 f4 e5 3c fa 66 8c bd 3f 02 b9 3b
       -0.06555226 0.028070878 -0.06855579 0.0056460197
000370 4a 95 9c 3b a1 9e c4 bc f7 34 3c 3c 79 33 8b 3d
       0.004778539 -0.024001421 0.011487237 0.06796927
000380 3d 6b 31 3c 59 ac 69 3c e2 b0 98 bd 6a 74 68 3c
       0.01082879 0.014262282 -0.07455613 0.0141879115
000390 34 1a a1 3d 28 e6 b9 3b 25 5a 87 bd aa d6 3c bd
       0.07866326 0.0056731887 -0.066089906 -0.046103157
0003a0 23 f0 8c 3c ee 10 1e bd 4a d4 0c 3d 19 8a 35 bd
       0.01720435 -0.038590364 0.034382142 -0.044321153
0003b0 bd c3 33 bd 71 07 80 3d 7c e8 00 bc 4d 2b c2 3d
       -0.043887842 0.06251419 -0.007867929 0.09480915
0003c0 f8 b3 b5 3d 08 57 94 3c 38 01 82 bc 39 f9 79 bd
       0.08872217 0.018107906 -0.015869722 -0.061028693
0003d0 cc 35 c0 bd 29 00 e9 bc 50 a9 a7 bd 86 13 67 3c
       -0.09385261 -0.02844246 -0.08186591 0.014103776
0003e0 a6 61 60 3d 92 f4 2b 3d e9 d3 70 3d 62 2f 85 3b
       0.054780625 0.041981287 0.058795843 0.0040644864
0003f0 aa c0 62 3d f9 d0 66 3d 4b 3a 25 3d a1 01 46 bc
       0.05535952 0.056351636 0.040338796 -0.012085349

bias f4 [64]
000000 b3 40 d3 bc 5f 74 78 3c 80 d8 a0 3d 6c f2 91 bc
       -0.025787687 0.015164464 0.07853794 -0.017815791
000010 4b 1d 06 3d 9d 8f 49 3d d8 3d 82 3d 99 e7 06 3d
       0.03274278 0.049209226 0.06359452 0.032935712
000020 90 7f a3 bd 90 d1 94 bb 98 94 42 3d 8f 97 3c bc
       -0.07983315 -0.0045415834 0.04750499 -0.011510744
000030 f4 89 b4 3d b2 41 32 3c 6a 30 20 bb 6d 67 d3 bc
       0.08815375 0.010879921 -0.002444292 -0.025806153
000040 61 f5 5d bc bd 2d 80 3d 9e a7 78 bd 4b f3 75 3d
       -0.013547272 0.06258724 -0.060706727 0.060046475
000050 7b 1f 26 bd 6e 70 a0 bd 3d 89 11 bc 7e 43 b7 3b
       -0.040557366 -0.07833944 -0.008882818 0.0055927625
000060 aa 1a 24 bd 54 b9 bf 3d 34 c1 69 bc 44 2b f4 3c
       -0.04006449 0.093615204 -0.014267255 0.029805787
000070 f0 93 46 3d b3 1d f8 bc 90 f4 a4 bd 9b 6c ba 3d
       0.048480928 -0.0302876 -0.08054459 0.09102746
000080 9c 30 c3 3d c5 e3 01 3d bb af a5 3d ea ea 52 bd
       0.09530756 0.03171136 0.080901586 -0.051493563
000090 cb 0f 7e bc e9 b2 6b 3c e9 12 99 3d 7b d9 51 bc
       -0.015506695 0.014385917 0.0747431 -0.012808199
0000a0 5e b4 4e 3d 59 de 50 3d be eb 8c 3c 10 04 c1 3c
       0.05046498 0.050993297 0.017202254 0.023561507
0000b0 4a 54 34 3d 02 a6 c0 3d 15 a7 3a 3d 8e e0 03 3d
       0.044025697 0.094066635 0.045569498 0.032196574
0000c0 da 8a 74 bd 7f 1c c3 3c a8 a5 39 3d a2 57 bd 3d
       -0.05970273 0.023817299 0.045323998 0.0924523
0000d0 e8 40 70 3b 89 34 a0 3d 35 ab 03 bd f2 fb 86 bd
       0.003665978 0.0782252 -0.032145698 -0.065910235
0000e0 33 09 84 3d 46 9c 93 3d 0f 9f 41 bd 7f af 08 bd
       0.06447067 0.07207541 -0.04727083 -0.03337049
0000f0 45 af 6a bd 33 32 da bc 3f d3 97 3d 8a 68 0d 3d
       -0.057296056 -0.026635265 0.07413339 0.034523524

weight f4 [5, 64]
000000 bf 56 b2 bc b6 e4 8f bd 61 ee d8 3d 1f ee dc 3d
       -0.02176988 -0.07026045 0.10592342 0.107876055
000010 1c 3d d7 3b d5 bd 90 3d b0 21 21 3d 04 f9 15 3e
       0.006568564 0.070674576 0.039338768 0.14645773
000020 38 12 89 bd 04 a3 de 3d 51 16 97 bd 2f 93 a9 3d
       -0.06692928 0.108709365 -0.073773034 0.08280026
000030 af 4e 17 3c ef b9 b9 bd 70 43 0a 3d b0 94 ca bd
       0.009235068 -0.09068667 0.03375572 -0.09891641
000040 f3 3f dc 3d 22 72 fc 3d 1d a1 b7 bc c1 55 df bd
       0.10754385 0.123264566 -0.022415692 -0.10905028
000050 d1 4e 1d bd 9d c1 f5 bd 9d 91 1d bd 43 75 c1 3c
       -0.038405243 -0.119998194 -0.038468946 0.023615485
000060 28 1e 53 3d 7a 70 8d 3d c8 ce b5 ba 0d dd a8 3b
       0.05154243 0.06906219 -0.001387083 0.0051533044
000070 97 83 a6 3d fc 0a b8 bc 2c 5f 16 3c 80 24 13 3e
       0.081305675 -0.022466175 0.009177964 0.14369392
000080 e2 3f 54 bc a0 2e 0a 3e 71 f1 a6 bd ff 8e dc bd
       -0.012954684 0.13494349 -0.0815152 -0.10769462
000090 14 f2 11 be 33 44 97 3d cc f4 42 bb 3a 03 16 3d
       -0.14252502 0.07386055 -0.002974796 0.03662417
0000a0 43 85 29 3d 2d 4c e9 bd db 94 3e 3d bb aa 56 ba
       0.041386854 -0.113914825 0.04652868 -0.0008188893
0000b0 aa 77 1e 3c a4 24 d3 3c b7 08 cf 3d 9c f0 c5 bd
       0.009672085 0.025774308 0.10109084 -0.09665033
0000c0 17 fc 8c bd 98 7c 83 bd 0a bd 1d 3d ef 38 19 be
       -0.0688402 -0.06420249 0.03851036 -0.14963125
0000d0 1c bd 84 3d 13 d5 99 bd 00 f2 56 bd 72 6b a6 3c
       0.06481382 -0.07511344 -0.052476883 0.020314906
0000e0 4f ee 0e 3e f8 a6 04 3e c8 20 c4 3d 2f f3 37 3d
       0.13958095 0.12954319 0.09576565 0.044909652
0000f0 0b b7 c2 bd 2a 26 09 3e 5c 23 8c bc 1c 93 d6 bd
       -0.09507569 0.13393465 -0.017106704 -0.10477278
000100 23 b3 00 3d e5 eb 0b 3e 4e 80 8f bc ab 5a fd bd
       0.031420838 0.13664205 -0.017517235 -0.12370809
000110 b7 dc cd bc b2 44 f6 bd d7 0a ee 3d cd 6b ce bd
       -0.02512966 -0.12024821 0.11623161 -0.10079155
000120 7a 04 b1 3d 93 9a b4 3d ab a0 8b 3d 86 17 2b bc
       0.08643432 0.08818545 0.06817754 -0.01044262
000130 a8 28 ad 3d b6 e6 bb 3c ba ce f9 bc 02 3e ef bd
       0.0845502 0.02293716 -0.030494083 -0.11681749
000140 56 e8 b9 bd 37 28 a7 3d 1e 1d 10 bc 5a d2 cd 3c
       -0.09077518 0.08161967 -0.008796005 0.025124718
000150 38 c2 30 3d c5 11 00 3e a2 4b 97 3d 37 d0 ea 3b
       0.04315397 0.12506779 0.07387473 0.0071659344
000160 4e 33 c7 3d 11 7a eb bd 19 de 05 3c c0 22 81 3d
       0.097265825 -0.11497892 0.008170628 0.06305456
000170 bf 73 4a bd 2a 58 09 3e 49 1b 0b 3c 28 1e 82 3c
       -0.04942679 0.13412538 0.008490392 0.01588352
000180 ab 91 e4 3d 53 e7 fa 3b 9c c1 db 3d c8 c6 ca 3b
       0.111605965 0.0076569705 0.107302874 0.0061882474
000190 8f 3e 14 3d 41 35 db bd 1d e3 c8 bd ea e5 8b bd
       0.036192473 -0.10703517 -0.098089434 -0.06830962
0001a0 64 c1 04 3e b2 f4 d4 bd eb 67 bc bd 53 8f 69 bd
       0.12964398 -0.103982344 -0.09199508 -0.05702145
0001b0 67 d9 41 3d 95 20 13 3d d2 6e a8 bd a5 a7 21 3d
       0.04732647 0.035919745 -0.08224262 0.03946652
0001c0 f9 ef bf 3d b5 d5 e1 3c f5 ef 94 3c 4e 4d 02 bd
       0.09371943 0.027567724 0.018180827 -0.031812005
0001d0 32 d2 5f bd 85 39 06 3e fa 7d fb 3d a8 43 cd 3d
       -0.054643817 0.1310788 0.122798875 0.1002267
0001e0 77 93 24 3d 41 55 4f 3d 4e 29 17 3d 5d 9c c9 3d
       0.040179696 0.050618414 0.036904626 0.09844277
0001f0 4e 04 af 3d 4f 7f 2a 3d 1e d4 e4 bc a5 03 e9 bc
       0.08545743 0.041625317 -0.027933177 -0.02844412
000200 c0 73 62 bd 70 e2 f2 bd 91 e8 fc 3d b6 b4 85 bd
       -0.05528617 -0.11859596 0.12349046 -0.065286085
000210 2b 8b ec 3b ce 19 b3 bd 30 17 41 bd b4 b1 9d 3d
       0.0072187386 -0.08745156 -0.047141254 0.0769991
000220 48 57 c1 3b 4e 40 66 3d 32 70 19 bd 86 9e fc bd
       0.0059002973 0.05621367 -0.037460513 -0.123349234
000230 a4 a3 f6 3d 69 63 a8 bd 9d 33 92 bc 41 42 e1 bd
       0.12042931 -0.08222086 -0.017846877 -0.10998965
000240 36 6d ad 3d 24 c5 e6 3d 7c 27 36 bd 2b 0e aa bd
       0.08468096 0.1126807 -0.04447125 -0.083034836
000250 c7 f0 8f 3d 72 be 1a 3d 70 ec 9f 3d bc 2f f6 3d
       0.070283465 0.03777928 0.07808769 0.12020823
000260 38 61 ae 3d 88 28 e8 bc d1 90 f9 bd ff 32 9b bd
       0.08514637 -0.02833964 -0.12185825 -0.07578086
000270 ae d2 83 bc af 8b 93 3d 4a 2a 79 3c 5e 3d 81 3d
       -0.01609167 0.07204377 0.015207836 0.06310533
000280 6b b9 07 bd fe 0e 7c bd 04 c8 54 3d c3 b9 dd bd
       -0.033135813 -0.061537735 0.051948562 -0.10826447
000290 b3 4c c9 3d d6 08 c3 3d 89 27 de 3d 21 82 b6 3d
       0.09829082 0.0952317 0.108473845 0.08911539
0002a0 bd b3 79 bd 65 0b 7d 3d cd f7 74 3d ec 3c 5e 3d
       -0.060962427 0.061778445 0.059806634 0.05425732
0002b0 2d 80 81 bd a5 62 81 3d 03 9b d8 bd 00 e2 fd bc
       -0.06323276 0.06317643 -0.10576441 -0.030991554
0002c0 c5 96 9d bd 86 50 95 bd 97 b3 a3 3c 22 8b d1 bd
       -0.07694773 -0.07290749 0.019983096 -0.102316156
0002d0 89 dd 38 3d 4d 52 c5 bd 6e b1 b4 3b cb fa 91 bd
       0.045133147 -0.09634838 0.0055143153 -0.07127913
0002e0 54 e2 e4 3d e6 40 d2 bd 8c da f3 bc 3a 76 74 bc
       0.11175981 -0.10266285 -0.029767297 -0.0149207655
0002f0 00 ab 84 3d 86 a2 c0 3d a1 88 a1 3d b7 09 22 bc
       0.06477928 0.09405999 0.07887388 -0.0098900115
000300 6e 41 54 3d 2a 4d d2 bd 14 a7 71 bd 21 35 a7 b8
       0.05182021 -0.10268624 -0.05899723 -7.9730766e-05
000310 e8 c8 f6 3c 50 da 1c bd 52 3d b2 bd 51 0c ce 3d
       0.030125096 -0.038294137 -0.08703102 0.10060943
000320 e5 6e e0 3d 47 94 38 3d 65 c3 80 3d 1d 51 8c 3c
       0.109586515 0.045063283 0.062872685 0.017128522
000330 e2 17 26 bd 21 67 67 38 19 e5 4c 3d c3 70 bd 3b
       -0.04055012 5.5170738e-05 0.050023172 0.0057812645
000340 cf b3 91 3d 45 ab 51 bd d1 f3 ea bb 46 59 79 bd
       0.07114374 -0.051188726 -0.0071701785 -0.060876153
000350 c2 93 f0 bd fa 8b 20 3c f2 40 67 bd 99 57 eb 3d
       -0.117469326 0.009798998 -0.05645842 0.11491317
000360 d1 7c cc 3c 99 d9 e3 bd 53 31 02 3e c2 e9 16 3d
       0.02496186 -0.11125488 0.12714128 0.036844023
000370 cb 8b 26 3d 33 81 d4 3c 58 1b a6 3d 6f 00 08 be
       0.04066066 0.025940513 0.08110684 -0.13281415
000380 3e 3a 61 3c 49 69 a6 ba fe dd 25 3c 62 a9 ee 3a
       0.013746796 -0.0012696172 0.010123728 0.0018208439
000390 2e bc e1 3d 4b 2b 5d bc f4 51 a1 bd 29 8a ab 3d
       0.110222206 -0.013499091 -0.078769594 0.08375961
0003a0 5b 2c 71 bc 99 19 88 3d 04 a2 86 bd 2f ca b2 3d
       -0.014720048 0.06645507 -0.06573871 0.0872997
0003b0 fb 9a 89 bd 2b 5a a7 ba b1 fb 65 3c 7b ab bc 3d
       -0.06719013 -0.0012767961 0.014037059 0.09212395
0003c0 f8 9b 44 3d bc 2d b0 3d a2 a3 3f bd 33 1a 89 3d
       0.048000306 0.08602473 -0.04678691 0.0669445
0003d0 6f 83 bc bd 55 02 b2 bd dd 02 73 3d ed 13 81 bd
       -0.092047565 -0.08691851 0.059328903 -0.06302629
0003e0 9a 35 6d 3d c1 65 86 3d d1 f0 ff 3b 6d 71 27 3c
       0.057912447 0.06562377 0.00781069 0.010219914
0003f0 d7 ad 4e bd c8 9c 89 3b c6 76 0c 3d 93 3b 89 3d
       -0.050458755 0.004199598 0.03429296 0.06700816

bias f4 [5]
000000 50 dc ed 3d b1 89 e1 bd b8 79 e0 3d a6 c2 e4 3d
       0.11614287 -0.11012591 0.10960716 0.11169939
000010 eb 44 02 bc
       -0.007951002
