Policy-Gradients/Poker-Agent/checkpoint_90000.pt (torch, 227369 bytes, 8 tensors)

weight f4 [256, 55]
000000 f3 f6 10 3c dd d3 bb bd 72 48 2a bd e1 cd 4e bc
       0.00884794 -0.09171269 -0.041572995 -0.012622328
000010 70 bf af 3d d7 4b 59 3d e9 dd 8a 3d c2 b1 5d 3e
       0.08581436 0.053050842 0.06780607 0.2164984
000020 de 27 37 3e de 6e 05 3d e1 f9 f5 bd 74 9b 8f bd
       0.17886302 0.032576434 -0.12010551 -0.07012072
000030 ab a1 f5 3d 14 e0 08 bd 05 a3 95 3c 26 51 0c bd
       0.11993726 -0.033416823 0.01826621 -0.034257077
000040 47 de 3e 3d 8c 16 52 3d a6 c6 e4 3d ce 4a cb bd
       0.0465987 0.051291034 0.11170702 -0.09926377
000050 76 50 64 39 f7 cc 20 be 71 7b 6a bd 67 48 cc 3d
       0.00021773748 -0.15703188 -0.05724663 0.09974747
000060 d3 90 24 3e 1f 50 bd bc 07 47 ce bd f4 48 08 3e
       0.16070871 -0.023109494 -0.10072141 0.1330908
000070 ba 55 6b bd 9f 29 88 3c 60 b5 da 3d 78 1a ba 3d
       -0.057454802 0.016621409 0.10679126 0.0908708
000080 c0 c1 c4 3c 4e 19 bb 3d 8d 73 b9 bd 3c d5 cb 3c
       0.024018168 0.09135686 -0.09055243 0.024881952
000090 a8 98 87 bc 1c 9b d6 bd a1 40 6d bd 8d d2 f4 bb
       -0.016552284 -0.104788035 -0.057922963 -0.0074713887
0000a0 ac 94 14 be d7 4a db bc 3b 3b 1c 3d a7 3b 45 3c
       -0.14509839 -0.026769085 0.038142424 0.012038148
0000b0 83 72 11 be 78 89 19 bd 0d 22 67 bd d4 2d 5e 3d
       -0.14203839 -0.037484616 -0.056428958 0.054242924
0000c0 1d 9b 7c bc e6 c9 41 3d dd 1b d4 3d f4 38 64 bb
       -0.015417841 0.047311686 0.10356877 -0.0034823986
0000d0 8a 0c cf bd 0d bc 91 3d 73 c8 98 bd 93 0f 0e 3c
       -0.101098135 0.07115946 -0.07460108 0.008670705
0000e0 67 77 8c bd bf f6 f0 3d e6 16 d5 bb 63 1d 06 3e
       -0.06858712 0.11765813 -0.006502974 0.13097148
0000f0 45 3d 1e 3e 07 06 b8 3c c4 a8 16 3d 5e 5f 5b 3e
       0.1545306 0.022463812 0.03678204 0.21423098
000100 65 aa 12 3e dc 38 d5 3b 56 da 7f 3e 4b 79 26 3e
       0.14322813 0.0065070223 0.24985632 0.16257207
000110 a3 f6 3c 3d ef dc a4 3c 87 6f b9 3d 72 a7 76 3c
       0.04613365 0.02012488 0.09054475 0.0150545705
000120 05 ed 9b bd 19 1c 64 bd df a1 d7 3d db 21 30 3d
       -0.07613567 -0.05569086 0.10528921 0.043001037
000130 2f d5 80 3c 22 d7 bd bd 68 bc ca bc 46 df 11 3e
       0.015726654 -0.09269549 -0.024748042 0.14245328
000140 04 b5 38 3d 2f cb 01 be 08 0d 96 bd f1 d1 d1 bb
       0.045094505 -0.12675165 -0.07326704 -0.006403201
000150 0f d1 d9 bd f7 d7 a3 bd 5d f2 98 bd bb 2e 5f 3e
       -0.10635578 -0.080001764 -0.07468102 0.2179517
000160 fe dc 72 bd 78 a9 1d 3e 28 db 3a 3d 82 c8 d2 bc
       -0.059292786 0.15396678 0.04561916 -0.025730375
000170 92 df 78 3d 8f 63 ce bc b5 b7 8f 3d 82 18 fd bd
       0.06076009 -0.025193958 0.07017461 -0.1235819
000180 2f 2e 96 3d b5 51 c7 bc 70 64 07 3e e3 ac b2 3d
       0.073330276 -0.024330953 0.13221908 0.08724382
000190 e4 4c 64 bd f7 c3 e7 3d 21 81 01 3e 7f 7b fe bc
       -0.05573739 0.11316674 0.12646915 -0.031064747
0001a0 01 71 ca bc 94 58 4a 3d 17 87 01 be 90 7f c0 bd
       -0.024712088 0.04940088 -0.12649189 -0.093993306
0001b0 71 bb 06 3e c0 ef 93 bd 9d 80 12 3d 85 a3 ab 3c
       0.1315744 -0.07223463 0.035767186 0.020951996
0001c0 0b e7 b8 bb 66 75 cc 3b d1 56 f8 3c f2 78 97 3d
       -0.005642777 0.006239581 0.030314835 0.07396115
0001d0 20 3e c3 3d ef a1 1f be 2a d7 2d be 47 7b 1e 3d
       0.09533334 -0.15589117 -0.1697661 0.038691785
0001e0 0f 49 7a bc 29 ea 60 be e5 bd 0f bd 5c 3b ab bd
       -0.015276208 -0.21964325 -0.035093207 -0.08360931
0001f0 43 38 aa bd bc ef 92 bd da e6 69 bd df 7b 97 bd
       -0.08311512 -0.07174632 -0.057104923 -0.073966734
000200 90 0f b1 3d 86 e5 bf bd a4 02 eb bd bb e1 87 3d
       0.086455464 -0.0936995 -0.11475113 0.066348515
000210 7b c4 b6 bc 0d f6 86 bd b1 88 c9 ba c1 d3 89 bc
       -0.022310486 -0.06589899 -0.001537582 -0.016824605
000220 02 69 26 bd 12 88 bb 3d 15 6c ae bd e5 b5 af 3c
       -0.040627487 0.09156813 -0.08516709 0.021449039
000230 29 71 90 3d 04 1d c4 bd 8e e7 3a be 84 06 95 bd
       0.070528336 -0.09575847 -0.18252394 -0.072766334
000240 0f 9d f4 3d f9 e0 14 bd 07 a7 e3 bb 04 1a 83 bd
       0.11944019 -0.036347363 -0.0069474014 -0.064014465
000250 76 f0 2f bd b4 62 0e bd 66 c6 9b bd c7 a8 27 bd
       -0.04295393 -0.0347621 -0.07606201 -0.040932443
000260 56 2a 25 3d 4a 84 58 3d 9b 6d e9 3d 74 1f 41 bd
       0.040323578 0.052860536 0.11397859 -0.047149137
000270 e5 6a c0 bd dc 74 9c 3d 18 58 8e bd 58 a4 8c bc
       -0.093953885 0.07639477 -0.06950396 -0.017168209
000280 a7 cf 2e 3d 51 18 04 3e c1 45 63 bd 64 4b e6 bb
       0.0426785 0.12899901 -0.055486444 -0.00702803
000290 0d 8c 09 3e 67 d6 02 3e 67 e9 d9 3d 04 20 5f bd
       0.13432331 0.127771 0.10640221 -0.05447389
0002a0 65 28 a1 bd be 4e 2f bd a1 9c ad 3c 4f d2 fa bc
       -0.07869033 -0.042799704 0.02119285 -0.030617861
0002b0 29 92 ee bc 29 c3 49 be b4 8d 49 bd b0 60 05 be
       -0.029122429 -0.19703354 -0.049207404 -0.13025165
0002c0 3c f5 14 be a0 01 8f bc 7e 19 9a bd af 4e 38 bb
       -0.14546674 -0.01745683 -0.075243935 -0.002812307
0002d0 d7 82 97 3d b9 83 cc bc 14 80 01 3e 51 2f 92 3d
       0.073980026 -0.024965154 0.12646514 0.07137931
0002e0 0a 36 1e 3e c9 5b c5 3d d2 5a 00 3d 6a 8b 59 bd
       0.15450302 0.09636647 0.031336613 -0.05311147
0002f0 4c 04 1e bd d5 9e b4 bc f4 47 af bd 5b 8e 72 3d
       -0.038578317 -0.022048393 -0.08558646 0.059217792
000300 df ad 5a 3d ec 7c c9 3d 85 a0 f5 3d c4 ae bc bd
       0.053388473 0.0983828 0.11993507 -0.092130214
000310 81 fa f9 bd fb 94 35 bd 69 c0 e3 3d bd 1e 48 bd
       -0.12205983 -0.044331532 0.11120684 -0.04885744
000320 13 d0 5a bd 9d 98 58 bd a3 f0 a3 3c b7 d7 97 bd
       -0.05342109 -0.05287992 0.020012205 -0.07414191
000330 84 df bb 3c 2e 7f bc 3d ab 72 95 bd 12 a6 9d bb
       0.022933729 0.09203945 -0.07297262 -0.004811057
000340 d2 36 5a 3c 07 d4 89 bd 8c 36 ff bd fb 66 fa ba
       0.013318734 -0.06729894 -0.12461576 -0.0019104177
000350 29 1d 83 bd 81 75 c2 3d c9 45 03 3c 20 55 c9 3d
       -0.06402046 0.09495068 0.008012244 0.098306894
000360 67 af ca 3d 36 ba ff 3b 01 f9 cd 3d 81 7d 7b bb
       0.098967366 0.0078041805 0.10057259 -0.0038374367
000370 53 6b 15 be f9 d7 95 bd 29 dc b0 3d 8b fc f1 bc
       -0.14591722 -0.07316584 0.08635742 -0.029539367
000380 ec e6 10 3e 76 e8 f9 3c e3 83 37 bd 4f d6 03 3e
       0.1415059 0.030506354 -0.04480351 0.12874721
000390 07 d7 1d 3e 5d 50 6f 3d 49 5a 89 bb 43 4c 86 3e
       0.15414058 0.05842625 -0.004191671 0.26230058
0003a0 a4 1d ad 3a 28 a8 81 bd f6 52 3e 3e 2c ba 08 3e
       0.0013207686 -0.063309014 0.18586335 0.13352269
0003b0 e3 40 19 3e a7 f1 04 bc 70 32 3a 3e 5a 65 08 be
       0.14966159 -0.008114255 0.18183303 -0.13319913
0003c0 d8 b5 e6 3d 38 7e fb bd a2 8d 8f bd 5f 06 0b 3e
       0.11265153 -0.12279934 -0.07009436 0.13576649
0003d0 ca 94 21 3e 7e ef a1 bd a7 30 d8 bb 21 38 c0 3d
       0.15779415 -0.07907008 -0.0065975967 0.09385706
0003e0 42 ec 6a 3d e4 98 cf 3c 46 20 a9 39 76 6e 66 3d
       0.05735422 0.025341459 0.00032258237 0.056257688
0003f0 e2 dc 81 bd 60 4f 10 3e 93 11 51 3d 4b ac ba 3d
       -0.06340958 0.14092779 0.05104215 0.091148935

bias f4 [256]
000000 a4 a4 71 3d bd ee b3 bd bb ba 1c 3e 65 3a 96 bd
       0.058994904 -0.0878577 0.15305607 -0.073353566
000010 23 9e 87 3d a3 2c c6 3d c8 4c b6 bc 74 6b a4 bd
       0.06621959 0.096764825 -0.022253409 -0.080283076
000020 50 e2 50 bd 23 fd 90 3c 8e 0b d9 bd 7d 8d b0 3d
       -0.05099708 0.01769883 -0.10597907 0.08620737
000030 0e fc 56 3d c3 9c 70 3c a7 a1 22 3e b2 6a 65 bd
       0.05248647 0.014685812 0.15881978 -0.056009956
000040 84 a2 8b bd 77 76 15 3e 0b 6e 0c 3d 22 43 22 bc
       -0.06818107 0.14595972 0.034284633 -0.009903701
000050 6c e0 89 bd b8 0c 69 3d ac ac 52 3d 3f d7 64 3d
       -0.06732258 0.056896895 0.051434204 0.055869337
000060 e1 19 c4 3d 5d 0c 1d 3d 30 31 b0 3d b5 dc 28 3e
       0.095752485 0.03834187 0.08603132 0.16490443
000070 25 35 d4 bd 73 f7 58 3d e3 87 36 3e 1b 26 0a be
       -0.10361699 0.05297036 0.17825274 -0.13491099
000080 58 46 84 3d 75 14 fe 3d 90 1d 08 bd 93 d3 17 3c
       0.064587295 0.124062456 -0.033231318 0.009266752
000090 8c 1e c3 bd cf b4 49 bd 5d 39 4e 3d 5d 5b 1f 3e
       -0.09527311 -0.049244698 0.050347675 0.15562196
0000a0 a1 ff 47 3d c9 fd bd bd cf 5a 1c 3d 8a 7c dd 3c
       0.04882777 -0.09276921 0.03817254 0.027036924
0000b0 1f e2 86 3d 63 cc 31 bd 33 6d bf 3d 11 a9 b5 3c
       0.06586098 -0.04340781 0.09347 0.022175344
0000c0 a7 f8 af bc a4 d3 1c bd 4b 74 ab 3d da 0e ec 3c
       -0.021480871 -0.038287774 0.083717905 0.028815676
0000d0 02 81 e8 bd e8 32 aa bd 07 d5 e4 3d de aa 49 3d
       -0.11352731 -0.08310491 0.11173444 0.049235217
0000e0 cf 31 d5 bd 00 93 f5 bc af 4c bd bd 48 52 c7 3d
       -0.10409891 -0.029977322 -0.09243142 0.09732491
0000f0 03 8c 31 3d d0 82 50 bd 8f 91 ce 3d 03 b2 07 bc
       0.043346416 -0.050906003 0.10086357 -0.008282187
000100 4f 88 90 3c 5b 02 05 be 6a aa 8e 3a f4 b9 27 3e
       0.017643122 -0.1298918 0.0010884528 0.16379529
000110 76 7a fe bd f0 a0 c6 bd a2 f9 81 3d 72 63 3f 3b
       -0.12425701 -0.09698665 0.06346442 0.002920356
000120 28 b4 08 3d 08 b2 18 3e 2f 95 9e bc f4 bd 97 3d
       0.033374935 0.14911664 -0.019358246 0.074092776
000130 06 fc 0c 3d 50 82 37 bd 52 74 9f 3d e1 34 e5 bc
       0.034420036 -0.04480201 0.07785858 -0.027979316
000140 2f b5 09 be c6 35 ca 3c 06 09 b2 3d e7 4a da bd
       -0.13448022 0.024683844 0.08693127 -0.10658818
000150 8d ff a1 3c 66 66 0f bb b4 c9 41 bc 7a ba 09 3e
       0.019775176 -0.0021881103 -0.011827875 0.13450041
000160 6c 20 07 3e 61 0c 7d bd bb 90 04 be cc 97 6e 3c
       0.13195962 -0.061779384 -0.12945835 0.014562558
000170 9a df 5f 3d a5 fd fa bd 1e 2a bd 3c f8 01 27 3e
       0.054656602 -0.1225541 0.023091372 0.16309345
000180 e5 dd 26 bd 86 2e 9b bd 3d 8a d0 bc d5 c7 dc bc
       -0.04073896 -0.07577233 -0.025456542 -0.026950756
000190 f6 7c 58 bd b4 fa f9 bd be 21 dc bd f6 f2 44 3c
       -0.052853547 -0.12206021 -0.10748623 0.012020817
0001a0 cf 83 35 bd 05 0f 22 3b ad 31 1b 3c b3 7b ad bc
       -0.044315156 0.002472819 0.009472293 -0.021177148
0001b0 43 5c f7 bd c3 28 50 3d a0 74 33 3c 80 b5 4a 3d
       -0.120781444 0.050820123 0.010953099 0.0494895
0001c0 b0 e7 dc bc f0 6a 8c bb 9c be 1c 3e 75 0e 02 3c
       -0.026965946 -0.004285209 0.15307087 0.007938017
0001d0 0e 6f 3a bd 9f 36 c2 bd 96 50 15 be 3b a3 c3 3d
       -0.045516066 -0.094830744 -0.14581522 0.09552618
0001e0 71 0f d9 3b 95 99 bd bd bb d1 14 3e 8e 66 8c bd
       0.006624155 -0.09257809 0.14533131 -0.06855498
0001f0 d6 6f 22 3d 35 74 b8 bd 8d f2 17 3e b7 37 36 3d
       0.039657436 -0.0900654 0.1483862 0.044486728
000200 3b 27 b2 3c 8b 5b e4 bd 97 59 c2 3d 1e 53 fd bc
       0.021747222 -0.11150273 0.09489744 -0.030923422
000210 4d 60 02 bd 1d a3 1c bd ed 00 c1 bd 58 e1 82 3d
       -0.03183012 -0.038241494 -0.09424005 0.06390637
000220 71 57 3d bd 57 e9 8c 3d 0c a5 94 3d a2 f0 dc 3d
       -0.04622597 0.068804435 0.07258043 0.107880846
000230 a8 1e ac 3d 92 dd 70 3d f4 42 ab bd c6 54 e4 bd
       0.08404285 0.058805056 -0.0836238 -0.11148982
000240 18 5e d8 bc 59 f5 5b bd 67 a6 13 bd 96 0d 17 bd
       -0.026412055 -0.05370078 -0.036047366 -0.03687819
000250 cb 37 5a 3d 14 e1 03 be fd e3 00 3d be 6a 3a 3c
       0.053275865 -0.12878829 0.031467427 0.011377988
000260 9b cc 9e 3d b6 b7 d0 bb d2 61 86 3d 77 e1 9d 3d
       0.07753869 -0.0063695563 0.065616265 0.0770902
000270 fc 0e 00 3d 8c 11 c9 bc 2c 81 8f ba ee d0 80 bd
       0.03126429 -0.0245445 -0.001094853 -0.0628985
000280 c4 ed 03 bc 55 c1 7e bd 7f fd 3e 3d c3 6a dc 3d
       -0.008052293 -0.062196095 0.04662847 0.10762551
000290 24 a9 ba 3d 29 dc 27 3e aa be 9d 3c ff d9 ce 3d
       0.09114292 0.16392578 0.019255955 0.10100173
0002a0 62 ba 38 bd 97 76 45 3d 4f 34 d7 bc 17 49 a4 3d
       -0.045099624 0.0482088 -0.02627006 0.08021753
0002b0 e1 3d ea 3d b2 3d bf 3d 83 70 89 bc ad 68 10 3e
       0.11437584 0.09337939 -0.016777283 0.1410243
0002c0 c5 14 c6 3a 7a f6 7a bd c5 d5 dd 3d c6 47 fa 3d
       0.0015112391 -0.061270215 0.10831789 0.12220721
0002d0 fd 5e 9c bd 41 c5 06 bd 56 d6 02 3e 06 18 21 3d
       -0.07635305 -0.03290296 0.12777075 0.03932955
0002e0 28 a4 04 3e 99 3f 7a 3a 7b b4 a9 3d 62 a5 e8 3b
       0.12953246 0.000954622 0.08286377 0.0070997933
0002f0 66 2f 54 bd df 77 23 bc e4 d6 c4 bd 03 b5 c6 3d
       -0.051803015 -0.00997731 -0.096113 0.09702494
000300 66 b9 3d 3d 3a ec f4 3d 5b da a6 bd 52 83 9a bd
       0.046319388 0.11959119 -0.08147117 -0.075445786
000310 bd 04 b1 bd 6c d5 50 bd b9 ca 51 bd 3b 16 20 3e
       -0.08643482 -0.050984785 -0.051218722 0.1563348
000320 a9 6c a5 3d 47 5e 50 bc 04 a7 fe 3c 7f 36 98 bd
       0.08077366 -0.01271779 0.031085499 -0.07432269
000330 6a 52 c5 3d a0 f6 a5 bd a6 34 cf bd 4a 91 c6 3c
       0.0963486 -0.081036806 -0.10117464 0.024239201
000340 a3 a6 c9 bd 05 dd 36 3e 2e c0 3e 3c 15 25 77 3d
       -0.098462366 0.1785775 0.011642499 0.0603381
000350 f7 ad df 3c f6 12 60 3b e2 c9 d3 3d ec 0c 99 bd
       0.027304633 0.003419099 0.103412405 -0.07473168
000360 70 a9 1e be 3a 91 62 bd d5 c8 64 3d d9 46 61 3d
       -0.15494323 -0.05531428 0.05585559 0.054999206
000370 9c ff 83 3d ea 38 57 bd c7 e1 8b bd c6 9e 68 bd
       0.06445238 -0.05254451 -0.06830173 -0.056792043
000380 ff d0 50 bc f4 44 b8 3c 98 08 44 3d 97 20 07 be
       -0.012745141 0.022493817 0.04785976 -0.13196026
000390 3a ad 8f 3d be 57 ba 3d 5b f0 22 bd c5 aa 1a bc
       0.07015462 0.09098767 -0.039780002 -0.009440129
0003a0 b4 2a ae bd ef 2d 9e bd 69 ff a8 3d ac 16 4d 3d
       -0.08504239 -0.07723605 0.082518406 0.05007045
0003b0 9c 27 f2 3d 6a 7f 04 be 2c 58 d0 3d bd 10 09 be
       0.11823961 -0.1293923 0.101730675 -0.13385291
0003c0 7a cd b7 bd 8d 73 c0 3d 2c 7e bd bd b3 c3 a8 3d
       -0.089747384 0.093970396 -0.09252581 0.08240452
0003d0 d9 51 36 3d 3f 17 bc 3d 17 e8 a7 bd 11 94 4e bd
       0.04451165 0.09184121 -0.081985645 -0.050434176
0003e0 3e 1c 6d bc c3 da 95 3d 51 51 a2 3d 7d e7 0b 3e
       -0.0144720655 0.07317116 0.07925666 0.13662525
0003f0 ec 1b e4 3b cb 6e de 3d d0 5d e5 bb 19 52 d5 bb
       0.0069613364 0.10860976 -0.0069997087 -0.006510031

weight f4 [128, 256]
000000 2a 26 18 bd 1e 63 ca bd 3a 93 90 3d 88 c6 b5 3d
       -0.03714577 -0.09882186 0.07059331 0.088757575
000010 59 13 9c 3c f6 89 a8 3c 9c e6 1c 3d 3a 58 09 3c
       0.019052194 0.020573597 0.038305864 0.008382851
000020 bd a5 bf bc 5a 4c 88 3d a2 c5 60 bd d1 4e 4c 3d
       -0.02339446 0.06655188 -0.054875977 0.049879853
000030 ab 8e 0d 3d e5 8e 22 bd 0f 67 95 3d f1 94 e3 3d
       0.034559887 -0.039687056 0.072950475 0.11112393
000040 0d d9 9c bd 5a a1 a6 3d 69 1b 89 bc 05 00 98 3d
       -0.07658587 0.08136244 -0.016736703 0.07421879
000050 ee f1 af bc 26 7e 86 3d 37 02 a6 3d 80 50 65 bd
       -0.021477666 0.0656703 0.08105891 -0.055984974
000060 03 f5 21 3c a2 2d cb 3c 78 ea 17 bc fc 00 f8 3c
       0.0098850755 0.024802033 -0.00927221 0.030273907
000070 3e e2 d6 bd 0a b5 c2 3d a1 ad 70 3d 1e f0 6f bb
       -0.10492371 0.09507187 0.058759335 -0.0036611627
000080 a7 0c c5 3d 4e bd 87 3d 60 f6 1a bd c4 f2 13 bd
       0.09621554 0.06627904 -0.037832618 -0.03612019
000090 b0 96 4f bd fd ca c5 3c b7 e4 aa bc 06 3e 16 3d
       -0.050680816 0.024144644 -0.020861013 0.036680244
0000a0 bd ed 00 3d f0 cf cc 3d 44 da f9 bc dc ea 5b bd
       0.031476725 0.100005984 -0.030499585 -0.053690776
0000b0 f2 ba 84 bd 83 7a 25 3c 14 16 2c 3d 0b b0 1e 3d
       -0.064809695 0.01010001 0.042013243 0.038742106
0000c0 8c 34 c3 bc 46 a9 32 bd 37 45 91 bc 54 93 6f 3d
       -0.023828767 -0.043618463 -0.0177332 0.058490112
0000d0 01 75 1d bc 49 c7 f5 bc 74 a3 c1 3c 0f 8b 96 bd
       -0.009610415 -0.030002253 0.02363751 -0.07350742
0000e0 48 ef 1e 3c 94 59 17 3d 36 5e 45 bd ff 00 15 3d
       0.009700604 0.036950663 -0.04818555 0.036377903
0000f0 65 8d 6d bd 55 71 f2 3c e1 8a a8 3d 6b 2f 0c bd
       -0.057996172 0.029595057 0.08229614 -0.03422491
000100 d2 57 31 bd 0f 4c e6 3b 07 7d 02 3d 63 43 ae 3d
       -0.043296643 0.00702811 0.031857517 0.08508947
000110 d0 d8 42 3d c6 e9 1a bd 04 1b 13 3d ed ff bb bc
       0.04757005 -0.0378206 0.035914436 -0.022949183
000120 3a 92 c3 bb 31 fd e7 bc d2 ed 2a bd 4f a6 98 bd
       -0.0059683593 -0.028318973 -0.04173071 -0.07453596
000130 5a a4 90 bb eb 03 76 bd 53 dd 97 3d 90 ee 03 bd
       -0.0044141235 -0.06006233 0.07415261 -0.032209933
000140 8d 0d ee 3c bb 33 17 bd f3 4e a3 bd db c6 43 bd
       0.029059196 -0.03691457 -0.07974043 -0.047797065
000150 98 94 6b bd 1f a8 5a 3d f1 fb 92 3d 3e 26 b7 3d
       -0.057514757 0.05338299 0.0717696 0.08942841
000160 7c ae 6f 3d d6 1a 15 3d d1 f7 87 bd 3e 84 a4 bd
       0.05851601 0.036402546 -0.06639064 -0.08033036
000170 17 f2 5c 3d 9e ec d0 bc d6 7a 21 bd 9b 13 05 3d
       0.053941812 -0.025503453 -0.039423786 0.0324894
000180 41 a0 76 bd 38 b9 04 3a 99 11 21 3d 17 3d ec 3c
       -0.060211424 0.0005063 0.039323423 0.028837724
000190 15 02 28 3d 1b 7c 6e bd 2c 9e 1b bc 0b 1e 2e bd
       0.04101761 -0.058223825 -0.00949816 -0.04250912
0001a0 39 65 8d 3c bc 82 18 3d 23 ec e0 3c 11 97 aa 3d
       0.01726018 0.037234053 0.027456349 0.08329595
0001b0 3e 71 68 bc ad b8 71 bd ff 51 47 3d 8f f5 67 3d
       -0.014187155 -0.05901401 0.048662182 0.056630667
0001c0 a9 d8 e8 bd f7 08 69 bb 50 01 bc bc f5 41 3a 3d
       -0.1136945 -0.0035558322 -0.022949845 0.045473058
0001d0 4f 3c 26 bd 6f 2f e7 bd 3f b1 83 bd 8f 05 0b 3d
       -0.04058486 -0.11288344 -0.064302914 0.033940848
0001e0 70 fe 24 bc 1b 2c 33 bc 14 17 4f 3d 52 e6 54 bc
       -0.010070428 -0.0109358085 0.05055912 -0.012994366
0001f0 38 06 fb ba 32 9b 96 3d d2 5f c9 3d 68 37 de 3d
       -0.0019151634 0.0735382 0.098327294 0.10850412
000200 7b 7f 61 bd a9 6b 27 bd cf 11 34 bc 09 e7 a7 bb
       -0.055053215 -0.040874157 -0.010990574 -0.005123977
000210 d8 88 cf bc a6 d3 b6 3b 39 f6 ad bd 46 be fb 3b
       -0.025333807 0.0055794297 -0.08494229 0.0076825945
000220 dd 61 94 bd d8 60 6d 3d 10 ec a8 bc fe 5b 80 3d
       -0.072452284 0.057953686 -0.020620376 0.06267546
000230 dc 5c 23 3d fe e4 16 3c e3 0e 52 bd 9e fd 3c bd
       0.03988348 0.009209869 -0.05128373 -0.046140306
000240 cb fb 19 bb 15 93 86 bc 8e 9f 74 bd 0f 04 7b 3c
       -0.0023496028 -0.016427556 -0.059722476 0.015320792
000250 3c ad d7 bc 4c 88 a8 bd 23 91 ce 3d 8d a5 14 bd
       -0.026327722 -0.082291216 0.100862764 -0.036290694
000260 97 24 91 3d 64 48 e2 3c 92 60 d8 3a af 06 4b bc
       0.07087057 0.02762241 0.0016508272 -0.01239173
000270 23 3b 5a bd 7f e3 8c bc a8 76 83 3c 83 9e 62 3d
       -0.053279053 -0.017198322 0.01604779 0.05532695
000280 3c 1a 47 bc a5 b1 33 bc 62 d9 a2 bc 4d 0b a1 3c
       -0.012152251 -0.010967647 -0.019879047 0.019658709
000290 8b 7c 85 bd 93 2e b4 bc 9d 7d f5 3d 70 64 f9 bb
       -0.06517895 -0.021994865 0.119868495 -0.00761085
0002a0 56 f3 ac bc 9d cf ed 3c 71 e5 8e 39 a1 74 d1 bc
       -0.021112125 0.029029662 0.00027255298 -0.025568308
0002b0 ed c8 e0 ba 60 c0 f9 3b e8 a0 b1 3b a6 d3 10 bc
       -0.0017149724 0.00762181 0.005420793 -0.008839523
0002c0 e1 e0 e5 3c 21 9d 09 3c 5e 11 9c bc 0f 85 a1 bd
       0.028061332 0.008399279 -0.01905125 -0.07886707
0002d0 8f 5b d1 bb c4 25 17 bd 0a b5 1f bc be f4 73 38
       -0.0063890885 -0.03690125 -0.009747753 5.816365e-05
0002e0 bf 98 b5 3d f1 f8 57 bc 2e f3 2d 3d 87 2f ce bc
       0.08867025 -0.013181911 0.042468242 -0.025169147
0002f0 4c bf 02 3d f4 38 22 bd ab 58 30 3d c2 92 6f 3d
       0.031920716 -0.039605096 0.04305331 0.05848957
000300 3a 10 4d 3c bc d4 e2 3b 2c ad c0 bd fe 83 76 3d
       0.012516076 0.0069223326 -0.0940803 0.06018447
000310 42 13 12 3d 61 7b 5f 3d 4f 0c ad 3d 8d f2 9a 3d
       0.035662897 0.054561023 0.08449613 0.07565794
000320 db 4b da 3c e6 cd 9b 3c f0 e6 ee bc 0e 69 b5 bd
       0.026647499 0.019019078 -0.029162854 -0.08857928
000330 7a e9 17 bd 0a e8 ee bd 54 dd da bd ee d9 6d 3c
       -0.037087895 -0.11665352 -0.10686746 0.0145172905
000340 93 5d 90 3c a8 80 f5 3d f0 1b 4d 3d a5 52 23 ba
       0.017622745 0.1198743 0.05007547 -0.00062302715
000350 b0 32 53 bd fe 03 8a 3d 11 ca cc bb ab 05 aa 3d
       -0.05156201 0.06739043 -0.006249674 0.08301862
000360 a2 ae 87 3c ee 9a f3 bc 3a 1a 9b 3c 91 aa 67 3d
       0.016562764 -0.029736962 0.018933404 0.05655915
000370 1e b8 57 3d 85 9b ba bb 71 47 2b 3d 6f 5d 80 3c
       0.052665822 -0.005694809 0.04181618 0.015669553
000380 15 54 e2 bc f3 b9 a8 3d f3 1e 34 bd 02 96 c9 3c
       -0.027627984 0.08238592 -0.043974828 0.024607662
000390 55 c6 37 bd bc 7e f3 3c 71 8b 6e 3c a6 f3 55 bc
       -0.04486688 0.029723518 0.014559613 -0.013058579
0003a0 92 85 03 3d fe a4 d6 bd ee 9b 92 bc ad d2 cd 3d
       0.032109804 -0.104806885 -0.017896619 0.10049949
0003b0 66 50 39 3d df 29 12 3c f5 13 e0 bc c4 83 aa bd
       0.04524269 0.008921116 -0.027353266 -0.083259135
0003c0 76 f1 8d 3c 5e 7d d5 bb 75 89 3d 3c 23 af 86 3c
       0.017327052 -0.006515189 0.011568417 0.016440934
0003d0 86 4b 98 bd e4 df 59 3c d3 8c 98 3c bb 80 8c 3d
       -0.0743628 0.013298009 0.018621838 0.06860491
0003e0 af c6 a2 bd 51 dd af bc 45 1b 25 bd 85 0d 17 3d
       -0.07948052 -0.021467837 -0.04030921 0.036878128
0003f0 03 81 7e bc 6d 6b 26 bd e3 59 4c 3b 8e a7 b3 bc
       -0.0155336885 -0.040629793 0.0031181506 -0.021930482

bias f4 [128]
000000 43 33 8c 3d 86 56 0e 3c 5e 12 a8 3c d4 0a 62 3d
       0.06845715 0.008687621 0.02051657 0.055186108
000010 09 d5 5b bc 15 6c eb 3c 70 a7 1e 3b 37 b4 ee 3c
       -0.013417491 0.028738061 0.0024208687 0.029138668
000020 d4 1d bd 3d 06 4e 02 3d 51 55 17 bd 99 b4 0b ba
       0.09234205 0.03181269 -0.0369466 -0.00053293403
000030 26 4a c8 b9 70 f8 88 bc f1 d9 3b 3d 58 25 ad 3d
       -0.00038202218 -0.016720027 0.045862142 0.084543884
000040 7d d6 7b 3d 55 d0 94 bd c8 4a a3 bd 51 5c 62 3d
       0.06148385 -0.07266299 -0.07973248 0.05526382
000050 c9 ff b2 bc 94 0e 64 bd 28 89 d0 3c 37 32 2f 3d
       -0.021850483 -0.055677965 0.025456026 0.042772498
000060 75 d7 ef bc 06 ab 94 ba 88 85 2e bd 03 e0 b1 3d
       -0.029277543 -0.0011342473 -0.042607814 0.08685305
000070 a7 9e 49 3d c9 69 e0 3c dc 97 46 3c d2 f7 85 bd
       0.04922357 0.027394192 0.012121167 -0.065414086
000080 0f ac d4 bc 68 ce 44 3d a1 58 e0 3c c6 a1 06 3d
       -0.02596095 0.048048407 0.027386012 0.032869123
000090 4b d3 8d bd 9e 28 e4 bb e8 be 13 bd a4 9c 01 bd
       -0.069250666 -0.0069628498 -0.036070734 -0.031643525
0000a0 d9 82 b2 3d b7 57 55 bc 53 62 94 3c ce 8d af 3d
       0.087163635 -0.013021401 0.01811329 0.08571969
0000b0 5d cb f4 bc a0 a2 44 3d 05 0a 9e 3c 2d a2 01 ba
       -0.029882127 0.048006654 0.019291887 -0.00049451255
0000c0 af 6f 24 bc ad 91 cc bc 88 68 2f 3d f3 99 a4 3d
       -0.010036393 -0.024971807 0.0428243 0.08037176
0000d0 b1 d2 bc 3d d1 69 4a bd 96 04 8b bd aa 73 2b bd
       0.09219874 -0.04941732 -0.06787984 -0.041858353
0000e0 d6 98 d4 3c 4d fa 47 bd 19 e5 79 3c 63 d9 9b 3d
       0.025951784 -0.04882269 0.015252375 0.076098226
0000f0 6c 52 f4 bc 03 21 6e 3d 5d 16 06 bd e9 e6 39 3d
       -0.029824458 0.05813695 -0.03273617 0.04538623
000100 99 68 8a 3d 7d 77 35 3d c1 6d 22 bd bf a7 17 3d
       0.06758232 0.044303406 -0.03965545 0.03702521
000110 58 9c 80 3c e1 88 17 3b 7d 5c 5d 3c 3d ea 0f 3d
       0.01569955 0.0023122358 0.01351082 0.035135496
000120 51 25 20 3d b0 f0 65 bd f3 24 37 3d 6b eb 54 3c
       0.039098088 -0.05613774 0.044712972 0.012995581
000130 9a a9 12 3d 04 4c 89 bd c1 1b ec bc 45 d0 00 bd
       0.035806276 -0.06703952 -0.028821828 -0.03144862
000140 1a 45 ec 3c dc 44 e4 3c dd 76 e1 bc 60 8f 37 3d
       0.028841544 0.027864866 -0.027522499 0.044814467
000150 06 30 10 bd 38 cd 16 3c f3 2d 29 bd 84 b3 82 3d
       -0.03520205 0.009204201 -0.041303586 0.06381896
000160 ef 67 17 3d c0 31 27 bd b1 81 a5 3c 92 59 7e 3d
       0.036964353 -0.04081893 0.020203443 0.06209714
000170 28 ba 39 3d 8e f2 2a bd 53 bf 53 3a 1c 3f fb 3c
       0.045343548 -0.041735224 0.0008077521 0.030669741
000180 a4 c6 d3 3c b9 56 87 bd 50 fc 4a 3c 97 e4 07 3d
       0.025851555 -0.06608338 0.012389258 0.033176985
000190 07 e4 7c 3b 82 c9 9d 3c cc ef 09 bd e7 10 2d 3d
       0.0038588063 0.019261125 -0.033675954 0.042252447
0001a0 79 94 09 3d 1c 67 49 3d d6 26 a1 3d bf c8 9e bc
       0.03358886 0.0491706 0.078687355 -0.019382833
0001b0 21 03 42 bd 57 50 34 3d 3c 37 66 3d 8b 64 70 3d
       -0.047366265 0.04402193 0.05620502 0.058689635
0001c0 83 cc 20 3c 71 c8 b3 bb 75 15 b6 3b ea e8 45 3d
       0.009814384 -0.005486541 0.005556757 0.048317827
0001d0 27 2c 1c bd f8 3f 64 bc 7c bf 14 bd db 05 ee 3c
       -0.038128044 -0.013931267 -0.036315426 0.029055526
0001e0 c0 dd 7e 3d 01 75 c8 bc fe d7 b7 bc 00 cf 7c 3d
       0.062223196 -0.024469854 -0.02244186 0.061720848
0001f0 b0 c6 f0 3c 2d 5a 58 3d 23 44 1f ba db fd a4 bb
       0.029391617 0.052820373 -0.0006075522 -0.0050351447

weight f4 [64, 128]
000000 eb 67 81 3d c9 86 15 3c a1 55 a4 3d 0d 05 be 3d
       0.06318649 0.009126374 0.08024145 0.09278307
000010 62 05 ed bb 19 06 f2 3d 1c 93 09 bd 68 10 ca bd
       -0.0072333077 0.11817569 -0.03358756 -0.098664105
000020 e3 ff 11 3d 3b 5b 86 3c 13 97 af bd 1d ce 80 3c
       0.035644423 0.016400924 -0.08573737 0.015723282
000030 6e 35 a9 3d 7d 4f 4a bc 52 3f 0d 3d 20 09 6e 3d
       0.08262144 -0.012348053 0.034484215 0.05811417
000040 5d 11 c4 3d 57 f3 1e bc 09 da 82 bc f5 e5 e1 3d
       0.09573624 -0.009701571 -0.015973108 0.11030189
000050 2e c3 28 3d e6 b9 84 3d 02 00 e0 3d a7 24 ec 3d
       0.041201763 0.0648077 0.109375015 0.115304284
000060 fc 6a 9c 3d 73 7b 4a ba a5 bf d8 bb c5 9b a1 3d
       0.07637593 -0.0007724084 -0.0066146427 0.07891039
000070 c7 c8 2a bd 5a 33 95 bd c7 dd 32 3d c1 95 23 3c
       -0.041695382 -0.07285185 0.043668535 0.009984435
000080 2c 8c 0b 3d 71 5d fc bc 28 f7 29 bd 3b a1 6b 3d
       0.034069225 -0.030806275 -0.041495472 0.05752681
000090 02 56 04 bc b1 c6 b1 3d 5e 69 82 bd 91 a7 88 bc
       -0.0080771465 0.086804755 -0.063677534 -0.016681464
0000a0 89 38 80 3d 1d 70 6c 3d a0 a4 59 3c bb ae 16 3d
       0.06260783 0.057724107 0.013283879 0.03678773
0000b0 84 14 e3 bc 89 09 01 3e f0 cb 6f bd 5b f5 6f 3d
       -0.027719744 0.12601294 -0.0585441 0.0585836
0000c0 15 08 45 bd 1b 78 83 3d 47 4b 61 3c fe ac 01 bc
       -0.04810341 0.06419393 0.013750858 -0.00791478
0000d0 f7 e5 5f bc 74 17 9a bd 17 c7 6a bd 04 66 2e bd
       -0.013665668 -0.075240046 -0.057318773 -0.04257776
0000e0 8b f5 40 3d 6f ee 7b 3c 6e 84 e5 bd e6 08 b0 3d
       0.047109168 0.015376671 -0.112068996 0.08595447
0000f0 6d c9 02 bd e2 77 6b bc 1d 65 5f 3d 72 76 16 3d
       -0.031930376 -0.014371844 0.05453979 0.036734052
000100 87 4c 8e 3d 5d 82 54 3d f0 0f 04 bd fd bd 59 bd
       0.0694819 0.051882137 -0.03224176 -0.053159703
000110 8c e2 1b 3d 17 f0 02 bd 52 b3 4a bd ba 26 c4 3d
       0.03805785 -0.03196725 -0.04948742 0.09577699
000120 1b 77 b2 bd 02 67 cd bd 0f c3 df 3d 84 32 db 3c
       -0.08714124 -0.10029413 0.10925876 0.026757486
000130 3d 43 7d 3d e0 c5 db bc f3 ca 8e bc c9 20 3e bd
       0.0618317 -0.026827753 -0.017430758 -0.046417985
000140 8b 08 c5 3c 43 a0 09 3d ad 64 19 bd c2 b9 39 bc
       0.024051925 0.033600103 -0.037449528 -0.011335792
000150 cd 4c c1 3c aa 04 9d 3b 11 f6 22 3d 41 90 e0 bb
       0.023596192 0.0047918158 0.03978545 -0.006853134
000160 70 38 04 3c 07 3d d5 3a 99 f6 42 bd bc b0 7c 3d
       0.008070096 0.0016268798 -0.047598455 0.061691985
000170 fb 5a e1 3d 68 c3 de bb af 1a a5 bc 02 be da bc
       0.11003681 -0.0067981966 -0.020154325 -0.02670193
000180 37 90 84 bd 50 68 bf bc 29 0c 5b 3d c9 7d ae bc
       -0.06472819 -0.02336517 0.053478394 -0.021300213
000190 db de 33 3c 0e f1 85 3c 98 8e d1 bd 87 ed df 3c
       0.010978426 0.016350295 -0.10232276 0.027334942
0001a0 6a a1 b3 bd 94 10 24 3d c4 2d 4a 3d af 0f 66 3d
       -0.08771022 0.040054873 0.04936005 0.0561673
0001b0 e7 97 04 3d 9a 38 12 3d ee ab 9b 3a 23 1d b5 3d
       0.032371428 0.03569851 0.00118768 0.08843448
0001c0 fd e1 8f 3d 10 2b 0a bc 3a 83 c4 3d 34 c0 33 bd
       0.07025526 -0.008433118 0.09595342 -0.04388447
0001d0 23 92 bb bb 03 fa 87 bd d9 05 7c 3d 89 05 0b bc
       -0.005724208 -0.06639483 0.061529014 -0.008485206
0001e0 d5 cb 96 bc 0b c2 8d bd 51 29 36 bd f9 77 89 3d
       -0.018407742 -0.069217764 -0.044472996 0.06712336
0001f0 96 97 a3 bd df a7 31 3d b9 51 9f 3c 66 b2 b7 bd
       -0.07987897 0.043372985 0.019448148 -0.08969574
000200 92 2f 65 bd f5 7b 83 3d e9 b2 27 3d b9 f5 cc 3d
       -0.05595357 0.06420127 0.040942106 0.100078054
000210 7c b4 be bd 1d 2e 06 3c 3e ce 13 3d 88 5b 98 bd
       -0.093117684 0.008189705 0.03608536 -0.07439333
000220 bf 06 25 3d 49 99 4f bd 42 1f 87 bd 94 bd c1 bd
       0.040289637 -0.050683293 -0.06597759 -0.09459987
000230 f2 df 25 3b 8f 01 28 3d ce 0e bf 3b b1 dc 5b 3c
       0.0025310484 0.04101711 0.0058306223 0.013419316
000240 a0 d6 1b bd 29 9a 65 3d 64 3c ba bd a5 ea 33 3d
       -0.03804648 0.05605522 -0.0909355 0.043924946
000250 09 3f 0c 3d 60 6d 77 3d 60 a3 65 bd 33 85 c6 3d
       0.034239803 0.060407043 -0.05606401 0.096933745
000260 4c 37 81 bd 68 7c 66 3d 75 5d bd bd 6c 1f 93 3d
       -0.06309375 0.056270987 -0.09246341 0.071837276
000270 a3 7d b3 bc 87 0e 24 3d 54 0c 2a 3d de e9 42 3d
       -0.021910494 0.040052917 0.041515663 0.047586314
000280 03 88 aa bd d2 38 81 bc 08 5b e3 bb 08 db 11 3d
       -0.083267234 -0.015774164 -0.006938342 0.035609275
000290 98 ac c6 3c d9 7e dd 3d 05 4a 55 bc c5 4b 67 3d
       0.024252221 0.1081521 -0.013018136 0.056468744
0002a0 bd a1 5e 3d 1c b3 5e 3d bd 7c 57 bd 11 ef 98 3c
       0.054353464 0.05437003 -0.052609194 0.018668683
0002b0 ac ea aa bc 2f a0 23 3d e8 bd d4 3c b8 05 23 bc
       -0.020863853 0.039947685 0.02596946 -0.009950094
0002c0 4c ff 1c 3d 5c 1c 56 3d 60 c7 97 bd 47 9c 2f bc
       0.038329408 0.05227314 -0.07411075 -0.010718412
0002d0 8f fe 56 bd 0e 31 4f bd 8a 70 fa 3a f9 1b d4 3d
       -0.05248886 -0.05058389 0.0019107026 0.10356898
0002e0 e2 d9 18 bd 94 ca 97 3c 81 32 c3 bd 25 81 89 bd
       -0.037317164 0.018529214 -0.09531117 -0.067140855
0002f0 8b b7 52 3b a0 ed 45 3c 17 42 b1 3d a2 7e cd 3d
       0.0032152857 0.01208058 0.08655184 0.10033919
000300 cf c2 a0 bd d9 d4 bb bd ee ab b2 bd 24 d7 03 3d
       -0.07849657 -0.09171457 -0.08724199 0.032187596
000310 f0 26 5f bd af d9 a9 bd bc 89 c8 bc 6b 18 05 3e
       -0.054480493 -0.08293473 -0.02447974 0.12997596
000320 ac 28 5a bd 35 24 64 3d 12 97 9c 3c 1e 78 ee 3d
       -0.053261444 0.055698592 0.019115005 0.11644004
000330 aa 0a 38 3c d9 60 65 3d 5b 13 44 bd b2 78 86 bc
       0.011233011 0.056000564 -0.04787002 -0.016414974
000340 27 48 3e bd 7b a6 ab 3d 28 41 d6 bd 98 df 89 3b
       -0.04645553 0.08381363 -0.10461646 0.0042075627
000350 29 07 b1 3d 41 5d 89 3c 25 fb b7 3d 53 20 8e bd
       0.08643944 0.0167681 0.08983449 -0.06939759
000360 61 3f 93 bd 1d 0f 10 3d 55 bc c5 bd 61 7c 80 3c
       -0.07189823 0.035170663 -0.09655062 0.015684308
000370 0b 2c fa 3c 10 ef 92 bc a1 ce 8f 3c f3 b1 9b 3d
       0.03053858 -0.01793626 0.017554583 0.076023005
000380 74 45 8b 3c 10 88 8b 3c 98 2a dd bd 61 af 0a 3c
       0.017000891 0.017032653 -0.1079914 0.008464665
000390 11 08 cc 3d 15 fc fd 3b 60 1b 8b bd b8 65 13 bd
       0.09962476 0.007750998 -0.06792331 -0.03598568
0003a0 0c 82 65 3c 41 fc 5e bc 0c 2c 29 3d c8 1e 15 bd
       0.014008056 -0.013609947 0.041301772 -0.03640631
0003b0 f3 2f 90 bd 0a f0 ad 3d b8 32 1d bd e2 4c dd 3d
       -0.070403956 0.084930494 -0.038378447 0.1080568
0003c0 78 06 cc 3d 45 cf 25 bc 64 52 cf ba 59 99 a5 bd
       0.09962171 -0.010120218 -0.0015817401 -0.08085889
0003d0 f8 e0 e1 bd de 96 3c bd 27 1e 92 bd 49 a2 92 3c
       -0.110292375 -0.046042316 -0.07134657 0.01789965
0003e0 36 75 70 3d 6d f8 4b 3d e4 df 7e 3d 83 5d 44 3c
       0.05870553 0.049797464 0.062225237 0.011985186
0003f0 fc 97 64 3d 5c 6a 88 3d 5a 97 b7 3c 45 91 db bc
       0.055809006 0.066609114 0.022411037 -0.026802668

bias f4 [64]
000000 35 9a 44 bc 80 a1 f4 3c fb e0 a8 3d 84 a1 0c bc
       -0.011999656 0.029862165 0.082460366 -0.00858343
000010 bb ac e6 3c 93 f7 55 3d 84 aa 82 3d 69 a3 db 3c
       0.028158536 0.05223806 0.063801795 0.026811318
000020 20 30 b8 bd e8 04 47 3c 69 ac 39 3d c0 33 85 bc
       -0.08993554 0.012147166 0.04533044 -0.016260028
000030 d0 4c bd 3d 8b fd 2e 3c 6a 31 8c 3a 7e d4 f5 bc
       0.092431664 0.010680567 0.0010695879 -0.03000855
000040 fc dd a8 bc 6d 53 98 3d f1 7b 21 bd 74 68 70 3d
       -0.020613663 0.07437787 -0.03942484 0.058693364
000050 8e 93 13 bd 7f ea 93 bd 84 44 05 3b fe 3a dc ba
       -0.03602939 -0.07222461 0.0020335028 -0.0016802249
000060 19 12 23 bd 51 50 c1 3d dd 38 8a bc 74 21 c2 3c
       -0.03981218 0.09439147 -0.016872818 0.023697592
000070 1a d2 77 3d 3c 52 94 bc 8c da 6f bd a4 11 d1 3d
       0.060503103 -0.018105619 -0.058558032 0.10208443
000080 7b ec e9 3d 81 69 2f 3d 2e 3d b5 3d 79 ab 4c bd
       0.11422058 0.042825226 0.0884956 -0.049968217
000090 14 30 ef bc cc 71 35 3c 04 fc 98 3d b3 56 b2 bc
       -0.02919773 0.011074495 0.07469943 -0.021769857
0000a0 82 58 9a 3d f0 9d 27 3d 14 da 4b 3c 80 1c ad 3c
       0.07536413 0.040922105 0.012442131 0.021131754
0000b0 10 e4 84 3d 03 cb d3 3d 2a f4 53 3d e5 19 aa 3c
       0.06488812 0.10341456 0.051746525 0.0207643
0000c0 d2 0a 92 bd be 31 51 3c db 71 7b 3d a2 8c ac 3d
       -0.0713097 0.012768207 0.061387878 0.08425261
0000d0 de b5 e4 3b e4 76 c1 3d e6 99 89 bc 6b 25 80 bd
       0.006979688 0.09446505 -0.016797017 -0.06257137
0000e0 90 5d 9f 3d 31 fd c0 3d c4 68 03 bd 83 58 1f bd
       0.077815175 0.094232924 -0.032082334 -0.03890277
0000f0 a2 d9 3b bd fb 2a 32 bc e5 09 92 3d 86 8c 99 3c
       -0.045861848 -0.010874505 0.071307935 0.018743765

weight f4 [5, 64]
000000 b6 7b 7a bc 05 15 a5 bd 79 b2 03 3e 51 52 32 3e
       -0.015288284 -0.0806065 0.1286105 0.17414214
000010 4b dd e6 3b 4c 5c e2 3d 0e 2d 5c 3d 28 97 36 3e
       0.007045423 0.110527605 0.053753905 0.17831099
000020 ff 9b e3 bd d5 db fb 3d ed dc f7 bd b3 32 a5 3d
       -0.11113738 0.12297789 -0.12102685 0.08066311
000030 ba 3a 50 3c 72 ea ad bd cc bc 39 ba 05 cd 17 be
       0.012709314 -0.084919825 -0.0007085323 -0.14824302
000040 c4 18 f1 3d 28 2c 0e 3e 23 f9 16 bd ab d7 ea bd
       0.11772302 0.13884032 -0.03685869 -0.11466917
000050 62 57 5c bd 84 7e 1e be b5 2b 66 bd 6d e2 c9 3c
       -0.053794272 -0.1547795 -0.056194026 0.024644101
000060 56 30 81 3d 35 6c a7 3d e2 e1 c8 3c 30 7e 12 bd
       0.063080475 0.08174936 0.024521772 -0.035764873
000070 1d 92 d9 3d 79 47 5b bd 4a 6d 84 3d 7c 33 28 3e
       0.10623572 -0.05353496 0.06466158 0.1642589
000080 c9 53 06 bc aa cd 33 3e 0b 7f ec bd 1e ea e4 bd
       -0.008198687 0.17558923 -0.11547669 -0.11177467
000090 03 c7 44 be be d1 d6 3d d0 3e 92 bb 9f 41 0f 3d
       -0.19216542 0.10489224 -0.0044630542 0.03497469
0000a0 cc c7 4c 3d 17 f0 25 be 5a c0 a6 3d e9 28 d6 ba
       0.04999523 -0.16204868 0.08142157 -0.0016339096
0000b0 8d 14 d1 3c 16 0d 36 3d c6 06 11 3e 1b a6 e5 bd
       0.025522495 0.044446073 0.1416274 -0.11213323
0000c0 a8 95 e6 bd 43 e6 d5 bd 24 b2 61 3d d4 9a 41 be
       -0.112590134 -0.104443096 0.05510153 -0.18906718
0000d0 ca da c1 3d 21 af bb bd dc ef 60 bd 27 4e a3 bb
       0.09465559 -0.091642626 -0.054916248 -0.0049836817
0000e0 7b d5 1f 3e 96 8b 15 3e 0b 15 0f 3e 1e 58 67 3d
       0.1560878 0.14604029 0.13972871 0.05648052
0000f0 91 ab ff bd 3c 0c 1a 3e 0c 4f 65 bc f9 33 1e be
       -0.124838956 0.1504373 -0.013995897 -0.15449513
000100 da be 48 3d 99 e6 21 3e cf 0f 41 bc 41 09 34 be
       0.049010135 0.15810622 -0.011783554 -0.17581655
000110 2a 45 19 bd 4f 74 0c be cb 82 c7 3d 67 d2 e5 bd
       -0.037419476 -0.13716243 0.09741744 -0.11221772
000120 95 39 c0 3d 05 ed cf 3d 98 2f a3 3d e8 21 61 bc
       0.09385983 0.1015263 0.07968062 -0.013740994
000130 0c 8e d1 3d 33 44 dc 3b 99 01 15 bd 6b 6a f5 bd
       0.102321714 0.006721997 -0.036378477 -0.11983188
000140 5b a6 d0 bd 27 07 bf 3d 7b 4d 70 3c 31 83 38 3c
       -0.1018798 0.09327536 0.01466691 0.011261747
000150 c8 ad 60 3d b5 d3 0c 3e bd 12 c3 3d 45 7a 11 3d
       0.05485323 0.13752635 0.095250584 0.035516996
000160 e8 29 af 3d 73 87 fe bd 43 fa 18 bb 24 9a 7f 3d
       0.08552915 -0.12428179 -0.0023342527 0.06240286
000170 51 c0 35 bd 21 a0 1d 3e 13 98 f3 bc 34 a3 c7 3c
       -0.04437286 0.15393116 -0.0297356 0.024369814
000180 93 3a 07 3e 8f df f2 bb 80 40 f4 3d f9 69 33 3c
       0.13205938 -0.007411904 0.11926365 0.010950559
000190 cd 78 2d 3d 30 09 f1 bd 3a ee d5 bd c5 4f 99 bd
       0.042351533 -0.117693305 -0.10445829 -0.07485918
0001a0 d5 32 18 3e 3e 54 d0 bd bf 07 e4 bd ff 3a 0b bd
       0.14863141 -0.10172318 -0.1113429 -0.03399181
0001b0 63 b6 67 3d 34 43 3f 3d 8b fa d3 bd 92 aa 3c 3d
       0.056570422 0.04669495 -0.10350522 0.046061106
0001c0 88 d8 c5 3d ed 73 e6 3c 3a b3 e8 3c cd 98 b5 bc
       0.09660441 0.02813145 0.028405774 -0.022167588
0001d0 c1 3a 6e bd b4 3b 22 3e c0 ac 12 3e 22 e2 d2 3d
       -0.0581615 0.15843087 0.14323711 0.10297038
0001e0 c7 02 55 3d 7a b6 82 3d 95 5a 60 3c ad 2e a1 3d
       0.0520046 0.06382461 0.013693471 0.07870231
0001f0 99 70 db 3d bf 4a 57 3d 5f ec 12 bc ed 9e bb bc
       0.10714836 0.052561518 -0.008967488 -0.02290293
000200 a1 90 76 bd 3c 89 f1 bd 97 79 de 3d a5 db 96 bd
       -0.060196523 -0.117937535 0.10863035 -0.073661126
000210 ef 3e 02 b9 1a df d4 bd 9d c7 5f bd 17 f0 87 3d
       -0.0001242121 -0.10394116 -0.054633725 0.066375904
000220 1b 0e f0 3c a0 57 44 3d 5b 6e 0b bc 74 8e 03 be
       0.029303601 0.04793513 -0.0085101975 -0.1284731
000230 f6 69 eb 3d 7f b6 ae bd 0e a0 b6 3b 61 2a b2 bd
       0.1149482 -0.08530902 0.005573279 -0.086994894
000240 d6 b0 93 3d 94 7a d3 3d c3 39 14 bd ce c0 a7 bd
       0.07211463 0.10326114 -0.0361879 -0.081910715
000250 f9 46 a4 3d 1c 17 65 3d ae 1e ac 3d d8 48 a2 3d
       0.080213495 0.055930242 0.08404289 0.0792405
000260 c1 08 89 3d 7e fd 8b bc 44 fe 08 be 14 38 53 bd
       0.06691123 -0.017088648 -0.13378245 -0.051567152
000270 ea 50 e0 bc e6 5b af 3d 94 01 60 ba 0f 41 4a 3d
       -0.027382333 0.0856245 -0.0008545157 0.04937845
000280 72 65 20 bd 84 a1 b3 bd d2 79 8d 3d 6d bf 9e bd
       -0.039159246 -0.08771041 0.06908001 -0.07751355
000290 88 2d fb 3d 01 a1 ad 3d 1f 44 f5 3d 8f f9 ae 3d
       0.12264544 0.08477975 0.11975884 0.08543693
0002a0 87 f8 8c bd e2 07 ad 3d c3 87 47 3d d5 e6 54 3d
       -0.0688334 0.08448769 0.048713457 0.05197795
0002b0 5b d8 90 bd 35 26 52 3d a3 cc f5 bd a3 bc c5 bc
       -0.070725165 0.05130597 -0.12001922 -0.0241378
0002c0 05 2c 55 bd 3a 0e 47 bd ff b6 30 3c e5 51 a7 bd
       -0.052043933 -0.048597552 0.010785817 -0.08169917
0002d0 14 d6 be 3c 28 f3 c1 bd 48 3e ae 3b 00 05 59 bd
       0.02329544 -0.094702065 0.005317483 -0.052983284
0002e0 6f 83 d5 3d 46 e5 e5 bd 27 54 73 bd 93 d3 8c bc
       0.104254596 -0.11225371 -0.059406426 -0.01719073
0002f0 06 74 a3 3d 01 5c ae 3d b1 c3 96 3d c0 47 6a 3c
       0.07981114 0.08513642 0.07361544 0.014299333
000300 37 2d 31 3d eb a4 d4 bd f3 cf 83 bd fb 4f 3a bc
       0.04325601 -0.10383018 -0.064361475 -0.011371608
000310 d1 16 00 3d 7b 01 2e bd 63 38 aa bd 15 1e c8 3d
       0.03127176 -0.04248188 -0.08311536 0.09771363
000320 91 5f e4 3d 53 6e 1e 3d d6 3c 82 3d 16 0a ca 3c
       0.1115104 0.038679432 0.0635926 0.024663012
000330 6b 50 2d bd 86 36 dc 3a cf 04 5b 3d 94 ae 49 3c
       -0.04231302 0.0016800917 0.053471383 0.012309689
000340 d5 73 94 3d f5 81 67 bd f9 f7 39 bc 48 2d 48 bd
       0.07248656 -0.05652042 -0.011350625 -0.04887131
000350 9c 3c f2 bd ce 45 2c 3c f3 b7 6d bd 04 d1 f5 3d
       -0.118279666 0.01051469 -0.058036756 0.12002757
000360 c9 ed e8 3c 1a e2 f3 bd d4 a0 fd 3d 12 51 2c 3d
       0.028433697 -0.1190836 0.12384191 0.042069502
000370 1f b9 03 3d 0a dd c2 3c 83 8d b5 3d eb 1f 0e be
       0.032158967 0.02378704 0.08864882 -0.13879363
000380 98 0d 28 3c 6a 81 7c bb 66 d9 24 3c 35 e0 bc 3a
       0.010257147 -0.0038529285 0.010061597 0.0014410081
000390 f8 94 e8 3d 2c b3 7e bc 94 57 a8 bd be da a8 3d
       0.113565385 -0.015545648 -0.08219829 0.08244847
0003a0 a9 34 aa bc 55 68 90 3d 98 0d 7f bd 44 8d a4 3d
       -0.020777063 0.0705115 -0.062268823 0.08034757
0003b0 1d a5 9d bd ed dd 05 bc 60 1b 7c 3c 4a 49 c7 3d
       -0.076975085 -0.008170587 0.015387386 0.09730776
0003c0 7d 67 56 3d 19 5e b5 3d 0d 61 51 bd ff 2a 8b 3d
       0.052344788 0.08855838 -0.051117945 0.0679531
0003d0 0b 00 b9 bd cd f3 b5 bd dc 2f 60 3d 14 c1 79 bd
       -0.09033211 -0.08884392 0.054733142 -0.06097515
0003e0 3b 51 51 3d 57 c4 73 3d 00 dc e6 ba 6f 33 50 3c
       0.051102858 0.059513416 -0.0017613173 0.012707575
0003f0 82 4c 59 bd 62 07 31 bb 7b 8c ed 3c 90 de 8d 3d
       -0.05305148 -0.0027012457 0.02899765 0.06927216

bias f4 [5]
000000 a1 d9 f2 3d 5c dd c5 bd bb 53 d8 3d 47 58 d6 3d
       0.11857916 -0.096613616 0.10562845 0.10466056
000010 c2 89 84 bc
       -0.01617897
