Policy-Gradients/Poker-Agent/checkpoint_60000.pt (torch, 227369 bytes, 8 tensors)

weight f4 [256, 55]
00000000: f16b 293c 8d16 c0bd 1ea3 32bd 8063 6cbc
00000010: 76a8 9a3d 0a97 483d b1bc 753d d8b3 4e3e
00000020: 11aa 253e da0a cb3c 5277 efbd 5776 9ebd
00000030: 68bc f23d 88ca c1bc f03e 4e3c 85f6 53bd
00000040: e337 153d c9fd 523d 7645 d13d fa08 d5bd
00000050: 423e 7dbc d551 0ebe 5b77 62bd 00b8 dd3d
00000060: 8144 2b3e 001e 2fbd 2e77 b3bd f9bc 0e3e
00000070: d38a 5bbd c979 983c 72f6 da3d bd8e a63d
00000080: 27e4 9e3c 3f98 a73d f46e c7bd 6686 ae3c
00000090: 0b49 3abc 4787 e4bd 2ec4 4ebd 9ecb 1bbc
000000a0: 2450 11be e65c 97bc 5786 383d 798c f53a
000000b0: 7ae8 13be 3866 19bd 5f3a 66bd c6cb 743d
000000c0: be2f bbbc d8f1 3a3d a40e f63d d659 adbb
000000d0: 110c e1bd 66f2 703d a657 a5bd cd41 943c
000000e0: 33e6 98bd 3b67 f73d 2a6a 0fbb 610b f13d
000000f0: be0e 1d3e 669c 7b3c 44ff b43c 4808 433e
00000100: e543 153e e9e5 4c3c 07a0 643e 309f 253e
00000110: b61d 773d 964e 053c bad5 9f3d efd6 753a
00000120: 99ed 95bd ac22 84bd e9c7 d23d d44f 0f3d
00000130: f117 cf3c f7f6 abbd fa94 97bc 4755 1d3e
00000140: 60f2 e53c 1b34 fbbd deeb 82bd 10a7 c9bb
00000150: f41d bfbd 0159 aebd d5d1 9ebd b49f 563e
00000160: 4824 82bd f57e 193e f5b1 393d e979 0dbd
00000170: 08c6 803d 025d d6bb f8b6 8c3d e139 f5bd
00000180: 6302 a13d a0ea 6cbc be54 ed3d df0d b63d
00000190: 480e 65bd 559c e83d 6a96 083e 4e8a 06bd
000001a0: 7c3c ddbc 6eeb 843d 32fd f5bd 30d3 cdbd
000001b0: b514 fa3d 8d4f 96bd 7008 1e3d 386e c13c
000001c0: f29f debb e69f b63a 8579 2f3d b433 9d3d
000001d0: bde8 c73d 8add 0cbe 1b1b 23be 8d31 2e3d
000001e0: cbfd 9cbc 5467 4cbe 38da f5bc c609 b9bd
000001f0: ccaa 99bd af56 80bd 8a66 3fbd 950f 94bd
00000200: c005 c23d caa8 b1bd 157e d9bd 994a 583d
00000210: 7458 e6bc 0adc 97bd 1b57 9abb 5305 193b
00000220: 7308 2bbd 5a8c b33d f63a b5bd bc0d 8d3c
00000230: f2c7 9e3d 2256 babd 4add 2dbe 4c55 78bd
00000240: c394 023e df12 0cbd aeee 23bc 0ec0 76bd
00000250: 8ef9 48bd 9b17 eebc 7f65 9fbd 3cc9 79bd
00000260: 3192 de3c 328b 933d c965 e53d 72f4 42bd
00000270: 2fc7 c0bd 7f34 973d 064b 8abd 24df 44bc
00000280: 3427 cf3c 50f9 063e bb8d 3fbd b707 073c
00000290: 6f27 133e 2626 fb3d fa96 e73d 8457 54bd
000002a0: 7533 85bd b4bf c9bc 7c2b df3c b5e5 cabc
000002b0: 893f c0bc db01 39be 057e 1ebd 7d51 05be
000002c0: 0fc9 15be 88ff 1bbc c43f 8fbd 5b40 a13b
000002d0: 6108 9e3d 0af5 82bb 5eed f53d e218 bd3d
000002e0: 64f0 213e 1f0c c23d 07ca dc3c 94ce 4ebd
000002f0: b60f 3cbd 3610 f7bc 1efc 8bbd 7b54 803d
00000300: 7f52 483d f7d3 ca3d 077a f23d e9e3 a8bd
00000310: fd07 e3bd bb3b e0bc 84ff f33d 319c 2bbd
00000320: d67e 15bd 4704 13bd c5f5 b53c 6713 abbd
00000330: 267b b93c 18f1 b63d 3ba6 95bd 11b8 0fbc
00000340: 3811 6b3c a239 59bd e733 fbbd 383c 18bc
00000350: 619c 82bd 2c46 c73d 62d2 033c dd1c dc3d
00000360: 7a3c d63d 1c17 a93c fe80 da3d 14e4 313c
00000370: b52f 10be 8b2b 9cbd 9128 b43d 00a9 20bd
00000380: 3895 023e fe13 da3c aa0d 4bbd 2d41 e93d
00000390: 4de4 073e c6b7 4e3d 71a1 a5bb 3a64 723e
000003a0: 007c b0bb e60e 65bd 318e 313e 98c0 ff3d
000003b0: 4c66 073e b9d5 973a 2ca6 2e3e ba3c 0dbe
000003c0: 9e02 dc3d 5edd e6bd 8369 82bd 0236 143e
000003d0: 6352 2b3e 4604 c2bd 7a2e 1ebb 53da cb3d
000003e0: 888a 753d 4299 053d fd06 2dbc 8216 4f3d
000003f0: 05d6 98bd 50db 083e fa64 353d 3c4a b43d
0.010340677 -0.09379301 -0.043612592 -0.0144280195 0.075516626 0.048972167 0.059994403 0.20185792
0.16178156 0.024785448 -0.116926804 -0.07737415 0.11852342 -0.023656145 0.012588248 -0.05174877
0.03643025 0.05151156 0.10218327 -0.10402103 -0.015456738 -0.13898404 -0.055289607 0.10826111
0.16725351 -0.04275322 -0.08762966 0.13939275 -0.05359919 0.01861276 0.10691537 0.08132694
0.0193959 0.081833355 -0.097379595 0.02130432 -0.011369954 -0.111586146 -0.05048006 -0.009508995
-0.14190727 -0.018476915 0.04504999 0.0018733881 -0.14444152 -0.037451 -0.05620801 0.059764646
-0.022849914 0.045640796 0.12014511 -0.0052902503 -0.109886296 0.05882492 -0.08073358 0.018097783
-0.07465782 0.120802365 -0.0021883347 0.117697485 0.15337655 0.0153571125 0.022094376 0.19046128
0.14576681 0.012505987 0.2232667 0.16174006 0.06033107 0.008136412 0.07804437 0.0009378036
-0.07320709 -0.06451926 0.10292036 0.03498824 0.02527997 -0.08396714 -0.018503655 0.15364562
0.028069675 -0.12265798 -0.06392644 -0.0061539486 -0.09331885 -0.0851307 -0.07754866 0.2095936
-0.06354576 0.14989837 0.04533573 -0.03454009 0.062877715 -0.006541849 0.06870836 -0.1197393
0.07861783 -0.014460236 0.11588429 0.088893645 -0.055921823 0.11357943 0.13338628 -0.03284674
-0.02700638 0.06490217 -0.12011184 -0.100500464 0.12210981 -0.07339392 0.038582265 0.023612127
-0.0067939693 0.0013933151 0.0428405 0.07675877 0.09761188 -0.13756385 -0.15928309 0.042527724
-0.019163987 -0.19961292 -0.030011281 -0.09035067 -0.0750328 -0.062665336 -0.04672865 -0.072295345
0.09473753 -0.08674772 -0.10619751 0.052805517 -0.02811835 -0.07415016 -0.004710091 0.002334912
-0.041756105 0.08767004 -0.088491365 0.017218463 0.0775298 -0.0909846 -0.16978946 -0.06062822
0.1275206 -0.034197684 -0.010005636 -0.06024175 -0.04906612 -0.02906399 -0.07783031 -0.060982928
0.027169319 0.07204284 0.112010546 -0.047596402 -0.09412991 0.0738306 -0.06752591 -0.0120160915
0.025287248 0.13181043 -0.046766024 0.008241585 0.14370511 0.122631356 0.11308093 -0.051841274
-0.06503955 -0.024627544 0.027242415 -0.024767736 -0.023467796 -0.18067114 -0.0386944 -0.13019367
-0.14627479 -0.009521373 -0.06994584 0.004921002 0.07716442 -0.003996496 0.12008165 0.09233262
0.15814358 0.09474968 0.026951803 -0.050489977 -0.04591342 -0.030159097 -0.06835197 0.06266113
0.0489068 0.0990371 0.11839681 -0.082465954 -0.11085508 -0.027372232 0.1191397 -0.041897003
-0.036497913 -0.03589275 0.022211919 -0.0835331 0.02264173 0.08932704 -0.073070966 -0.008771912
0.014347367 -0.05303348 -0.12265759 -0.009291701 -0.06377483 0.09730181 0.008045765 0.10747693
0.10460754 0.020640902 0.106691346 0.010857601 -0.14080699 -0.07625493 0.087968 -0.03922367
0.12752235 0.026620861 -0.049573578 0.113893844 0.13270684 0.05046823 -0.0050546457 0.23671046
-0.0053858757 -0.05592241 0.17339398 0.12487906 0.13222617 0.001158408 0.17055577 -0.13792697
0.10742687 -0.11272691 -0.06367781 0.14473727 0.16730647 -0.09473471 -0.002413659 0.099537514
0.059946567 0.03261686 -0.010560748 0.050558574 -0.07462696 0.13364911 0.044285752 0.088032216

bias f4 [256]
00000000: 9cad 7a3d 4e07 abbd fbb3 1a3e 0254 8ebd
00000010: 8d79 8a3d 6bbe d33d 3f4f 93bc 39f5 a0bd
00000020: 85f9 7dbd 1f0b 8f3c 1db1 c3bd 78cd b43d
00000030: 36d7 483d d7cf 833c ad28 1d3e ecbf 62bd
00000040: 6d8b 9abd 49af 103e bccd 9f3c 6962 45bc
00000050: 3564 9fbd 04de 663d 816f 4f3d d66d 853d
00000060: c695 c23d bd39 003d 7a85 b43d e18f 273e
00000070: 3dab cabd 19ee 3d3d a901 373e 804c 06be
00000080: b766 8f3d da14 f63d 80d8 15bd b23b 743c
00000090: a810 bcbd 1cb8 4bbd 3cb8 663d c4f8 1c3e
000000a0: 188e 433d bbe0 babd 167a 2a3d 3c2d fb3c
000000b0: 57f7 863d f925 13bd 9a7c c23d 3768 d83c
000000c0: f956 fdbc 300e 4ebd f58d ae3d 0e8b d73c
000000d0: 1f6e ddbd aa0d abbd 86b8 eb3d 67e6 723d
000000e0: 0231 c2bd 2cb9 bfbc 859a bbbd 1c12 c33d
000000f0: 448a 343d b740 46bd 1fcf d03d b543 7fbb
00000100: 93d7 a73c 170f 08be f3cc 53bb a305 273e
00000110: b7bd 09be f785 b8bd 3242 723d a3f7 64bb
00000120: dfd1 183d efa8 1a3e 8957 adbc 394b a33d
00000130: 79a9 223d 7526 3cbd 4c33 883d 7804 f4bc
00000140: 14f6 07be 9e81 c43c dea9 af3d 0e6f f3bd
00000150: ac58 bb3c 743c 2abc dd88 1ebc 3c78 093e
00000160: db07 fe3d af2a 6ebd 53ed f7bd 3a57 833c
00000170: 5ba8 4b3d 6117 f8bd 1ea9 a63c c45d 253e
00000180: 24bc 20bd e962 a4bd 11cc ddbc ae64 afbc
00000190: c4f2 4abd bef2 f4bd 560c d4bd 206a 903c
000001a0: 1b26 31bd 2e86 7a3b 9abd 023c f325 a5bc
000001b0: 6fe2 01be 9851 513d 33be f03b d107 563d
000001c0: ecf9 ecbc 20b5 85bb d110 1f3e 933b 7a3c
000001d0: 2c13 40bd 012e bdbd f325 11be 33c8 d63d
000001e0: 5624 ba3b e9b0 b2bd 3b13 143e 3823 71bd
000001f0: 1a3d 353d 1195 c5bd 8cab 0f3e 09cd 403d
00000200: 1e12 0b3d 1f03 e6bd 12dd c53d eee7 dcbc
00000210: d59c f4bc 1847 0bbd 9484 b2bd c92f 783d
00000220: 60f3 24bd a64e a33d 143b a03d fc17 e93d
00000230: 6bc7 b53d cee1 883d 5eda babd 7a03 e6bd
00000240: 5a75 02bd 4747 22bd f1e8 21bd c106 34bd
00000250: 9a83 683d df9f fcbd d8dd f23c 227f 973c
00000260: e6c3 903d a1b0 bfbc 955f 793d 38c1 9a3d
00000270: 5477 ed3c e0f2 14bd 2d32 0eba f887 71bd
00000280: c538 51bc 22ac 84bd 1dcc 5b3d 2be1 cf3d
00000290: 434d c83d 8d28 243e d8ad b03c f00b d43d
000002a0: 9009 26bd a325 3d3d 835b 9cbc cb5a 8c3d
000002b0: e57f e73d 7e30 be3d bb5b 9abc e107 0c3e
000002c0: eb8f 46bb 94d4 88bd c898 e03d 4a2d f03d
000002d0: f78e 97bd 437b e8bc 9381 043e 8482 3b3d
000002e0: 504d 063e 0297 2cbb c723 aa3d 4d61 2f3b
000002f0: cbc1 5fbd d97f 11bb 1033 bcbd 08d4 d63d
00000300: 42bd 533d 3c19 fc3d 79f6 a7bd fb14 8dbd
00000310: 7834 c2bd 7b6c 58bd fe80 63bd 9b40 253e
00000320: c208 9d3d 11d6 c6bb 0fda 153d b0d9 9dbd
00000330: 7f59 d93d d8cf 95bd 1b9f c8bd 887b d23c
00000340: 7ab1 aebd e76f 343e b95d 813c 294a 803d
00000350: b201 d03c 3290 c2ba 5bb2 d43d 3f48 9bbd
00000360: b505 1bbe e20a 8bbd 5e9c 7b3d 1c0e 863d
00000370: 5996 883d 7434 50bd ad6a 8ebd be60 81bd
00000380: 4514 87bb d765 803c eee2 593d 0b74 00be
00000390: ab6a a53d ff09 ba3d a50b 2dbd 46ac 6dbb
000003a0: 4de4 a2bd 0fff 86bd 339a be3d 6b6d 333d
000003b0: f0a1 f83d 2964 08be f1f0 ca3d dcf5 07be
000003c0: 20df 9cbd a967 c43d 526a c1bd cee9 a33d
000003d0: a90d 413d e203 be3d db2c aabd a3dd 42bd
000003e0: 313c 61bc 653c 9a3d 8150 b63d cec7 093e
000003f0: 5005 733c 6206 a03d fc21 9eb8 97e8 12bc
0.061200723 -0.08351003 0.1510772 -0.06949617 0.06761465 0.10339054 -0.017982123 -0.078592725
-0.06200554 0.017461358 -0.09555266 0.088282526 0.049033366 0.016090317 0.15347548 -0.055358812
-0.075461246 0.14129366 0.019507281 -0.012047389 -0.07782785 0.056364074 0.050643448 0.0651509
0.09501223 0.031305064 0.08814521 0.16363479 -0.09895942 0.046369646 0.17871727 -0.1311512
0.07002013 0.12015696 -0.036583424 0.014906811 -0.091828644 -0.049736127 0.056328043 0.15329272
0.047742933 -0.09124895 0.041620336 0.030661218 0.06590145 -0.035924885 0.09496422 0.026416881
-0.03092526 -0.0503065 0.0852317 0.026311424 -0.108120196 -0.083522156 0.115098044 0.05930176
-0.09482004 -0.023403727 -0.09160332 0.095249385 0.044077173 -0.04840156 0.10195755 -0.0038950269
0.020488536 -0.13287006 -0.0032318204 0.16310744 -0.13451277 -0.09009927 0.05914516 -0.0034937642
0.037309524 0.15103506 -0.021159904 0.07973332 0.039712403 -0.045935113 0.06650409 -0.029787287
-0.13277465 0.023987588 0.085773215 -0.118864164 0.02286943 -0.01039039 -0.009676185 0.13424772
0.12403842 -0.058146175 -0.12105813 0.016032804 0.049721103 -0.12113834 0.020344313 0.1614905
-0.039241925 -0.08026678 -0.027074846 -0.021410313 -0.049547926 -0.11960362 -0.103539154 0.01762873
-0.04324923 0.003822695 0.007979775 -0.020159697 -0.12684034 0.051103204 0.0073468923 0.052253548
-0.028927766 -0.0040804297 0.15533759 0.015272993 -0.046893284 -0.0923729 -0.14174633 0.10487404
0.005680601 -0.08725149 0.14460461 -0.058871478 0.044247724 -0.09647573 0.14030284 0.047070537
0.033952825 -0.11231064 0.096613064 -0.026966061 -0.02985994 -0.034003347 -0.087166935 0.060592446
-0.040271163 0.079739854 0.07823768 0.11381528 0.088759266 0.06683694 -0.091236815 -0.11231132
-0.031850196 -0.039618757 -0.03952879 -0.043951754 0.05676613 -0.123351805 0.029646799 0.018493239
0.07068615 -0.023399653 0.06088217 0.07556385 0.028987564 -0.036364436 -0.0005424347 -0.05896756
-0.012769883 -0.06478144 0.053661454 0.10150369 0.097803615 0.16031094 0.02156727 0.103538394
-0.040536463 0.04617847 -0.019086605 0.06853255 0.11303691 0.09286593 -0.018842569 0.1367488
-0.0030298184 -0.06681171 0.10966641 0.11727388 -0.07400315 -0.028379088 0.12940054 0.045778766
0.1311543 -0.0026335125 0.08307605 0.0026760877 -0.054628175 -0.0022201447 -0.09189427 0.104896605
0.051694162 0.123095006 -0.08201308 -0.06888767 -0.09482664 -0.05283783 -0.05554294 0.16137926
0.07667686 -0.006067999 0.03658491 -0.07707536 0.10612773 -0.07315034 -0.09795972 0.02569367
-0.08529945 0.17620812 0.01579176 0.06264145 0.025391433 -0.0014843999 0.10385581 -0.07582139
-0.15138896 -0.06789185 0.06142842 0.0654566 0.066693015 -0.050831273 -0.069539405 -0.0631728
-0.0041222894 0.015673561 0.053194933 -0.12544267 0.08076986 0.09083938 -0.042247433 -0.0036266013
-0.07953701 -0.06591617 0.09306755 0.04380552 0.12140262 -0.13319458 0.09909237 -0.13277382
-0.07659745 0.09590084 -0.09444107 0.08003579 0.047132168 0.09278084 -0.08309337 -0.04757465
-0.013747261 0.075310506 0.08902074 0.13455126 0.01483281 0.078137174 -7.540357e-05 -0.008966587

weight f4 [128, 256]
00000000: e022 0bbd fef9 b8bd d29d 8e3d 4e72 b53d
00000010: 7caf d83c 20aa 513c 99ea 203d 93ef 5f3c
00000020: 6ce7 82bc b849 983d 2c92 56bd 1fa3 4b3d
00000030: ae45 143d 65ee 0bbd bae9 8c3d 87a2 db3d
00000040: e2d0 83bd 4e94 a43d 5b74 a0bc 4b40 8d3d
00000050: 8868 46bb 1555 833d 1716 953d c57c 5dbd
00000060: b270 913c c9c1 063d 18c9 68bc 7c98 e03c
00000070: 1271 d2bd e1f7 b53d f784 6d3d 31ea 10bb
00000080: 3401 bb3d 2a7b 7d3d 808c 02bd 7040 05bd
00000090: c9ee 5dbd 135f ed3c 1934 a2bc bd3d 053d
000000a0: f55f c53c 68dd c93d 41f1 06bd 281c 65bd
000000b0: edc4 86bd ded1 573c 117c 2c3d ffaa 1d3d
000000c0: 35bc cabc c1dd 06bd a161 5abc 1224 843d
000000d0: 2b32 81bc baf0 f6bc c6a3 d53c c376 8dbd
000000e0: 79b4 273c 90f0 073d e217 36bd e628 203d
000000f0: 82de 62bd af46 133d 50e3 a23d a6cf 10bd
00000100: 377d 1fbd 0c9a c13c b0ec ea3c 056c af3d
00000110: feca 6a3d fa17 24bd 6d60 0d3d d081 e6bc
00000120: ef1d 563c ffcc fbbc 4998 2ebd 45e2 81bd
00000130: ed75 09bb 86fa 3dbd f9de 923d 23d2 14bd
00000140: 471d b93c 28b0 20bd b442 96bd 7b45 0bbd
00000150: f039 64bd cb59 343d 28d2 7f3d 8228 ab3d
00000160: ebba 603d afc6 0c3d b46b 76bd f763 94bd
00000170: 273a 323d 93f8 9cbc d0e1 efbc 9635 e33c
00000180: c808 6cbd 8c7f b6bb 1d60 133d 1553 083d
00000190: c72d 423d dd1d 5cbd a526 08bc 1433 f7bc
000001a0: e6c6 8f3c 3630 193d e5ba c93c 9eb4 a53d
000001b0: 538d 0dbc 3ac6 28bd 2b8f 293d 15bb 223d
000001c0: 5cde e1bd b712 12bc 13e0 c6bc ff7e 353d
000001d0: 5673 17bd 59b7 d6bd 4796 87bd 9b7f 073d
000001e0: b82a 36bc 662e 0ebc a51e 273d 1bb6 96bc
000001f0: a7d9 943a 12a7 913d e3fd b33d e200 d93d
00000200: 5ad8 5bbd 5773 3bbd 4398 5cbc d789 c5bb
00000210: a2b4 a6bc f2ed 5d3b 82a9 b2bd fd46 2c3b
00000220: 78c9 89bd c3f8 7a3d bf17 a0bc a78d 7c3d
00000230: 0350 273d 036f 563c 017d 0fbd cb1d 3bbd
00000240: 4997 86bb 2385 a1bc bff4 67bd 9d0c c73c
00000250: 6210 acbc e87f 92bd 2df4 c13d bd89 01bd
00000260: b623 833d 34c2 653c c4ad 253c fb69 3dbc
00000270: 71c8 69bd 0367 c3b9 f894 a33c b9bf 5d3d
00000280: f622 73bc 6de7 50bc e17e 95bc 89fe a23c
00000290: a6d2 86bd d422 dabc 0ec4 e83d e182 14bc
000002a0: daec 97bc 6a5e c03c b128 82bc 5ae3 e7bc
000002b0: 7a40 f9ba f67f da3a 6fc3 053b 6d68 89bc
000002c0: 196f 193d a82b f03b f639 9cbc 93e1 a7bd
000002d0: 9976 063c 5550 10bd edf6 8abc 8dbc aebb
000002e0: 74f4 b63d 4ed8 4ebc 5133 133d a95d bcbc
000002f0: 4791 103d 46b2 2dbd ed1b 4d3d e845 613d
00000300: 4a76 f83b 2394 0f3b d288 b9bd 7ccf 7d3d
00000310: c31d f13c 9259 3a3d 9195 a63d f559 a33d
00000320: 6af3 833c b41e c23c 40e2 11bd d933 abbd
00000330: ef54 34bd 14f9 ddbd f5bb cfbd 8e7e 1d3c
00000340: bc4d a33c b867 d73d 08e2 413d 5954 e7bb
00000350: bf36 4cbd 3a90 893d 8488 f4bb 2a16 a13d
00000360: 6354 a13c b2d2 febc 3703 c33b e92b 543d
00000370: 1512 4e3d 6fe4 78bb 047b 1e3d 4861 663c
00000380: 5996 cebc 7ae9 aa3d 26f8 28bd 306b f13c
00000390: 778a 57bd 771e ec3c 54d4 653c b4d2 d1bb
000003a0: ee4a 193d e605 bcbd 1f8f 97bc 31a4 ba3d
000003b0: 9bc6 3d3d bb1b 4b3c 0efe ccbc d44d 82bd
000003c0: 53b3 773c 95fa 52bc a704 883c 5c96 a63c
000003d0: 9ae5 98bd 2a53 473c 7547 113d 5b86 893d
000003e0: d2ec 8ebd fac1 babc 9193 2bbd 4b54 0f3d
000003f0: 58a8 66bc f7c1 edbc 5861 8b3b 745d bdbc
-0.033968806 -0.09032057 0.069636956 0.088596925 0.026450865 0.012796909 0.03928623 0.013667959
-0.015979491 0.07435936 -0.052385494 0.04971611 0.036199264 -0.034162898 0.06880517 0.10724359
-0.064363256 0.080360994 -0.019586733 0.068970285 -0.0030274708 0.064127125 0.07279604 -0.054074068
0.017753933 0.03289965 -0.014208101 0.02741646 -0.10275473 0.0888517 0.057988133 -0.0022112245
0.09131089 0.061885037 -0.031872272 -0.032532156 -0.0541828 0.028975999 -0.019800233 0.03252958
0.024093607 0.09856683 -0.03294492 -0.055935055 -0.06580529 0.013172595 0.042110506 0.038493153
-0.024747947 -0.032926325 -0.013328941 0.06452192 -0.015770992 -0.030144084 0.02607907 -0.069074176
0.010235899 0.033188403 -0.04445637 0.039101504 -0.05538798 0.03595608 0.07953513 -0.03535428
-0.038937774 0.023633026 0.028677315 0.08565525 0.057322495 -0.04006193 0.034515787 -0.028138071
0.01306866 -0.030737398 -0.0426257 -0.063419856 -0.002097483 -0.046381496 0.07171435 -0.036333214
0.022596968 -0.039230496 -0.07336941 -0.03400181 -0.055719316 0.044030946 0.06245628 0.083573356
0.05486576 0.034369167 -0.060161307 -0.07245629 0.04351249 -0.019161498 -0.02928248 0.027735513
-0.057625562 -0.005569404 0.035980333 0.03328236 0.047406938 -0.053739417 -0.008309995 -0.030175723
0.017550897 0.037399493 0.024625251 0.080910906 -0.008639651 -0.04120467 0.0413963 0.039729197
-0.1102874 -0.008915595 -0.024276769 0.044310566 -0.036975227 -0.104841895 -0.0662046 0.03308068
-0.011118583 -0.008678054 0.04080071 -0.018397382 0.0011356369 0.07111944 0.087886594 0.105958715
-0.053673126 -0.045764294 -0.013464036 -0.0060283947 -0.020349804 0.003386375 -0.08723737 0.002628743
-0.0672788 0.061272394 -0.019542573 0.061658528 0.04084779 0.013087991 -0.035031322 -0.04568271
-0.00410739 -0.019716805 -0.056629892 0.024298007 -0.021003906 -0.071533024 0.09470401 -0.031625498
0.06403296 0.014023352 0.01011223 -0.011560912 -0.05707592 -0.00037270048 0.019968495 0.05413792
-0.014839878 -0.012750489 -0.018248977 0.019896762 -0.06583147 -0.026627935 0.113655195 -0.009064407
-0.018545557 0.02348252 -0.015888544 -0.028306652 -0.0019016408 0.0016670215 0.0020410677 -0.016773427
0.037459467 0.007329423 -0.019070607 -0.08197322 0.008206987 -0.03523286 -0.016963447 -0.0053325356
0.089333445 -0.012624813 0.03593761 -0.02299388 0.035294797 -0.042406343 0.05007546 0.05499831
0.0075824605 0.0021908365 -0.090592995 0.06196545 0.029433137 0.045495577 0.08133996 0.07976142
0.01610728 0.023696281 -0.03561616 -0.083594985 -0.04402631 -0.108385235 -0.10143272 0.0096126925
0.019934528 0.1051783 0.0473347 -0.0070596156 -0.049856897 0.06716962 -0.007462563 0.078655556
0.019693559 -0.031106327 0.005951311 0.05179969 0.050310213 -0.0037977954 0.038691536 0.01406128
-0.025218176 0.08345313 -0.041252278 0.029470056 -0.052622285 0.02882312 0.014027674 -0.0064032916
0.037424974 -0.091808125 -0.018500863 0.09113348 0.046331983 0.012396748 -0.025023486 -0.06362501
0.015118438 -0.012877126 0.01660378 0.020335369 -0.07465668 0.012165824 0.035468537 0.067150794
-0.06978764 -0.022797573 -0.041888777 0.034992497 -0.014078222 -0.029023154 0.0042535476 -0.023115851

bias f4 [128]
00000000: 778f 843d ae6f ff3b 1938 aa3c e06b 503d
00000010: b29a 40bc 730e c43c b3be a4ba bf87 fe3c
00000020: 210e b43d 2294 0a3d 5e12 13bd 407d 97ba
00000030: 9ff5 91bb 5b57 a1bc 6d30 213d c2a1 a53d
00000040: b3c9 6d3d 5714 8bbd a8db 98bd 9d6f 433d
00000050: d14f a8bc 8f95 5bbd 1a61 e33c b39d 0e3d
00000060: 0dc1 e1bc 1c16 ccbb af93 42bd 1808 ad3d
00000070: 89eb 4a3d 2dfe e43c ab9d 013c f1c6 73bd
00000080: 6a73 bdbc faf5 463d 5e85 b83c a017 f23c
00000090: 5045 89bd b1f6 36bc a10a fbbc a3be 06bd
000000a0: d900 a93d 965c 89bc 4ced 493c d0e7 ad3d
000000b0: 1457 eabc 639f 383d 4748 a13c 6121 e0bb
000000c0: 16b4 0dbc 433b a0bc 6fb9 403d a77a 9c3d
000000d0: fa82 b53d dc71 3fbd 7b89 80bd 420a 2ebd
000000e0: 7242 d33c fb36 3abd 5b8f a43c 48c2 a03d
000000f0: 19de f8bc d6a5 603d 5a4c 0dbd faab 363d
00000100: baaf 7c3d 5e02 383d 466b 10bd f6d2 233d
00000110: 0580 803c 7db2 f63a e717 853c 751e 073d
00000120: 7ea6 293d 1de0 43bd 2ce8 3d3d c136 dd3b
00000130: 4d68 223d 21f5 8abd 09a6 ffbc 9373 f6bc
00000140: 132c d93c 7455 e83c 2b9b 10bd 0730 3c3d
00000150: 09bc 10bd da15 4c3c f320 29bd 6fd1 883d
00000160: 6530 2d3d b71d 27bd e528 b53c 8ed5 7c3d
00000170: bb1a 373d e533 2ebd bd8f f33a 75db 093d
00000180: c96b 083d 4e9d 78bd b218 3c3c 814c 143d
00000190: ef13 3eba 5af4 ac3c 7679 e5bc 280c 2e3d
000001a0: 7b88 1c3d 7471 303d 3a30 9f3d 3171 81bc
000001b0: c7c2 37bd f91c 223d 4941 533d 7bb0 5a3d
000001c0: 0d72 b03b 3fe3 0ebc 5f2a 133a a0ea 4a3d
000001d0: 7d3b 01bd ddb0 65bc 106d 16bd f5f9 d73c
000001e0: c032 6d3d 98d1 bbbc 694e a6bc c653 7b3d
000001f0: f652 0b3d c37b 463d 7da6 15b9 ca01 a8b9
0.06472676 0.0077952957 0.020778703 0.050884128 -0.011755632 0.023932671 -0.001256904 0.031070588
0.087917574 0.033832677 -0.03590619 -0.0011557713 -0.004454329 -0.019694975 0.039352823 0.080874935
0.058053683 -0.06790989 -0.07463771 0.047713865 -0.020545872 -0.053609427 0.027756263 0.034818362
-0.027557874 -0.0062282216 -0.047504123 0.084488094 0.04954103 0.027953232 0.007911126 -0.059515897
-0.023126323 0.048574425 0.022524532 0.02955228 -0.067026734 -0.011167214 -0.030644717 -0.03289665
0.08252115 -0.016767781 0.012324642 0.0849148 -0.028605975 0.045073878 0.019687785 -0.0068399166
-0.008648893 -0.019559508 0.047051843 0.076405816 0.088628724 -0.046739444 -0.06276222 -0.04249025
0.02578852 -0.04546259 0.020087888 0.07849556 -0.030379342 0.054845653 -0.034496643 0.044597603
0.061691023 0.044924133 -0.035258554 0.03999611 0.015686044 0.0018821504 0.01624675 0.03298803
0.041418545 -0.047821153 0.046363994 0.006750912 0.03965025 -0.06785036 -0.031207101 -0.030084407
0.026510274 0.02836106 -0.03530423 0.04594424 -0.035335574 0.012456382 -0.04129119 0.06680571
0.04228248 -0.040799823 0.022114227 0.0617271 0.044703227 -0.04252996 0.0018582266 0.033656556
0.033305917 -0.060696892 0.011480497 0.036205772 -0.0007250895 0.02111261 -0.028012019 0.04249206
0.038216095 0.043076947 0.0777287 -0.015801044 -0.04486349 0.03957841 0.051575933 0.05339096
0.0053846897 -0.008721172 0.0005613919 0.049540162 -0.031550873 -0.014019218 -0.036725104 0.026364306
0.057909727 -0.02292709 -0.02030106 0.06135919 0.034014665 0.048457872 -0.00014271769 -0.0003204479

weight f4 [64, 128]
00000000: 89f9 593d e8b7 203c 0229 a13d d75a ac3d
00000010: 3fdd 3a3b f4bf e13d 034e 1abd 52e6 c7bd
00000020: 96a8 053d b833 8c3c 5b54 b2bd 54f4 f53c
00000030: 7aa7 9c3d d028 fcbb 5157 d13c 1cc1 433d
00000040: 6233 c63d 4def a7bb 81c4 68bc b3a8 c83d
00000050: eb26 1b3d 0bc9 853d 290a e43d 5da0 e23d
00000060: a4b4 9a3d d91a eebb a144 3a3c 766f 9a3d
00000070: fc00 19bd 7d40 88bd b969 193d 213b 933c
00000080: 027e 193d 94f2 85bc 16bd 51bd 4b98 2c3d
00000090: 81ff 74bb ca33 a13d 5502 87bd b4ab 6fbc
000000a0: bdd5 5e3d 6f2e 233d 32a4 973b f064 0a3d
000000b0: c53f edbc eae3 ea3d 859d 69bd 9b47 4f3d
000000c0: 0f2a 41bd a757 893d da0e 983c c97b a9bc
000000d0: 90de a9bc f65b 82bd 513b 63bd cec0 4cbd
000000e0: 8436 483d 6c95 9c3c 438d d1bd c303 b63d
000000f0: 839b 08bd 953c a1bc 70bc 493d 08a8 143d
00000100: 8867 913d 64c2 633d aabe e8bc ed55 40bd
00000110: 143a 133d f90e f6bc 565a 2cbd ccdb aa3d
00000120: acfa a6bd 18f0 cabd a0d3 e23d 41d7 aa3c
00000130: 6663 893d f754 c8bc 941e fcbb 8a50 33bd
00000140: c0d7 ac3c 5198 fb3c 2bfe a6bc 2532 88bc
00000150: a32c b53c c06a d93b 0010 183d 7145 0d3c
00000160: 878d 753c eab2 bdb9 b05d 1cbd 2124 763d
00000170: 9b85 c83d bbd7 e0bb 64e8 97bc 0b28 d6bc
00000180: 7788 8fbd c5f0 bcbc 0d74 833d faee 80bc
00000190: ceb6 cb3a 55b7 923c 4869 c9bd fe0e e03c
000001a0: 8c47 a6bd a514 e53c 8c5f 4f3d 36be 633d
000001b0: 6498 303d a012 e63c 7f49 3c3c 9220 ac3d
000001c0: 24f5 833d 4617 113c ff76 b83d d5a0 0fbd
000001d0: 54ef 5dba 6387 69bd 6a39 753d d7c1 37bb
000001e0: 146a 8abc 3889 88bd ff58 2cbd 73ef 8a3d
000001f0: 6741 9bbd 2ce0 1c3d 23e7 033d a438 a5bd
00000200: 9fd9 7fbd c54e 813d ec9e 213d 3dd9 bb3d
00000210: 622b adbd 4ba9 a43a b98f 0a3d 4c87 93bd
00000220: dc59 163d 607f 4bbd aeb2 8abd cf1a adbd
00000230: 0bc7 e4bb 38af 343d 194d d5ba bacd b13b
00000240: 7ca4 26bd 397c 803d dcfc acbd 75e2 0e3d
00000250: bf4d fc3c ee20 803d db66 69bd f1fb bd3d
00000260: 1c7f 82bd 4eae 4d3d 2baf 91bd 95e2 893d
00000270: f00c aebc 54cd fa3c 5fa2 143d 7822 623d
00000280: 46bb 9cbd 4f23 45b7 876e 87bc c820 b83c
00000290: e83f f33c 78a5 ce3d 4a54 31bc c899 7b3d
000002a0: 7013 3e3d ba15 2a3d ff9c 6cbd c765 773c
000002b0: 1280 c1bc 2a5f ee3c e58b c93c d6cf 91bc
000002c0: 4a6b 253d eadf 6b3d 5d0d 91bd 6faa b1bc
000002d0: 8e79 6fbd 16b3 1fbd 5785 9d3b 025d c63d
000002e0: d21b 0bbd fa3f b33c 8faa afbd 162a 88bd
000002f0: 2233 a43a c3d6 043c 652c a53d 3a53 cc3d
00000300: ffef 97bd 221e b6bd 35d5 a4bd 5e35 263d
00000310: d048 6bbd 0a46 a4bd b79d 8bbc a48f f03d
00000320: f07d 4dbd 7f30 743d e8bf 973c c902 e13d
00000330: 92c3 8b3c 864b 7b3d 468c 04bd fecc 56bc
00000340: 5014 51bd 805a a73d 2c01 adbd b5c8 86b9
00000350: 0830 ac3d e580 943c 6fb9 b13d 0c66 6abd
00000360: 9142 84bd e996 0a3d 09ce aebd 2f74 4e3c
00000370: 03e0 a73c 08dc 92bc 8da9 a23c 66d7 9c3d
00000380: d6f0 1e3c 96f8 a23c 8fdc c7bd 044d 833c
00000390: 1abf ba3d eca4 213c b335 82bd e8f6 1cbd
000003a0: bf67 9f3c b456 b5bc 7fea 273d 7fb5 18bd
000003b0: ec21 6dbd 06d3 9e3d 8b95 cabc d0c5 d33d
000003c0: f27a c53d 0f44 843b cd52 debb 1833 91bd
000003d0: ecc9 d5bd 7264 15bd f1e0 95bd a9ab 9b3c
000003e0: 4138 773d 2fa1 533d 63e5 813d 4758 3b3c
000003f0: 87c0 753d f8b9 7f3d 80b4 0e3d 7db9 78bc
0.05321649 0.009809472 0.0786915 0.08415764 0.002851322 0.1102294 -0.037672054 -0.09760727
0.03263148 0.017114505 -0.08707496 0.030023731 0.07649131 -0.007695295 0.025554331 0.047791585
0.09677769 -0.0051249624 -0.014207006 0.09797802 0.037878912 0.065324865 0.111347504 0.11065743
0.07553986 -0.007266384 0.0113689015 0.07540791 -0.037354454 -0.06652925 0.03745434 0.01797253
0.037473686 -0.016351022 -0.051205717 0.042137425 -0.0037383738 0.07871206 -0.06592242 -0.01462834
0.054403055 0.039839204 0.004627728 0.033787668 -0.028961072 0.114692524 -0.057034988 0.050605398
-0.04715925 0.067061715 0.01856177 -0.020688908 -0.020736009 -0.063651964 -0.05547649 -0.04998856
0.048880115 0.019114219 -0.10232022 0.08887436 -0.033351433 -0.019682208 0.049251974 0.03629306
0.07099825 0.055605307 -0.028411228 -0.046956945 0.03594406 -0.030036436 -0.04207834 0.08342704
-0.081532806 -0.099090755 0.110755205 0.020854594 0.06708412 -0.024454577 -0.007694075 -0.04377798
0.021098971 0.030712279 -0.020384869 -0.016625473 0.022116011 0.00663504 0.037124634 0.008622513
0.014987356 -0.0003618219 -0.038175285 0.06009305 0.09791108 -0.0068616546 -0.01854343 -0.02614214
-0.070084505 -0.023064027 0.06418619 -0.015738953 0.0015542151 0.017909685 -0.09834534 0.027350899
-0.08119115 0.027963946 0.05062823 0.05560132 0.04311408 0.028085053 0.011492132 0.0840465
0.06443241 0.0088556465 0.09007072 -0.03506549 -0.00084661436 -0.05701388 0.059869207 -0.0028039122
-0.016896285 -0.066667974 -0.04207706 0.067839526 -0.07580834 0.038299724 0.03220285 -0.08067444
-0.0624634 0.06313852 0.0394582 0.09172294 -0.0845554 0.001256266 0.03382847 -0.0720354
0.03670679 -0.04968202 -0.06772362 -0.08452379 -0.0069817356 0.044112414 -0.0016273587 0.005426136
-0.04068421 0.062736936 -0.084466666 0.034883935 0.030798791 0.06256281 -0.056982856 0.0927657
-0.063719004 0.050215058 -0.07113489 0.0673267 -0.021246403 0.030615486 0.03628766 0.055208653
-0.07652907 -1.1750336e-05 -0.016532196 0.022476569 0.029693559 0.100901544 -0.010823319 0.061425954
0.046405256 0.041524626 -0.05776691 0.015099949 -0.023620639 0.029098112 0.02460284 -0.0177993
0.040385522 0.057586588 -0.07082627 -0.021687714 -0.058465533 -0.03898915 0.004807155 0.096857086
-0.03396208 0.021881092 -0.08577453 -0.06648652 0.0012527446 0.008107844 0.08065108 0.09976812
-0.074188225 -0.08892466 -0.080484785 0.04057824 -0.057442486 -0.080211714 -0.017042978 0.11746147
-0.05016893 0.059616562 0.018524125 0.10986859 0.017061029 0.06135132 -0.032360338 -0.013110397
-0.051044762 0.081715584 -0.08447489 -0.0002570801 0.08407599 0.018127868 0.08677947 -0.057226226
-0.06458009 0.033835325 -0.08535392 0.0126009425 0.02049256 -0.017927185 0.019856239 0.076582715
0.009700974 0.019893926 -0.09758865 0.016027935 0.09118481 0.009865981 -0.063578986 -0.038321406
0.01945865 -0.02213607 0.040995117 -0.037282463 -0.05789368 0.07755093 -0.02472951 0.10340464
0.096425906 0.0040364335 -0.006784773 -0.070898235 -0.10438904 -0.036472745 -0.07318295 0.019002752
0.060356382 0.05166739 0.0634258 0.011434621 0.05999806 0.062433213 0.034840107 -0.015180943

bias f4 [64]
00000000: 8ce6 6dbc 9cd9 cd3c 5853 a63d 6d30 39bc
00000010: b281 033d d733 653d 9123 863d 3e78 133d
00000020: aff6 b3bd b308 143c 8e18 383d d0bf 48bc
00000030: 520e bb3d ee5b 4a3c edcf 1dba 3adf f1bc
00000040: 0bba 81bc 69ee 933d 203f 3bbd bcf0 703d
00000050: 261c 26bd ebb4 9abd 8bad 80bb 1af3 193b
00000060: 4e2f 23bd 5690 b93d 2874 71bc af46 df3c
00000070: 76a2 7f3d f21a b3bc 4333 73bd 6e83 c93d
00000080: e174 e13d 73b4 2a3d 6631 af3d 9c49 2abd
00000090: 7374 d9bc 0350 853c 568f 893d 3f46 72bc
000000a0: 2c06 8a3d 46aa 273d 7075 683c fa5f c23c
000000b0: 5157 6e3d 7e27 d43d 10ad 5f3d 75d9 ff3c
000000c0: 1d91 85bd eb6d 943c 9071 663d a155 ae3d
000000d0: 8d62 b23b a791 b33d 57f6 abbc 4d65 84bd
000000e0: edf0 943d 370e ba3d 1670 15bd 6aaf fcbc
000000f0: 7cb4 4bbd 3afa 7dbc 9e83 933d e17c d33c
-0.014520299 0.025128178 0.08121365 -0.0113030495 0.03210611 0.05595764 0.065497525 0.036003344
-0.087872855 0.009035277 0.044945292 -0.012252763 0.09133591 0.012351019 -0.0006020058 -0.029525388
-0.015835783 0.072232075 -0.045714498 0.058823332 -0.04055419 -0.075540386 -0.003926938 0.0023490847
-0.039840035 0.09060733 -0.014737166 0.027255384 0.062410794 -0.021863434 -0.05937506 0.09839521
0.11008621 0.041675996 0.08554344 -0.041574106 -0.026544785 0.016273504 0.06716792 -0.014787256
0.067394584 0.04093387 0.0141881555 0.023727406 0.05818874 0.10359095 0.054608405 0.031231621
-0.06521819 0.01811882 0.056260645 0.08512426 0.005443877 0.08768015 -0.020991487 -0.06464634
0.072725154 0.090847425 -0.036483847 -0.030845363 -0.04973267 -0.015501553 0.07202838 0.025816383

weight f4 [5, 64]
00000000: 8c98 96bc db7c a1bd a157 fb3d bc02 173e
00000010: 2ed9 2f3c 26cc c73d d77a 3a3d 30a2 2b3e
00000020: ab49 c6bd 4862 f23d 4194 debd abef a53d
00000030: e07e 343c aede b6bd 6f9e 793c 6ba2 00be
00000040: bc4f ee3d 8523 093e 612b 0dbd 7a72 e6bd
00000050: 661c 50bd 3660 16be a0cb 5abd a24e d63c
00000060: 5215 723d a532 9d3d 4a4e 863c ff18 aabc
00000070: 682f cd3d 4bc2 46bd 3884 543d a83f 223e
00000080: 9f5e 22bc a9d6 283e 4c9e dabd 7757 d7bd
00000090: d626 32be 5264 c13d 8e57 8ebb 2406 263d
000000a0: 2543 413d a46a 13be 6139 8c3d 225f 01bb
000000b0: f25f a23c 60b0 1f3d 41de 023e b18f dbbd
000000c0: 3daa cabd afe7 b7bd 61f6 4b3d 1dbc 35be
000000d0: 2023 b23d e1ba b4bd 773f 60bd bc6c 30b8
000000e0: 8d9d 1a3e fd02 113e f654 033e 454f 3d3d
000000f0: a9be f7bd 3c93 143e ae3a 7dbc 03c3 0cbe
00000100: aba9 2d3d 991a 193e e63b 71bc 2750 19be
00000110: 6dd8 10bd 1ab2 04be 7712 d43d 1fb9 d9bd
00000120: 4837 c13d 19f4 c43d d1dc a23d ec27 36bc
00000130: 4e00 c23d 1997 423c eb39 05bd 2a81 eebd
00000140: dbe3 c8bd 7fd5 b43d d1a9 cc3b c5fe 753c
00000150: 4d9b 523d e3e5 093e 0e35 b33d 1405 fb3c
00000160: f4e4 b53d f127 efbd 228e 10b9 7a27 863d
00000170: 0ced 3ebd 5ebc 173e 5476 8ebc 1553 a73c
00000180: 4a05 fe3d 1663 71bb 9cff ed3d 3666 5239
00000190: 05c5 323d 8077 e2bd e409 cabd 6800 9fbd
000001a0: 4b85 103e b712 cabd a249 cdbd 8f67 2dbd
000001b0: 9840 583d d6e5 2b3d 27a4 bebd fa0e 353d
000001c0: b4b4 cb3d f951 033d 3a9e c43c b7a1 babc
000001d0: afc2 71bd a68d 173e a85a 0a3e e9e6 d53d
000001e0: 63c7 413d a53d 6e3d 5c7d 923c bc34 b13d
000001f0: 90a3 ce3d 8041 463d a549 84bc e339 a6bc
00000200: 05ab 61bd 40e3 e8bd bde7 e83d f3eb 98bd
00000210: d541 af3b ad7f cabd e94b 47bd 15e1 8f3d
00000220: 3c9e 873c 8ec1 593d 822c a7bc e9e7 00be
00000230: ca44 f63d ebce 9fbd 5cb3 47bc 18ca d6bd
00000240: 0092 9b3d afcc de3d 4d0e 0ebd 8420 a5bd
00000250: dcee 9a3d ddd4 433d 81b9 ae3d ad71 a83d
00000260: b0cc 9d3d 8aed fdbc 1e13 01be 2f20 87bd
00000270: fee6 c0bc 9092 a63d a3da 2aba e1e1 613d
00000280: cec2 08bd a518 a8bd cc83 763d 3dc7 babd
00000290: bb23 de3d e162 b33d e683 d73d 3982 b13d
000002a0: 85bd 7fbd ed07 8d3d a8d7 4b3d 7994 633d
000002b0: c342 86bd 5cb6 673d be71 efbd f3ae fabc
000002c0: f4e2 85bd dfc4 81bd a76b 833c 9505 c0bd
000002d0: 36ec f23c 96f7 babd c23d 0d3c 6f35 82bd
000002e0: 2732 de3d 39ca dbbd 7ca8 5fbd d081 56bc
000002f0: 7f22 9f3d a8b6 b73d 80e5 9e3d dee1 d7ba
00000300: 23ff 4a3d 41a2 d0bd a49f 69bd 715f 9cbb
00000310: c788 093d 921b 16bd f10c a9bd ae65 d03d
00000320: acbb d83d 966f 383d 3b2b 6c3d e105 ca3c
00000330: 3abf 1bbd 20f2 853a 9a68 3d3d 704c 273b
00000340: 2598 963d 27b2 4cbd 5bd4 25bc a777 6abd
00000350: c7ec f3bd 3485 d23b bf1f 67bd 2201 fb3d
00000360: 9054 e43c 16ee efbd c166 023e 89c5 0c3d
00000370: b59b 223d fc47 b13c 8c29 b53d 7ba2 06be
00000380: 5567 6a3c a92c 8c3b 17f5 d93b 60f4 5bbc
00000390: 83f5 da3d 22f8 43bc 4d16 a5bd 976e ae3d
000003a0: bdd0 77bc 048d 823d f26e 6dbd d8f3 af3d
000003b0: a943 8dbd e3de adba e653 9e3c fe65 c13d
000003c0: c04e 373d 5d50 a83d ea0e 37bd 2a48 813d
000003d0: 1123 a9bd c699 b2bd ea51 713d 6607 86bd
000003e0: c0b8 6b3d 2466 873d 88db 043c df04 763c
000003f0: 4f06 5ebd 9777 833b a63f 083d 9798 813d
-0.018383287 -0.078851424 0.12272573 0.14747137 0.010732932 0.09755735 0.045527305 0.16761088
-0.0968202 0.11835152 -0.10868121 0.08102354 0.0110165775 -0.089291915 0.015235527 -0.12561958
0.11636302 0.13392456 -0.034465197 -0.112523034 -0.050808333 -0.14685139 -0.05341685 0.026160542
0.059102364 0.07675675 0.016394753 -0.020763872 0.10018808 -0.048525136 0.051883906 0.15844595
-0.009910255 0.16488136 -0.10674724 -0.105147295 -0.17397627 0.09442963 -0.0043439334 0.0405332
0.047183175 -0.14396149 0.06846882 -0.0019740541 0.01982114 0.038986564 0.12780096 -0.10720766
-0.098957516 -0.08979737 0.049795512 -0.17747541 0.08698106 -0.08824707 -0.054748025 -4.2062937e-05
0.15099163 0.14161296 0.12825379 0.046218175 -0.120969124 0.1450929 -0.015455885 -0.13746266
0.042398136 0.14951552 -0.014723754 -0.14971982 -0.03536265 -0.12958565 0.103550844 -0.10631012
0.09434372 0.096168704 0.07952274 -0.011117917 0.09472714 0.011876845 -0.032525938 -0.1164573
-0.09809085 0.08829784 0.0062458296 0.015014355 0.051417638 0.13466601 0.08750354 0.03064207
0.0888156 -0.1167754 -0.00013785859 0.06550498 -0.046612784 0.1481795 -0.017390408 0.020425359
0.124033526 -0.0036832741 0.11621019 0.00020065237 0.043644924 -0.11057949 -0.09865168 -0.07763749
0.14113347 -0.09866851 -0.1002381 -0.04233509 0.052795976 0.041967236 -0.09308653 0.044203736
0.09946576 0.032060597 0.02400123 -0.02278219 -0.059023555 0.14800128 0.13511145 0.10444433
0.04730929 0.058164258 0.017882042 0.086526364 0.10089791 0.04840231 -0.016148398 -0.020291274
-0.055094738 -0.113714695 0.113723256 -0.07466879 0.005348424 -0.098876335 -0.048656378 0.07025353
0.016554944 0.053163104 -0.020406965 -0.12588467 0.12024839 -0.07803138 -0.012188759 -0.10487765
0.07596207 0.10878884 -0.034681607 -0.080628425 0.0756509 0.047810424 0.08531476 0.08224807
0.07705057 -0.030997057 -0.12604949 -0.065979354 -0.023547646 0.08133423 -0.0006517565 0.055147056
-0.033388905 -0.082078256 0.060184285 -0.09120033 0.10846659 0.08759094 0.105232045 0.08667416
-0.0624366 0.06886277 0.049766213 0.055561516 -0.065557025 0.056570396 -0.116916165 -0.030601
-0.065374285 -0.06336378 0.016042544 -0.09376065 0.02965365 -0.091292545 0.008620681 -0.06357848
0.108494096 -0.1073193 -0.05460404 -0.013092473 0.077702515 0.08970386 0.077586174 -0.0016470512
0.049559724 -0.101871975 -0.05703701 -0.0047721197 0.033577707 -0.036647387 -0.082544215 0.10175644
0.105826706 0.04502829 0.057658415 0.024661006 -0.038024165 0.0010219254 0.046242334 0.0025527738
0.07353238 -0.049974587 -0.01012143 -0.057243016 -0.11910396 0.0064245705 -0.05642676 0.122560754
0.027872354 -0.11715333 0.1273451 0.03436807 0.039699275 0.02164077 0.08845815 -0.13147919
0.014306863 0.004277785 0.0066515314 -0.013424963 0.10691359 -0.011961015 -0.08060894 0.08517187
-0.015125451 0.06374553 -0.057967134 0.085914314 -0.06897671 -0.0013265278 0.019327115 0.094432816
0.044752836 0.08218453 -0.044691958 0.06312592 -0.082586415 -0.08720736 0.05891601 -0.0654438
0.05754924 0.06611279 0.008108981 0.01501581 -0.054205235 0.004012059 0.033263825 0.06327932

bias f4 [5]
00000000: e5aa f33d a3c9 cebd 537a d43d 7f83 e03d
00000010: 8ff9 70bc
0.1189783 -0.10097053 0.10374894 0.10962581 -0.014707937
