Policy-Gradients/Poker-Agent/checkpoint_10000.pt (torch, 227369 bytes, 8 tensors)

weight f4 [256, 55]
000000 7e 66 66 bc 9c ee 1b bd db 0c d8 bd e2 a0 ea bc
       -0.014062522 -0.038069353 -0.10549327 -0.028641168
000010 0e 7e f0 3d 32 f6 15 3e 74 36 11 bd 15 d6 99 3c
       0.11742793 0.14644697 -0.03545232 0.01877884
000020 79 40 f5 3c c0 e0 bb 3d b6 54 f0 3d e4 bf 00 bd
       0.02993797 0.09173727 0.11734907 -0.031433
000030 25 71 bd 3d e5 82 99 3d e1 06 79 bc 78 dc 00 3e
       0.09250096 0.07495669 -0.015199394 0.12584102
000040 34 15 e1 3d f0 5a d8 bc 22 ee 12 bd 73 c3 bd 3d
       0.10990372 -0.02641055 -0.035871632 0.092657946
000050 74 39 54 bd 2b 85 f6 bd fc 82 0b bd 97 07 d8 bc
       -0.051812604 -0.120371185 -0.034060463 -0.026370807
000060 97 62 02 bc 77 54 bf bd 2e ef c8 bd b9 9e b9 bd
       -0.007958076 -0.09342282 -0.09811245 -0.09063477
000070 f3 81 1c bd 2a 3e ce 3d e0 c2 c3 bd b0 1c 92 bc
       -0.038209867 0.100704506 -0.09558654 -0.017835945
000080 be e1 bf bd c0 cc 1b 3d da 14 82 3d 6d fb c5 bd
       -0.09369229 0.03803706 0.06351633 -0.09667096
000090 c2 ed 22 3d 2a ae da bd 45 2e a9 3d 00 60 43 3d
       0.039777525 -0.106777504 0.08260778 0.047698975
0000a0 14 39 5c bd 0c b1 a7 bd d2 96 cb 3d 1b 91 8b bd
       -0.05376537 -0.08188066 0.09940876 -0.06814786
0000b0 6f c3 9e bd b0 eb 3c 3d 9e f6 0c bd 26 c2 f9 3c
       -0.0775212 0.046123207 -0.03441488 0.030488085
0000c0 45 bb 8d 3b 19 fa 15 3c d6 a8 de bd 62 df 83 bd
       0.004325303 0.009153866 -0.10872047 -0.06439091
0000d0 1d 68 4f 3c 1a 22 01 bd 02 25 fd 3d eb 4d 87 3d
       0.0126591 -0.031526662 0.12360574 0.066066585
0000e0 b5 c5 06 be 98 89 9b 3d 42 c1 09 3d 3b 7e 07 be
       -0.13161357 0.07594603 0.03363157 -0.13231747
0000f0 23 f8 c9 bd 8e 87 d6 3d d1 fc 30 bc 37 4c 31 bd
       -0.098617814 0.10475074 -0.010802464 -0.043285575
000100 93 60 29 bd 53 4e af 3d eb de 71 bd fc f2 68 bc
       -0.041351866 0.08559861 -0.05905048 -0.014218088
000110 92 01 08 be b0 cc 92 3d 7d 80 6c bb 23 3e c7 3d
       -0.13281849 0.07167947 -0.0036087327 0.097286485
000120 59 82 01 3e a9 20 0e be 2e fa 4b bd 9f f7 ce 3d
       0.1264738 -0.13879646 -0.049799137 0.10105824
000130 0e 0d 65 3b 84 d6 e6 3d 72 8b 96 bd 97 9a 5c 3c
       0.0034950408 0.11271384 -0.07350816 0.0134645915
000140 3b f4 86 3b 09 e6 84 3d 36 b4 12 bd f5 a7 d3 3d
       0.00411847 0.06489188 -0.035816394 0.1033477
000150 c8 18 67 bc 0c fa 16 bc 6b 3d f4 bd d7 b6 cf 3d
       -0.014105029 -0.009214889 -0.11925777 0.10142296
000160 86 40 a1 bd 22 bc 9e 3d 6b ec 5c bd 4e 82 f8 3c
       -0.07873635 0.07750727 -0.053936403 0.030335572
000170 98 04 f3 bd 24 33 9c 3d 3d a8 f5 bd 1f 97 d3 bd
       -0.118661106 0.07626942 -0.119949795 -0.103315584
000180 28 29 4a bd 84 f6 2a bd 82 cf 01 3e b8 48 22 bd
       -0.049355656 -0.041739002 0.12676814 -0.03962013
000190 90 db ae 3d fe 0b 44 bd bb 57 b4 3d 45 22 af bc
       0.08537972 -0.047863 0.08805796 -0.021378646
0001a0 53 2e a4 bd a9 3f d6 3d a3 67 88 bd 00 eb 35 bc
       -0.08016648 0.10461361 -0.06660392 -0.011103392
0001b0 39 58 6f 3d 46 4e cd bd 37 d9 c2 bd bd b1 ea 3d
       0.058433745 -0.10024695 -0.09514087 0.11459682
0001c0 75 f9 a8 3d fb 4c 6a 3d c3 9c 09 3e 41 49 9f 3d
       0.08250705 0.05720232 0.13438706 0.07777644
0001d0 e2 56 a9 3d 26 da 76 3d b0 31 25 3d 76 21 0b be
       0.08268525 0.060266636 0.04033059 -0.13586983
0001e0 7c 0b 48 3d 58 0f b7 3d 5a f5 f7 3c 25 30 80 bc
       0.048839077 0.089384735 0.03026836 -0.015647957
0001f0 be 75 91 3d 03 e3 b9 3c 44 4a a1 3d 5b 68 fb 3d
       0.07102536 0.022691255 0.07875493 0.122757636
000200 6e ee cd bc 5c 6c c3 3d 61 6e 3f 3c c3 07 e2 3c
       -0.025138106 0.09542152 0.011684031 0.027591592
000210 19 59 78 3c 12 6b cc 3d 8c e8 a1 bc 4f c8 f4 bd
       0.015157961 0.099813595 -0.019764207 -0.11952268
000220 aa eb 51 bd 51 53 07 3e ca ca 2b bd b7 12 5e 3d
       -0.051250137 0.13215376 -0.04194144 0.054217067
000230 68 34 c1 bd 1c 0f 0f 3a 0b 24 c3 bb e0 71 ea 3d
       -0.09433824 0.00054572686 -0.0059552244 0.11447501
000240 94 54 5c bc 26 54 b7 bd 65 fa d7 3d f4 d1 64 bd
       -0.013447899 -0.08951597 0.10545806 -0.05586429
000250 23 ed 64 bd 6d 99 b0 3d 15 23 71 bc 78 ee 90 3d
       -0.055890214 0.08623014 -0.014717837 0.07076734
000260 d9 6a f4 3d 26 75 5e bd 14 e2 97 bd 6d c1 c3 bd
       0.11934442 -0.05431094 -0.07416168 -0.095583774
000270 f0 ff 4a bc 1d 24 0b be 97 dd 12 3d dc 7e d2 bc
       -0.012390122 -0.13587995 0.035855856 -0.025695257
000280 1a 58 d2 3d 47 7b ba bd 8d 7c ef 3d 49 25 a7 bd
       0.1027071 -0.091055445 0.11693678 -0.081614085
000290 ee f9 c1 3d 8f e7 ad bc 16 ea 68 bd 51 b9 7c 3d
       0.094714984 -0.02122858 -0.056863867 0.06170017
0002a0 25 0a f6 3d 61 16 2f bd 58 3a d9 bb d0 0d 7d 3d
       0.12013654 -0.04274595 -0.0066292696 0.06178075
0002b0 20 56 e2 3d b6 20 2b 3e 4c 9d e2 bd 8e 7d 1d 3c
       0.11051583 0.16711697 -0.11065158 0.009612454
0002c0 b5 8c cb 3d cf c7 89 bd 5e 87 52 3d d5 76 f8 bd
       0.09938947 -0.067275636 0.051398627 -0.121320404
0002d0 f1 52 47 3d a0 00 b4 bd 23 b5 df 3c fc 8b e9 3d
       0.048663083 -0.08789182 0.027308052 0.11403653
0002e0 be fd 94 bd e9 ef cf 3d 6c c4 17 be 39 ac 10 3e
       -0.0727496 0.10153181 -0.14821023 0.14128198
0002f0 4d 8c db 3d 23 22 3b 3e c4 0d 3f 3d cf a1 54 3c
       0.107201196 0.18274741 0.046643987 0.012978031
000300 f4 02 9b bd ef df 5e 3d 5d 8a d8 bc 80 cb 90 bd
       -0.07568923 0.05441278 -0.026433164 -0.070700645
000310 02 af 66 bc d7 d8 25 bd 38 a5 b0 3d 9f 79 39 3d
       -0.014079811 -0.040489998 0.08625263 0.045282003
000320 51 a7 8d bc 22 26 47 bd 69 cc c7 bd c6 d7 64 bc
       -0.017291697 -0.04862035 -0.09755785 -0.01396746
000330 1f 6a c9 3d 2a 38 27 3d c1 2d f9 bd c1 31 5b bd
       0.09834694 0.040825047 -0.1216693 -0.053514246
000340 a0 db fd 3d 93 01 89 bd 60 05 05 be 1f fc 09 be
       0.12395406 -0.066897534 -0.12990332 -0.13475083
000350 9b b4 54 bc ac 79 c1 3d 39 61 81 3d 09 37 95 bc
       -0.012982513 0.09447035 0.06317372 -0.01821472
000360 67 6b a7 3d e5 fb a8 bb 9e c8 82 3d e4 96 44 3d
       0.08174782 -0.0051569813 0.06385921 0.047995463
000370 ad 4b 38 3d 12 3a f0 3d 52 d3 c3 bd 2e 6c 0a be
       0.044994045 0.11729826 -0.095617905 -0.1351783
000380 f8 d7 3b 3d c9 50 df bd cc 8b 56 bd 2c 04 bd 3d
       0.04586026 -0.109040804 -0.052379414 0.09229311
000390 13 46 07 be 10 2b 48 bd 88 85 ad bd 05 4a 99 3c
       -0.13210325 -0.048869193 -0.08472735 0.018712053
0003a0 fc a3 de 3d 9a 95 00 3e 99 da 2e bd 4b 1e c5 bc
       0.10871121 0.12557068 -0.04268894 -0.024062296
0003b0 9d 81 08 be 32 dd e8 3d bb 71 d6 3d d1 fc b8 3d
       -0.13330694 0.11370315 0.10470911 0.09032596
0003c0 57 db 02 be 64 b7 64 bd 7c 5a 28 bd b8 a8 ed bc
       -0.12778984 -0.055838957 -0.041101918 -0.029011115
0003d0 f6 74 1d 3d 00 eb c7 bd 81 7c e6 bb e8 fb 57 bd
       0.03844162 -0.097616196 -0.007033885 -0.05273047
0003e0 2b 26 e4 bd 81 a9 e6 bd 7c 12 f7 3d bd 51 8e 3d
       -0.111400925 -0.11262799 0.120640725 0.06949184
0003f0 51 98 ab 3d f5 22 cb 3c 21 81 58 3d 2d 93 05 be
       0.083786614 0.024796942 0.052857522 -0.13044424

bias f4 [256]
000000 81 d3 2e 3c cc 25 87 3d 2e 4b a7 bd 53 b9 d5 3c
       0.010670544 0.06599006 -0.08168636 0.026089346
000010 bd e0 31 bd 45 5c 0d 3e c5 6a 58 bd f5 9a 62 bd
       -0.043427218 0.1380473 -0.0528362 -0.05532356
000020 e3 89 44 bd 2a 21 97 bd d8 42 f1 3c f5 79 fb bd
       -0.04798306 -0.073793724 0.029450819 -0.12279121
000030 8a 46 c5 3d 86 41 84 3d fa a8 ed 3d 5c 83 08 3e
       0.09632595 0.0645781 0.11604495 0.1333136
000040 ac 42 f2 bb d1 8e d7 3d 14 3f 7d 3d 2b 06 bc 3d
       -0.007393202 0.10525287 0.061827734 0.09180864
000050 80 02 c3 3d b5 d8 9d 3d 08 43 2f bd a6 a8 f5 3d
       0.09521961 0.07707349 -0.042788535 0.11995058
000060 d4 c2 8b 3d e5 fa d5 bd 01 f4 57 3d 4a 3a 0d 3e
       0.0682427 -0.10448245 0.052722935 0.13791767
000070 df 89 bf bc e0 71 bd 3d 40 3b 08 3e 9f 9f 4b bd
       -0.023381172 0.092502356 0.13303852 -0.049712773
000080 ff 36 f8 ba bd 71 99 3d 56 9d 25 bc be e6 7d 3c
       -0.0018937289 0.07492397 -0.010108313 0.015496908
000090 56 bf f7 3d f3 0d 53 bd 83 53 39 bc ea 42 a8 bd
       0.12097041 -0.051526975 -0.011311415 -0.08215888
0000a0 84 4a ef 3d a6 f5 12 3e 42 ac dd bc 42 9a c8 3d
       0.116841346 0.1435152 -0.027059678 0.09795047
0000b0 74 1e bc 3c 1d 1c 01 3e 26 ca 0a 3e 24 d3 56 3d
       0.02296374 0.1260838 0.13553676 0.052447453
0000c0 f9 b2 ec bd 8d 86 e4 3d 8c 4d be bd 55 a0 d0 3d
       -0.11557574 0.11158476 -0.09292135 0.10186831
0000d0 bc 40 a5 3b ea 96 fc bd e2 ad 9f bb c7 f2 a9 3d
       0.0050431173 -0.12333472 -0.0048730234 0.08298259
0000e0 63 c0 d9 bd f0 2f 80 3d e8 9d f2 bd 48 99 01 3d
       -0.10632398 0.06259143 -0.118465245 0.03164032
0000f0 e5 4c ca bd 0b d3 8b bc 9b 39 ae 3c 60 5a 1e bd
       -0.09877948 -0.017068407 0.021267703 -0.038660407
000100 bb d2 56 3b ac 96 be 3c af 48 16 bd de d0 09 3e
       0.0032779414 0.023265205 -0.03669041 0.13458583
000110 23 1c bf 3c ab 51 b2 3d c1 62 eb bd c6 9a 71 bd
       0.023328846 0.08706983 -0.11493445 -0.058985494
000120 b4 a3 b9 bd 4c 31 65 3d d5 da b6 bd 0d bf 04 3e
       -0.09064427 0.055955216 -0.08928458 0.12963505
000130 93 8a 90 3d ca 90 1b 3e 3b 06 c6 3d 23 8d d8 bd
       0.07057681 0.15191951 0.09669157 -0.10573795
000140 7c de 27 bb d7 e3 d7 bc 29 9d ef 3d 90 cf 4e 3a
       -0.0025614789 -0.02635376 0.11699898 0.00078892056
000150 c7 33 ea bd 50 00 9f 3d 06 8e 34 3d 67 ce d2 bd
       -0.11435657 0.077637315 0.044080757 -0.102932744
000160 7b ea c2 bd 29 d4 89 3c 21 f9 0f be 18 e8 00 be
       -0.0951738 0.016824799 -0.14059879 -0.12588537
000170 e5 24 69 3d 0b b0 19 3d a9 55 0d 3c 27 c0 56 bd
       0.05691995 0.037521403 0.00862638 -0.052429345
000180 63 d3 a3 bd 33 d4 ba 3d 1d 06 11 3c 8c af 93 3d
       -0.07999303 0.09122505 0.008851555 0.07211217
000190 32 c6 01 be 4e 54 13 3d e6 f2 5a bd f5 9c e2 bd
       -0.12673262 0.03596907 -0.053454302 -0.110650934
0001a0 8b 1f cf 3d 46 59 dc 3d 77 32 ed bc 32 87 fe bc
       0.10113438 0.10759215 -0.028954728 -0.031070326
0001b0 80 79 1a 3e 39 da d9 bd b4 7b ba bc 7b ca ee 3d
       0.15085411 -0.10637326 -0.022764064 0.11659714
0001c0 f5 3c c6 3d 05 29 87 3c 4c 97 8f 3b f4 72 1b 3d
       0.096795954 0.016499052 0.0043820497 0.037951425
0001d0 05 a4 f9 bd eb ac bf bd a9 92 e7 3d f6 b3 1b 3d
       -0.12189487 -0.09359153 0.1130727 0.03801342
0001e0 cb 92 93 bc 89 4b 84 bd 5f 55 91 3d ed 93 e9 bd
       -0.018014332 -0.0645972 0.07096361 -0.11405168
0001f0 35 4b d2 3c bf f2 7f 3d 9f 5b ec bd 3a 55 52 bd
       0.025670627 0.06248736 -0.11540913 -0.05135081
000200 bb 63 ad 3d 6c 81 c4 3d c2 d9 bc bd 22 01 8c 3d
       0.08466288 0.09594998 -0.092212215 0.068361536
000210 a1 6d 10 bc 8b 36 70 3d 18 11 0d bc b2 15 7c bd
       -0.0088152 0.058645766 -0.0086100325 -0.061544128
000220 b4 cf 10 3d 8a e7 76 3d 0c c7 c6 bc 60 e1 99 bd
       0.03535433 0.060279407 -0.024264835 -0.0751369
000230 68 04 0d 3d d0 23 e6 bd 81 43 9d 3d 11 12 34 bd
       0.03442803 -0.112372994 0.07678891 -0.043962542
000240 23 36 c4 bd 81 fa 25 bc d4 95 02 be bb 54 24 3d
       -0.09580638 -0.010130526 -0.12752467 0.040119868
000250 b7 b9 08 3d f3 0f 0f 3e 55 83 3b bd 01 67 2a 3a
       0.033380236 0.13970928 -0.045779545 0.0006500334
000260 83 66 62 3d 3e 73 db bd 9c c8 f9 bd 60 28 00 3e
       0.055273544 -0.1071534 -0.12196466 0.12515402
000270 a0 33 8b 3d a3 d0 90 3d f9 fc e1 3d f7 9f 95 bd
       0.06796956 0.07071044 0.11034579 -0.073059015
000280 fe 22 20 3c ed 8f 6a 3d d2 79 86 3d e3 61 ae 3d
       0.009773968 0.057266165 0.06566204 0.08514764
000290 1c 51 12 3e fe c4 02 3e 86 9f 31 bd 72 0a cc 3d
       0.14288753 0.12770459 -0.043365024 0.0996293
0002a0 57 77 1b 3e 4a 12 85 3c f5 5e df bd 8f 63 90 3c
       0.15182243 0.016244072 -0.109067835 0.017625598
0002b0 a5 ec 45 bd db 75 dd 3d 08 e0 87 3d 49 96 d1 3d
       -0.048321385 0.10813495 0.066345274 0.10233743
0002c0 e4 33 0e bc ac 1c 39 bd b3 57 e4 bd 22 81 7d 3d
       -0.008679364 -0.04519336 -0.1114954 0.06189073
0002d0 38 7b 03 3e 0f 1f 21 bd e5 6b 85 bd 5b 5a f6 bc
       0.12839973 -0.03933626 -0.0651472 -0.030072382
0002e0 d2 39 aa 39 93 f7 f9 bd 0b fa 2d 3d 48 bb 08 3e
       0.00032468006 -0.12205424 0.042474788 0.13352692
0002f0 c6 e0 d7 3d f4 68 c1 bd 5c 03 e6 bd b7 19 b6 3d
       0.10540919 -0.09443846 -0.112311095 0.088916235
000300 a4 49 a2 3c 4c c5 03 3e ae db 97 3d 96 e1 ba 3d
       0.019810505 0.12868232 0.074149475 0.09125058
000310 be 24 73 3d 8f 68 bd 3c 1c de d8 bc c8 bb 9a 3d
       0.059361212 0.023121146 -0.026473098 0.07555348
000320 c6 fd 56 bd b4 ca c3 3c c1 0c bc bd 5f d2 00 3e
       -0.05248811 0.023900367 -0.0918212 0.1258025
000330 e7 0f a2 3d 5d 90 02 bd a8 7a 11 3d 03 d1 0e 3d
       0.079131894 -0.031875957 0.035517365 0.034867298
000340 22 4b a8 bd 85 32 33 bd f7 45 33 3c 9f 17 dc 3d
       -0.082174554 -0.04374935 0.010941974 0.10746693
000350 51 84 62 bd 24 33 e5 3d 58 7f dd bd d9 a0 0a 3d
       -0.055301968 0.11191395 -0.108153045 0.033844803
000360 cd 2b 42 bc f6 40 3f bc d2 86 bf 3c 73 36 b7 3a
       -0.011851263 -0.011673203 0.023379717 0.0013978019
000370 91 d1 04 be 65 ef 16 3e 81 6f ad bd 1d 0f 63 3d
       -0.12970568 0.1473976 -0.08468533 0.055434335
000380 da de 94 bd d9 8f 18 3e 1a 6c c6 bd 62 01 bd 3d
       -0.07269068 0.14898624 -0.096885875 0.092287794
000390 a3 e0 90 bb c5 e2 f6 3d 4e 77 bf bd a3 e5 f8 bd
       -0.00442131 0.120549716 -0.093489274 -0.12153175
0003a0 49 98 c3 3d 27 d0 dc 3c 58 00 eb bc 5f 74 76 3d
       0.095505305 0.026954724 -0.028686687 0.060169574
0003b0 c8 0a 3b bd b4 ee 8a bd c8 22 91 3d 87 a6 18 bd
       -0.04566458 -0.0678381 0.07086712 -0.037268188
0003c0 3e 26 81 3d 16 fe 73 3d 6d 67 ae 3c 4d 39 29 3d
       0.06306122 0.059568487 0.021289552 0.041314412
0003d0 1f 62 76 bc 76 b5 08 3e 21 01 33 bd 42 4f d9 3d
       -0.015038042 0.13350472 -0.04370225 0.1061082
0003e0 37 ca 72 3d aa ac de 3d 18 ef 1d bd a7 fe 22 3d
       0.05927488 0.10872777 -0.038558096 0.039793637
0003f0 3b 3c 54 3d 8e 5d 82 3d 67 58 19 bd 1f 4c 34 3d
       0.051815253 0.063655004 -0.037437823 0.044017907

weight f4 [128, 256]
000000 41 c8 90 3d 04 0f 0c 3c a1 d6 ed 3c d9 2c 3f 3d
       0.070694454 0.008548502 0.029033007 0.04667363
000010 69 48 5f bd 1e 36 5d 3d 35 0e 21 3d a5 21 8f 3d
       -0.054512415 0.05400669 0.03932019 0.06988839
000020 82 ea 8a bc 50 c2 dd bb d2 2e ce 3c 33 66 44 3d
       -0.016957525 -0.0067675486 0.02516881 0.047949027
000030 70 c4 51 3c df 09 3f 3d c5 06 02 bd 61 7d 99 3d
       0.012803182 0.046640273 -0.031744737 0.07494617
000040 72 5d 70 3d ea 22 11 3c ac fe 2e 3d 90 89 50 bd
       0.058682866 0.008858422 0.042723343 -0.05091244
000050 70 88 bd bc e4 6a e9 bc 1c 88 03 3d 87 57 bd bc
       -0.023136348 -0.028493352 0.032112226 -0.023113025
000060 2d 21 0b 3d 02 b7 17 bd 13 6c 46 3d 32 35 26 3d
       0.033967186 -0.037039764 0.04844291 0.040578075
000070 2b 01 9c 3d 54 29 de bc 14 dd 8c bc 72 15 c4 bb
       0.0761741 -0.027119316 -0.017195262 -0.005984002
000080 3d 21 85 3c b8 26 f9 3c 4b 10 a3 3d b2 c6 e6 bc
       0.0162512 0.03041397 0.07962092 -0.028170917
000090 5a 45 02 3d 32 04 0c 3d 1a 3c b0 bd 9a fa 95 3b
       0.03180442 0.03418369 -0.086052135 0.004576993
0000a0 3f 9e 96 3d 04 cd e5 bc 24 3c bd 3a e7 f0 07 3d
       0.07354402 -0.02805186 0.0014437479 0.033188727
0000b0 cb d1 45 bd f1 f2 1d 3d 8d fb 53 3d c8 35 6f 3d
       -0.048295777 0.038561765 0.05175357 0.0584009
0000c0 f7 ab 42 3d 83 3d 6d 3c e4 bd 0a bc 63 57 9c bc
       0.04752728 0.014479998 -0.008468125 -0.019084638
0000d0 3f 1a 80 bc a5 12 6f 3d a0 46 7d bd 84 f5 9d 3d
       -0.015637515 0.05836739 -0.06183493 0.07712844
0000e0 41 a5 11 3d 3c 8d 27 3d c9 8d 56 3d 1c 4e 2f bc
       0.03555799 0.040906176 0.05238131 -0.010699775
0000f0 73 8d 47 bd b5 83 cb 3c 99 15 23 bc e5 90 da bc
       -0.04871888 0.024843076 -0.00995388 -0.02668042
000100 b6 79 d2 bb a5 43 93 3b fe 1a 18 bd 9d 7e 80 3c
       -0.0064232005 0.004494148 -0.037135117 0.015685374
000110 7f ad a6 3c 74 86 ac 3c db 28 89 3b af bc 59 bd
       0.020346401 0.021060206 0.0041857786 -0.05315846
000120 d8 2d 83 bb a7 af 1e 3d 62 2e a9 bc e2 b8 6f bd
       -0.0040032677 0.038741734 -0.020652 -0.058525927
000130 ae 14 6b bc ba fa 1e bd 4f 56 68 3d cf 71 80 3d
       -0.014348192 -0.03881333 0.056722935 0.06271707
000140 fa 13 68 3d 30 74 93 bc 07 0b f8 3c 75 8b 69 3d
       0.056659676 -0.017999738 0.030278696 0.057017762
000150 a4 3e d2 bc bf dd b5 3a 4c 0d 8a 3d fc 98 4b 3d
       -0.025664635 0.001387529 0.067408174 0.049706444
000160 7c 63 62 3c b6 c3 4c 3d af bf 1e bd b5 2c d5 bc
       0.013817664 0.049991332 -0.038757022 -0.026022295
000170 e6 a0 38 3d 17 fc 27 bd aa 8c 9c bc 32 9c ed bc
       0.04507532 -0.041011896 -0.019110043 -0.029005144
000180 9b 68 1b 3b 9d 12 6e 3d 20 7e 8a 3d 46 dd 47 3d
       0.0023713473 0.05812322 0.06762338 0.048795007
000190 b5 aa 62 bc 56 fd 4a 3c ab 37 24 bd 05 03 7d 3d
       -0.013834645 0.012389502 -0.04009215 0.061770458
0001a0 58 99 21 bd c4 9c ba bc ee 03 b0 3b 00 1b 2e bd
       -0.03945288 -0.02277983 0.005371562 -0.042506218
0001b0 7f b5 53 bd da 00 a7 bc 57 7f 3b bd bc 17 30 3d
       -0.05168676 -0.020386148 -0.045775738 0.042991385
0001c0 bc d1 80 bd 7f 8b 3b bd 53 47 93 3d b9 d2 2d 3d
       -0.06290004 -0.04578733 0.071913384 0.04243729
0001d0 a1 fa da ba 95 9d 1d 3d 91 2b 95 3c 8f 9a 9f 3d
       -0.0016706773 0.03848036 0.01820925 0.077931516
0001e0 5f ea 6a 3d ab 24 4c 3d 70 74 80 3d ba 70 a3 bc
       0.05735242 0.049839657 0.06272209 -0.019951213
0001f0 03 a8 63 bd 10 3b 26 3d e9 b5 e9 3c 6f ee c4 3c
       -0.05558015 0.04058367 0.028529124 0.024039475
000200 1a 3d cf bc 32 e6 e8 bc 4b 81 22 3d 9f a9 a8 3c
       -0.02529769 -0.028430078 0.039674085 0.020588694
000210 cf eb bf bb 49 a6 91 3d 04 da 75 3d 1b ff 53 3b
       -0.005856968 0.071117945 0.06002237 0.00323481
000220 0d e5 55 bd e7 1a 86 3d 5a 63 2e bd dd e3 2c 3c
       -0.052220393 0.065481 -0.042575218 0.010552374
000230 24 d1 24 3c 0b 91 71 3d 8f a2 29 bb 76 b4 ab 3d
       0.010059629 0.058976214 -0.0025884246 0.083840296
000240 88 56 87 3d 22 09 3d bc db 0b 28 3d fd 3e 4b bd
       0.066083014 -0.011537822 0.04102693 -0.049620617
000250 a3 7d b6 3c 0f 8d e9 3c 3c 3b 4e bb 7e fc 80 bd
       0.022276705 0.028509645 -0.0031468412 -0.06298159
000260 9a 6e dc bb e5 f0 50 3d dc a1 f5 3c 7e 73 42 3c
       -0.006727052 0.051010985 0.029984407 0.011868356
000270 ed c7 32 ba 3f b2 95 3c 52 02 2a 3c 30 4c ef bc
       -0.00068199524 0.01827347 0.01037653 -0.029211134
000280 09 b1 9f 3c 42 10 d2 bb fc 04 2b bd ea 94 9c 3c
       0.019493597 -0.0064106295 -0.0417528 0.019113977
000290 6b 82 1d 3d 83 08 47 3c f1 5a 16 3d 58 16 8c bb
       0.038454454 0.012148025 0.036707822 -0.0042751245
0002a0 bc 2e 62 3d d1 80 62 3d 13 17 12 3c a6 22 c9 bb
       0.05522035 0.05529863 0.008916634 -0.0061381636
0002b0 81 cb 8d 3d 63 7b 0c 3b 01 c3 6c bd 55 08 86 3c
       0.06923581 0.002143585 -0.057803158 0.016361395
0002c0 f7 1d 77 3d 22 16 92 3c 1c 4f 50 3d a3 4d 8a 3c
       0.06033131 0.01783282 0.050856695 0.016882723
0002d0 17 7f bd bc 17 8c b5 bc bf cf 2f bd 89 7c d0 bc
       -0.02313189 -0.022161527 -0.04292273 -0.025450008
0002e0 40 e6 3c bd 71 fe 9a bc 86 0c 67 bc 05 72 c6 3c
       -0.04611802 -0.018920155 -0.014102107 0.02422429
0002f0 a0 04 25 3d 31 de 82 3d cb 32 d4 3c 1d 28 03 bc
       0.040287614 0.06390036 0.025903126 -0.008005169
000300 62 b1 8b 3c 08 2f 84 3d 3f aa 43 bd 0a 4d 64 3c
       0.017052356 0.06454283 -0.04776978 0.013934383
000310 83 f5 3a 3d a5 84 6b bd 78 42 79 3c 95 a2 8b bd
       0.045644294 -0.057499547 0.015213601 -0.068181194
000320 2c 96 40 3d a1 8b 75 3d e3 91 41 bc cf 0c ac 3b
       0.047018215 0.059947614 -0.011814567 0.0052505503
000330 4d ca e9 bc 63 36 26 bd a6 3c c4 ba 83 2a 44 3d
       -0.028538847 -0.04057921 -0.0014971688 0.047892105
000340 52 cd 3e 3d b6 2f 34 3d 9b 1e aa bb f8 9c 7b 3c
       0.046582527 0.043990813 -0.0051916367 0.0153572485
000350 14 3d 24 bd 70 34 31 bd a6 bc bb bc aa c8 b5 3c
       -0.04009731 -0.0432629 -0.022917103 0.02219041
000360 54 11 08 bc 86 1e 8c 3b b6 0d 07 3c 8b 88 40 3b
       -0.008304913 0.0042760996 0.008243015 0.002937826
000370 3a c0 3f bd 4c f4 7e 3d 73 ed b5 bc 9f 7f 82 3d
       -0.04681418 0.0622447 -0.022207951 0.06371998
000380 6c e6 63 bd 1e a0 1b 3c 62 d1 2d 3d 6c 4e be 3c
       -0.05563967 0.009498624 0.04243601 0.023230754
000390 4e 2b 48 bc 3b d1 97 3d 4a f8 82 bb 3f f5 41 3d
       -0.012217356 0.074129544 -0.0039968835 0.047353026
0003a0 73 f5 02 3d 1a 42 1c bd 5e bb b8 3c ad 1c 9c bb
       0.03197236 -0.038148977 0.022550281 -0.0047641606
0003b0 11 20 77 bd bf ca 30 3d 52 b8 71 bd 64 43 c3 3b
       -0.060333315 0.043162104 -0.059013672 0.0059589613
0003c0 41 a2 8c 3c ed 94 82 bc 84 52 56 3d 99 c8 c6 3d
       0.017167212 -0.015940154 0.052324787 0.0970623
0003d0 c0 54 a3 3d 67 b7 3c 3d d2 44 92 bb eb 06 57 3d
       0.07975149 0.046073344 -0.0044637704 0.052496832
0003e0 d3 bd 19 bd 6a 24 4d 37 5f f5 dc bc 50 bb b4 bc
       -0.037534546 1.22274305e-05 -0.02697247 -0.022061974
0003f0 11 06 84 3b 9f e0 85 bb 98 3d 50 bd 00 09 09 bd
       0.0040290435 -0.004085615 -0.05083999 -0.03345585

bias f4 [128]
000000 7e 1a ed bc 02 f6 8e ba d2 f3 84 3d 34 21 90 3c
       -0.028943297 -0.0010907056 0.064918175 0.017593957
000010 8d 85 09 3d 86 e1 82 3c 94 db eb b9 96 65 9e bc
       0.03357463 0.015976679 -0.0004498629 -0.01933555
000020 dd ee 00 3d 37 05 db bc 5d ae 0b 3d 5e e7 0c bd
       0.031477798 -0.026735885 0.034101833 -0.034400336
000030 27 13 fc bc 3a 08 00 3d 5a a9 6c 3c 37 07 fd bb
       -0.030770851 0.031257845 0.014444673 -0.0077218073
000040 46 1e 07 3d 3b 0c 07 bd c3 9b 5b 3d 0e bd 16 3d
       0.032987855 -0.03297065 0.053615343 0.03680139
000050 da 3e 44 3d c7 20 1d 3d c9 f7 42 bd 1f fe 48 bd
       0.047911502 0.038361337 -0.047599588 -0.049070474
000060 2a f3 44 3d 05 85 f2 bc 5e 61 33 bd 57 44 38 3d
       0.04808346 -0.029604444 -0.04379403 0.04498705
000070 3c 54 89 bd fa 12 25 3d e4 a8 6f 3d c6 be 7e 3d
       -0.067055196 0.0403013 0.058510676 0.062193654
000080 63 85 d0 3a bb c7 5a 3d 3f e3 0a 3b 0a 82 e6 bc
       0.0015908893 0.053413134 0.0021192578 -0.02813818
000090 0b 61 36 3d 86 8b 8e 3c e8 ca 66 bc f6 10 03 3d
       0.04452614 0.017400514 -0.014086463 0.031998597
0000a0 3d 9b 3c 3d 44 0c 9a bc 9e a6 2a 3d 12 8e db bc
       0.046046484 -0.018804677 0.041662805 -0.026801143
0000b0 37 10 3a 3c ad 63 51 3d 2e be 51 3d 41 91 2f bd
       0.011356405 0.05112045 0.05120676 -0.042863134
0000c0 53 52 28 bd 3b ce 24 3c 50 e1 82 3c db 09 46 bd
       -0.041094135 0.010058935 0.015976578 -0.048349243
0000d0 73 aa 19 bd 98 18 29 3d d6 f6 b1 3c c3 38 fc 3c
       -0.03751607 0.04128322 0.021724146 0.030788785
0000e0 ec 5a 78 3d de c3 98 bb 38 25 b0 bc ed 00 40 3d
       0.060633585 -0.004662021 -0.021502122 0.046875883
0000f0 9b b2 63 bd b7 00 1d bd 52 40 8f 3c 3d 1b 76 3c
       -0.055590253 -0.03833076 0.017486725 0.015021143
000100 a9 98 f5 bb 24 7c a7 bb 45 e3 14 3d 66 bf 22 bd
       -0.007495005 -0.0051112343 0.036349554 -0.039733313
000110 77 6a 40 3d a0 2d 24 bd 9d a1 2c 3c b7 74 a9 bc
       0.046976533 -0.040082574 0.0105365785 -0.020685537
000120 ba d7 1c bc b8 a4 bb 3b 51 3e 65 3c 30 46 82 3c
       -0.009572918 0.005726423 0.013991908 0.015902609
000130 95 9d bc 3b 47 81 92 3d bd 35 47 3d 0a a2 1c 3b
       0.00575609 0.07153564 0.048635233 0.0023900294
000140 93 7d 5c 3d e9 e7 6f 3d 66 84 6f 3d 48 5b c0 3c
       0.053830694 0.058570776 0.058475874 0.023481026
000150 d8 62 7f bd 4d 5f 62 3d 30 17 49 bd 89 7e 8a bc
       -0.062350124 0.055266667 -0.04909438 -0.01690604
000160 0f 8b 2a bc f1 c6 37 3c 79 fb 84 3d 07 6d 8c 3c
       -0.010409131 0.011216865 0.06493277 0.017141832
000170 00 e3 00 bd c6 f5 53 3d c4 c8 03 3d 4b be fe 3c
       -0.031466484 0.05174806 0.032173887 0.031096598
000180 81 63 29 3d 10 9e de 3c e8 71 26 3d 4d e2 00 3d
       0.04135466 0.02717498 0.040635973 0.031465817
000190 b8 d5 f6 bc a9 39 1f bd af 55 20 bd 17 63 21 bd
       -0.030131206 -0.03887335 -0.039144214 -0.03940114
0001a0 92 76 1a 3d c9 3e 17 3d 60 1e bc 3c e2 4d b9 bc
       0.037710734 0.03692511 0.022963703 -0.022620145
0001b0 c6 be d2 bc f8 cc f2 bc 2d 2b 3f 3d fc 3f 15 3d
       -0.025725733 -0.029638752 0.046672035 0.036437973
0001c0 5f eb f9 3c 32 5d 25 3d 82 0a 91 3c c5 5f 25 bd
       0.030507741 0.04037208 0.017705206 -0.040374536
0001d0 8c 7b 2b bc e0 75 e6 bc 3d 2e 53 bd 5b 47 fd 3c
       -0.010466468 -0.028132379 -0.051557768 0.030917814
0001e0 93 c2 08 3d b6 6a 1e bd f8 70 60 3d 60 fd 3e 3d
       0.033388685 -0.038675986 0.054795235 0.046628356
0001f0 43 0c b4 3c 8e b7 86 3d 68 37 0a bd 41 f5 83 3b
       0.021978503 0.06577979 -0.033744246 0.0040270393

weight f4 [64, 128]
000000 8a 08 ba 3c e7 df b7 3b 49 28 8f bb 15 d5 86 bd
       0.02270915 0.005611408 -0.004368816 -0.06583611
000010 ef 3a 6d 3d 01 82 a0 3d 78 87 f3 bc ad 85 10 bd
       0.05791753 0.07837296 -0.029727682 -0.035283733
000020 e5 44 9c bc 5a 11 1f 3c 5b b5 31 3d e9 74 5c bb
       -0.01907582 0.009708727 0.043385845 -0.003363902
000030 35 c9 78 3d 3f 0b 00 3d 69 47 67 3d d3 b0 42 3d
       0.06073876 0.031260725 0.056464586 0.047531914
000040 69 cd 72 bd 6b 91 68 3d 20 10 0a bd ea 19 1f 3b
       -0.059277926 0.056779306 -0.033706784 0.002427692
000050 a4 32 39 bd 6f 47 87 3d 7e a2 7c 3b 84 0d 98 3c
       -0.04521431 0.06605422 0.0038549001 0.018561132
000060 d7 d4 47 3d a8 8f 94 bd 76 72 68 bd 89 8d b3 bd
       0.048786964 -0.07253963 -0.056749783 -0.0876723
000070 3b 06 85 3d 60 31 82 3b b6 2b 9e bd 04 52 85 3d
       0.06495329 0.003973171 -0.07723181 0.06509784
000080 71 7a 62 bd e4 2b 23 bd b1 95 6c bd dc b2 c3 3d
       -0.05529255 -0.03983678 -0.057759944 0.09555599
000090 72 4e 15 3d cc c1 9e 3c e0 bf 98 bd ed 2f 29 3d
       0.036451764 0.019379519 -0.07458472 0.04130547
0000a0 4e 75 81 bc 5a 4e a7 bd 4b 90 70 bd 94 b0 5a bd
       -0.015803006 -0.08169241 -0.05873136 -0.053391054
0000b0 88 b4 73 3d 77 0a 92 3c d9 a3 17 bc da 17 7c bc
       0.05949834 0.017827256 -0.009255373 -0.015386546
0000c0 e7 cc ab 3d e8 0a de 3b 69 b4 da 3c 12 68 81 3d
       0.083886914 0.0067762025 0.026697354 0.06318678
0000d0 8c cf 4e bd 5a c8 3f bd 46 10 e9 3b f8 65 30 b8
       -0.0504909 -0.04682193 0.0071125356 -4.2056636e-05
0000e0 61 40 12 3d 86 43 a1 3d ad 37 60 bd 1d eb 15 3d
       0.035705928 0.07874207 -0.054740597 0.036601175
0000f0 81 9f bc 3d 40 73 71 bb 17 7e 98 3d c7 01 f7 3c
       0.092101105 -0.0036842376 0.07445925 0.030152215
000100 57 a4 97 bd 77 bc 6f 3c be e0 08 bd 27 ab e0 bb
       -0.07404392 0.014632336 -0.033417456 -0.0068563404
000110 9e 25 93 3d d9 a3 bc 3d d4 c2 0c bd 2b 56 4b 3d
       0.07184909 0.09210939 -0.03436549 0.049642723
000120 63 a0 5c 3d 99 5b a3 bd d1 e3 61 3d 87 1b 84 bd
       0.053863894 -0.07976455 0.055148903 -0.06450563
000130 e0 65 b0 3d 10 93 47 bd 0d 9c af bc ff 4b 2e 3d
       0.08613181 -0.048724234 -0.021436715 0.042552944
000140 25 07 63 3d 88 95 b4 3d 78 d4 75 bd 0d eb 96 3d
       0.055426735 0.08817583 -0.06001708 0.07369051
000150 5e b0 7c 3d 00 a6 99 bd fa 6c 72 bc bc f0 36 bc
       0.061691634 -0.07502365 -0.01479649 -0.011165794
000160 31 90 b8 3d 12 5a 73 bc a3 10 89 3d c0 24 0a bc
       0.09011877 -0.014853017 0.06692626 -0.008431613
000170 49 55 ac bd f8 4b 3b 3c 32 a5 b8 b9 e8 ad 05 3d
       -0.08414704 0.011431687 -0.00035218295 0.032636553
000180 94 96 06 bd aa 34 16 3d 22 ec 9f 3d 21 d7 22 bc
       -0.032858446 0.036671318 0.07808711 -0.009938986
000190 e0 10 03 3d ad 39 54 3d a0 4b 68 bd 6a 4d 91 bc
       0.031998515 0.051812816 -0.056712747 -0.01773711
0001a0 51 a8 f5 bc 77 d9 54 3d 6f 7b 8e 3c 20 8e 17 bd
       -0.029987486 0.051965203 0.017392842 -0.037000775
0001b0 c6 27 89 3c 18 6e a3 3c f8 8c cf 3c 64 8a a3 bc
       0.016742598 0.019949958 0.025335774 -0.01996345
0001c0 b8 98 ad 3d 4d 82 87 bd 37 e0 84 3c 23 76 cc 3d
       0.084763944 -0.0661665 0.016220195 0.0998347
0001d0 70 bc 89 bd 7d f7 1f 3d 4b 1e 9f 3d 06 88 67 3d
       -0.06725395 0.039054383 0.0776945 0.056526206
0001e0 4c dc 1e bd e3 15 80 bd 04 89 fa ba 04 de 8f 3b
       -0.03878431 -0.062541746 -0.001911432 0.00439048
0001f0 0d e7 25 bd 3a 7b 30 bd fa 14 c9 bc 44 97 a3 bc
       -0.04050355 -0.043086268 -0.024546135 -0.01996959
000200 71 76 9f 3d 4f 2f e5 bc a8 38 86 3d 67 9d d4 3d
       0.07786263 -0.02797666 0.06553775 0.103815846
000210 5f 96 8c 3c 5f c0 66 bd f2 9d c7 3d 26 c4 b5 3c
       0.017161546 -0.056335803 0.097469226 0.022188257
000220 1f 90 a8 3c 96 d1 95 bd 1c ac d4 3d 93 58 92 bd
       0.020576535 -0.07315366 0.1038439 -0.071458004
000230 2d 78 f1 3c ae 87 88 3d 43 32 a7 3d 31 10 9e 3d
       0.02947625 0.06666504 0.081638835 0.07717932
000240 c2 5b 68 3d 50 2d 79 bc 9d 1d 89 3d 33 57 67 3d
       0.056728132 -0.015208557 0.066951014 0.056479644
000250 87 87 25 3d 22 37 3c bc 1e 5f aa 3d e9 30 84 3d
       0.040412452 -0.011487754 0.083189234 0.06454641
000260 8a 63 82 bd dd f6 c6 3d 33 70 93 3d b4 a4 43 bd
       -0.06366642 0.09715054 0.07199135 -0.047764495
000270 db 86 b8 bc 8b 34 87 bd 15 da b4 3d 8a dd 27 bd
       -0.022525242 -0.06601819 0.08830658 -0.04098276
000280 14 02 1d 3d 65 bf 33 bd eb 21 80 3c a3 04 19 bd
       0.03833206 -0.0438837 0.015641173 -0.037357938
000290 db a7 49 bd e3 7a 4e bd ab be 91 3c 72 db 92 bc
       -0.049232345 -0.050410163 0.017791113 -0.017926905
0002a0 2e ed 1a bd c4 20 a9 bd 3d 9c 77 bd 4e 8f 6c bd
       -0.03782385 -0.08258203 -0.060451735 -0.057753853
0002b0 93 63 43 bd 23 87 9a 3b fd 77 81 3c 98 b2 3c bd
       -0.047702383 0.0047158166 0.015804285 -0.046068758
0002c0 63 e6 8c bd cd 3c 83 3d e9 1d c1 3b 89 e8 d6 3d
       -0.0687988 0.06408081 0.005893458 0.10493571
0002d0 37 af b8 bd 18 9b 76 3c ba 14 c0 3d 73 d5 a1 3d
       -0.090177946 0.015051626 0.09378953 0.0790204
0002e0 cb 8c d5 3c 6f c8 bc 3d 88 6d 6b 3d d7 29 b4 3d
       0.026068112 0.09217917 0.057477504 0.08797043
0002f0 55 e8 7a bd c9 78 93 bd fc 51 c2 bd dd 2d 16 bc
       -0.061256725 -0.07200772 -0.094882935 -0.009166208
000300 48 cf 00 bd 31 58 4e 3d 50 7e e2 3c f7 c8 16 3d
       -0.03144768 0.050377075 0.027648121 0.03681275
000310 e9 6d db bb 41 a8 9b 3d 6a 02 4d bd 59 53 df 3d
       -0.006696452 0.07600451 -0.05005113 0.10904569
000320 5a 42 6b bd 68 90 82 bc 18 f3 89 bc 66 88 7c 3d
       -0.057436325 -0.015937999 -0.016839549 0.061653517
000330 5c 13 f0 bc 3f c6 16 bd d3 17 85 bd 37 28 97 3d
       -0.029306106 -0.036810156 -0.06498685 0.07380717
000340 4f 2d 8d bc 4f d2 97 3d 16 1b 83 3b c0 1f 36 3c
       -0.017233519 0.0741316 0.0040010316 0.011115968
000350 de ef 41 bd 2b fb 0e bd 9d 1b 99 bd 6e 4f 70 bc
       -0.047347896 -0.0349075 -0.0747597 -0.014667375
000360 c6 52 d7 3d 7f 7a 5b bb 79 0f 9f 3c e9 29 ac 3d
       0.10513835 -0.0033489761 0.019416558 0.08406431
000370 cf 09 05 bd 39 57 8a 3c e8 2e 01 bc 9a 02 b2 bd
       -0.032480057 0.016887294 -0.0078847185 -0.086919025
000380 69 12 37 bb 97 34 81 bc 10 ab 9c 3d 34 4c de bc
       -0.0027934557 -0.015772147 0.07649815 -0.027135946
000390 66 d9 5b 3d 50 aa e3 3b bd 06 8c 3d 97 8f 4d 3d
       0.053674124 0.006947793 0.06837223 0.050185766
0003a0 d7 51 bb bd 32 c7 39 bd 05 83 8e 3d a9 ec a1 bd
       -0.09146469 -0.045355983 0.06958584 -0.079064675
0003b0 f0 61 bf 3d 6d e1 53 bd 34 8e 92 3d 19 e0 6f bd
       0.09344852 -0.051728655 0.07156029 -0.058563326
0003c0 e1 4d 50 bd c7 f9 3f 3d 17 4b 28 3d 15 0b 0b 3d
       -0.05085552 0.046869066 0.041087236 0.033946116
0003d0 03 10 00 bd 30 84 b4 bd 22 9c 78 bd d5 29 19 bd
       -0.03126527 -0.08814275 -0.060695775 -0.03739341
0003e0 82 a2 22 bd 01 65 31 3d 93 b4 8c bb a4 a2 8f bd
       -0.03970576 0.043309215 -0.004293987 -0.07013443
0003f0 48 68 e9 3d ca 9c 08 3d 80 0e 35 3d cd c8 3d 3d
       0.11396843 0.03335265 0.04420328 0.046334077

bias f4 [64]
000000 79 a4 84 bd 19 cc 1d bd d7 56 e9 bc 71 09 8c bd
       -0.06476683 -0.03852472 -0.028483791 -0.06837738
000010 f3 74 28 bd b2 d8 05 bd 04 25 a2 3c fa 08 a4 3d
       -0.041127156 -0.03267736 0.019793041 0.08009525
000020 f4 f8 92 bd 51 e9 c8 bc 9e d2 79 ba 06 26 66 3c
       -0.0717639 -0.024525316 -0.00095299806 0.014047151
000030 f0 e0 09 bd 0f 70 23 bd fc 8a 65 3d 80 96 71 3c
       -0.033661783 -0.03990179 0.05604075 0.014745355
000040 89 ce a4 bd cd c5 1d 3d e9 7c ad bd f7 3d 8e 3c
       -0.08047206 0.038518716 -0.0847109 0.017363532
000050 da 46 28 3d 30 40 56 3d 33 87 ae 3d 86 61 24 bd
       0.041083194 0.052307308 0.08521881 -0.040132068
000060 b5 7f e6 3c d6 f6 5e 3d a3 4a 10 3d 10 60 3e 3d
       0.028137067 0.05443462 0.03522743 0.04647833
000070 de 90 5f bd 7a ff 61 bd 2f c8 6f 3d e2 fc 6b 3c
       -0.054581515 -0.055175282 0.05854052 0.014403554
000080 a9 c9 8b 3d c1 60 8e 3d 56 05 35 bc fc 6d 90 bc
       0.06825573 0.06952048 -0.0110486355 -0.01763057
000090 69 69 be 3d 3e 34 d2 bc 3f 5c 33 bd 7c 38 95 bd
       0.09297449 -0.025659677 -0.043789145 -0.07286164
0000a0 1a be ae bd 55 32 18 3d 8d 52 2e bd 9c 66 9c bd
       -0.08532353 0.037157375 -0.042559195 -0.07636759
0000b0 29 ce 1d 3d bf b4 17 bd 59 ed 93 3d 18 34 ec bb
       0.038526688 -0.037037607 0.07223005 -0.0072083585
0000c0 d7 ac 45 bd 98 b1 ca bb d9 2a ae bd 6a 8f 48 3d
       -0.048260536 -0.0061857216 -0.08504266 0.048964895
0000d0 16 be b5 3d 17 e4 7b bc 84 fb eb 3b b3 53 23 3d
       0.08874147 -0.015374205 0.007201614 0.039874744
0000e0 78 5c 8a bd ba 09 70 bd 53 12 be 3d fd ac 68 bd
       -0.06755918 -0.058603026 0.09280839 -0.0568056
0000f0 84 e5 5e bd 4d e2 bc 3b 63 8e c9 bd 3b b0 46 bd
       -0.054418102 0.005764282 -0.09841611 -0.04850791

weight f4 [5, 64]
000000 2c 75 8d bd 18 d8 98 bd d4 53 82 3c 1c 7c 62 3d
       -0.069071144 -0.074630916 0.015909113 0.05529414
000010 ea 74 11 3d e2 9e da 3d cc f3 c8 bd 4a af 54 bd
       0.03551189 0.10674836 -0.098121256 -0.05192498
000020 c1 9a bc bc 41 5e c7 3c f7 f3 d9 bd 91 fd 90 bd
       -0.023023011 0.024336936 -0.10642236 -0.07079614
000030 3a ee 5c 3d 27 ab 14 bd 4c c5 f4 3c 98 fd 8d 3d
       0.053938128 -0.036296036 0.029879235 0.06933135
000040 bf 81 cd bd 0f 90 ed ba 7d af df 3d e3 cd 0f bd
       -0.10034513 -0.0018124598 0.109221436 -0.03510846
000050 5c 6e 86 bd 84 71 a9 bd 07 7e d1 bd f6 8d 99 bd
       -0.06564018 -0.082736045 -0.10229116 -0.0749778
000060 69 95 bd bc c5 46 a8 3d d5 6b 36 3d ee fe 9a 3d
       -0.023142533 0.08216623 0.04453643 0.07568155
000070 27 95 c0 bd 0d 1d de 3d ce 3f 05 3d a3 4d 11 3d
       -0.094034486 0.10845385 0.032531552 0.03547443
000080 6f 97 ea bd ba 5d 06 3c 11 84 d0 bd 77 34 ca bc
       -0.11454665 0.008201057 -0.1018144 -0.02468322
000090 1e 58 0e be 80 31 23 3d 15 d5 f8 3d 5e 79 a4 bd
       -0.13900802 0.03984213 0.12150017 -0.080309615
0000a0 32 93 b5 bc c8 8e 80 bd bc a4 a0 3d 74 1d 89 3c
       -0.022164915 -0.06277233 0.078439206 0.016737677
0000b0 d3 37 b1 bc 66 7c 55 3d 25 a7 a8 bd d1 7d be 3d
       -0.021633064 0.05212059 -0.08235005 0.09301341
0000c0 f5 0a 27 bc 61 ab 5a bd 5a 89 60 bd 87 46 0b 3d
       -0.010195483 -0.053386096 -0.05481849 0.034002807
0000d0 ad 25 0b 3e 88 2a f6 3d b0 ca 6b 3d 35 9f f7 3d
       0.13588591 0.12019831 0.057566345 0.12090913
0000e0 c0 26 08 3e f1 c0 7c 3d 46 86 2c 3d ba 9f bf bd
       0.13296032 0.06170744 0.04212024 -0.09356637
0000f0 02 18 ed bd f4 9b 3b bc 20 18 e9 3c 8b bc 61 3d
       -0.11576845 -0.011450756 0.028453887 0.05511145
000100 57 59 5f bd 8a ab 7b 3d 91 f4 7d 3d d3 69 d7 bd
       -0.05452856 0.06144289 0.062000815 -0.10518231
000110 c4 68 84 3d ac b9 6d 3d 69 0d 42 3d b0 8a 11 3d
       0.06465295 0.0580384 0.04737607 0.035532653
000120 30 8d df bc 87 1e b4 bd 55 ca 8a 3c e2 2e 46 bc
       -0.027289003 -0.08794885 0.016942183 -0.012096139
000130 81 1c e8 bd ff 13 68 3a d6 62 05 bc 29 b5 9e 3d
       -0.11333562 0.00088530773 -0.00814124 0.07749397
000140 04 1b 1a 3d d9 b0 16 3d 7a 08 e1 3d a0 96 a5 3d
       0.03762342 0.03678975 0.10987945 0.0808537
000150 9c 52 f6 bc 40 77 1f bd 04 35 d7 3d c4 17 94 bd
       -0.030068688 -0.038932085 0.10508159 -0.072310954
000160 a0 f7 8e bd 5a 47 8a bd cb a3 0a 3e 09 2d c8 3d
       -0.069808245 -0.067518905 0.13539045 0.09774215
000170 69 c3 b7 3d 08 02 88 bd e4 cb 51 3d 3a b2 bb bc
       0.089728184 -0.066410124 0.051219836 -0.022912133
000180 bb f5 46 3c 94 9d 18 3d 83 45 86 bc 39 e2 3d 3d
       0.012143548 0.037259653 -0.016390568 0.04635832
000190 4d c9 d7 3d e6 f2 b8 bd d0 b3 ef 3d 41 59 72 bc
       0.10536442 -0.09030704 0.117042184 -0.014791788
0001a0 df 4c e3 bd fb 8f b7 bd bb 7f 1e bd 30 e0 de bb
       -0.110986464 -0.08963009 -0.038696032 -0.0068016276
0001b0 66 16 99 bc 4a f8 90 bc 49 c0 58 bc 0e 7c 0c bc
       -0.018687438 -0.017696518 -0.013229438 -0.008574499
0001c0 2b d3 d2 3d 32 f5 25 bc 06 17 c9 3d 77 82 2f 3d
       0.10294183 -0.01012926 0.098188445 0.04284903
0001d0 56 41 97 bc 45 57 5d 3d 32 25 db 3d 79 90 06 3e
       -0.018463772 0.054038305 0.10700454 0.1314105
0001e0 17 da c5 bd 9a a9 98 bb e9 1d e0 bc 6b df 99 bd
       -0.09660738 -0.00465889 -0.027358012 -0.07513317
0001f0 1f f5 33 3d 7d 11 ac bd 50 57 dc bd 40 88 c1 3c
       0.043934938 -0.08401773 -0.10758841 0.02362454
000200 d8 13 c2 3d d8 f4 93 bd 5c 71 18 3d 47 ac a5 bd
       0.09476441 -0.072244346 0.037217483 -0.080895
000210 8b e9 71 bd 7e bf dd 3d 5e 2c 2c bd b4 3f 38 3c
       -0.059060615 0.1082754 -0.0420345 0.011245657
000220 83 34 b5 ba 84 d8 61 bc 81 34 20 3d 4a f4 5a 3d
       -0.0013824854 -0.0137845315 0.03911257 0.05345563
000230 0e 5c d8 3d d4 47 64 bc a5 17 be 3d bf 2b 0f 3d
       0.10564433 -0.013933141 0.092818536 0.03495383
000240 f0 c6 e3 3d 61 72 88 3d 18 e9 05 bc d5 04 ea 3c
       0.11121929 0.06662441 -0.00817325 0.028566757
000250 35 11 cb 3d f3 9b f5 3c 51 17 eb 3d 19 40 95 3d
       0.09915391 0.029981589 0.114790566 0.07287616
000260 b5 c3 ad bd bd fb 6d 3d dd 38 bb 3d 3e ab 56 bc
       -0.08484594 0.058101404 0.09141705 -0.013102351
000270 9a 08 57 3d 2f e5 1e 3d 1b 78 ac 3d 03 d9 cf bc
       0.052498437 0.038792785 0.08421346 -0.025372034
000280 ca e7 a1 3d 83 88 d9 bd 70 02 d9 3c 49 b1 cf 3d
       0.079055384 -0.10621741 0.02649042 0.10141236
000290 f3 20 8c 3d 02 76 8f bb 04 2f a2 bc 12 59 7a 3c
       0.06842222 -0.0043780813 -0.01979781 0.015280025
0002a0 0b 1a d4 3b 1b c5 5a 3d c5 92 68 bc 52 e5 30 bd
       0.006472831 0.05341063 -0.014195149 -0.043187447
0002b0 9e da ad 3c ad 27 33 bd 72 be cf 3d 4a ac cc 3d
       0.021222409 -0.04373901 0.101437464 0.09993799
0002c0 a5 cb 00 ba 71 e5 d4 bd 75 c9 46 bb e9 b7 86 3d
       -0.0004913158 -0.10395325 -0.003033248 0.06578047
0002d0 2f 92 ab bd 9b 22 ce 3d 85 6c f0 bc 8f 45 3a 3d
       -0.08377492 0.10065194 -0.029348621 0.045476492
0002e0 e3 25 d2 3d 8a 0c ed 3d 49 63 d3 bd 4f 9d 94 3c
       0.102611326 0.11574657 -0.103216715 0.018141417
0002f0 47 de c4 bd ee a1 c6 3c 5c a0 43 bd 6f ef a6 bd
       -0.096127085 0.024247136 -0.047760352 -0.08151137
000300 1f 1d f0 3b cd 3b 10 bc 15 92 55 3c 9b f4 ac bd
       0.0073276903 -0.00880332 0.013035317 -0.08445092
000310 a8 03 91 3d ea a4 3a bd 42 70 a6 bd 27 66 3d 3d
       0.070807755 -0.04556743 -0.0812688 0.04624
000320 ed 40 e3 3d e8 cc 23 bd 3f 19 b2 3b d4 cd 8a bd
       0.11096368 -0.039990336 0.0054351385 -0.0677754
000330 c4 9f a2 3d 8b 5f ac 3d ca 66 e0 bb 68 70 84 bd
       0.07940629 0.08416661 -0.006848191 -0.06466752
000340 ad 38 94 bb a4 74 82 bb fa a2 4b 3c 70 40 bb bd
       -0.004523358 -0.00398119 0.012428993 -0.0914315
000350 f3 58 c8 bd 1a cf c3 3c 23 dd de 3d b1 a4 66 bc
       -0.09782591 0.023902465 0.10882022 -0.014077351
000360 e1 13 e3 3d 5f 6c 81 bd 39 6b bd bc ac 10 00 3d
       0.11087776 -0.06319498 -0.023122417 0.0312659
000370 14 d9 9f bc 24 f2 6f bd 5b fc 3a 3d aa b5 02 3e
       -0.01951269 -0.058580533 0.04565082 0.12764612
000380 df b0 e1 3d a6 26 94 bd 1a 13 70 3d dc ae dc bd
       0.110200636 -0.07233934 0.058611967 -0.10775539
000390 76 8b bc 3d 4c 7b 46 bd 27 52 22 3d 9d 4d 86 bd
       0.092062876 -0.04845743 0.039629128 -0.06557772
0003a0 9b 96 90 3d 16 cd a9 bd 74 c3 87 3c df c9 e4 bd
       0.07059976 -0.0829107 0.016572692 -0.11171316
0003b0 ec ab 95 bd 18 15 97 3d 39 1e c5 bd 4b db 91 bd
       -0.07308182 0.0737707 -0.09624905 -0.07121905
0003c0 70 d3 66 bd bb aa 6b 3d 02 2d 5c 3d bb c6 bc 3d
       -0.056353986 0.05753587 0.05375386 0.09217592
0003d0 6a da 82 bd 85 58 b8 3d f7 34 8f 3d c8 33 f0 3c
       -0.063893154 0.09001259 0.06992524 0.029321566
0003e0 49 c7 84 3b a4 36 a7 3d 10 59 09 3e 0f db 02 be
       0.004052077 0.08164719 0.13412881 -0.12778877
0003f0 83 35 53 3d d7 5a 0a 3b 82 f4 67 bd bd ba 36 3d
       0.051564705 0.0021111274 -0.056629665 0.04461168

bias f4 [5]
000000 e6 40 c3 b9 89 b6 15 3d 99 0e 53 bd 06 a7 01 bd
       -0.0003724165 0.036551032 -0.051527593 -0.031653427
000010 60 7f a3 bd
       -0.07983279
