Policy-Gradients/Poker-Agent/checkpoint_45000.pt (torch, 227369 bytes, 8 tensors)

weight f4 [256, 55]
0	0x3bb05699	0.005381417
1	0xbdb3ad49	-0.08773286
2	0xbd344d1b	-0.044018846
3	0xbcd7e69b	-0.026355078
4	0x3d93d5fe	0.0721855
5	0x3d3520c5	0.044220705
6	0x3d5343d2	0.05157835
7	0x3e47cd7c	0.1951198
8	0x3e19b9fe	0.15012357
9	0x3cea6dc6	0.028616797
10	0xbdf076ff	-0.11741447
11	0xbda52376	-0.08063404
12	0x3dfd8730	0.123793006
13	0xbc285373	-0.010273802
14	0xb72b8fa0	-1.0225835e-05
15	0xbd866e2b	-0.065639816
16	0x3cf6c3a2	0.030122582
17	0x3d8b0e11	0.06789792
18	0x3dcd786a	0.10032733
19	0xbdcef634	-0.10105553
20	0xbc60b514	-0.013715047
21	0xbe1181ec	-0.14209718
22	0xbd6ce907	-0.05783942
23	0x3ddaf51a	0.10691281
24	0x3e2e04e7	0.16994058
25	0xbd349a1d	-0.044092286
26	0xbdb683b8	-0.08911842
27	0x3e0d8dde	0.1382365
28	0xbd6e607b	-0.05819748
29	0x3cae8f7a	0.02130865
30	0x3df45cf0	0.11931789
31	0x3d9b1ebd	0.07574222
32	0x3c91cb06	0.017797004
33	0x3daedc23	0.085380815
34	0xbdc41cb4	-0.09575787
35	0x3cb2d632	0.021830652
36	0xbc49b15a	-0.01231035
37	0xbdd91d7d	-0.106013276
38	0xbd57d112	-0.05268962
39	0xba886ff1	-0.0010409338
40	0xbe0f81fd	-0.1401443
41	0xbca55f9a	-0.020187188
42	0x3d56cc0d	0.05244069
43	0x3be692f6	0.007036562
44	0xbe09e879	-0.13467588
45	0xbd13e944	-0.03611113
46	0xbd663a5f	-0.05620801
47	0x3d66403b	0.0562136
48	0xbc93114e	-0.017952587
49	0x3d4366b3	0.047705363
50	0x3e021c26	0.1270605
51	0xb9a36d88	-0.0003117139
52	0xbdda81ad	-0.10669265
53	0x3d83f0e0	0.06442428
54	0xbd8e811f	-0.06958222
55	0x3c7bea5d	0.015375701
56	0xbd893847	-0.06700187
57	0x3df3ea63	0.1190994
58	0xbbab72e1	-0.0052322005
59	0x3de7fe13	0.11327758
60	0x3e19e4c2	0.1502867
61	0x3c3190b4	0.010837723
62	0x3c803476	0.015650015
63	0x3e31b4f1	0.1735418
64	0x3e1018f7	0.14072023
65	0x3c157cc7	0.0091239875
66	0x3e4aa8f3	0.19791012
67	0x3e285f49	0.16442598
68	0x3d90a194	0.070620686
69	0xbbccac8d	-0.0062461556
70	0x3d86dbb5	0.065848745
71	0xbcbacb70	-0.022802085
72	0xbd84e333	-0.06488647
73	0xbd916808	-0.070999205
74	0x3dd597b2	0.10429324
75	0x3d0ae50e	0.03390985
76	0x3cdac656	0.026705902
77	0xbdad2da3	-0.0845597
78	0xbcac2df0	-0.021017998
79	0x3e2145bc	0.15749258
80	0x3cea5a5c	0.02860754
81	0xbdece7e9	-0.11567671
82	0xbd83049f	-0.06397366
83	0xbbe55bcc	-0.0069994684
84	0xbdb747d7	-0.08949249
85	0xbd9bb0ad	-0.076020576
86	0xbda3494e	-0.07972966
87	0x3e51e61c	0.20497936
88	0xbd753d7b	-0.059873085
89	0x3e18a790	0.1490767
90	0x3d4440c9	0.047913346
91	0xbd183b62	-0.037166007
92	0x3d87d6e2	0.066327825
93	0xbc0b1e5a	-0.008491123
94	0x3da4f547	0.080545954
95	0xbdebb17e	-0.11508463
96	0x3d9b5695	0.075848736
97	0x3b3c5bff	0.0028741357
98	0x3df126d1	0.11774982
99	0x3dcaa905	0.09895519
100	0xbd6b5884	-0.057457462
101	0x3de89c55	0.11357943
102	0x3e028ec0	0.12749767
103	0xbcf1093e	-0.029423352
104	0xbce9deb6	-0.02854858
105	0x3d91e5f1	0.07123936
106	0xbdf1462e	-0.11780964
107	0xbdd673d8	-0.10471314
108	0x3e049ba7	0.12950002
109	0xbd84af4c	-0.06478748
110	0x3d3ea02d	0.046539474
111	0x3cac2db8	0.021017894
112	0xbbedf3cc	-0.007261729
113	0x3b163df8	0.002292512
114	0x3d38daa6	0.045130394
115	0x3da7ed36	0.08199541
116	0x3dd3dd53	0.103449486
117	0xbe03d7b2	-0.1287525
118	0xbe1372ae	-0.14399216
119	0x3d49efb5	0.049300868
120	0xbc536d0e	-0.012904419
121	0xbe3ae8c6	-0.18252859
122	0xbd0642c0	-0.0327785
123	0xbdc87cc5	-0.09789423
124	0xbd8104a0	-0.0629971
125	0xbd5a976f	-0.053367075
126	0xbd1607fa	-0.0366287
127	0xbdb0c4ce	-0.086312875
128	0x3dcbc9d4	0.09950605
129	0xbdb4e81d	-0.088333346
130	0xbdd3e14e	-0.10345708
131	0x3d4bdfd9	0.049774025
132	0xbccafd09	-0.02477886
133	0xbd8a5974	-0.06755343
134	0xbbc2c6a8	-0.005944092
135	0x3be4da5b	0.006984038
136	0xbd39e788	-0.04538682
137	0x3db5e163	0.0888088
138	0xbdace8bf	-0.0844283
139	0x3c84de27	0.016219212
140	0x3d872fbb	0.06600901
141	0xbdb555f9	-0.088542886
142	0xbe2b366c	-0.16719979
143	0xbd7be818	-0.06150064
144	0x3e032d50	0.12810254
145	0xbd0a9700	-0.03383541
146	0xbc0de375	-0.008660187
147	0xbd820d87	-0.063502364
148	0xbd3ef640	-0.04662156
149	0xbd116f26	-0.03550639
150	0xbda806f6	-0.08204453
151	0xbd73f3bc	-0.059558615
152	0x3c901cba	0.017591823
153	0x3d951f91	0.072814114
154	0x3dd0ea20	0.10200906
155	0xbd57b79b	-0.052665334
156	0xbdc0c72f	-0.09412991
157	0x3da7539f	0.08170246
158	0xbd90e9de	-0.070758566
159	0xbc048a5f	-0.008089631
160	0x3ca8a47e	0.020586248
161	0x3e04025b	0.12891524
162	0xbd2b6c92	-0.041851588
163	0x3bc1b4d6	0.00591145
164	0x3e0a1a9c	0.13486713
165	0x3e0120e9	0.1261021
166	0x3de094fc	0.109659165
167	0xbd4aae4c	-0.04948263
168	0xbd806eb1	-0.06271113
169	0xbc850237	-0.016236408
170	0x3d00b3fa	0.03142164
171	0xbcbeab77	-0.02327512
172	0xbcc4bc80	-0.024015665
173	0xbe28ac27	-0.16471921
174	0xbd0b2df0	-0.033979356
175	0xbe01f32f	-0.12690423
176	0xbdfa60fd	-0.1222553
177	0xbc4fc51e	-0.012681274
178	0xbd9bbab0	-0.07603967
179	0x3c555f39	0.013023191
180	0x3db2c0e0	0.08728194
181	0x3ba7a55e	0.005116149
182	0x3df1abea	0.11800368
183	0x3dcf51e8	0.10123044
184	0x3e1d6be8	0.15373194
185	0x3dbd88b0	0.09254587
186	0x3cf71b70	0.03016445
187	0xbd4b330a	-0.04960922
188	0xbd3d3d74	-0.046201184
189	0xbcfc2262	-0.030778114
190	0xbd897c85	-0.06713203
191	0x3d80de5d	0.062924124
192	0x3d4c4669	0.049871836
193	0x3dce8fec	0.10086045
194	0x3dee419f	0.1163361
195	0xbdb390d9	-0.08767862
196	0xbde6884d	-0.11256466
197	0xbca9b556	-0.02071635
198	0x3de6044d	0.11231289
199	0xbd317559	-0.043324802
200	0xbd141666	-0.036154173
201	0xbcf144f0	-0.029451817
202	0x3c945400	0.01810646
203	0xbda0068e	-0.0781375
204	0x3c1fb8ea	0.009748677
205	0x3da1492e	0.07875286
206	0xbd862349	-0.06549699
207	0xbc8114ce	-0.01575699
208	0x3c6c9c9a	0.014441634
209	0xbd83f820	-0.064438105
210	0xbdf7567e	-0.12077044
211	0xbc183c38	-0.009291701
212	0xbd7acf72	-0.06123299
213	0x3dcb9d86	0.099421546
214	0x3ac73325	0.0015197737
215	0x3de200f8	0.11035341
216	0x3dd034d5	0.10166327
217	0x3cdee5be	0.027209159
218	0x3dc90780	0.09815884
219	0x3b831d1d	0.0040012733
220	0xbe160d56	-0.14653525
221	0xbd8b25c9	-0.06794316
222	0x3db48971	0.08815277
223	0xbd43d1ad	-0.047807384
224	0x3df9e76b	0.122023426
225	0x3cbc2332	0.022966001
226	0xbd624cb4	-0.05524893
227	0x3de01a88	0.109425604
228	0x3df6525b	0.12027427
229	0x3d3920fd	0.045197476
230	0xbc4e2601	-0.012582303
231	0x3e55d068	0.20880282
232	0xbad1c829	-0.0016005087
233	0xbd39aa3f	-0.045328375
234	0x3e214a3e	0.15750977
235	0x3df0e7ce	0.11762963
236	0x3e061b4b	0.13096349
237	0x3be23ec2	0.006904454
238	0x3e29ce8b	0.16582696
239	0xbe09582c	-0.13412541
240	0x3dd8ab57	0.105795555
241	0xbde7cd3f	-0.113184445
242	0xbd86c635	-0.06580774
243	0x3e117a38	0.14206779
244	0x3e2d44bb	0.1692075
245	0xbdc4317b	-0.0957975
246	0x3b79e7d5	0.0038132567
247	0x3dc9a71b	0.09846326
248	0x3d6c53c0	0.057697058
249	0x3d166be2	0.03672398
250	0x3a1e8416	0.0006046904
251	0x3d345c4d	0.044033337
252	0xbda12bfc	-0.078697175
253	0x3e0ea381	0.1392956
254	0x3d3c0b9f	0.04590952
255	0x3dbb11c6	0.091342494

bias f4 [256]
0	0x3d7e9e61	0.06216276
1	0xbda39649	-0.07987649
2	0x3e1a4620	0.15065813
3	0xbd903e19	-0.07043094
4	0x3d8f7366	0.070044324
5	0x3dcf8465	0.10132674
6	0xbc9e84a7	-0.019350363
7	0xbda1f8a2	-0.07908751
8	0xbd58fc91	-0.05297524
9	0x3c5b6f35	0.013393213
10	0xbdbfcec9	-0.09365613
11	0x3db91ffb	0.09039303
12	0x3d4cde52	0.05001671
13	0x3ca0f6a5	0.01964886
14	0x3e182ec2	0.14861587
15	0xbd6d7ecb	-0.057982247
16	0xbd8bad2b	-0.068201385
17	0x3e0fc8f6	0.14041504
18	0x3c794cfa	0.015216107
19	0xbc421bf5	-0.011847486
20	0xbdae585e	-0.085129485
21	0x3d4d4a27	0.050119545
22	0x3d43bf31	0.047789756
23	0x3d8a3514	0.06748405
24	0x3dbf1d5e	0.09331773
25	0x3d268399	0.040652845
26	0x3db4122c	0.087925285
27	0x3e25820e	0.16162893
28	0xbdc27cd7	-0.094964676
29	0x3d4670c1	0.048447374
30	0x3e34e0e1	0.1766391
31	0xbdfd918f	-0.12381279
32	0x3d892cad	0.06697974
33	0x3df51527	0.11966925
34	0xbd1e6aa9	-0.038675938
35	0x3c6c0e2e	0.014407678
36	0xbdb58db6	-0.0886492
37	0xbd3529e4	-0.044229403
38	0x3d6d9239	0.058000777
39	0x3e1c3582	0.15254787
40	0x3d2b5207	0.041826274
41	0xbdb99047	-0.09060722
42	0x3d276584	0.040868297
43	0x3d06ff2e	0.032958202
44	0x3d8c3e01	0.06847764
45	0xbcf6830f	-0.03009179
46	0x3dc9c632	0.09852256
47	0x3ced12a5	0.028939554
48	0xbcfccfdd	-0.030860836
49	0xbd7a7ba3	-0.061153065
50	0x3daa126a	0.083042935
51	0x3cac4552	0.021029148
52	0xbdd2b497	-0.10288351
53	0xbdac87c4	-0.08424333
54	0x3dea8e26	0.11452894
55	0x3d7a4376	0.061099492
56	0xbdb743c0	-0.08948469
57	0xbcbf755d	-0.023371393
58	0xbdb3a4a4	-0.08771637
59	0x3dc46fd1	0.0959164
60	0x3d433a85	0.04766323
61	0xbd399684	-0.04530956
62	0x3dc5579a	0.09635849
63	0xbadc061e	-0.0016786491
64	0x3ca888f8	0.020573124
65	0xbe085e41	-0.13317205
66	0x3aafb717	0.0013406005
67	0x3e24d58f	0.16097091
68	0xbe053576	-0.13008675
69	0xbdb29325	-0.08719472
70	0x3d6f1267	0.05836716
71	0xbb30b271	-0.0026961828
72	0x3d0e9089	0.03480581
73	0x3e197e81	0.14989664
74	0xbcbc4e9a	-0.022986699
75	0x3dacca10	0.08436978
76	0x3d13ab00	0.03605175
77	0xbd160229	-0.036623154
78	0x3d76438e	0.06012302
79	0xbcebb43b	-0.028772464
80	0xbe03d4d8	-0.12874162
81	0x3c5b3d1f	0.013381272
82	0x3dba525e	0.090977415
83	0xbdeb7e38	-0.11498684
84	0x3c887949	0.016659396
85	0xbc359696	-0.011083266
86	0xbc14f6a6	-0.009092009
87	0x3e034b80	0.1282177
88	0x3dfd4993	0.12367549
89	0xbd81b990	-0.06334221
90	0xbdeeba44	-0.11656621
91	0x3c8e9154	0.017403282
92	0x3d2523e3	0.040317427
93	0xbde66e45	-0.11251501
94	0x3cc3c7bb	0.02389895
95	0x3e1c5e86	0.15270433
96	0xbd0fc080	-0.03509569
97	0xbd9c2366	-0.07623939
98	0xbcec9559	-0.028879808
99	0xbc9c6a6c	-0.019093715
100	0xbd3bdade	-0.045863025
101	0xbdf2ede1	-0.11861778
102	0xbdd1404a	-0.1021734
103	0x3ca18670	0.019717425
104	0xbd326e60	-0.043562293
105	0x3b8732e3	0.004125939
106	0x3c12c9fa	0.008959288
107	0xbcc2ca1d	-0.023778016
108	0xbdf7cc3a	-0.120995
109	0x3d5f4f07	0.054518726
110	0x3bf388fa	0.0074321004
111	0x3d287550	0.041127503
112	0xbd0a02a4	-0.033693925
113	0xbc6fe930	-0.014642999
114	0x3e1d680e	0.15371725
115	0x3ca2d5f6	0.019877415
116	0xbd36d841	-0.04463983
117	0xbdc63ade	-0.09679197
118	0xbe0eeaf6	-0.13956818
119	0x3ddb7bf2	0.10717
120	0x3bd4ebb5	0.006497825
121	0xbdaa5212	-0.08316435
122	0x3e0e25c8	0.138816
123	0xbd65aec0	-0.056074858
124	0x3d412147	0.047150876
125	0xbdc9fc4c	-0.09862575
126	0x3e08918c	0.13336772
127	0x3d34d876	0.044151746
128	0x3d258e14	0.0404187
129	0xbdece645	-0.11567358
130	0x3dc29f06	0.095029876
131	0xbcf70438	-0.030153379
132	0xbcdeb522	-0.02718598
133	0xbd0df9a5	-0.034661908
134	0xbdb1040d	-0.08643351
135	0x3d763f2b	0.060118835
136	0xbd18d444	-0.037311807
137	0x3dace019	0.08441181
138	0x3da59612	0.08085264
139	0x3dde1176	0.10843174
140	0x3db159ca	0.08659704
141	0x3d8dc531	0.06922377
142	0xbdaccec1	-0.08437873
143	0xbdddfee4	-0.10839632
144	0xbd0d3d4a	-0.034482278
145	0xbd1f9b35	-0.038966376
146	0xbd248d65	-0.040173907
147	0xbd33c083	-0.043884765
148	0x3d76ad9d	0.060224164
149	0xbdfde827	-0.12397795
150	0x3ce0f074	0.027458407
151	0x3cbabda9	0.022795515
152	0x3d85fa76	0.06541912
153	0xbd0a0ed6	-0.033705555
154	0x3d854e2e	0.06509052
155	0x3d91e503	0.07123759
156	0x3ceb3abc	0.02871453
157	0xbd2b40a9	-0.04180971
158	0xbb74bc62	-0.003734373
159	0xbd802f63	-0.06259038
160	0xbca03314	-0.019555606
161	0xbd70c409	-0.058780704
162	0x3d28de8f	0.041227873
163	0x3dcf0c89	0.10109813
164	0x3dc6fe54	0.09716478
165	0x3e1dcd0e	0.15410253
166	0x3c985d1a	0.018599082
167	0x3dd32ed0	0.10311663
168	0xbd20a61c	-0.039220914
169	0x3d42bb09	0.047541652
170	0xbc8d110e	-0.017220046
171	0x3d8c223c	0.06842467
172	0x3de4dd02	0.111749664
173	0x3dbb0f7e	0.09133814
174	0xbca93892	-0.020656858
175	0x3e07fba4	0.13279587
176	0x3abd420f	0.0014439243
177	0xbd85eaf0	-0.065389514
178	0x3dd2f8e4	0.10301378
179	0x3df2a1e1	0.11847282
180	0xbd99ac44	-0.0750356
181	0xbcd4ce09	-0.025977151
182	0x3e00b91a	0.1257061
183	0x3d4a6c8a	0.049419917
184	0x3e019d15	0.12657578
185	0xbc1b5b84	-0.009482268
186	0x3da6d4a6	0.08146028
187	0x3a833401	0.0010010005
188	0xbd60ca4c	-0.054880425
189	0x3a2d0fc0	0.0006601773
190	0xbdb26604	-0.08710864
191	0x3dd1a85d	0.10237191
192	0x3d5f1f0e	0.054472975
193	0x3df3e022	0.11907984
194	0xbda82231	-0.082096465
195	0xbd85720f	-0.065158956
196	0xbdc50a91	-0.09621156
197	0xbd66c07c	-0.05633591
198	0xbd7a7ced	-0.061154295
199	0x3e222e8c	0.15838069
200	0x3d9974a8	0.074929535
201	0xbba5e342	-0.0050624916
202	0x3d06971b	0.03285895
203	0xbd962154	-0.073305756
204	0x3dd3d7c0	0.103438854
205	0xbd8ba163	-0.068178914
206	0xbdc8fd98	-0.09813994
207	0x3ce99134	0.028511621
208	0xbdb89193	-0.09012141
209	0x3e32297d	0.17398639
210	0x3c8a6efb	0.016898623
211	0x3d766429	0.060154114
212	0x3ce2572e	0.027629461
213	0xbbce2cf4	-0.00629198
214	0x3dd1d3c6	0.10245471
215	0xbda59589	-0.08085162
216	0xbe199bf5	-0.15000899
217	0xbdab9cab	-0.083794914
218	0x3d5e8b98	0.054332346
219	0x3d7bf299	0.061510656
220	0x3d88a16f	0.06671416
221	0xbd593d7b	-0.053037148
222	0xbd94f6b3	-0.07273617
223	0xbd837c14	-0.064201504
224	0xbb4eedea	-0.0031574913
225	0x3c7ae041	0.015312255
226	0x3d676854	0.05649598
227	0xbdfad33c	-0.12247321
228	0x3da8dd8f	0.08245384
229	0x3dbf9323	0.09354236
230	0xbd44b28e	-0.048021846
231	0x39e4c0d5	0.0004363122
232	0xbdb1cc0b	-0.08681496
233	0xbd78113d	-0.060563315
234	0x3dbb93f0	0.09159076
235	0x3d2f86ef	0.042853292
236	0x3ddd271a	0.10798474
237	0xbe016aa5	-0.12638338
238	0x3dd15c8e	0.102227315
239	0xbe00098c	-0.12503642
240	0xbd968782	-0.07350065
241	0x3dc6d0e0	0.097078085
242	0xbdcc3c48	-0.09972435
243	0x3d9b4101	0.07580758
244	0x3d3ffa26	0.04686942
245	0x3dbd6c92	0.09249224
246	0xbda18b3f	-0.07887887
247	0xbd64dd6a	-0.05587522
248	0xbcae8b09	-0.021306532
249	0x3d9855e4	0.07438257
250	0x3dc31dcb	0.09527167
251	0x3dfe7723	0.12425067
252	0x3ca3e9cd	0.020008946
253	0x3da0e8a1	0.078568704
254	0x3ab553cd	0.0013834179
255	0xbb41cdee	-0.0029572207

weight f4 [128, 256]
0	0xbcf2543b	-0.02958118
1	0xbda6417c	-0.08117959
2	0x3d88a4d6	0.06672065
3	0x3dac9d1c	0.08428404
4	0x3cd80fc7	0.02637471
5	0x3c029ba4	0.007971678
6	0x3d05735a	0.03258071
7	0x3c406b07	0.011744267
8	0xbbc90e1c	-0.006135715
9	0x3d86f77b	0.06590172
10	0xbd531498	-0.05153331
11	0x3d5d1b29	0.05398098
12	0x3d156f63	0.03648318
13	0xbd0d7aad	-0.03454082
14	0x3d8b4361	0.06799961
15	0x3dcc7682	0.09983541
16	0xbd8b0c10	-0.0678941
17	0x3da4c055	0.08044497
18	0xbccaabf2	-0.024740193
19	0x3d8af07c	0.0678415
20	0x3c62ea9e	0.013849882
21	0x3d5cd09c	0.053909883
22	0x3d926508	0.071481764
23	0xbd5fdd6b	-0.05465452
24	0x3c8e3bc4	0.017362483
25	0x3cfd427d	0.030915493
26	0xbc7bc9f5	-0.0153679745
27	0x3ccaed5d	0.024771387
28	0xbdc7a9a1	-0.09749151
29	0x3db6a4dc	0.08918163
30	0x3d6e63a4	0.058200493
31	0xbb68ac61	-0.0035503136
32	0x3dabfabe	0.08397435
33	0x3d78411b	0.060608964
34	0xbcf5b785	-0.029994735
35	0xbcf18469	-0.029482083
36	0xbd4b2dd4	-0.049604252
37	0x3d16e8ec	0.036843225
38	0xbc88a075	-0.016678074
39	0x3d03ef19	0.032210443
40	0x3c952670	0.018206805
41	0x3dcbec39	0.09957165
42	0xbd0ffcba	-0.03515313
43	0xbd519174	-0.051164106
44	0xbd89b6cd	-0.067243196
45	0x3ca4a8ac	0.02009996
46	0x3d1aad03	0.037762653
47	0x3d15a38c	0.036532924
48	0xbd014214	-0.031557158
49	0xbd0b81c9	-0.03405932
50	0xbc7e40f1	-0.015518413
51	0x3d7d3bd6	0.061824642
52	0xbc7a1d73	-0.01526581
53	0xbcc13b65	-0.023587892
54	0x3ccc878e	0.024966981
55	0xbd7ca20e	-0.061677985
56	0x3c654b2b	0.013994972
57	0x3d1427ad	0.03617065
58	0xbd423f9b	-0.04742394
59	0x3d16450f	0.036686953
60	0xbd6f3664	-0.05840148
61	0x3cfb99d4	0.030713
62	0x3d884265	0.06653289
63	0xbd085224	-0.03328146
64	0xbd18adec	-0.03727524
65	0x3cf57fc2	0.029968146
66	0x3cdc1b2c	0.026868425
67	0x3da8e37a	0.08246513
68	0x3d400bfc	0.04688643
69	0xbd1bae88	-0.038008243
70	0x3d07ea92	0.033182688
71	0xbd11e2b8	-0.035616606
72	0x3c70868d	0.014680517
73	0xbd0cc30e	-0.034365706
74	0xbd3a9fa1	-0.04556239
75	0xbd81c60b	-0.06336602
76	0xbc5409d5	-0.012941797
77	0xbd272c90	-0.040813982
78	0x3d8f97d1	0.070113786
79	0xbd0eac9f	-0.034832593
80	0x3cb616e8	0.02222772
81	0xbcb8e38a	-0.022569437
82	0xbd9af8b6	-0.07566969
83	0xbcfc7493	-0.030817306
84	0xbd50d3cf	-0.050983246
85	0x3d1cf3a8	0.038318306
86	0x3d74d2d7	0.059771385
87	0x3d9526d7	0.07282799
88	0x3d5538dc	0.05205618
89	0x3d3b8f74	0.045791104
90	0xbd64e56f	-0.055882867
91	0xbd9699b8	-0.07353538
92	0x3d1d6ce6	0.03843393
93	0xbcae4762	-0.021274272
94	0xbcb57c91	-0.022154124
95	0x3cc7d3c4	0.02439297
96	0xbd641df0	-0.055692613
97	0xbc389cc7	-0.011267847
98	0x3d0c05bf	0.034185167
99	0x3cf30636	0.029666048
100	0x3d3cb504	0.046071067
101	0xbd68200a	-0.05667118
102	0xbade9049	-0.0016980256
103	0xbd07308b	-0.03300528
104	0x3ca198fa	0.019726265
105	0x3d19b20c	0.037523314
106	0x3cbd66c4	0.023120292
107	0x3da284c9	0.07935483
108	0xbc216d7b	-0.009852762
109	0xbd275c5b	-0.04085956
110	0x3d1dec8c	0.038555667
111	0x3c9f10c6	0.019417178
112	0xbde3185b	-0.1108863
113	0xbc23aa86	-0.009989386
114	0xbcc8ef2f	-0.024528114
115	0x3d3c21ea	0.04593078
116	0xbcd967ec	-0.026538812
117	0xbdce7fce	-0.100829706
118	0xbd83130c	-0.06400117
119	0x3d11ab81	0.03556395
120	0xbc754776	-0.014970651
121	0xbb8970ca	-0.0041943537
122	0x3d278221	0.040895585
123	0xbc7d0e63	-0.015445325
124	0xb8fd0927	-0.00012065685
125	0x3d8a2e69	0.06747133
126	0x3db3bc2f	0.087761275
127	0x3dd83207	0.10556417
128	0xbd732b55	-0.059367497
129	0xbd408467	-0.04700127
130	0xbc73b581	-0.014874817
131	0xbbdc36d2	-0.0067204023
132	0xbc933cbb	-0.017973294
133	0x3bda0819	0.0066537973
134	0xbdb5f0b2	-0.088837996
135	0x3a9a6298	0.0011778651
136	0xbd898d09	-0.067163534
137	0x3d805f2c	0.062681526
138	0xbc762775	-0.015024056
139	0x3d79eff6	0.06101986
140	0x3d24dc89	0.04024938
141	0x3c854255	0.016266981
142	0xbd06eae6	-0.03293886
143	0xbd37729f	-0.044787046
144	0xbc2ea60e	-0.010659708
145	0xbc7a0296	-0.015259406
146	0xbd5cfee7	-0.05395403
147	0x3c9c7910	0.019100696
148	0xbcb14ebb	-0.021643987
149	0xbd941f52	-0.072325364
150	0x3db47d91	0.088130124
151	0xbd03b829	-0.03215805
152	0x3d7de5db	0.061986785
153	0x3c1ac3bd	0.009446082
154	0x3c42c76c	0.011888366
155	0xbc505324	-0.012715135
156	0xbd61c7c0	-0.055122137
157	0x3c488e2d	0.012240929
158	0x3c4849ba	0.012224609
159	0x3d29e330	0.04147643
160	0xbc936155	-0.017990747
161	0xbc80c040	-0.015716672
162	0xbcec976b	-0.028880795
163	0x3cb4e144	0.022080071
164	0xbd717c0f	-0.058956202
165	0xbd0a9251	-0.033830944
166	0x3de1da95	0.11028019
167	0xbc6c68fd	-0.014429328
168	0xbc6645d6	-0.014054736
169	0x3cb534ac	0.022119842
170	0xbc8b7195	-0.017021934
171	0xbce8ea76	-0.028432112
172	0xbbd8a406	-0.00661135
173	0x3a294b0a	0.000645802
174	0x3afa7903	0.0019109551
175	0xbcae36bb	-0.021266332
176	0x3d1e1997	0.038598623
177	0x3c082a06	0.0083108
178	0xbcc7798f	-0.024349956
179	0xbdabf579	-0.083964296
180	0xba545a00	-0.0008100569
181	0xbcf93718	-0.030421779
182	0xbcc78269	-0.024354177
183	0xbb350918	-0.0027623829
184	0x3db31aa5	0.087453164
185	0xbc9408d1	-0.01807061
186	0x3d105e3e	0.035246126
187	0xbcc6c1e6	-0.02426238
188	0x3cec9617	0.028880162
189	0xbd2a21aa	-0.04153601
190	0x3d449230	0.047990978
191	0x3d4037e7	0.046928313
192	0x3a389585	0.0007041323
193	0x3b866992	0.0041019404
194	0xbdb17b5d	-0.08666108
195	0x3d6baae4	0.05753602
196	0x3d043bea	0.0322837
197	0x3d1e855c	0.0387014
198	0x3d941fa5	0.07232598
199	0x3d9e3d89	0.07726581
200	0x3c5a76e0	0.013334006
201	0x3cb54f54	0.022132553
202	0xbd17efe7	-0.037094023
203	0xbdae3f5a	-0.08508177
204	0xbd1c8ea5	-0.038221974
205	0xbdd50aa9	-0.10402424
206	0xbdd29309	-0.10281951
207	0x3c589a9d	0.013220456
208	0x3cae3c69	0.02126904
209	0x3dccd899	0.1000225
210	0x3d5043aa	0.05084578
211	0xbbff5df2	-0.0077931816
212	0xbd5fa223	-0.054597985
213	0x3d7b7302	0.061388977
214	0xbb2806b0	-0.0025638752
215	0x3da1a422	0.07892634
216	0x3ca70ebe	0.020392772
217	0xbceb9912	-0.028759513
218	0xbb024226	-0.0019875853
219	0x3d42f574	0.047597364
220	0x3d427b2b	0.047480743
221	0xbb316c1c	-0.0027072495
222	0x3d148bc2	0.036266096
223	0x3c5f71a5	0.013637935
224	0xbc9af83f	-0.018917201
225	0x3da43aa4	0.08018997
226	0xbd1cb82e	-0.038261585
227	0x3d114b18	0.035472006
228	0xbd5fa589	-0.054601226
229	0x3cf69415	0.030099908
230	0x3c672848	0.014108725
231	0xbadeee09	-0.0017008196
232	0x3ccdcc52	0.025121842
233	0xbdba7a9f	-0.09105419
234	0xbcaed7c8	-0.021343127
235	0x3db94630	0.0904659
236	0x3d1c8dd6	0.038221203
237	0x3c35e503	0.011101964
238	0xbcd4a02b	-0.02595528
239	0xbd90441f	-0.07044243
240	0x3c6ad2b0	0.014332458
241	0xbc7cd6f9	-0.015432113
242	0x3c63fd58	0.013915382
243	0x3ca0d2cb	0.019631764
244	0xbd8bf06f	-0.068329684
245	0x3c228da5	0.009921466
246	0x3d0c9a5f	0.034326907
247	0x3d88c31a	0.06677838
248	0xbd878699	-0.06617469
249	0xbcc82d71	-0.02443573
250	0xbd2a1725	-0.04152598
251	0x3d017256	0.03160318
252	0xbc06c4ce	-0.008225633
253	0xbcc758b9	-0.024334298
254	0x3bac6679	0.005261239
255	0xbcbfa506	-0.023394119

bias f4 [128]
0	0x3d7eea90	0.062235415
1	0x3bdc20b2	0.006717765
2	0x3c8e5597	0.017374797
3	0x3d456064	0.04818763
4	0xbc49f1bc	-0.0123257
5	0x3ca31d4c	0.01991143
6	0xbaa2024b	-0.0012360302
7	0x3d0adc44	0.033901468
8	0x3dadd188	0.084872305
9	0x3d0d6dd4	0.03452857
10	0xbd0c051e	-0.034184568
11	0xbaccc0ee	-0.0015621462
12	0xbc0554ce	-0.008137895
13	0xbd01fa17	-0.031732645
14	0x3d189f73	0.037261438
15	0x3da361de	0.07977651
16	0x3d68d5d7	0.05684456
17	0xbd893c9b	-0.06701013
18	0xbd944fcd	-0.07241783
19	0x3d3b6529	0.04575077
20	0xbcd86d87	-0.026419414
21	0xbd45c329	-0.048281822
22	0x3cdb076a	0.026736934
23	0x3cf2bed4	0.02963201
24	0xbcda5cf3	-0.02665565
25	0xbb245a4c	-0.0025078235
26	0xbd40f17b	-0.047105294
27	0x3da74929	0.08168251
28	0x3d38e08a	0.045136012
29	0x3cf971e6	0.030449819
30	0x3b59f964	0.003326022
31	0xbd6a8220	-0.057253003
32	0xbca2e1aa	-0.019882996
33	0x3d39bd05	0.04534628
34	0x3c9b59a8	0.01896365
35	0x3cd22d76	0.025656443
36	0xbd849b11	-0.06474889
37	0xbc70af8c	-0.014690291
38	0xbd008c1e	-0.031383626
39	0xbcf14697	-0.029452605
40	0x3da03af5	0.07823745
41	0xbcb3f953	-0.021969473
42	0x3c4cbc56	0.012496075
43	0x3da6d4d6	0.08146064
44	0xbce308bd	-0.027714128
45	0x3d29d39a	0.041461565
46	0x3c5eafb1	0.013591693
47	0xbbf083c2	-0.0073399255
48	0xbc024743	-0.00795156
49	0xbc92cf8f	-0.017921237
50	0x3d3757a7	0.044761326
51	0x3d950b23	0.07277515
52	0x3db5bb8a	0.08873661
53	0xbd3f17bc	-0.046653494
54	0xbd716e48	-0.058943063
55	0xbd3d6328	-0.04623714
56	0x3cf4114c	0.029793404
57	0xbd344f6f	-0.044021066
58	0x3ca63692	0.020289693
59	0x3da0e205	0.0785561
60	0xbd027f90	-0.031859934
61	0x3d596856	0.053078018
62	0xbd15a42e	-0.036533527
63	0x3d479a41	0.048731092
64	0x3d85d794	0.06535259
65	0x3d568c18	0.052379698
66	0xbcfee9da	-0.031117368
67	0x3d21013a	0.03930781
68	0x3c4425c4	0.011971895
69	0x3b80df77	0.003932889
70	0x3c87cacb	0.016576191
71	0x3cfd8376	0.030946475
72	0x3d22543e	0.03963112
73	0xbd396374	-0.04526086
74	0x3d39cefb	0.045363408
75	0x3b50c492	0.0031855446
76	0x3d33133c	0.043719515
77	0xbd833bca	-0.06407888
78	0xbcf01a84	-0.029309519
79	0xbcec080f	-0.028812436
80	0x3cc53504	0.024073131
81	0x3ce96c19	0.028493928
82	0xbd082526	-0.033238553
83	0x3d3b949d	0.045796026
84	0xbd04139c	-0.032245263
85	0x3c39d700	0.011342764
86	0xbd304b22	-0.043040402
87	0x3d82f595	0.06394497
88	0x3d3548e2	0.04425896
89	0xbd19a353	-0.037509274
90	0x3c9a6f71	0.018851968
91	0x3d736d94	0.059430674
92	0x3d33ea17	0.043924417
93	0xbd302f4d	-0.04301386
94	0x3b9bde44	0.0047567207
95	0x3d12b386	0.03581574
96	0x3d0824ac	0.033238098
97	0xbd77673a	-0.06040118
98	0x3bd01b90	0.006350942
99	0x3d1ee74d	0.038794804
100	0xbb57d970	-0.0032936
101	0x3cb2efa4	0.021842785
102	0xbcd0750e	-0.025446441
103	0x3d2ca664	0.04215087
104	0x3d29a699	0.041418646
105	0x3d269600	0.040670395
106	0x3d986146	0.074404284
107	0xbc5efca2	-0.013610037
108	0xbd3562ec	-0.044283792
109	0x3d105279	0.035234902
110	0x3d6bdc05	0.057582874
111	0x3d4d3495	0.050098974
112	0x3b5b73b8	0.0033485722
113	0xbbb5ba99	-0.005545926
114	0xba817bb0	-0.0009878781
115	0x3d48d864	0.04903449
116	0xbce0457b	-0.02737688
117	0xbc407b78	-0.011748187
118	0xbd100153	-0.035157513
119	0x3cbd030d	0.023072744
120	0x3d71ec94	0.05906351
121	0xbcc0daf3	-0.023541903
122	0xbca1c5c1	-0.019747617
123	0x3d69ecbb	0.05711053
124	0x3d18ed27	0.03733554
125	0x3d38b757	0.04509672
126	0x3aa5025f	0.0012589208
127	0x3b670ca4	0.0035255337

weight f4 [64, 128]
0	0x3d542951	0.051797215
1	0x3c5b6f2b	0.013393204
2	0x3da1d365	0.079016484
3	0x3da76117	0.08172815
4	0x3b4d3d44	0.0031317035
5	0x3ddd680d	0.10810862
6	0xbd1abd19	-0.037777994
7	0xbdc008ba	-0.093766645
8	0x3cfd599c	0.030926518
9	0x3cb08c4a	0.02155127
10	0xbdadff64	-0.084959775
11	0x3d046ef6	0.032332383
12	0x3d9f1807	0.07768255
13	0xbbfd255c	-0.007725401
14	0x3cbbfca6	0.02294762
15	0x3d31b508	0.043385535
16	0x3dcda0c3	0.100404285
17	0xbb93eab5	-0.0045140632
18	0xbc8374dd	-0.016046936
19	0x3dc2d666	0.095135495
20	0x3d1fb4ca	0.038990773
21	0x3d8d8ab8	0.06911224
22	0x3de53b85	0.11192993
23	0x3de22f5a	0.11044188
24	0x3d9937dd	0.07481358
25	0xbbe6d587	-0.0070444974
26	0x3c8412d3	0.016122257
27	0x3d93c00e	0.07214366
28	0xbd2d5969	-0.042321596
29	0xbd8c3352	-0.06845726
30	0x3d16468e	0.03668838
31	0x3cbcac96	0.023031514
32	0x3d22b441	0.039722685
33	0xbc856fcf	-0.016288666
34	0xbd547ae5	-0.051875014
35	0x3d2081b0	0.03918618
36	0xbbbf9b8c	-0.0058474
37	0x3d9a53d8	0.07535523
38	0xbd8a88ba	-0.0676436
39	0xbc8846ed	-0.016635383
40	0x3d57fcc6	0.052731298
41	0x3d118b62	0.035533316
42	0x3b3fe2e2	0.002927952
43	0x3d0748e5	0.033028502
44	0xbcfa6b37	-0.030568702
45	0x3de76f10	0.1130048
46	0xbd741ed0	-0.059599698
47	0x3d42f39b	0.0475956
48	0xbd4062c2	-0.046969183
49	0x3d936977	0.0719785
50	0x3c850994	0.016239919
51	0xbcd769e4	-0.02629561
52	0xbcb2e0cb	-0.021835705
53	0xbd6d5fcc	-0.057952687
54	0xbd4e65f6	-0.050390206
55	0xbd436e4f	-0.04771262
56	0x3d5af190	0.05345303
57	0x3c9e8214	0.019349135
58	0xbdc48f4f	-0.095976464
59	0x3db6bb38	0.08922428
60	0xbcf8c1cd	-0.030365849
61	0xbcb186ee	-0.021670785
62	0x3d47c851	0.04877502
63	0x3d18c8dd	0.037300933
64	0x3d831d93	0.06402125
65	0x3d71c62c	0.059026882
66	0xbcbd1fb9	-0.023086416
67	0xbd2c2c8f	-0.042034682
68	0x3cf1a435	0.029497245
69	0xbcc9ba03	-0.02462483
70	0xbd15d870	-0.036583364
71	0x3da55f47	0.08074813
72	0xbd9fbd64	-0.07799795
73	0xbdc0c7dd	-0.09413121
74	0x3de21cd6	0.11040656
75	0x3ca3bd91	0.019987853
76	0x3d909561	0.07059742
77	0xbcc0e20b	-0.023545286
78	0xb9684f2d	-0.0002215474
79	0xbd209f1e	-0.039214246
80	0x3cc062f7	0.02348469
81	0x3d0465f5	0.032323796
82	0xbc5a2975	-0.013315548
83	0xbc956efd	-0.0182414
84	0x3cd143a4	0.025544949
85	0x3c1ad6de	0.009450642
86	0x3d2984ec	0.04138653
87	0x3c0d1059	0.008609855
88	0x3c9f1ef7	0.019423945
89	0x3b8c4572	0.0042807395
90	0xbd111b7c	-0.0354266
91	0x3d6daf03	0.058028232
92	0x3dcb4b9d	0.099265315
93	0xbb1add60	-0.0023630485
94	0xbc8184a8	-0.015810326
95	0xbcbbb8b9	-0.022915231
96	0xbd97ca8c	-0.074116796
97	0xbc988bed	-0.01862141
98	0x3d8b67cf	0.06806909
99	0xbc3baf24	-0.011455331
100	0x39945678	0.00028293184
101	0x3cb646a8	0.022250488
102	0xbdbe326a	-0.092869595
103	0x3cfd0491	0.030885966
104	0xbd9f8825	-0.077896394
105	0x3ce2ae02	0.027670864
106	0x3d51a57e	0.051183216
107	0x3d72d5f3	0.05928607
108	0x3d49ed76	0.049298726
109	0x3cde7685	0.027156124
110	0x3c916da1	0.01775247
111	0x3da87c74	0.082268625
112	0x3d7c98d2	0.06166918
113	0x3c18eb5c	0.009333458
114	0x3db2fe8e	0.08739959
115	0xbce4ac05	-0.027914057
116	0xbb0e3eb3	-0.0021704852
117	0xbd539753	-0.051657986
118	0x3d80f357	0.062964134
119	0xbbc26ead	-0.0059336037
120	0xbc69e8a4	-0.014276657
121	0xbd7fb400	-0.06242752
122	0xbd1ca4a7	-0.038242962
123	0x3d8f6ed9	0.070035644
124	0xbd923cb3	-0.07140484
125	0x3d0e30bb	0.03471444
126	0x3d115269	0.035478983
127	0xbd9bca2b	-0.0760692
128	0xbd85ef47	-0.06539779
129	0x3d809603	0.062786125
130	0x3d139d23	0.03603853
131	0x3db1d45a	0.08683081
132	0xbdade456	-0.08490817
133	0xbb7b77a9	-0.0038370884
134	0x3d02ae93	0.03190477
135	0xbd9535b4	-0.07285634
136	0x3d036a8d	0.032084037
137	0xbd49e5d5	-0.04929145
138	0xbd8cbd80	-0.06872082
139	0xbda9c502	-0.082895294
140	0xbc68bff3	-0.0142059205
141	0x3d32209d	0.043488134
142	0xbbee9d4c	-0.007281935
143	0xba97a483	-0.0011569414
144	0xbd21e4bc	-0.03952478
145	0x3d886c4d	0.06661282
146	0xbda55af2	-0.08073987
147	0x3ce842b5	0.02835212
148	0x3ce55c52	0.027998123
149	0x3d80b3ef	0.062843196
150	0xbd7152fd	-0.058917034
151	0x3db458ef	0.08806025
152	0xbd841576	-0.06449406
153	0x3d475e54	0.048673943
154	0xbd5b89d1	-0.05359823
155	0x3d7ecb3d	0.062205542
156	0xbcd35b4e	-0.025800373
157	0x3cfba29b	0.030717185
158	0x3d089c4d	0.033352185
159	0x3d65b72e	0.056082897
160	0xbd9c5b17	-0.076345615
161	0x3b172464	0.0023062462
162	0xbcb42921	-0.021992268
163	0x3c6833a3	0.014172467
164	0x3d04d3a8	0.032428414
165	0x3dc2f0b1	0.095185645
166	0xbc373bcf	-0.011183693
167	0x3d83edf0	0.06441867
168	0x3d277e5c	0.04089199
169	0x3d10ab09	0.03531936
170	0xbd7a0f4a	-0.061049737
171	0x3c3a0b70	0.011355266
172	0xbcbf977c	-0.023387663
173	0x3cb978f4	0.022640683
174	0x3ca58308	0.020204082
175	0xbcbef408	-0.023309723
176	0x3d2fa45c	0.042881355
177	0x3d78a772	0.060706563
178	0xbd95e223	-0.07318523
179	0xbcff1af4	-0.031140782
180	0xbd814858	-0.063126266
181	0xbd0bf01c	-0.034164533
182	0x3bbd9b5b	0.005786342
183	0x3dc0c296	0.09412114
184	0xbd05855c	-0.032597885
185	0x3ccdea9b	0.025136283
186	0xbda614c8	-0.081094325
187	0xbd8bdc4a	-0.06829126
188	0x3932feb7	0.00017070292
189	0x3b872341	0.0041240756
190	0x3d99a2e7	0.07501774
191	0x3dc95080	0.09829807
192	0xbd9ac25c	-0.07556602
193	0xbdb9a82e	-0.09065281
194	0xbd9ff5a9	-0.07810528
195	0x3d2dcfd2	0.04243452
196	0xbd819f42	-0.06329204
197	0xbda167d3	-0.07881131
198	0xbc7edb2b	-0.015555183
199	0x3de40ef7	0.11135667
200	0xbd4a81b9	-0.04944012
201	0x3d775bf4	0.060390428
202	0x3c82e757	0.015979452
203	0x3dd72ef9	0.10507006
204	0x3c920f1e	0.017829474
205	0x3d77d681	0.0605073
206	0xbc9cb820	-0.019130766
207	0xbc4840c2	-0.012222471
208	0xbd5f1f52	-0.05447323
209	0x3d9f3854	0.077744156
210	0xbd8c9a17	-0.06865328
211	0x39fd63ca	0.0004833027
212	0x3daa1fa9	0.0830682
213	0x3c8c174a	0.017100949
214	0x3dae4502	0.08509256
215	0xbd6673db	-0.056262832
216	0xbd7fb20a	-0.06242565
217	0x3d0bff48	0.034179002
218	0xbda5eb81	-0.081015594
219	0x3c1a706a	0.009426216
220	0x3c8e9908	0.017406955
221	0xbc95f32f	-0.018304436
222	0x3c95bb6b	0.018277844
223	0x3d9bcd27	0.07607489
224	0x3c2900ce	0.010315133
225	0x3c9f35ef	0.019434897
226	0xbdbc38ec	-0.091905445
227	0x3c8582ce	0.016297724
228	0x3db078d6	0.086167976
229	0x3c3513a5	0.011052047
230	0xbd803458	-0.06259984
231	0xbd20393d	-0.039117087
232	0x3cad0aea	0.021123368
233	0xbcead1f2	-0.028664563
234	0x3d196a69	0.037454996
235	0xbd173c16	-0.036922537
236	0xbd5c3c45	-0.053768415
237	0x3d9482ec	0.07251534
238	0xbc829165	-0.01593847
239	0x3dc9aaf4	0.0984706
240	0x3dbcf63c	0.09226653
241	0x3b99bdb4	0.004691804
242	0xbc41abc2	-0.011820735
243	0xbd880f86	-0.06643586
244	0xbdcee631	-0.10102499
245	0xbd0f402b	-0.034973305
246	0xbd9638a3	-0.07335021
247	0x3c617f7d	0.013763306
248	0x3d707f09	0.0587149
249	0x3d52c54d	0.051457692
250	0x3d835fc9	0.06414754
251	0x3c20115c	0.009769764
252	0x3d7c7fe7	0.061645415
253	0x3d6f0c9e	0.058361642
254	0x3d16ceed	0.036818434
255	0xbc4b1571	-0.012395249

bias f4 [64]
0	0xbc5b215b	-0.013374652
1	0x3caef74d	0.021358157
2	0x3da01e50	0.07818282
3	0xbc9f625e	-0.019456085
4	0x3d07f44c	0.033191964
5	0x3d62e9ae	0.055398636
6	0x3d838ceb	0.06423362
7	0x3d1678ce	0.036736302
8	0xbdb1070d	-0.08643923
9	0x3beed9a4	0.0072891284
10	0x3d3c97e8	0.046043307
11	0xbc4f2531	-0.0126431445
12	0x3dba1020	0.09085107
13	0x3c411205	0.011784081
14	0xba5838f0	-0.00082482304
15	0xbce8e3ba	-0.028428901
16	0xbc6458ee	-0.013937218
17	0x3d8d2136	0.068911
18	0xbd4b4b8f	-0.049632605
19	0x3d6cc881	0.057808403
20	0xbd36a917	-0.04459485
21	0xbda41530	-0.08011854
22	0xbc130a61	-0.0089746425
23	0x3bad9ac5	0.005297991
24	0xbd24a581	-0.0401969
25	0x3dba260c	0.09089288
26	0xbc6a8b0a	-0.014315376
27	0x3cd1f2fa	0.025628556
28	0x3d792225	0.06082358
29	0xbcdfa739	-0.027301418
30	0xbd67c335	-0.05658265
31	0x3dc08dd5	0.09402052
32	0x3dd8ffa7	0.10595637
33	0x3d2493dc	0.040180072
34	0x3da4c8f3	0.080461405
35	0xbd2c70c9	-0.042099748
36	0xbcbc0831	-0.022953125
37	0x3c6c5357	0.014424167
38	0x3d8d3f02	0.068967834
39	0xbc550ab2	-0.013003038
40	0x3d7fe450	0.062473595
41	0x3d38e0c8	0.045136243
42	0x3c4adb21	0.012381346
43	0x3cea722e	0.028618898
44	0x3d5072d5	0.050890762
45	0x3dd225b3	0.10261097
46	0x3d678a55	0.056528408
47	0x3cec4389	0.028840797
48	0xbd862288	-0.06549555
49	0x3c9601aa	0.01831134
50	0x3d587c51	0.052852932
51	0x3db2a9ec	0.08723816
52	0x3a8e8383	0.0010872934
53	0x3daa2cd2	0.0830933
54	0xbcc16e99	-0.023612307
55	0xbd8b0c73	-0.06789484
56	0x3d9605a4	0.073252946
57	0x3db59fe6	0.08868389
58	0xbd4d1d0f	-0.05007654
59	0xbd027ee2	-0.031859286
60	0xbd5df08f	-0.054184493
61	0xbc91729d	-0.017754847
62	0x3d9b40e0	0.07580733
63	0x3ce7a829	0.028278427

weight f4 [5, 64]
0	0xbca417f3	-0.020030951
1	0xbd9dda8d	-0.07707701
2	0x3df31f73	0.11871233
3	0x3dfe2bc3	0.12410691
4	0x3c2a72df	0.010403364
5	0x3dbb0e5c	0.09133598
6	0x3d36a0e0	0.044587016
7	0x3e268c53	0.16264467
8	0xbdb5ca6a	-0.08876498
9	0x3decb022	0.11557032
10	0xbdd2ec7a	-0.102990106
11	0x3da30a99	0.07961006
12	0x3c2a035b	0.010376777
13	0xbdb9d91a	-0.09074612
14	0x3cd6fd32	0.02624378
15	0xbdebf7cd	-0.115218736
16	0x3de8354d	0.11338291
17	0x3e064822	0.13113454
18	0xbd0642da	-0.0327786
19	0xbde307ef	-0.110854976
20	0xbd41aec9	-0.04728583
21	0xbe0f957d	-0.14021869
22	0xbd4c5261	-0.04988325
23	0x3ceededd	0.029159004
24	0x3d677759	0.056510303
25	0x3d9925bb	0.074779
26	0x3c3767c2	0.011194171
27	0xbc44c7e3	-0.012010547
28	0x3dc4832d	0.09595332
29	0xbd2e87c6	-0.042609952
30	0x3d3545ea	0.04425613
31	0x3e1e4e02	0.15459445
32	0xbc398c45	-0.011324947
33	0x3e217fae	0.15771362
34	0xbdcc7bad	-0.09984527
35	0xbdc871e8	-0.09787351
36	0xbe298ca8	-0.16557562
37	0x3db7058a	0.08936603
38	0xbafaed3d	-0.0019144189
39	0x3d219446	0.039448045
40	0x3d397e46	0.04528644
41	0xbe09a31e	-0.1344113
42	0x3d809e55	0.062801994
43	0xbb12affc	-0.0022382727
44	0x3c864405	0.016389856
45	0x3d11d7c0	0.035606146
46	0x3df8ad5e	0.12142442
47	0xbdcf367b	-0.10117813
48	0xbdb7f43b	-0.0898213
49	0xbda6d18e	-0.08145438
50	0x3d3fdac5	0.046839494
51	0xbe2e6739	-0.17031564
52	0x3da8958d	0.082316495
53	0xbdaf1303	-0.08548548
54	0xbd5ef7bf	-0.054435488
55	0x3bde45ca	0.006783222
56	0x3e17502c	0.14776677
57	0x3e0da213	0.13831358
58	0x3de39554	0.111124665
59	0x3d3d89c2	0.046273954
60	0xbdee3b33	-0.11632385
61	0x3e116297	0.14197765
62	0xbc84dbb4	-0.016218044
63	0xbe02d531	-0.12776639
64	0x3d19edd3	0.037580322
65	0x3e12c71a	0.14333764
66	0xbc938fd4	-0.018012919
67	0xbe060d23	-0.13090949
68	0xbcf60751	-0.030032786
69	0xbe025934	-0.12729341
70	0x3dddade6	0.10824184
71	0xbdd7ebf9	-0.10543055
72	0x3dba13c0	0.09085798
73	0x3dbc1d1c	0.0918524
74	0x3d9d3564	0.07676199
75	0xbbc43da2	-0.0059887925
76	0x3db7ee15	0.089809574
77	0x3c91c210	0.017792732
78	0xbd159f8a	-0.0365291
79	0xbdf3da90	-0.11906922
80	0xbdc0daec	-0.09416756
81	0x3dac75bc	0.084208935
82	0x3898dc69	7.2889794e-05
83	0x3ca0b062	0.019615356
84	0x3d3e6c7f	0.04649019
85	0x3e0577cb	0.13033979
86	0x3da670a7	0.081269555
87	0x3cbbd7f8	0.02293013
88	0x3dc00af7	0.093770914
89	0xbdf31f10	-0.11871159
90	0x3b9dae72	0.0048120553
91	0x3d812e63	0.06307676
92	0xbd4ae814	-0.049537733
93	0x3e11ad4c	0.14226264
94	0xbc5f508e	-0.013630046
95	0x3c89af8c	0.01680734
96	0x3df2e2f2	0.11859693
97	0xbb00d52f	-0.0019658317
98	0x3de4e66e	0.111767635
99	0xbbf0226e	-0.007328323
100	0x3d25ed8d	0.04050975
101	0xbde1f578	-0.110331476
102	0xbdcf0b62	-0.10109593
103	0xbd94142b	-0.07230409
104	0x3e0a6b36	0.1351746
105	0xbdd07198	-0.10177916
106	0xbdc9ad19	-0.09847469
107	0xbd40ec94	-0.04710062
108	0x3d48a53e	0.048985712
109	0x3d1b38de	0.03789603
110	0xbdb9eaae	-0.09077965
111	0x3d43a3f0	0.047763765
112	0x3dc503ac	0.09619841
113	0x3cedd945	0.029034266
114	0x3ca4f483	0.020136124
115	0xbcd6f9d8	-0.026242182
116	0xbd78b691	-0.060720984
117	0x3e10ade4	0.14128834
118	0x3e04e18b	0.12976663
119	0x3dce6e56	0.10079639
120	0x3d32e2c5	0.043673296
121	0x3d5dda97	0.05416354
122	0x3cdb9751	0.026805552
123	0x3db9a0ee	0.09063898
124	0x3dc511bd	0.09622524
125	0x3d35ee3d	0.044416655
126	0xbca842a7	-0.020539595
127	0xbcc75963	-0.024334615
128	0xbd67c451	-0.056583706
129	0xbde6c4fb	-0.1126804
130	0x3de72184	0.112856895
131	0xbd922916	-0.07136743
132	0x3b77b724	0.003779837
133	0xbdcc622b	-0.099796616
134	0xbd4651b6	-0.04841777
135	0x3d8a7f57	0.067625694
136	0x3c8b8db1	0.017035337
137	0x3d526dd3	0.051374268
138	0xbca48a8b	-0.020085594
139	0xbe01a5d8	-0.1266092
140	0x3df48488	0.11939341
141	0xbda1953d	-0.07889793
142	0xbc2c862e	-0.010530038
143	0xbdd35720	-0.10319352
144	0x3d9c96a5	0.07645921
145	0x3ddbdd6e	0.10735594
146	0xbd111e6f	-0.035429414
147	0xbda49454	-0.08036104
148	0x3d9d6fba	0.07687326
149	0x3d4a066f	0.04932254
150	0x3db07bd7	0.086173706
151	0x3dad282a	0.08454926
152	0x3d9dd60a	0.0770684
153	0xbce46218	-0.027878806
154	0xbe028d00	-0.127491
155	0xbd84c248	-0.06482369
156	0xbccf5138	-0.025307283
157	0x3daa298e	0.08308707
158	0xba9dbb8f	-0.0012034046
159	0x3d6160ad	0.055023838
160	0xbd0d5044	-0.034500375
161	0xbda04a0e	-0.07826625
162	0x3d7cb953	0.061700176
163	0xbdd07648	-0.1017881
164	0x3ddf29f0	0.10896671
165	0x3daeed1a	0.08541317
166	0x3dd9cf03	0.106351875
167	0x3db080e2	0.086183324
168	0xbd81adb0	-0.063319564
169	0x3d9039bd	0.07042263
170	0x3d485f19	0.048918817
171	0x3d59f206	0.053209327
172	0xbd88ebd5	-0.066856064
173	0x3d631447	0.05543926
174	0xbdf0ab80	-0.11751461
175	0xbce6a7d8	-0.028156206
176	0xbd84a4d2	-0.064767495
177	0xbd7e202f	-0.06204241
178	0x3c6ae7dc	0.014337506
179	0xbdbc9e85	-0.09209923
180	0x3cfc2c9c	0.03078299
181	0xbdb8d830	-0.090256095
182	0x3bf79925	0.007556098
183	0xbd7cc166	-0.061707877
184	0x3dd9e389	0.10639102
185	0xbddf09bc	-0.108905286
186	0xbd1fee99	-0.039045904
187	0xbc5e9201	-0.013584615
188	0x3da05205	0.07828144
189	0x3db53bdb	0.08849307
190	0x3d9ac455	0.075569786
191	0xba474ff6	-0.00076031627
192	0x3d6757bc	0.056480154
193	0xbdc96475	-0.09833614
194	0xbd49d62e	-0.049276523
195	0x3bbc4828	0.0057459064
196	0x3cf1f38e	0.029535081
197	0xbcf5b0f1	-0.029991599
198	0xbdb2c972	-0.08729829
199	0x3de0990e	0.10966693
200	0x3dd92189	0.106020994
201	0x3d577a0f	0.05260664
202	0x3d6aa6c8	0.05728796
203	0x3cacba8d	0.021085048
204	0xbd06c78b	-0.032905143
205	0xbb68d3d6	-0.0035526655
206	0x3d3ffe4d	0.04687338
207	0x3b393708	0.002826156
208	0x3d93792e	0.072008476
209	0xbd30c617	-0.043157663
210	0xbbc63076	-0.0060482575
211	0xbd83a99c	-0.06428835
212	0xbdefef39	-0.1171555
213	0x3be3b151	0.006948628
214	0xbd5b9856	-0.053612076
215	0x3e00ac37	0.12565695
216	0x3cc42ed6	0.023948114
217	0xbdeb65b6	-0.11494009
218	0x3e012ff6	0.12615952
219	0x3d09cf13	0.033644747
220	0x3d44edbb	0.04807828
221	0x3cba7418	0.022760436
222	0x3dc3a824	0.09553555
223	0xbdfee0f2	-0.12445249
224	0x3ca99756	0.020702045
225	0x3c1dbbec	0.009627324
226	0x3beaaade	0.0071614822
227	0xbcaa8e53	-0.020819819
228	0x3ddb3890	0.10704148
229	0xbb90c4ad	-0.004417977
230	0xbda36707	-0.07978635
231	0x3da718a7	0.08158999
232	0xbc059370	-0.008152828
233	0x3d81e248	0.06341988
234	0xbd504047	-0.05084255
235	0x3dbceaff	0.092245094
236	0xbd7aa9c8	-0.061197072
237	0x3bd989c4	0.0066387374
238	0x3cd793e1	0.026315631
239	0x3db1a4c1	0.086740024
240	0x3d356db5	0.044294078
241	0x3da82cb1	0.08211649
242	0xbd19b4d1	-0.037525956
243	0x3d81869b	0.06324502
244	0xbd9afe26	-0.07568006
245	0xbdab7cf6	-0.08373444
246	0x3d83f68a	0.06443508
247	0xbd86d354	-0.065832764
248	0x3d844a17	0.06459444
249	0x3d966e6f	0.07345282
250	0x3c41ff07	0.011840588
251	0x3c2a0837	0.010377935
252	0xbd59cdfc	-0.053174958
253	0x3c351253	0.011051732
254	0x3d21da98	0.039515108
255	0x3d8298b7	0.06376784

bias f4 [5]
0	0x3df4a57e	0.11945628
1	0xbdda5dcc	-0.106624216
2	0x3dd86c25	0.10567502
3	0x3de8fe89	0.11376674
4	0xbc63d16f	-0.013904913
