Policy-Gradients/Poker-Agent/checkpoint_20000.pt (torch, 227369 bytes, 8 tensors)

weight f4 [256, 55]
-0.021002766 -0.03749314 -0.10285984 -0.02473959 0.11613745 0.14420137 -0.041207034 0.023843322
0.049966555 0.08836752 0.1182459 -0.0106638055 0.09439355 0.07252778 -0.0046614753 0.1372126
0.11316801 -0.025895325 -0.025768071 0.08602758 -0.048919674 -0.12122344 -0.03973009 -0.020222267
-0.0053989305 -0.096062355 -0.111545585 -0.080185 -0.044595663 0.09620842 -0.10089825 -0.004887595
-0.08373727 0.035536207 0.062390093 -0.09240158 0.031338036 -0.09935864 0.07516006 0.046642028
-0.058244873 -0.08645962 0.10533133 -0.0704802 -0.083328016 0.046123207 -0.03441488 0.03287757
0.0039131097 0.012398184 -0.11141764 -0.0666031 0.011069268 -0.025237603 0.11900676 0.07163206
-0.12633024 0.082836635 0.033799887 -0.12605646 -0.089333504 0.10479495 -0.008091207 -0.0494381
-0.040138904 0.084414594 -0.05669078 -0.015258438 -0.13635336 0.06816512 -0.0048836996 0.09418435
0.12400426 -0.14029703 -0.060828887 0.09552666 0.0116933575 0.124913625 -0.0771663 0.028247029
0.015389043 0.07225647 -0.035355512 0.11388983 -0.016336076 -0.01108248 -0.1189311 0.12073935
-0.080993555 0.068393596 -0.049253784 0.034925863 -0.11921421 0.080965444 -0.12027545 -0.10292073
-0.05892967 -0.04122578 0.1276178 -0.03609507 0.08537972 -0.047863 0.0867173 -0.020306723
-0.07462512 0.100153126 -0.06829147 -0.0070963292 0.05622393 -0.09591176 -0.09311047 0.11905748
0.08681355 0.06038891 0.13765182 0.08430599 0.08227837 0.06401708 0.06348587 -0.12801397
0.05973502 0.114449635 0.045499027 -0.0124758445 0.087715305 0.028189551 0.08689013 0.12224596
-0.013264173 0.082451835 0.0074904896 0.037456427 0.02148902 0.11293285 -0.008227772 -0.1286761
-0.052710526 0.13664678 -0.04231108 0.052601222 -0.09099949 0.0047640894 0.026274404 0.1070663
-0.01824112 -0.07931815 0.100508444 -0.04167802 -0.069996245 0.08430214 -0.030779803 0.07060999
0.1270548 -0.054265283 -0.08680601 -0.095583774 -0.012390122 -0.12664801 0.045458 -0.020097284
0.106004536 -0.08681322 0.12606381 -0.0742565 0.0974113 -0.025225041 -0.052851424 0.06127909
0.12180236 -0.037608467 -0.007684842 0.05826331 0.11508968 0.19427066 -0.10854605 0.012425797
0.123276226 -0.061798792 0.048908107 -0.10888528 0.056714892 -0.0813311 0.027350603 0.1242036
-0.08188041 0.09367491 -0.1371875 0.13771135 0.11518436 0.18801968 0.031302568 0.010951164
-0.0730418 0.050911486 -0.026072074 -0.07779686 -0.006431992 -0.019943308 0.079045035 0.043081876
-0.015716325 -0.049028557 -0.09105607 -0.022970658 0.10257489 0.032340568 -0.119099855 -0.04604646
0.1239633 -0.07468418 -0.12990332 -0.13475083 -0.009759338 0.096122794 0.06513055 -0.018117461
0.078975484 -0.00262208 0.06859472 0.04349907 0.05779158 0.12863538 -0.08770878 -0.1230084
0.050107118 -0.09980245 -0.04170744 0.089221075 -0.15580162 -0.052155323 -0.088594586 -0.009378181
0.10086532 0.12705402 -0.056882475 -0.043378025 -0.1397507 0.112993546 0.10063578 0.11805367
-0.14345719 -0.07003121 -0.061350122 -0.017508414 0.020064611 -0.090312384 0.01870808 -0.04729778
-0.0874414 -0.10391481 0.13334784 0.05903528 0.08125799 0.049057513 0.07250077 -0.12484041
00000000: fe0d acbc 6892 19bd 2ea8 d2bd aeaa cabc
00000010: 79d9 ed3d 86a9 133e b5c8 28bd 1253 c33c
00000020: bba9 4c3d 08fa b43d e82a f23d 3eb7 2ebc
00000030: 6851 c13d 7289 943d 4abf 98bb 7681 0c3e
00000040: a1c4 e73d 6f22 d4bc 9017 d3bc 3a2f b03d
00000050: ff5f 48bd ff43 f8bd 05bc 22bd 2ba9 a5bc
00000060: 83e9 b0bb 57bc c4bd 0372 e4bd 0938 a4bd
00000070: f1a9 36bd ec08 c53d bea3 cebd 1e28 a0bb
00000080: 727e abbd 6a8e 113d c18c 7f3d 0a3d bdbd
00000090: 505c 003d 8b7c cbbd 84ed 993d b60b 3f3d
000000a0: 2d92 6ebd be11 b1bd f4b7 d73d ec57 90bd
000000b0: e1a7 aabd b0eb 3c3d 9ef6 0cbd a1aa 063d
000000c0: 8b39 803b c121 4b3c ee2e e4bd 3567 88bd
000000d0: e05b 353c 17bf cebc d1b9 f33d d4b3 923d
000000e0: b75c 01be 41a6 a93d c071 0a3d f214 01be
000000f0: 7cf4 b6bd bc9e d63d fb90 04bc 9b7f 4abd
00000100: b168 24bd 8fe1 ac3d 9734 68bd 87fe 79bc
00000110: 37a0 0bbe 289a 8b3d 7107 a0bb b9e3 c03d
00000120: f2f5 fd3d 06aa 0fbe b627 79bd 7ba3 c33d
00000130: 7f95 3f3c b7d2 ff3d 5d09 9ebd 5066 e73c
00000140: 5322 7c3c 33fb 933d f1d0 10bd 123f e93d
00000150: 3cd3 85bc 4a93 35bc 2692 f3bd 3146 f73d
00000160: f3df a5bd f111 8c3d 56be 49bd 6c0e 0f3d
00000170: 9426 f4bd 36d1 a53d fa52 f6bd 1bc8 d2bd
00000180: 3d60 71bd 5ddc 28bd 3eae 023e 6dd8 13bd
00000190: 90db ae3d fe0b 44bd d798 b13d 495a a6bc
000001a0: 0ed5 98bd 151d cd3d 66dc 8bbd 5388 e8bb
000001b0: 104b 663d 636d c4bd b4b0 bebd 68d4 f33d
000001c0: 4dcb b13d 5d5a 773d 99f4 0c3e 9ea8 ac3d
000001d0: 9081 a83d 631b 833d e104 823d 1816 03be
000001e0: b5ac 743d 9264 ea3d 305d 3a3d 7c67 4cbc
000001f0: 15a4 b33d c6ed e63c 74f3 b13d 175c fa3d
00000200: f951 59bc 82dc a83d c872 f53b e96b 193d
00000210: be09 b03c 5749 e73d c7cd 06bc abc3 03be
00000220: fee6 57bd 22ed 0b3e 624e 2dbd 6174 573d
00000230: f15d babd 141c 9c3b 6b3d d73c 9445 db3d
00000240: 676e 95bc 8e71 a2bd 5fd7 cd3d 92b6 2abd
00000250: 315a 8fbd 9aa6 ac3d ed25 fcbc f89b 903d
00000260: a71a 023e 4645 5ebd 59c7 b1bd 6dc1 c3bd
00000270: f0ff 4abc 04b0 01be 2b32 3a3d 0fa3 a4bc
00000280: e818 d93d 21cb b1bd df16 013e cb13 98bd
00000290: 937f c73d bfa4 cebc bc7a 58bd c8ff 7a3d
000002a0: 8473 f93d 560b 1abd 21d1 fbbb 82a5 6e3d
000002b0: 23b4 eb3d e3ee 463e 644d debd 9295 4b3c
000002c0: 3f78 fc3d bb20 7dbd de53 483d 3fff debd
000002d0: e04d 683d eb90 a6bd 5f0e e03c 755e fe3d
000002e0: ebb0 a7bd a2d8 bf3d e17a 0cbe 3404 0d3e
000002f0: c7e5 eb3d 3b88 403e 1f37 003d 836c 333c
00000300: f096 95bd 9088 503d 1a95 d5bc f653 9fbd
00000310: 76c3 d2bb 2660 a3bc 5de2 a13d 9f76 303d
00000320: 86bf 80bc 2bd2 48bd 9b7b babd f62c bcbc
00000330: c912 d23d 8b77 043d a0ea f3bd 369b 3cbd
00000340: 78e0 fd3d 05f4 98bd 6005 05be 1ffc 09be
00000350: a1e5 1fbc 07dc c43d 2a63 853d 126b 94bc
00000360: e6bd a13d 34d7 2bbb 637b 8c3d 152c 323d
00000370: ddb6 6c3d feb8 033e a9a0 b3bd d4eb fbbd
00000380: 1f3d 4d3d 3a65 ccbd 6cd5 2abd 8ab9 b63d
00000390: 768a 1fbe d2a0 55bd 1471 b5bd f1a6 19bc
000003a0: 7a92 ce3d 731a 023e 99fd 68bd 28ad 31bd
000003b0: cf1a 0fbe 2969 e73d 221a ce3d 1fc6 f13d
000003c0: 71e6 12be 866c 8fbd 444a 7bbd ce6d 8fbc
000003d0: 8a5e a43c b3f5 b8bd b041 993c 51bb 41bd
000003e0: 7a14 b3bd 4ad1 d4bd 568c 083e face 713d
000003f0: 976a a63d 88f0 483d 497b 943d 54ac ffbd

bias f4 [256]
0.003953368 0.07497078 -0.08126432 0.022239776 -0.025551854 0.13890104 -0.056781832 -0.05407319
-0.04402212 -0.07637877 0.021648264 -0.10894442 0.09233398 0.058980305 0.1202456 0.13335344
-0.008238633 0.1012305 0.056883775 0.08874272 0.092079796 0.08937926 -0.042146657 0.11906976
0.07076923 -0.09891451 0.046960022 0.13417417 -0.022382999 0.09123315 0.13878183 -0.05223878
2.7088437e-05 0.07111271 -0.0116092125 0.014137561 0.11666142 -0.052124374 -0.004261941 -0.082646005
0.11519997 0.15766613 -0.03405958 0.09891712 0.021534955 0.12194163 0.13865782 0.069449864
-0.110865705 0.11494869 -0.09204217 0.10579354 -0.0010652392 -0.12617259 -0.004376459 0.08327776
-0.0975067 0.066579826 -0.11244727 0.034506455 -0.10168093 -0.00399547 0.018094696 -0.039043
-0.00029619387 0.023229005 -0.037403554 0.14315057 0.026820775 0.08492592 -0.10795112 -0.060394894
-0.086931616 0.04639487 -0.08907345 0.14055222 0.06625143 0.15348648 0.098856956 -0.106105804
-0.008076866 -0.025908219 0.12060518 0.0074915816 -0.11639943 0.072660066 0.04430214 -0.09961056
-0.10223796 0.019490058 -0.14051141 -0.10628769 0.06419899 0.029769132 0.013445922 -0.051122073
-0.07883377 0.08983376 0.011310001 0.06570856 -0.12746292 0.036235187 -0.055050474 -0.10847767
0.1002583 0.11236592 -0.026369272 -0.034219496 0.15574439 -0.0999895 -0.018388357 0.114884235
0.09895571 0.025047047 0.0068830866 0.035032284 -0.12174885 -0.085457176 0.106246844 0.03353833
-0.02452205 -0.06813597 0.06688553 -0.116490185 0.031721294 0.060720276 -0.11920281 -0.052736185
0.08834141 0.10453124 -0.095059425 0.081993684 -0.017934555 0.05992736 -0.014995991 -0.06113762
0.041729163 0.056466546 -0.020134887 -0.077494174 0.059345663 -0.11696392 0.07303071 -0.038976267
-0.0954695 -0.0049464717 -0.121348865 0.042633884 0.02658505 0.15296997 -0.049725316 0.0052181934
0.052443963 -0.1051246 -0.12731509 0.11660306 0.072139814 0.094316125 0.10999472 -0.06605416
0.013420663 0.05859066 0.068390034 0.0901377 0.14122641 0.12971376 -0.043295767 0.09846821
0.15369834 0.014111517 -0.10988958 0.021185825 -0.05282177 0.09975046 0.06654857 0.106106095
-0.0037447782 -0.048723698 -0.11275619 0.07236967 0.12266871 -0.043774024 -0.07014872 -0.036164075
0.0022561376 -0.12348439 0.046647068 0.1362258 0.11011908 -0.09898201 -0.11574509 0.09065238
0.029706044 0.12513427 0.08280524 0.08887812 0.052326374 0.01776718 -0.031963743 0.0788693
-0.055088315 0.019435816 -0.09368616 0.12503025 0.08146543 -0.032843307 0.0297401 0.030636372
-0.07976441 -0.045210313 0.012008655 0.102757454 -0.047985785 0.11154899 -0.105309226 0.03438793
-0.019969411 -0.013474335 0.035515778 0.012842987 -0.12344579 0.15066643 -0.07866769 0.05468982
-0.054237343 0.15229554 -0.09621378 0.09012561 0.007360875 0.12080967 -0.09320831 -0.117534965
0.09944246 0.031610936 -0.022954054 0.061920803 -0.04369393 -0.056573935 0.07391136 -0.031504642
0.0639174 0.05537359 0.015539485 0.0342321 -0.022847485 0.13107803 -0.037437856 0.10591016
0.069220096 0.110735476 -0.034899008 0.037103064 0.05130606 0.06981016 -0.03313509 0.050854888
00000000: 418b 813b 488a 993d e86d a6bd 3130 b63c
00000010: 1f52 d1bc 133c 0e3e 1194 68bd d97b 5dbd
00000020: 8a50 34bd 796c 9cbd b357 b13c 411e dfbd
00000030: 9919 bd3d 5595 713d 5343 f63d ce8d 083e
00000040: 55fb 06bc f051 cf3d f6fe 683d bebe b53d
00000050: 5594 bc3d 790c b73d f9a1 2cbd d9da f33d
00000060: 75ef 903d b193 cabd 2759 403d f464 093e
00000070: 8d5c b7bc 72d8 ba3d d31c 0e3e 55f8 55bd
00000080: fa3b e337 8aa3 913d 9134 3ebc 3ba1 673c
00000090: 2fec ee3d 5e80 55bd c1a7 8bbb 4f42 a9bd
000000a0: f6ed eb3d 3b73 213e 0f82 0bbd 0f95 ca3d
000000b0: 136a b03c 89bc f93d 51fc 0d3e bb3b 8e3d
000000c0: 8f0d e3bd 386a eb3d 9b80 bcbd 49aa d83d
000000d0: 7f9f 8bba 6333 01be 6668 8fbb 888d aa3d
000000e0: 98b1 c7bd 015b 883d c14a e6bd a456 0d3d
000000f0: 173e d0bd 6eec 82bb 543b 943c 8eeb 1fbd
00000100: 784a 9bb9 c14a be3c 7834 19bd 1096 123e
00000110: 3eb7 db3c a4ed ad3d 7a15 ddbd a360 77bd
00000120: 3409 b2bd 8c08 3e3d 246c b6bd ecec 0f3e
00000130: d4ae 873d 8f2b 1d3e 8475 ca3d 004e d9bd
00000140: d554 04bc 793d d4bc d9ff f63d f17b f53b
00000150: d362 eebd cdce 943d 2976 353d 9f00 ccbd
00000160: 2362 d1bd 9da9 9f3c 39e2 0fbe 5cad d9bd
00000170: c37a 833d 65de f33c 494c 5c3c 6165 51bd
00000180: 9973 a1bd c3fa b73d 954d 393c 3692 863d
00000190: a485 02be 596b 143d 9b7c 61bd 8a29 debd
000001a0: 3954 cd3d 1a20 e63d 5f04 d8bc be29 0cbd
000001b0: 757b 1f3e 4cc7 ccbd 2ea3 96bc 6d48 eb3d
000001c0: 4ba9 ca3d 772f cd3c 848b e13b 037e 0f3d
000001d0: 7657 f9bd 2c04 afbd f297 d93d 7d5f 093d
000001e0: 77e2 c8bc df8a 8bbd 48fb 883d 6892 eebd
000001f0: 30ee 013d d3b5 783d 9a20 f4bd e601 58bd
00000200: 57ec b43d 7a14 d63d 84ae c2bd 4eec a73d
00000210: 7deb 92bc 6476 753d bfb1 75bc 716b 7abd
00000220: 33ec 2a3d 7749 673d ebf1 a4bc 44b5 9ebd
00000230: 7014 733d c88a efbd 2091 953d 94a5 1fbd
00000240: 8385 c3bd 0316 a2bb c185 f8bd dea0 2e3d
00000250: e4c8 d93c 29a4 1c3e c6ac 4bbd 61fd aa3b
00000260: 7bcf 563d 914b d7bd e35e 02be 96cd ee3d
00000270: 0abe 933d d028 c13d e944 e13d 6747 87bd
00000280: 57e2 5b3c c3fc 6f3d 1310 8c3d 1d9a b83d
00000290: a89d 103e afd3 043e e756 31bd b3a9 c93d
000002a0: 1963 1d3e fe33 673c ca0d e1bd e58d ad3c
000002b0: a45b 58bd f849 cc3d 9e4a 883d 274e d93d
000002c0: f46a 75bb 8092 47bd b8ec e6bd 8d36 943d
000002d0: bc39 fb3d 644c 33bd 22aa 8fbd c820 14bd
000002e0: b5db 133b 62e5 fcbd ff10 3f3d c77e 0b3e
000002f0: 1d86 e13d 14b7 cabd c30b edbd f4a7 b93d
00000300: 175a f33c 3323 003e cb95 a93d bb05 b63d
00000310: 2e54 563d 7a8c 913c 6aec 02bd 3a86 a13d
00000320: 49a4 61bd dc37 9f3c 88de bfbd ee07 003e
00000330: 59d7 a63d b486 06bd 83a1 f33c 21f9 fa3c
00000340: 865b a3bd 732e 39bd f3bf 443c 8072 d23d
00000350: be8c 44bd cc73 e43d 5dac d7bd 5cda 0c3d
00000360: e496 a3bc 75c3 5cbc fe78 113d 646b 523c
00000370: 25d1 fcbd 4d48 1a3e 871c a1bd 6f02 603d
00000380: fa27 5ebd 5df3 1b3e bb0b c5bd c793 b83d
00000390: 7f33 f13b 0f6b f73d 00e4 bebd 2cb6 f0bd
000003a0: 7da8 cb3d 787a 013d 240a bcbc aba0 7d3d
000003b0: 68f8 32bd 12ba 67bd d75e 973d 030b 01bd
000003c0: 20e7 823d 6bcf 623d 5399 7e3c f536 0c3d
000003d0: a62a bbbc 5239 063e 7058 19bd 6de7 d83d
000003e0: 44c3 8d3d 48c9 e23d 43f2 0ebd 62f9 173d
000003f0: 4e26 523d a1f8 8e3d a9b8 07bd 374d 503d

weight f4 [128, 256]
0.06644404 0.0037395575 0.036720477 0.046556287 -0.05051811 0.053576972 0.0386044 0.07683012
-0.020387942 -0.008084089 0.022218768 0.045351326 0.01503355 0.045546692 -0.026648901 0.08177989
0.056964803 0.011609315 0.040305603 -0.0488969 -0.02037221 -0.031477243 0.0356922 -0.027716197
0.03729067 -0.03737643 0.047962528 0.046774175 0.08475549 -0.022976609 -0.021061877 -0.0023004012
0.020291274 0.035306264 0.08403761 -0.035309155 0.031729184 0.043101877 -0.095122136 0.009166792
0.06300421 -0.035622153 0.0008340354 0.0317922 -0.04525848 0.048338868 0.050006796 0.040112477
0.05054723 0.014051736 -0.005196475 -0.016054433 -0.015130341 0.061307892 -0.063376024 0.07278502
0.044914257 0.037501223 0.061773553 -0.009958038 -0.046937384 0.025735362 -0.0009276638 -0.0122164795
-0.004630142 0.00901787 -0.03279234 0.009118759 0.023696067 0.02269428 0.017049553 -0.052906338
0.0051120287 0.03797845 -0.01641945 -0.06636612 -0.013339997 -0.039525002 0.054108392 0.0701628
0.06573331 -0.024751978 0.029966714 0.06614031 -0.025862541 -0.004888656 0.0593936 0.05482396
0.0128166145 0.058112852 -0.03878895 0.005776776 0.045120277 -0.046469208 -0.015193816 -0.021572374
0.0026080776 0.06491718 0.072858706 0.054118875 -0.017235268 0.019488847 -0.048047226 0.05861404
-0.043244943 -0.018916082 0.004053718 -0.04200422 -0.05139991 -0.023352752 -0.04800564 0.03931928
-0.0553013 -0.047720358 0.0583286 0.045985818 0.0005079334 0.038684558 0.017956717 0.07639196
0.050057676 0.04647871 0.05903056 -0.016343687 -0.058037315 0.045332704 0.04371141 0.029169885
-0.022599468 -0.038418278 0.037612982 0.008198525 -0.005273264 0.07149339 0.06722429 -0.0094269235
-0.055979617 0.059904903 -0.04033556 0.010197631 -0.009964605 0.06622734 -0.0017961917 0.09261487
0.059687592 -0.0005593008 0.034128677 -0.047255095 0.018197723 0.024935292 -0.0012254857 -0.06383883
-0.00919499 0.04592848 0.031070182 0.008909994 0.0047914777 0.009775585 0.007248556 -0.027106235
0.029140152 -0.003223846 -0.041961674 0.014271236 0.045106124 0.015878847 0.044565096 -0.0068517667
0.057051323 0.049033824 0.019033365 -0.007061297 0.067194104 -0.0011483574 -0.05834406 0.012545046
0.0661799 0.017555773 0.052171096 0.016111631 -0.0259699 -0.024388852 -0.04419579 -0.022750508
-0.038838137 -0.016847149 -0.024188211 0.023310611 0.044940308 0.0757858 0.026815897 0.00036396144
0.01660409 0.062360425 -0.04991167 0.018251726 0.04593104 -0.05096531 0.015910476 -0.0720262
0.04588034 0.059132516 -0.009580909 0.0036117318 -0.023328185 -0.042238366 -0.00013809747 0.04772712
0.05806015 0.054269806 -0.009860566 0.010102059 -0.03167921 -0.041725636 -0.016031208 0.024170272
-0.010706906 0.003617149 0.010522573 0.0058532297 -0.04993121 0.063442655 -0.0046075825 0.068324216
-0.061128758 0.009593398 0.05683196 0.022264207 -0.014447539 0.08289267 0.0031430393 0.049009036
0.05169998 -0.037929602 0.022384025 -0.009053987 -0.057333697 0.03663 -0.06180458 0.013012678
0.017002199 -0.02143224 0.05486736 0.09597771 0.07966573 0.055315506 -0.0121704005 0.057188187
-0.030974872 -0.0007122371 -0.029169703 -0.019627817 0.01569155 -0.0032374456 -0.050260734 -0.031462807
00000000: d013 883d 5d13 753b 3668 163d ceb1 3e3d
00000010: 14ec 4ebd 8773 5b3d a61f 1e3d 1c59 9d3d
00000020: 9d04 a7bc 2073 04bc 2204 b63c 50c2 393d
00000030: 474f 763c 2b8f 3a3d cc4e dabc 377c a73d
00000040: ed53 693d ff34 3e3c 7d17 253d 1e48 48bd
00000050: 9fe3 a6bc 48ee 00bd fc31 123d 140d e3bc
00000060: 1abe 183d 0718 19bd 5b74 443d 4796 3f3d
00000070: 4994 ad3d 7139 bcbc f589 acbc 54c2 16bb
00000080: e339 a63c 4d9d 103d e91b ac3d 55a0 10bd
00000090: 76f6 013d 988b 303d 65cf c2bd 5030 163c
000000a0: 5a08 813d 89e8 11bd 2ba3 5a3a 8a38 023d
000000b0: f560 39bd fafe 453d edd3 4c3d fb4c 243d
000000c0: 9d0a 4f3d 4139 663c 3147 aabb 9684 83bc
000000d0: 40e5 77bc fc1d 7b3d 4acb 81bd 5010 953d
000000e0: 03f8 373d e29a 193d 4406 7d3d 0a27 23bc
000000f0: 6a41 40bd f7d2 d23c 772e 73ba a127 48bc
00000100: 72b8 97bb b0bf 133c 4351 06bd d966 153c
00000110: 411e c23c 5be9 b93c 81ab 8b3c 51b4 58bd
00000120: ce82 a73b 4b8f 1b3d 1582 86bc f6ea 87bd
00000130: 0190 5abc f8e4 21bd c3a0 5d3d 84b1 8f3d
00000140: 309f 863d a9c4 cabc c17c f53c 9274 873d
00000150: aedd d3bc 0531 a0bb b446 733d 178f 603d
00000160: c7fc 513c be07 6e3d 29e1 1ebd 1c4b bd3b
00000170: 0ad0 383d 7f56 3ebd 7cef 78bc 8cb8 b0bc
00000180: 48ec 2a3b 4cf3 843d f236 953d c1ab 5d3d
00000190: fa30 8dbc 13a7 9f3c 2bcd 44bd 4715 703d
000001a0: 9c21 31bd e6f5 9abc 0dd5 843b 9e0c 2cbd
000001b0: b688 52bd 454e bfbc 90a1 44bd 410d 213d
000001c0: 9e83 62bd 6c76 43bd f8e9 6e3d a05b 3c3d
000001d0: d526 053a b373 1e3d f719 933c 6373 9c3d
000001e0: 4709 4d3d 7660 3e3d 07ca 713d 32e3 85bc
000001f0: 89b8 6dbd c9ae 393d bc0a 333d aff5 ee3c
00000200: 8522 b9bc 7c5c 1dbd 1210 1a3d 1b53 063c
00000210: 58cb acbb 206b 923d e3ac 893d 6273 1abc
00000220: e24a 65bd d85e 753d e636 25bd f713 273c
00000230: 9542 23bc 33a2 873d 316e ebba ddac bd3d
00000240: fa7a 743d 0b9e 12ba 83ca 0b3d 8f8e 41bd
00000250: 6413 953c 1945 cc3c 7aa0 a0ba efbd 82bd
00000260: 95a6 16bc 801f 3c3d e586 fe3c 39fb 113c
00000270: d401 9d3b c629 203c 4b85 ed3b e50d debc
00000280: 54b7 ee3c 2947 53bb 01e0 2bbd e7d1 693c
00000290: 33c1 383d 5b14 823c e489 363d c984 e0bb
000002a0: a6ae 693d b1d7 483d dceb 9b3c 7462 e7bb
000002b0: 109d 893d 7b84 96ba 2efa 6ebd bd89 4d3c
000002c0: 5489 873d 20d1 8f3c 5cb1 553d 8afc 833c
000002d0: d4be d4bc 21cb c7bc a506 35bd 465f babc
000002e0: bd14 1fbd 0803 8abc 5b26 c6bc e5f5 be3c
000002f0: 5413 383d 9635 9b3d 03ad db3c 14d2 be39
00000300: 4d05 883c a56d 7f3d 2e70 4cbd a584 953c
00000310: 3022 3c3d 00c1 50bd b056 823c 7982 93bd
00000320: 06ed 3b3d f034 723d 3ff9 1cbc ceb2 6c3b
00000330: c01a bfbc 2302 2dbd 42ce 10b9 837d 433d
00000340: 7bd0 6d3d 044a 5e3d 368e 21bc 1b83 253c
00000350: 0fc2 01bd 80e8 2abd e153 83bc bc00 c63c
00000360: 056c 2fbc b10d 6d3b df66 2c3c 73cc bf3b
00000370: ab84 4cbd 39ee 813d 34fb 96bb 91ed 8b3d
00000380: 2662 7abd a12d 1d3c a1c8 683d 6d63 b63c
00000390: 5fb5 6cbc a2c3 a93d 73fb 4d3b b3bd 483d
000003a0: 5cc3 533d 125c 1bbd b45e b73c 2d57 14bc
000003b0: bdd6 6abd 5709 163d cd26 7dbd 2133 553c
000003c0: 3248 8b3c aa92 afbc 99bc 603d f68f c43d
000003d0: c927 a33d 8392 623d 5c66 47bc 293e 6a3d
000003e0: 04bf fdbc 6cb5 3aba 4df5 eebc 84ca a0bc
000003f0: 918b 803c 532b 54bb 33de 4dbd 25df 00bd

bias f4 [128]
-0.030717917 -0.0023540736 0.064834684 0.01556689 0.03545048 0.018661464 -0.0045186193 -0.023322757
0.035705723 -0.024165459 0.032036383 -0.035687942 -0.033709694 0.035084087 0.016391704 -0.008073351
0.029969588 -0.03196723 0.050744228 0.038423337 0.04618786 0.035466403 -0.04663598 -0.039912846
0.050051015 -0.034491334 -0.042972654 0.048864976 -0.06868224 0.04120084 0.05815507 0.0639777
0.0018462155 0.056245457 0.0017940872 -0.032996535 0.039417565 0.011090012 -0.015956448 0.03510734
0.044853806 -0.012566269 0.044673044 -0.022664825 0.0139381215 0.048502482 0.050294157 -0.04340762
-0.04362112 0.013994615 0.023426497 -0.05195366 -0.03477336 0.034757808 0.029885674 0.02882221
0.063317 -0.0022455577 -0.01955982 0.042623222 -0.057190876 -0.034543447 0.020188956 0.011522981
-0.0049670707 -0.008912224 0.03583881 -0.04225434 0.04390622 -0.040284522 0.010444863 -0.02672659
-0.011817131 0.015615965 0.018450566 0.014204984 -0.0010724997 0.07482886 0.04936116 -0.00016870044
0.04894326 0.05602547 0.06149751 0.020808376 -0.060951818 0.057294607 -0.04608244 -0.013827633
-0.009077135 0.019949097 0.069702014 0.021121763 -0.026166292 0.048240516 0.032895498 0.034655552
0.043988045 0.0288874 0.03878248 0.03152671 -0.022798253 -0.03769011 -0.041352402 -0.04162242
0.04024315 0.03529361 0.028378194 -0.019751085 -0.026928531 -0.024674786 0.049575277 0.036293462
0.027933698 0.03815614 0.020445563 -0.04166475 -0.006803589 -0.020697711 -0.053652808 0.025949994
0.036307365 -0.045686096 0.05988826 0.051358443 0.015807113 0.06926167 -0.023531016 -0.00052988407
00000000: 24a4 fbbc cd46 1abb 0cc8 843d 450c 7f3c
00000010: 8634 113d eddf 983c ed10 94bb 5e0f bfbc
00000020: 2a40 123d a4f6 c5bc 9538 033d 852d 12bd
00000030: 2d13 0abd 55b4 0f3d e547 863c 1746 04bc
00000040: c882 f53c 12f0 02bd 2ed9 4f3d ca61 1d3d
00000050: 7b2f 3d3d 3845 113d 5f05 3fbd a77b 23bd
00000060: 4b02 4d3d c946 0dbd 1804 30bd a426 483d
00000070: 46a9 8cbd 36c2 283d 0334 6e3d be06 833d
00000080: b6fc f13a a361 663d 9427 eb3a 6027 07bd
00000090: 5074 213d e2b2 353c 19b7 82bc b7cc 0f3d
000000a0: a0b8 373d c1e2 4dbc 15fb 363d 95ab b9bc
000000b0: b85c 643c 8aaa 463d 3f01 4e3d 30cc 31bd
000000c0: 0fac 32bd ab49 653c ede8 bf3c 5ccd 54bd
000000d0: 836e 0ebd 345e 0e3d cdd2 f43c 8e1c ec3c
000000e0: 58ac 813d 352a 13bb ea3b a0bc b095 2e3d
000000f0: fb40 6abd 6e7d 0dbd 4f63 a53c e3ca 3c3c
00000100: cfc2 a2bb 9404 12bc b7cb 123d e312 2dbd
00000110: 02d7 333d 6201 25bd ee20 2b3c b9f1 dabc
00000120: a49c 41bc 1bda 7f3c a425 973c 05bc 683c
00000130: 1e93 8cba e03f 993d ed2e 4a3d 2ee5 30b9
00000140: ba78 483d f77a 653d d0e4 7b3d 5476 aa3c
00000150: 9da8 79bd c0ad 6a3d f1c0 3cbd 4c8d 62bc
00000160: 43b8 14bc 4a6c a33c eebf 8e3d 8c07 ad3c
00000170: b15a d6bc d997 453d 6ebd 063d fbf2 0d3d
00000180: cf2c 343d 45a5 ec3c 61da 1e3d 2722 013d
00000190: 67c3 babc f260 1abd 2361 29bd 457c 2abd
000001a0: 00d6 243d 0890 103d 6379 e83c 07cd a1bc
000001b0: 3999 dcbc c722 cabc 720f 4b3d 74a8 143d
000001c0: 36d5 e43c 9d49 1c3d 747d a73c a8a8 2abd
000001d0: a4f0 debb 3f8e a9bc 0cc3 5bbd 1595 d43c
000001e0: 08b7 143d 5821 3bbd 644d 753d 3b5d 523d
000001f0: eb7d 813c 10d9 8d3d 1ec4 c0bc ebe7 0aba

weight f4 [64, 128]
0.027181292 0.013509103 -0.0018174519 -0.06482333 0.057006985 0.07557522 -0.027194412 -0.03280574
-0.020096479 0.0013586474 0.0467954 -0.00059528294 0.0675814 0.036073737 0.057511553 0.053420447
-0.055411477 0.059277847 -0.028428055 0.011765196 -0.044191193 0.06810018 0.019310525 0.009959029
0.046537343 -0.06925951 -0.05102948 -0.08845879 0.06399448 -0.0023275097 -0.0741106 0.05968876
-0.057391312 -0.03164875 -0.061283164 0.09892482 0.038940173 0.021861896 -0.071405455 0.039377514
-0.013769771 -0.08752741 -0.05439929 -0.055008393 0.05421072 0.02703753 -0.0063420003 -0.01456351
0.086972825 0.005499724 0.017970366 0.06649937 -0.05221137 -0.044294618 -0.0050230836 0.0034560468
0.0350578 0.08225005 -0.0535254 0.037170652 0.08941114 0.00040177556 0.07735055 0.03649393
-0.07478781 0.013463572 -0.028271131 -0.004920212 0.077332385 0.09123394 -0.033713076 0.051712655
0.052996073 -0.08711115 0.05283264 -0.06302335 0.090870835 -0.04884802 -0.020442164 0.044720456
0.05666627 0.09068025 -0.059029166 0.08182768 0.059737094 -0.07414894 -0.012010008 -0.008682685
0.09077373 -0.02437226 0.05980514 -0.006499738 -0.08314417 0.013286332 0.0025536695 0.025203655
-0.030279387 0.031965654 0.0803873 -0.0057616793 0.03227464 0.06146183 -0.050406832 -0.010548434
-0.032209568 0.05151112 0.010441238 -0.033691786 0.019996041 0.015243555 0.029008176 -0.02455529
0.086317495 -0.06267819 0.011700477 0.10187181 -0.07002229 0.027730556 0.079474136 0.05820044
-0.036653895 -0.06100976 -0.00061562017 0.0032625708 -0.037865277 -0.04723244 -0.0077928733 -0.017415436
0.080492765 -0.022051627 0.068979196 0.105264075 0.021083746 -0.05113428 0.096834846 0.023959795
0.022921707 -0.079748675 0.10677484 -0.06246888 0.038600247 0.0709163 0.08185804 0.0817094
0.05946802 -0.0112646995 0.07350827 0.07035738 0.04069791 -0.010549818 0.10714451 0.05598436
-0.06084067 0.099903636 0.07192403 -0.043024316 -0.025055837 -0.07023737 0.09173546 -0.041770127
0.03618177 -0.027308622 0.015108444 -0.03358109 -0.048648663 -0.04717012 0.019806808 -0.016686482
-0.037082788 -0.091273315 -0.058295164 -0.061186295 -0.052333694 0.015397484 0.018615844 -0.04387589
-0.063914545 0.060645655 -0.0024538604 0.10553503 -0.09428067 0.017101247 0.07360343 0.08148763
0.029791577 0.09614569 0.055949517 0.08581074 -0.0626985 -0.055999078 -0.089354575 -0.0015477629
-0.03259245 0.058713373 0.03467545 0.037950493 0.0012081754 0.075477056 -0.05604441 0.10929094
-0.058792472 -0.018689202 -0.01701548 0.06287332 -0.032161348 -0.036377415 -0.0624414 0.07453042
-0.017155554 0.07338208 0.0019885048 0.01884715 -0.050384477 -0.031090021 -0.06957368 -0.007588937
0.10555443 -0.013513493 0.015017868 0.08819286 -0.030619586 0.016793314 -0.00213825 -0.0918971
-0.0011846214 -0.01655738 0.07709531 -0.026593272 0.04685149 0.023680756 0.07704846 0.05377553
-0.09266527 -0.04956796 0.06425618 -0.07588368 0.097659655 -0.055984985 0.07617068 -0.05927038
-0.050484087 0.04919584 0.03948843 0.036303453 -0.031191602 -0.09561983 -0.06276401 -0.03892992
-0.03480344 0.04439682 -0.0010791605 -0.07599862 0.115857214 0.028374122 0.07372615 0.045835026
00000000: 4dab de3c 4955 5d3c 9137 eeba 18c2 84bd
00000010: 2880 693d 2ec7 9a3d d1c6 debc 505f 06bd
00000020: 5fa1 a4bc a414 b23a 89ac 3f3d c30c 1cba
00000030: 1e68 8a3d 0ec2 133d 3c91 6b3d 66cf 5a3d
00000040: 25f7 62bd 54cd 723d f4e1 e8bc cfc2 403c
00000050: d301 35bd 1b78 8b3d 1b31 9e3c 322b 233c
00000060: f19d 3e3d eed7 8dbd 4a04 51bd e229 b5bd
00000070: 8a0f 833d 2289 18bb 4cc7 97bd 347c 743d
00000080: 2713 6bbd 1fa2 01bd 0e04 7bbd 1999 ca3d
00000090: bb7f 1f3d b817 b33c 063d 92bd 514a 213d
000000a0: 9b9a 61bc 9241 b3bd cad1 5ebd 7b50 61bd
000000b0: 0f0c 5e3d cf7d dd3c 8ed0 cfbb ca9b 6ebc
000000c0: cf1e b23d 0737 b43b 9736 933c d230 883d
000000d0: 97db 55bd 466e 35bd ae98 a4bb d87e 623b
000000e0: c598 0f3d b772 a83d 733d 5bbd 4140 183d
000000f0: 301d b73d 67a5 d239 f769 9e3d a97a 153d
00000100: 5a2a 99bd 5096 5c3c dc98 e7bc bb39 a1bb
00000110: 7160 9e3d dcd8 ba3d b916 0abd a6d0 533d
00000120: 6912 593d 5567 b2bd 0a67 583d 6312 81bd
00000130: 7d1a ba3d dd14 48bd 5376 a7bc cc2c 373d
00000140: e41a 683d 91b6 b93d 91c8 71bd 4595 a73d
00000150: e2ae 743d 66db 97bd a0c5 44bc d241 0ebc
00000160: 94e7 b93d 55a8 c7bc 3cf6 743d c1fb d4bb
00000170: 7e47 aabd eaae 593c 775b 273b e577 ce3c
00000180: 7a0c f8bc 6bee 023d 19a2 a43d 78cc bcbb
00000190: 6a32 043d 66bf 7b3d 6577 4ebd 57d3 2cbc
000001a0: 2eee 03bd 53fd 523d ba11 2b3c 6600 0abd
000001b0: bdce a33c 1bc0 793c 8ea2 ed3c 2d28 c9bc
000001c0: 3ac7 b03d 6c5d 80bd 5cb3 3f3c 2ba2 d03d
000001d0: d967 8fbd 312b e33c 56c3 a23d 9663 6e3d
000001e0: 6522 16bd 5fe5 79bd 9261 21ba dbd0 553b
000001f0: 9f18 1bbd ce76 41bd 5c5b ffbb d1aa 8ebc
00000200: 64d9 a43d 9da5 b4bc f744 8d3d b194 d73d
00000210: d2b7 ac3c 2e72 51bd 5951 c63d 5547 c43c
00000220: 4ec6 bb3c 4653 a3bd c4ac da3d 5edf 7fbd
00000230: 4b1b 1e3d 913c 913d 30a5 a73d 4257 a73d
00000240: bd94 733d 938f 38bc 818b 963d 8817 903d
00000250: dab2 263d 25d9 2cbc 956e db3d db4f 653d
00000260: 1134 79bd 479a cc3d e84c 933d 443a 30bd
00000270: e641 cdbc 9cd8 8fbd cddf bb3d 2717 2bbd
00000280: 5633 143d 55b6 dfbc 6889 773c 538c 09bd
00000290: d243 47bd 7535 41bd e341 a23c 17b2 88bc
000002a0: 1fe4 17bd 81ed babd e9c6 6ebd 7b9e 7abd
000002b0: db5b 56bd bb45 7c3c 4180 983c 35b7 33bd
000002c0: a1e5 82bd 9467 783d f2d0 20bb c022 d83d
000002d0: 3916 c1bd ea17 8c3c 65bd 963d fde2 a63d
000002e0: 770d f43c 08e8 c43d 522b 653d 8bbd af3d
000002f0: 1268 80bd 4a5f 65bd 88ff b6bd 4ede caba
00000300: a97f 05bd 6f7d 703d d807 0e3d fa71 1b3d
00000310: a45b 9e3a b793 9a3d d38e 65bd eed3 df3d
00000320: 60d0 70bd 191a 99bc 0c64 8bbc bac3 803d
00000330: 9ebb 03bd 7c00 15bd 8ec2 7fbd 68a3 983d
00000340: ce89 8cbc 5849 963d 9351 023b 5765 9a3c
00000350: f45f 4ebd 80b0 febc a57c 8ebd 9eac f8bb
00000360: ec2c d83d b367 5dbc 810d 763c 759e b43d
00000370: edd5 fabc 2292 893c e221 0cbb 8c34 bcbd
00000380: 4c45 9bba 58a3 87bc 25e4 9d3d 22da d9bc
00000390: 59e7 3f3d 25fe c13c 95cb 9d3d bb43 5c3d
000003a0: 4ac7 bdbd c607 4bbd be98 833d e768 9bbd
000003b0: c901 c83d 8350 65bd 60ff 9b3d 7fc5 72bd
000003c0: 67c8 4ebd 9481 493d 9fbe 213d eeb2 143d
000003d0: 8885 ffbc 54d4 c3bd 6b8a 80bd fb74 1fbd
000003e0: 0d8e 0ebd 71d9 353d 9e72 8dba 2aa5 9bbd
000003f0: 8c46 ed3d d970 e83c bcfd 963d 82bd 3b3d

bias f4 [64]
-0.063805796 -0.038560994 -0.026839329 -0.06200922 -0.038721543 -0.03020755 0.019536735 0.07974085
-0.071827255 -0.024540551 -0.0003781467 0.013864962 -0.03397636 -0.039669495 0.056835763 0.019440677
-0.08127462 0.039874513 -0.083467014 0.017090127 0.0394406 0.049715854 0.08463668 -0.043981876
0.029927421 0.058149293 0.038035177 0.045280784 -0.059885748 -0.049804818 0.060474724 0.015649555
0.06589036 0.070416756 -0.013596021 -0.015816163 0.09249924 -0.026297117 -0.04438514 -0.07401582
-0.083448194 0.034682073 -0.038068984 -0.07668082 0.040781304 -0.03693288 0.07003718 -0.0046261284
-0.055378318 -0.0069144936 -0.08594686 0.0504541 0.09280871 -0.012212741 0.01006252 0.044382464
-0.06449855 -0.060171477 0.094861545 -0.05900313 -0.044234194 0.0070771673 -0.09931926 -0.048054837
00000000: 9dac 82bd 22f2 1dbd 27de dbbc 61fd 7dbd
00000010: 7b9a 1ebd d375 f7bc 810b a03c 2c4f a33d
00000020: 2b1a 93bd 4409 c9bc fe41 c6b9 de29 633c
00000030: cc2a 0bbd 7b7c 22bd 9ecc 683d 0e42 9f3c
00000040: 4f73 a6bd 7553 233d c1f0 aabd 9800 8c3c
00000050: 778c 213d daa2 4b3d ff55 ad3d 5726 34bd
00000060: 5a2a f53c f42d 6e3d c6ca 1b3d 5878 393d
00000070: c24a 75bd 2300 4cbd 58b4 773d 7f33 803c
00000080: 86f1 863d a936 903d d8c1 5ebc e690 81bc
00000090: 3e70 bd3d 0d6d d7bc 31cd 35bd 9b95 97bd
000000a0: e3e6 aabd ca0e 0e3d 39ee 1bbd d50a 9dbd
000000b0: 4c0a 273d ee46 17bd a76f 8f3d c796 97bb
000000c0: 60d4 62bd fa92 e2bb e804 b0bd f5a8 4e3d
000000d0: 7e12 be3d f317 48bc 45dd 243c 63ca 353d
000000e0: d117 84bd 5e76 76bd c546 c23d 44ad 71bd
000000f0: ea2e 35bd 95e7 e73b e567 cbbd 26d5 44bd

weight f4 [5, 64]
-0.077026874 -0.081436746 0.027531078 0.08580904 0.03511454 0.11819492 -0.11143393 -0.058925945
-0.030680934 0.021984356 -0.11772817 -0.076865345 0.05354312 -0.033640824 0.036158692 0.07669144
-0.10692548 0.0053090104 0.099366836 -0.039736237 -0.06123136 -0.08622984 -0.112723224 -0.078021705
-0.024189344 0.09353929 0.049880978 0.07708637 -0.10314006 0.13315138 0.04144916 0.043356206
-0.1188854 0.008278852 -0.10724995 -0.02542013 -0.14355923 0.038067635 0.111089386 -0.08670942
0.0016088793 -0.059532374 0.0938455 0.009919868 -0.014855005 0.04696608 -0.08510625 0.10457959
-0.022658845 -0.058387753 -0.06722853 0.040940918 0.15082838 0.13045126 0.065601364 0.12868014
0.15133432 0.055314343 0.053653408 -0.097355135 -0.12633054 -0.0013874321 0.021567097 0.055001374
-0.05486678 0.062284607 0.05970933 -0.119681 0.066598155 0.055321082 0.055232823 0.0363772
-0.026745088 -0.09082632 0.020604672 -0.013538405 -0.1159198 -0.001369019 -0.00573694 0.079080924
0.03783731 0.038627386 0.112820275 0.07930597 -0.026877502 -0.039774064 0.111441374 -0.0662768
-0.07140836 -0.06971734 0.1378689 0.09713241 0.08733249 -0.07762069 0.051055126 -0.021476578
0.011810461 0.036749322 -0.016287878 0.05365428 0.104553156 -0.089088544 0.12384081 -0.015548191
-0.1267605 -0.09101529 -0.043311633 -0.007562159 -0.01741972 -0.015583287 -0.014898657 -0.010722248
0.10617294 -0.010493593 0.10489744 0.044198554 -0.024129312 0.052800544 0.10771579 0.13223247
-0.10548784 -0.005750676 -0.030057572 -0.07688896 0.045259915 -0.08504081 -0.108257234 0.021160962
0.0853428 -0.07493232 0.03164392 -0.08984881 -0.062697224 0.10163366 -0.045564625 0.0082137585
0.0049731033 -0.009121086 0.03649804 0.048725966 0.10336265 -0.011262592 0.08669449 0.029110488
0.10809727 0.06070967 -0.004250822 0.024457995 0.09393794 0.028041404 0.11190071 0.06734206
-0.08662602 0.05214027 0.0859215 -0.013108673 0.051964827 0.030095933 0.07859434 -0.030098306
0.0766957 -0.10695947 0.024006153 0.09517684 0.06606234 -0.0027905053 -0.01171002 0.011964911
0.0025929117 0.04907004 -0.020253068 -0.046329748 0.015741454 -0.04226596 0.09984927 0.09371062
0.0059071844 -0.10638558 -0.0049570836 0.06066067 -0.089536436 0.094685905 -0.03479565 0.039970096
0.0965401 0.121465154 -0.10795274 0.01530831 -0.095932655 0.018893817 -0.04275321 -0.07919487
0.013024484 -0.005240123 0.012687802 -0.08558071 0.072806135 -0.044738352 -0.078855336 0.049472105
0.11055265 -0.039934006 0.008369441 -0.06357555 0.08194129 0.08172369 -0.0051226737 -0.064455986
-0.0011014526 -0.0036538863 0.012532963 -0.09019242 -0.098412655 0.02747735 0.11073397 -0.012997339
0.11394418 -0.06256151 -0.022487527 0.032108404 -0.014654877 -0.05633476 0.04509806 0.12794879
0.1134606 -0.066089556 0.06155184 -0.10614058 0.09519914 -0.05006823 0.038907677 -0.061676748
0.070276126 -0.08045681 0.016214203 -0.10829488 -0.07303207 0.07191234 -0.09165879 -0.07149059
-0.05744404 0.060114842 0.056282762 0.09201069 -0.0635316 0.08995289 0.06954895 0.029234778
0.0038196857 0.08261452 0.13393962 -0.12387796 0.064415745 0.0016074784 -0.055849742 0.045417607
00000000: 44c0 9dbd 4fc8 a6bd db88 e13c a6bc af3d
00000010: 44d4 0f3d 2e10 f23d 7937 e4bd 555c 71bd
00000020: 9556 fbbc 8918 b43c 771b f1bd 946b 9dbd
00000030: 0850 5b3d f6ca 09bd 231b 143d 6710 9d3d
00000040: bffb dabd 35f7 ad3b d780 cb3d 77c2 22bd
00000050: bccd 7abd 4599 b0bd 6fdb e6bd d8c9 9fbd
00000060: bb28 c6bc 8791 bf3d ff4f 4c3d 75df 9d3d
00000070: 193b d3bd d658 083e 98c6 293d 4796 313d
00000080: 307a f3bd 06a4 073c dda5 dbbd e03d d0bc
00000090: 3101 13be cfec 1b3d d582 e33d b594 b1bd
000000a0: 08e1 d23a 38d8 73bd 1232 c03d f186 223c
000000b0: 6862 73bc 815f 403d 304c aebd d32d d63d
000000c0: 0b9f b9bc ff27 6fbd 1daf 89bd aab1 273d
000000d0: c172 1a3e 0495 053e 025a 863d bac4 033e
000000e0: 62f7 1a3e 4b91 623d adc3 5b3d 2162 c7bd
000000f0: cb5c 01be 7fda b5ba 7bad b03c 1f49 613d
00000100: fdbb 60bd 251e 7f3d c591 743d 501b f5bd
00000110: 9d64 883d 5c98 623d d03b 623d 4200 153d
00000120: 8418 dbbc 2603 babd 21cb a83c 30d0 5dbc
00000130: 5c67 edbd a870 b3ba f1fc bbbb 2ef5 a13d
00000140: 4cfb 1a3d c037 1e3d 510e e73d 2b6b a23d
00000150: 352e dcbc 21ea 22bd 603b e43d 22bc 87bd
00000160: 8c3e 92bd f7c7 8ebd 812d 0d3e 5bed c63d
00000170: 60db b23d 99f7 9ebd 2e1f 513d a6ef afbc
00000180: aa80 413c 7586 163d 286e 85bc 97c4 5b3d
00000190: f71f d63d 0e74 b6bd 40a0 fd3d d7bd 7ebc
000001a0: 81cd 01be 3966 babd 8a67 31bd fdcb f7bb
000001b0: cdb3 8ebc 0b51 7fbc 7f19 74bc 5eac 2fbc
000001c0: 3371 d93d 52ed 2bbc 78d4 d63d 8b09 353d
000001d0: d6aa c5bc 6245 583d 199a dc3d f367 073e
000001e0: 020a d8bd 2b70 bcbb 4c3b f6bc f677 9dbd
000001f0: 7662 393d e029 aebd f8b5 ddbd c159 ad3c
00000200: 35c8 ae3d 1e76 99bd 0e9d 013d a702 b8bd
00000210: 6767 80bd 4f25 d03d f9a1 3abd 0093 063c
00000220: 6af5 a23b 9c70 15bc f87e 153d e194 473d
00000230: ccaf d33d bc86 38bc e18c b13d 1e79 ee3c
00000240: 1a62 dd3d b4aa 783d 7b4a 8bbb 225c c83c
00000250: 8962 c03d 16b7 e53c 332c e53d a2ea 893d
00000260: fc68 b1bd 0991 553d 9df7 af3d c2c5 56bc
00000270: 12d9 543d bf8b f63c 12f6 a03d b990 f6bc
00000280: a312 9d3d 910d dbbd 8da8 c43c 13ec c23d
00000290: b14b 873d e9e0 36bb 62db 3fbc 7908 443c
000002a0: d7ed 293b abfd 483d c3e9 a5bc 43c4 3dbd
000002b0: 39f4 803c 121f 2dbd c67d cc3d 5beb bf3d
000002c0: 0e91 c13b afe0 d9bd 086f a2bb 5377 783d
000002d0: e15e b7bd afea c13d e285 0ebd afb7 233d
000002e0: d1b6 c53d b9c2 f83d 5316 ddbd b5cf 7a3c
000002f0: 5778 c4bd 35c7 9a3c fd1d 2fbd ec30 a2bd
00000300: a564 553c 56b5 abbb 80e0 4f3c f044 afbd
00000310: 621b 953d 903f 37bd e87e a1bd 43a3 4a3d
00000320: 6e69 e23d d791 23bd fb1f 093c e633 82bd
00000330: d6d0 a73d c05e a73d 1adc a7bb 8001 84bd
00000340: 9e5e 90ba 0a76 6fbb 0f57 4d3c ceb6 b8bd
00000350: 938c c9bd 2e18 e13c 7ec8 e23d caf2 54bc
00000360: 915b e93d 4020 80bd c337 b8bc 1a84 033d
00000370: 021b 70bc 47bf 66bd beb8 383d 0205 033e
00000380: 085e e83d f659 87bd c81d 7c3d 3b60 d9bd
00000390: c4f7 c23d 5814 4dbd a85d 1f3d c2a0 7cbd
000003a0: eeec 8f3d 8ac6 a4bd a6d3 843c b5c9 ddbd
000003b0: d791 95bd c746 933d 9bb7 bbbd a969 92bd
000003c0: 714a 6bbd fb3a 763d c188 663d 1a70 bc3d
000003d0: db1c 82bd 3939 b83d ae6f 8e3d c67d ef3c
000003e0: b153 7a3b cd31 a93d 7827 093e bab3 fdbd
000003f0: 67ec 833d 06b2 d23a b3c2 64bd d007 3a3d

bias f4 [5]
0.0025956272 0.038000796 -0.054754592 -0.030438943 -0.08263367
00000000: 661b 2a3b b9a6 1b3d 5a46 60bd 175b f9bc
00000010: d73b a9bd
