Policy-Gradients/Poker-Agent/checkpoint_75000.pt (torch, 227369 bytes, 8 tensors)

weight f4 [256, 55]
000000 37 df 2b 3c ab 19 b2 bd 42 76 2a bd 47 02 17 bc
       0.01049023 -0.08696302 -0.041616686 -0.009216852
000010 3e e0 b3 3d d1 71 69 3d 86 09 83 3d e2 c5 5d 3e
       0.08783005 0.05699331 0.06398301 0.21657518
000020 cd 9f 39 3e 5a 18 e5 3c 47 33 e9 bd b7 59 92 bd
       0.18127365 0.027965713 -0.113867335 -0.07146018
000030 eb f3 fc 3d 40 d8 a8 bc 16 c0 61 3c f3 63 30 bd
       0.12351211 -0.020610929 0.013778707 -0.04306407
000040 1b c3 28 3d a7 d5 5b 3d d1 33 db 3d 23 4e d4 bd
       0.041201692 0.05367055 0.107032426 -0.10366466
000050 b1 4e 97 bc 22 7c 0d be 5e fc 44 bd 5e 51 c4 3d
       -0.01847014 -0.13816884 -0.04809224 0.09585832
000060 6c f5 27 3e 70 27 17 bd f6 d4 a8 bd 05 f5 07 3e
       0.16402215 -0.036902845 -0.08243744 0.13277061
000070 b5 a2 63 bd 2e 50 aa 3c a5 a0 f0 3d a5 55 b4 3d
       -0.05557509 0.020790186 0.117493905 0.08805398
000080 47 a1 ce 3c 92 38 a6 3d de d7 c3 bd 5d 8c c1 3c
       0.025223387 0.08116259 -0.09562658 0.0236265
000090 96 25 64 ba 7a 89 d3 bd 35 a8 5f bd 15 19 0e bb
       -0.00087031105 -0.10328956 -0.054603774 -0.002168243
0000a0 60 0d 16 be d5 04 cc bc e8 07 2b 3d 2b 2a 06 3c
       -0.1465354 -0.024904648 0.041755587 0.008188765
0000b0 7a ef 11 be 94 63 19 bd 5f 3a 66 bd f0 11 80 3d
       -0.1425151 -0.03744848 -0.05620801 0.06253421
0000c0 04 a6 73 bc ae d3 3e 3d 9f ce ee 3d 7d 3e 2d 3a
       -0.014871124 0.046588592 0.116605036 0.0006608738
0000d0 10 5d cc bd 97 02 89 3d b7 7d 90 bd 98 b5 62 3c
       -0.09978688 0.06689947 -0.07055228 0.013837241
0000e0 d5 b5 8c bd 54 ca ed 3d d3 3d 9f ba c9 c9 06 3e
       -0.06870619 0.11610857 -0.0012149162 0.13162912
0000f0 c7 64 20 3e 58 e6 9b 3c 43 a3 10 3d 1b 9f 59 3e
       0.15663444 0.019030735 0.03531195 0.212521
000100 34 98 0f 3e c6 73 33 3c 2c 80 73 3e d1 4b 29 3e
       0.14022905 0.0109528955 0.23779362 0.16532828
000110 b5 6b 78 3d d6 9a 67 3c 2e 6e aa 3d 37 a8 2f 3c
       0.060649592 0.014136037 0.08321796 0.010721258
000120 39 f6 91 bd af 1c 7c bd 15 73 d1 3d 7b 05 01 3d
       -0.07127041 -0.061550792 0.10227028 0.031499367
000130 f5 cf e8 3c 3f 9a ac bd 07 07 f9 bc ae 37 16 3e
       0.028419474 -0.084278576 -0.030398859 0.14669678
000140 81 ab 01 3d 8e 74 f2 bd 0f 53 92 bd 33 e5 e7 bb
       0.0316577 -0.11838637 -0.071447484 -0.007076883
000150 f1 af ce bd 11 d5 90 bd 49 4f 9c bd 70 17 5f 3e
       -0.10092152 -0.07071889 -0.0763231 0.21786284
000160 f5 f2 88 bd 0c 8d 19 3e f3 3a 3f 3d 6e 65 9e bc
       -0.066869654 0.14995211 0.046687078 -0.019335475
000170 eb c8 83 3d dd 01 a6 bc 93 4b 9a 3d f4 9f 05 be
       0.064348064 -0.02026456 0.07533946 -0.13049299
000180 83 54 97 3d eb 28 9d bc 4b b7 fc 3d 84 7f af 3d
       0.07389166 -0.01918455 0.12339648 0.085692436
000190 d6 e3 64 bd 55 9c e8 3d a5 97 08 3e 10 47 fa bc
       -0.055881344 0.11357943 0.13339098 -0.030551463
0001a0 5d 67 ee bc 7c e5 87 3d 5e bd fa bd b8 4a c3 bd
       -0.029102022 0.066355675 -0.1224315 -0.09535736
0001b0 8e cc ff 3d e6 9e 85 bd 61 98 1a 3d 6f ee 9b 3c
       0.124901876 -0.06524448 0.037742976 0.019034592
0001c0 39 38 a8 bb 1a 87 80 3b 51 e8 01 3d cd b8 97 3d
       -0.0051336554 0.0039223554 0.031715695 0.07408295
0001d0 f4 15 ca 3d 6e d1 1d be c4 39 34 be 36 e6 2f 3d
       0.098674685 -0.15411922 -0.17600161 0.042944156
0001e0 11 dd 9a bc e2 4e 56 be 80 c9 11 bd b0 cc be bd
       -0.01890424 -0.20928529 -0.035592556 -0.09316385
0001f0 46 cc 9d bd 85 b0 91 bd cd 78 5b bd 10 62 95 bd
       -0.07704978 -0.071137466 -0.053582 -0.072940946
000200 c7 6b b9 3d 7a 9d b4 bd 17 37 de bd 73 51 68 3d
       0.0905376 -0.08819099 -0.10850351 0.0567183
000210 71 d1 e7 bc 56 0c 82 bd df e4 6f bb 34 3e b8 bb
       -0.028298112 -0.06350009 -0.0036604924 -0.0056226496
000220 19 5c 32 bd 0e 19 be 3d 5e 9e a8 bd bd e6 98 3c
       -0.043544862 0.092821226 -0.08233331 0.018664712
000230 30 bf 7b 3d 56 14 bf bd 30 e5 37 be fe 86 7e bd
       0.061461627 -0.09330051 -0.17958522 -0.062140457
000240 bf 1d 00 3e a1 56 15 bd a6 39 87 bc 62 36 88 bd
       0.12511347 -0.03645957 -0.016506981 -0.06650998
000250 7e 29 3d bd 32 b8 11 bd 9e d7 92 bd 2d a7 57 bd
       -0.04618215 -0.035576053 -0.07170032 -0.052649666
000260 d2 96 0a 3d 6b 12 80 3d 70 3a f3 3d 45 8c 43 bd
       0.03383524 0.06253513 0.118763804 -0.047741193
000270 2f c7 c0 bd 5b 37 8f 3d 40 00 8b bd 5c 56 6e bc
       -0.09412991 0.0699298 -0.06787157 -0.014546957
000280 e3 e9 f3 3c c0 d7 02 3e a0 75 63 bd e5 a9 a2 3a
       0.029774612 0.12777615 -0.055532098 0.0012410252
000290 f8 97 05 3e 1f c2 ff 3d 3c 78 e0 3d e9 39 4a bd
       0.13046253 0.124881975 0.10960433 -0.049371634
0002a0 0d bf 96 bd 28 d4 26 bd c6 77 cb 3c 53 4e f7 bc
       -0.07360659 -0.04072967 0.024837386 -0.030188715
0002b0 3d 86 06 bd 14 94 44 be 0c ac 22 bd 09 da fb bd
       -0.032842863 -0.19197112 -0.039714858 -0.12297446
0002c0 0b 47 0f be 8f 7d 21 bc a1 9b a3 bd e7 74 6a 3b
       -0.13991944 -0.009856596 -0.07988668 0.0035775246
0002d0 c2 39 9d 3d eb 4c 9f bc e9 26 f3 3d 57 c7 b0 3d
       0.07677032 -0.019445857 0.11872656 0.08631771
0002e0 43 e9 22 3e 19 b9 cd 3d d2 43 b5 3c d1 73 4d bd
       0.15909295 0.1004507 0.022127066 -0.05015928
0002f0 89 f5 05 bd 25 40 d3 bc 01 07 95 bd 6a d3 66 3d
       -0.032704864 -0.025787422 -0.072767265 0.056353964
000300 d7 b2 59 3d 90 f0 cd 3d 0f 04 f0 3d 10 93 ae bd
       0.05314907 0.10055649 0.11719524 -0.08524144
000310 83 ec ee bd a9 d4 1a bd 28 6e f7 3d 89 b4 2c bd
       -0.11666205 -0.037800465 0.120815575 -0.04216436
000320 2c f5 2f bd 79 59 68 bd 7b 1c b7 3c 74 15 9a bd
       -0.042958423 -0.056725953 0.022352448 -0.07523623
000330 7e de b6 3c 65 ae b7 3d d5 2b 93 bd 0d 3c c9 bb
       0.02232289 0.0896881 -0.07186095 -0.006141192
000340 c0 05 8a 3c fe 8f 82 bd 58 e2 fe bd 38 3c 18 bc
       0.016848445 -0.063751206 -0.124455154 -0.009291701
000350 9f a4 62 bd 87 1f be 3d e5 e5 da 3b 27 b3 c0 3d
       -0.055332776 0.09283357 0.0066802376 0.094091706
000360 9c 5e da 3d ca 43 8d 3c 8f db dc 3d f8 8e c5 3a
       0.106625766 0.017244238 0.10784065 0.0015072515
000370 10 ac 12 be 20 55 95 bd 5c ef af 3d e5 14 ff bc
       -0.14323449 -0.07291627 0.08590576 -0.031137893
000380 ce c0 11 3e 45 6e f9 3c ea 46 34 bd 70 cd 04 3e
       0.14233705 0.030448088 -0.04401294 0.12968993
000390 67 b4 15 3e dd 04 4f 3d 45 ff 9a bb 6a a0 7c 3e
       0.146196 0.050541747 -0.0047301375 0.24670568
0003a0 71 20 a5 39 e0 9c 64 bd 59 ca 31 3e ed dc 01 3e
       0.00031495423 -0.05581367 0.17362346 0.12681933
0003b0 1c c5 10 3e 51 d3 76 3b c5 bf 33 3e 69 68 0c be
       0.14137691 0.0037662575 0.17553623 -0.13711704
0003c0 3b e4 d4 3d 6d 9c e4 bd 65 90 7c bd eb a5 08 3e
       0.10395094 -0.11162648 -0.061661143 0.13344543
0003d0 b1 39 26 3e 67 4d bb bd a0 f1 a0 3a eb 41 c1 3d
       0.16232945 -0.09145623 0.0012279041 0.09436401
0003e0 11 f1 6a 3d 0c 78 e7 3c e2 4f b8 3b 07 ad 5e 3d
       0.057358805 0.028255485 0.005624757 0.05436423
0003f0 c6 b1 8d bd cc 7e 07 3e 8c cf 3c 3d 2d bc b9 3d
       -0.06918673 0.13231963 0.04609637 0.09069095

bias f4 [256]
000000 3b 7f 86 3d 83 a1 aa bd be 00 1b 3e 2b 09 90 bd
       0.06567236 -0.08331587 0.15137002 -0.07032999
000010 6a f4 8c 3d 8f 0a ce 3d f8 ed b7 bc ec cf b1 bd
       0.06882556 0.10060608 -0.02245234 -0.08682236
000020 09 66 55 bd bf 45 7c 3c 5b ff c9 bd d1 11 b3 3d
       -0.05209926 0.015397488 -0.09863158 0.087436326
000030 72 11 59 3d b1 06 82 3c 18 22 1f 3e 1e 16 62 bd
       0.052995153 0.015872331 0.1554035 -0.055196874
000040 a0 58 9c bd c4 35 11 3e f5 f1 00 3d 01 9c 47 bc
       -0.076340914 0.14180666 0.03148075 -0.01218319
000050 bc 4e 97 bd d5 4f 44 3d d4 1e 49 3d e7 ed 78 3d
       -0.07388064 0.047927696 0.049101666 0.060773756
000060 ad 10 cf 3d cd 0d 19 3d d5 d0 b6 3d 5e 9b 24 3e
       0.101106025 0.037366677 0.0892655 0.16074893
000070 02 af cc bd 73 a4 46 3d cb 13 34 3e 0c ee 07 be
       -0.099943176 0.048496675 0.17585675 -0.13274401
000080 29 83 68 3d f0 3f f4 3d 5b b8 0b bd 23 cc ea 3b
       0.05676571 0.119262576 -0.034111362 0.0071654483
000090 e1 05 b8 bd 8b 56 4b bd 94 94 61 3d 34 cb 1c 3e
       -0.08985496 -0.04964308 0.055073336 0.15311891
0000a0 fc 7b 2b 3d d1 4c bd bd e8 97 20 3d f5 58 00 3d
       0.041866288 -0.09243167 0.03920737 0.031334836
0000b0 06 1b 8d 3d a5 8c 30 bd f4 f5 d0 3d cf 4f b7 3c
       0.0688992 -0.04310288 0.10203162 0.022376923
0000c0 ad bf 0a bd d1 77 0e bd 03 a9 b3 3d 67 dc db 3c
       -0.033874203 -0.034782235 0.08772471 0.026838494
0000d0 a9 3c df bd b0 bd a7 bd 66 d5 df 3d 2e 7b 50 3d
       -0.10900242 -0.08190477 0.109293744 0.050898723
0000e0 91 fa c7 bd 75 79 d6 bc ae 4b af bd c1 be c6 3d
       -0.097645886 -0.026180962 -0.08559357 0.09704352
0000f0 8b 77 31 3d 78 57 5d bd fc c4 cc 3d 98 06 9e bb
       0.043326896 -0.054038495 0.09998509 -0.0048225634
000100 5f fa b8 3c 83 40 00 be 83 94 fd ba 2c b5 25 3e
       0.022580324 -0.1252461 -0.0019346628 0.16182393
000110 00 aa 10 be c4 71 b9 bd 7b 46 7f 3d 97 08 d8 39
       -0.1412735 -0.09054902 0.062323075 0.0004120513
000120 fe 8a 14 3d 82 8b 17 3e 06 ce ad bc 1c a9 98 3d
       0.036265366 0.14799312 -0.021216404 0.0745413
000130 e8 e6 28 3d 71 94 3d bd 72 d5 94 3d c9 5a f4 bc
       0.041235834 -0.046284143 0.07267274 -0.029828446
000140 a3 9c 07 be 7e 67 c1 3c 50 dd b9 3d 8b 84 e5 bd
       -0.13243346 0.02360892 0.09075415 -0.11206921
000150 b6 6e f6 3c bc 55 eb bb fc 86 59 bc cc f3 07 3e
       0.030082088 -0.007181851 -0.013276812 0.13276595
000160 c7 a0 02 3e f2 9e 83 bd 06 25 fc bd 6a cc 99 3c
       0.12756644 -0.06426801 -0.12311749 0.01877423
000170 e9 89 50 3d 53 6d ec bd 05 0f 89 3c b3 55 26 3e
       0.05091277 -0.115442894 0.016730795 0.16243629
000180 18 6e 20 bd 44 1c ac bd c3 a8 c9 bc da 8b cb bc
       -0.039167494 -0.08403829 -0.024616605 -0.02484696
000190 6c 0f 5a bd 63 1b e8 bd a4 a7 d3 bd 77 0c b0 3c
       -0.053237364 -0.113333486 -0.10334709 0.021490319
0001a0 d8 25 2d bd b7 1c ad 3b 96 c8 bb 3b 43 62 d6 bc
       -0.04227242 0.005282964 0.005730699 -0.026169902
0001b0 9c 79 fa bd 34 6e 60 3d c8 56 af 3b e2 0f 41 3d
       -0.122302264 0.054792598 0.0053509213 0.047134288
0001c0 b6 48 dc bc 67 19 a1 bb 85 ac 1b 3e 20 11 7c 3c
       -0.02689014 -0.0049163583 0.1520253 0.015384942
0001d0 7e 27 3c bd 34 38 b8 bd 95 7b 11 be 30 e0 cf 3d
       -0.0459361 -0.08995095 -0.14207299 0.10150182
0001e0 e4 5d bb 3b ba dd b9 bd fc 7e 18 3e cd 79 81 bd
       0.0057179797 -0.09075494 0.1489219 -0.0632206
0001f0 c2 76 30 3d 9e d6 c1 bd ea 95 11 3e dd 70 36 3d
       0.043082006 -0.09464763 0.14217344 0.04454123
000200 27 23 0d 3d 97 0a e2 bd 20 38 bd 3d bf a2 ec bc
       0.034457352 -0.11037176 0.092392206 -0.028886197
000210 86 e4 f4 bc 19 1d 25 bd a8 2f ba bd 39 9b 7e 3d
       -0.029894125 -0.040310953 -0.09091121 0.06215975
000220 c9 6d 3a bd 93 2e 9b 3d 48 5e a0 3d 3e 1a ef 3d
       -0.045514856 0.07577243 0.07830483 0.11674927
000230 26 46 b3 3d 0e 0f 85 3d cc ac c9 bd 1d 7f de bd
       0.08753614 0.06497012 -0.098474115 -0.10864089
000240 77 08 f3 bc 17 61 53 bd 03 0a 09 bd 61 00 1d bd
       -0.029667122 -0.051606264 -0.033456814 -0.03833044
000250 be 8f 66 3d f1 dc f9 bd 3b b5 01 3d f7 9d 51 3c
       0.056289427 -0.12200344 0.031666975 0.012794009
000260 02 df 92 3d 62 13 7c bc 86 fc 84 3d 91 78 98 3d
       0.071714416 -0.015385481 0.064934775 0.07444871
000270 e4 9d e7 3c 70 58 da bc a6 cb ce ba 1a 2c 88 bd
       0.02827353 -0.026653498 -0.0015777245 -0.06649037
000280 33 48 f4 bb 11 89 87 bd 8d b4 31 3d f2 31 de 3d
       -0.007454896 -0.0661794 0.043385077 0.1084937
000290 06 08 c1 3d 87 61 23 3e e8 1f a6 3c df f0 db 3d
       0.094253585 0.15955172 0.020278886 0.10739302
0002a0 5f 0e 28 bd 5f 7d 38 3d 20 6c a9 bc 39 2f a5 3d
       -0.04102933 0.04504144 -0.02068144 0.08065648
0002b0 95 c3 e3 3d a3 b0 bb 3d 55 73 9b bc 3b 44 0c 3e
       0.11121289 0.0916455 -0.018975893 0.13697903
0002c0 dc af b1 3a f4 53 70 bd 6b b9 df 3d 58 93 fe 3d
       0.0013556438 -0.058673814 0.109240375 0.12430447
0002d0 a0 3c a2 bd 06 8d ef bc 0f a5 01 3e 67 f1 3a 3d
       -0.079217196 -0.02924205 0.12660621 0.045640375
0002e0 49 32 05 3e a7 23 ca ba 35 ee a5 3d 93 b0 0d 3c
       0.13007464 -0.0015422002 0.08102075 0.008648056
0002f0 b0 8e 62 bd 19 92 c8 bb d4 b2 bf bd 57 b6 c6 3d
       -0.05531186 -0.006120932 -0.09360281 0.09702747
000300 35 1d 4c 3d cc fa 02 3e 2a 77 a8 bd 3f 4e 9d bd
       0.04983254 0.12790984 -0.08225854 -0.0768094
000310 99 1d b8 bd e8 6b 5a bd 85 d7 7c bd 78 54 22 3e
       -0.0899002 -0.053325564 -0.061728973 0.15852535
000320 7d ac 9d 3d 18 e6 c0 bb 15 5b 27 3d 04 f8 94 bd
       0.07698915 -0.0058868043 0.040858347 -0.07273868
000330 34 36 ce 3d 97 19 95 bd fe 68 ca bd 6d 78 d9 3c
       0.10068932 -0.072802715 -0.09883307 0.026546681
000340 e8 87 c4 bd a2 12 33 3e 8f 00 fb 3b 9a 34 76 3d
       -0.095962346 0.17487577 0.0076599787 0.06010876
000350 d4 f3 ed 3c ea 5b 30 ba b8 75 d0 3d f7 eb a0 bd
       0.02904693 -0.00067275635 0.10178703 -0.07857507
000360 d4 da 1c be 86 75 45 bd 3a d8 67 3d 3d bb 63 3d
       -0.15317851 -0.048207782 0.056602694 0.055598486
000370 fc d0 7f 3d c8 dd 5e bd 29 4d 8b bd d8 1a 6d bd
       0.062455162 -0.054410726 -0.068018265 -0.05788693
000380 95 70 0c bc b3 f5 84 3c 60 07 5d 3d 2b 38 02 be
       -0.0085717635 0.01623044 0.05396211 -0.12716739
000390 6c 09 a0 3d 5d ba b9 3d 1a 2d 39 bd e7 c5 af bb
       0.07814297 0.09068749 -0.045209028 -0.005364168
0003a0 72 ae ac bd 95 95 85 bd fa e3 b0 3d 02 fc 39 3d
       -0.0843171 -0.06522671 0.08637233 0.04540635
0003b0 cf 57 ef 3d fe c7 01 be 18 0c d0 3d 14 1d 0c be
       0.1168667 -0.12673947 0.10158557 -0.13682967
0003c0 8b a5 b1 bd c1 57 c1 3d 67 74 c9 bd d4 55 af 3d
       -0.08674153 0.09440566 -0.09836655 0.08561292
0003d0 b1 f5 48 3d b4 f0 bd 3d 85 0f a9 bd fd 04 48 bd
       0.049062435 0.09274426 -0.08254913 -0.048832882
0003e0 45 9d 62 bc 73 00 93 3d c4 bf a9 3d 25 d5 0b 3e
       -0.013831441 0.0717782 0.082885295 0.13655527
0003f0 53 e3 76 3c 2e a7 e0 3d e0 f5 b9 bb 24 c0 9d bb
       0.015068847 0.10969387 -0.0056750625 -0.0048141647

weight f4 [128, 256]
000000 3c 8a 0e bd de 38 c1 bd c2 98 86 3d 68 11 b7 3d
       -0.0347998 -0.09434675 0.06572105 0.08938867
000010 d3 34 d5 3c e3 98 86 3c b5 71 14 3d b2 6d 38 3b
       0.026026165 0.016430324 0.036241252 0.0028141555
000020 5c 9d a0 bc 76 65 96 3d b5 67 67 bd 67 47 42 3d
       -0.019606285 0.07343571 -0.056495387 0.047431376
000030 2e 2a 0e 3d fe 91 17 bd 44 94 8d 3d 13 8c ec 3d
       0.034708194 -0.037004463 0.06913045 0.115501545
000040 94 c1 81 bd c6 ef a1 3d 1b 31 97 bc ea ac 95 3d
       -0.0633575 0.07907061 -0.018456032 0.07308371
000050 5e 76 41 bc ab 37 7d 3d 8b 18 9d 3d 5d 33 64 bd
       -0.011808006 0.061820667 0.07670697 -0.055713046
000060 d1 24 52 3c 9e 4f d4 3c 90 20 3e bc b1 dd e7 3c
       0.0128261605 0.02591687 -0.011604443 0.028303953
000070 e9 76 d8 bd 0f 93 be 3d 44 60 68 3d 03 f3 85 bb
       -0.10569555 0.09305393 0.05673243 -0.004087807
000080 7e 2a ae 3d 5c 6c 7f 3d fa c1 0a bd 26 d7 2e bd
       0.085041985 0.0623592 -0.033876397 -0.04268565
000090 2d cc 59 bd 53 12 d5 3c 24 d5 b1 bc 29 f2 03 3d
       -0.053173233 0.026009714 -0.021708079 0.032213364
0000a0 0f 46 c3 3c 26 95 cf 3d 2e 16 07 bd 55 3e 64 bd
       0.023837117 0.1013587 -0.032980137 -0.055723507
0000b0 38 0a 88 bd 81 2f 80 3c 63 d9 0a 3d f7 3c 1f 3d
       -0.06642574 0.015647652 0.033898722 0.0388765
0000c0 c7 8e bb bc e3 32 2d bd d6 a6 a1 bc 94 2c 78 3d
       -0.02289523 -0.042284857 -0.019732874 0.060589388
0000d0 98 33 8d bc bb 2a fd bc 50 30 b9 3c 59 cf 88 bd
       -0.017236516 -0.030904165 0.022606045 -0.066801734
0000e0 8b d4 05 3c 71 4c 02 3d c7 ff 5d bd aa 0f 0c 3d
       0.00816835 0.03181118 -0.054199006 0.034194626
0000f0 39 d0 6d bd 28 32 f2 3c 4e 5b a6 3d 40 d8 10 bd
       -0.058059905 0.029564932 0.08122884 -0.035362482
000100 df be 2f bd da f0 70 3c c3 64 f4 3c 12 1b ae 3d
       -0.04290664 0.014705861 0.029833203 0.08501257
000110 c8 55 53 3d 23 99 30 bd 81 8b 00 3d 14 a0 e4 bc
       0.05159548 -0.043114793 0.03138304 -0.027908362
000120 9d 59 74 3b e7 3b f5 bc d3 8a 30 bd ca 80 8f bd
       0.003728486 -0.02993579 -0.043101143 -0.070069864
000130 fb 74 0a bb 5b 71 54 bd b7 cf 94 3d de c6 01 bd
       -0.0021126855 -0.051865917 0.07266181 -0.031683795
000140 0f 56 c5 3c fc d2 11 bd 59 e6 9e bd 6b 7d 2b bd
       0.024088887 -0.0356016 -0.07758779 -0.041867655
000150 d3 20 6e bd 7f 0e 4d 3d 11 ae 86 3d d5 51 b1 3d
       -0.058136772 0.050062653 0.06576169 0.08658186
000160 87 b8 5a 3d a2 36 0e 3d e3 23 84 bd 30 e7 aa bd
       0.053398635 0.03472007 -0.06452157 -0.08344877
000170 b0 1c 38 3d f8 f2 e1 bc 03 98 f3 bc 58 61 e8 3c
       0.044949234 -0.027581677 -0.02973557 0.02836673
000180 61 2c 73 bd 3e 65 30 bc 3c 5f 05 3d 18 95 df 3c
       -0.059368495 -0.0107663255 0.032561526 0.027292773
000190 30 ff 43 3d 16 8a 6c bd b0 54 d9 bb b5 3a 2a bd
       0.047850788 -0.057748877 -0.00663241 -0.041559894
0001a0 7e 73 93 3c 3e d7 09 3d 46 6d c9 3c 8c 35 9f 3d
       0.017999407 0.033652537 0.024588238 0.07773885
0001b0 e1 6a 19 bc c4 db 5b bd ec d2 26 3d fc 1e 4d 3d
       -0.009363861 -0.05367638 0.040728495 0.050078377
0001c0 4a 9e e4 bd 36 37 d2 bb 6c d9 d3 bc 85 52 33 3d
       -0.11163004 -0.006415273 -0.02586051 0.04377987
0001d0 7b 92 12 bd e1 7e e9 bd 4e 4c 82 bd 35 6a 0e 3d
       -0.035784226 -0.11401153 -0.0636221 0.034769256
0001e0 fe 41 64 bc cf f3 6c bc 07 7d 42 3d 2f df 87 bc
       -0.013931749 -0.014462425 0.047482517 -0.016585914
0001f0 d3 1e 14 bb 98 5e 88 3d 05 18 ba 3d 2a a1 d8 3d
       -0.002260138 0.06658667 0.090866126 0.105776146
000200 be d7 6d bd 5b 59 2e bd 02 8e 4d bc a7 1d bb bb
       -0.058067076 -0.042565685 -0.012546064 -0.005710322
000210 d3 f5 e2 bc fe 0f 58 ba 74 6c a9 bd 79 4e 66 3b
       -0.027705109 -0.0008242129 -0.08272639 0.0035141988
000220 c1 5e 84 bd 35 12 75 3d bd 7c ad bc 43 64 72 3d
       -0.064633854 0.059831817 -0.021177644 0.05917765
000230 90 b9 19 3d 65 08 43 3c 40 95 0d bd 24 e9 32 bd
       0.03753048 0.011903857 -0.034566164 -0.04367937
000240 be ae bc ba 3a 08 51 bc f3 0a 7a bd db 67 8f 3c
       -0.0014395339 -0.012758309 -0.0610456 0.017505577
000250 7d 34 c8 bc 3a 99 a5 bd 27 7c c1 3d 93 78 11 bd
       -0.02443909 -0.08085866 0.09447508 -0.03551538
000260 f9 e5 85 3d 7f 1b 93 3c 77 53 d9 3b a0 5a 6b bc
       0.065380044 0.017957447 0.0066322642 -0.014364868
000270 02 ad 57 bd 7c dc 85 bc 85 58 80 3c 88 4e 4c 3d
       -0.052655227 -0.016340487 0.01566721 0.04987958
000280 c5 70 9f bc c9 6c 4a bc 96 f7 a3 bc 13 5a 66 3c
       -0.019462952 -0.012355038 -0.02001552 0.014059561
000290 16 ec 71 bd 06 a2 d6 bc 40 2b e4 3d cb 36 c2 bb
       -0.05906304 -0.026200306 0.11141062 -0.005926942
0002a0 a0 88 a1 bc 58 2e f2 3c 45 30 18 bc 20 24 e6 bc
       -0.019718468 0.029563114 -0.009288852 -0.028093398
0002b0 85 38 1c ba f0 01 a6 3b b5 ac f6 3a 38 89 83 bc
       -0.000595935 0.005066149 0.0018819781 -0.016056642
0002c0 70 83 e4 3c d5 88 cb 3b af a1 97 bc 48 3a b2 bd
       0.027894706 0.00621138 -0.018509714 -0.087025225
0002d0 3c 37 6b bb 9f 8f 1e bd f9 b0 39 bc fd 7b 9f bb
       -0.0035891077 -0.038711186 -0.0113336975 -0.0048670755
0002e0 03 07 b8 3d 89 be 5a bc 9a c4 1e 3d 93 25 e6 bc
       0.089857124 -0.013351091 0.038761713 -0.028094089
0002f0 50 1a 02 3d 71 41 2c bd 8e dd 31 3d 47 48 64 3d
       0.031763375 -0.042054597 0.04342418 0.05573299
000300 c5 6e 32 3c 35 ab 26 3a 03 40 b8 bd 90 00 6b 3d
       0.010890667 0.00063579093 -0.08996584 0.057373583
000310 70 15 1f 3d 09 d0 57 3d 49 9d 9c 3d fd 3e 9d 3d
       0.038838804 0.052688632 0.07647187 0.0767803
000320 79 87 bc 3c 3d 3c 79 3c b4 4a 00 bd 6e 5e a9 bd
       0.023013817 0.015212116 -0.031321242 -0.08269964
000330 df 38 26 bd b2 9d eb bd aa 83 d9 bd 9e 3f 17 3c
       -0.04058158 -0.11504687 -0.10620816 0.009231476
000340 75 10 2d 3c c3 d6 e3 3d a8 fd 4c 3d e1 64 81 bb
       0.010563006 0.11124947 0.050046593 -0.0039487933
000350 78 b5 59 bd 13 8c 95 3d 3d 85 cf bb 77 51 9e 3d
       -0.053151578 0.07302108 -0.006333022 0.07730382
000360 6a 69 ae 3c 7c 7b eb bc de 4d 51 3c 71 2a 62 3d
       0.0212905 -0.028745405 0.012774913 0.055216257
000370 13 a5 55 3d cd 49 3b bb 91 88 2b 3d d6 dd 4f 3c
       0.05215938 -0.0028577924 0.041878287 0.012687167
000380 48 1d e1 bc 07 61 9d 3d 86 03 36 bd b5 9b d8 3c
       -0.027479783 0.07684522 -0.044436954 0.026441434
000390 ae 2d 55 bd 81 5a ed 3c 3b 8c 34 3c 24 fe 07 bc
       -0.052045517 0.02897382 0.011019762 -0.008300338
0003a0 26 44 04 3d d1 f0 d4 bd 06 d0 96 bc fc a6 bc 3d
       0.032291554 -0.103974946 -0.01840974 0.09211537
0003b0 19 7b 2e 3d da 7b 25 3c e3 a9 c0 bc 5d 04 94 bd
       0.042597864 0.010100329 -0.023518508 -0.07227395
0003c0 13 00 6a 3c 98 77 0c bc b6 80 80 3c 18 19 98 3c
       0.014282244 -0.008573435 0.015686374 0.018566653
0003d0 7b ce 97 bd 22 96 51 3c fd 51 d7 3c bd 35 7c 3d
       -0.0741243 0.012792142 0.026284212 0.061574686
0003e0 5c d6 97 bd 9f da b2 bc 7b b9 18 bd 8c d9 16 3d
       -0.07413933 -0.021832762 -0.037286263 0.036828563
0003f0 70 36 9b bc 5b e1 0a bd a1 53 89 3a 92 6f a2 bc
       -0.018946856 -0.033906322 0.0010477194 -0.019828591

bias f4 [128]
000000 d6 c1 85 3d c5 39 13 3c 11 b5 98 3c 6e f8 52 3d
       0.06531112 0.008985941 0.018641027 0.051506452
000010 82 bc 8f bc 04 53 d4 3c fb 10 ea ba 92 6c 03 3d
       -0.017545942 0.025918491 -0.0017857844 0.032085963
000020 e0 22 b7 3d e0 d6 0d 3d 32 41 1a bd 6a 7b b6 bb
       0.08942199 0.03462875 -0.03765983 -0.0055689113
000030 13 7c eb ba 7d 1a 93 bc ac bb 25 3d c5 05 a6 3d
       -0.0017966054 -0.017956967 0.04046218 0.08106569
000040 8c 4b 66 3d 02 36 95 bd 2f 88 9b bd e3 39 4c 3d
       0.05622439 -0.07285692 -0.07594334 0.049859893
000050 e7 9d c1 bc da 50 5f bd f5 49 b5 3c ae fc 1b 3d
       -0.023634864 -0.054520465 0.022129992 0.03808277
000060 02 c4 eb bc 2b 2c d6 bb 35 41 45 bd da 7f ad 3d
       -0.028779987 -0.006536027 -0.04815789 0.084716514
000070 4e 1c 4b 3d 12 4a d4 3c 3d 3f 2f 3c a3 af 58 bd
       0.04958754 0.025914226 0.0106962295 -0.052901875
000080 2e 8d ae bc c8 ee 37 3d 39 19 b9 3c 12 ce 05 3d
       -0.021307554 0.044905454 0.022595035 0.032667227
000090 88 f6 8b bd 34 42 14 bc 22 c7 0d bd e1 0e fe bc
       -0.068341315 -0.009048987 -0.034613736 -0.031012954
0000a0 7f e2 ab 3d 3f b5 76 bc a1 7d 5f 3c 60 2a ac 3d
       0.0839281 -0.015057861 0.013640792 0.0840652
0000b0 ae 0e f4 bc be c3 36 3d 65 08 86 3c 73 16 9b bb
       -0.029792156 0.044620268 0.016361425 -0.0047329008
0000c0 10 04 1a bc 42 87 db bc 89 87 32 3d 64 fb a1 3d
       -0.009400383 -0.026797894 0.043586288 0.07909277
0000d0 dd 4b b7 3d 29 90 3b bd 83 9a 84 bd 56 0c 2f bd
       0.08950017 -0.04579178 -0.06474783 -0.042736374
0000e0 84 c9 de 3c 83 42 44 bd 8a 40 a8 3c 92 f5 9c 3d
       0.0271957 -0.047914993 0.020538587 0.07664026
0000f0 a6 0e ef bc 11 e6 61 3d 9f c4 00 bd f2 05 37 3d
       -0.02918179 0.05515105 -0.031437512 0.044683404
000100 9b b7 85 3d 83 db 20 3d e5 e3 10 bd a7 72 2b 3d
       0.065291606 0.039271843 -0.035373587 0.041857388
000110 68 24 58 3c 00 c5 09 3b 18 de 84 3c c8 20 05 3d
       0.013192274 0.0021021962 0.016219184 0.032501966
000120 78 6e 25 3d c2 c1 5b bd 9f 10 31 3d d1 b0 02 3c
       0.040388554 -0.05365158 0.04322874 0.007976727
000130 84 15 1f 3d 49 92 85 bd 80 58 f6 bc f3 21 01 bd
       0.03883888 -0.06522042 -0.030071497 -0.031526517
000140 0b 7e ee 3c fc bb fd 3c 09 4f 0d bd a8 40 3a 3d
       0.029112836 0.030973427 -0.034499202 0.045471817
000150 57 b1 12 bd 1c a6 34 3c 50 9c 26 bd e8 67 78 3d
       -0.035813656 0.011025932 -0.040676415 0.060645968
000160 d6 ea 2d 3d 9b 32 29 bd 2f e5 8c 3c 79 9f 75 3d
       0.042460285 -0.041308027 0.017199127 0.059966538
000170 4f fd 30 3d 74 0d 29 bd 29 da 06 3b e5 3e fd 3c
       0.043210324 -0.041272596 0.002057681 0.03091378
000180 53 6e 06 3d 2a c3 77 bd b7 57 b0 3b 99 8e 1b 3d
       0.032820057 -0.060488857 0.00538155 0.03797779
000190 10 15 13 bb a7 d3 ae 3c 3f ca f3 bc 0b 96 2f 3d
       -0.0022442974 0.021341158 -0.029759524 0.0428677
0001a0 3e 39 1a 3d 87 d0 3b 3d 58 df 9f 3d 84 eb 97 bc
       0.037652247 0.045853164 0.07806271 -0.01854492
0001b0 37 4f 2b bd 6d 73 27 3d f8 15 54 3d 88 b1 67 3d
       -0.041823592 0.040881563 0.051778764 0.05656579
0001c0 88 b3 ff 3b 43 54 f9 bb f0 43 fc 3a f8 22 53 3d
       0.007803384 -0.0076089217 0.0019246321 0.05154702
0001d0 ff 22 11 bd 81 1c 2f bc 38 f7 17 bd cd a3 ea 3c
       -0.035433766 -0.010687948 -0.037101 0.02864256
0001e0 bf 93 67 3d 63 be b5 bc 0e cf af bc db 57 74 3d
       0.056537386 -0.02218551 -0.021461036 0.059654098
0001f0 99 49 08 3d 41 64 4b 3d 19 30 de bb 66 5e 16 3a
       0.033273313 0.049656156 -0.006780636 0.00057361124

weight f4 [64, 128]
000000 be 6f 75 3d e7 2d 00 3c c7 de a0 3d aa b0 b5 3d
       0.05992102 0.007823444 0.078549914 0.088715866
000010 a9 9f 4c bb e0 48 ec 3d e5 1e 07 bd 75 ad cf bd
       -0.0031223095 0.11537337 -0.032988448 -0.10140506
000020 c1 07 0c 3d af d7 5c 3c 0f 84 b6 bd 87 54 a3 3c
       0.034187082 0.013479157 -0.08911907 0.019937767
000030 d8 07 a2 3d 30 20 2d bc 50 80 04 3d 23 a6 60 3d
       0.07911652 -0.010566756 0.03234893 0.05484594
000040 97 b4 c2 3d 6d cb cb bb 4d ba 44 bc 90 7a db 3d
       0.09507101 -0.0062193186 -0.012007308 0.10716736
000050 94 7d 1c 3d dc 51 7f 3d 2d ce de 3d 38 a9 e7 3d
       0.038205698 0.062333927 0.10879169 0.11311573
000060 87 3e 9c 3d 4e dc 48 bb d0 bc 3f bb b6 bc 9f 3d
       0.07629114 -0.003064889 -0.0029256828 0.07799666
000070 be 0d 1f bd 58 c8 89 bd b0 0a 2c 3d f2 7a 2f 3c
       -0.038831465 -0.06727666 0.04200238 0.010710465
000080 5a f2 06 3d 9c 09 be bc 93 ac 37 bd 56 42 50 3d
       0.03294597 -0.023197941 -0.044842314 0.050844513
000090 1d 53 97 bb 30 41 ad 3d 92 40 7f bd 08 60 68 bc
       -0.004618062 0.08459699 -0.06231744 -0.014183052
0000a0 80 86 77 3d 21 d2 4a 3d d7 b3 1d 3c 75 ad 11 3d
       0.060431004 0.0495168 0.009625397 0.035565812
0000b0 d3 9c e7 bc 68 b3 f5 3d b2 01 75 bd d6 8e 67 3d
       -0.028273022 0.1199711 -0.05981607 0.056532703
0000c0 f1 33 41 bd 5f b3 81 3d 75 3e 8a 3c 66 cb 49 bc
       -0.047168676 0.063330404 0.016875485 -0.01231656
0000d0 3e b9 88 bc f1 da 94 bd ac 0f 73 bd c7 b1 44 bd
       -0.016689893 -0.07268322 -0.059341118 -0.048021104
0000e0 96 e2 3a 3d 98 a5 92 3c 43 1c e2 bd 81 55 b3 3d
       0.045626245 0.017901227 -0.11040547 0.08756543
0000f0 b0 66 0d bd b7 1a 77 bc 5f 3b 54 3d fa 81 09 3d
       -0.03452176 -0.015082053 0.051814433 0.03357122
000100 8c b6 97 3d 90 79 59 3d 95 df 0e bd 40 8e 5a bd
       0.07407865 0.053094447 -0.034881193 -0.053358316
000110 46 dd 1e 3d c1 f9 0c bd 2e cb 47 bd 28 f8 ba 3d
       0.03878524 -0.03441787 -0.04877775 0.09129363
000120 38 bf b3 bd 2e e5 ce bd b5 d0 e1 3d eb 88 cc 3c
       -0.087767065 -0.10102306 0.11026136 0.024967631
000130 d4 27 7a 3d e2 62 f8 bc dc 53 65 bc e2 7d 44 bd
       0.06107314 -0.030320588 -0.013997044 -0.047971614
000140 8b ea b0 3c 00 be f3 3c 1f 09 10 bd b9 e4 4b bc
       0.021596214 0.029753685 -0.03516495 -0.012444668
000150 92 cf ab 3c b7 17 84 3b 3d 0d 1b 3d 72 70 a1 ba
       0.020973 0.0040311473 0.037854422 -0.0012316837
000160 ea 23 1d 3c 17 8d f3 ba 79 d2 35 bd 38 40 7d 3d
       0.009591082 -0.0018581477 -0.044390175 0.061828822
000170 be d2 d5 3d 86 71 0a bc c6 3e ac bc 2f fa e0 bc
       0.104405865 -0.008449918 -0.021026026 -0.027463047
000180 ca 31 8c bd 1b 2f c4 bc aa 7e 69 3d 33 4f 9e bc
       -0.06845434 -0.023948243 0.057005562 -0.019324875
000190 ff 30 d5 3b 49 a7 77 3c 27 73 d4 bd 79 8b cc 3c
       0.006506085 0.0151155675 -0.10373526 0.02496885
0001a0 c4 2a b6 bd 73 aa 13 3d 7b 0c 4c 3d 7c 05 5b 3d
       -0.08894876 0.036051225 0.04981659 0.053472027
0001b0 3b 3f 17 3d 81 98 00 3d 6c 79 ec 3b 86 6c b1 3d
       0.036925536 0.03139544 0.007216623 0.08663277
0001c0 3b 50 8e 3d 36 f4 63 bb 31 e5 c1 3d 34 da 2c bd
       0.069488965 -0.0034783012 0.09467543 -0.042200282
0001d0 2d 55 04 bb b8 c9 84 bd 45 d6 6c 3d 34 54 e2 bb
       -0.002019237 -0.06483787 0.05782153 -0.0069070105
0001e0 7f 0d 9b bc 4b 76 91 bd 16 83 3c bd eb b2 86 3d
       -0.018927334 -0.07102641 -0.04602345 0.06577095
0001f0 74 68 a5 bd a2 5e 2f 3d fb aa c5 3c 5c ea b3 bd
       -0.080765635 0.04281486 0.024129381 -0.08784935
000200 f6 2c 66 bd db 61 7d 3d 2c 09 23 3d 9a 30 c6 3d
       -0.05619522 0.0618609 0.03980367 0.09677239
000210 fb be b4 bd ca 81 cc 3b 5d 1f 19 3d 89 9e a0 bd
       -0.08825489 0.006241058 0.037383426 -0.07842738
000220 69 4d 25 3d 10 3c 5f bd 1f 13 92 bd 2b 15 b7 bd
       0.040357027 -0.05450064 -0.07132553 -0.08939584
000230 4c d2 59 bb df c2 34 3d 8f 01 97 3b c7 d5 47 3c
       -0.003323692 0.044131156 0.00460834 0.012196965
000240 c1 a5 29 bd bd 71 78 3d d2 45 b1 bd 66 45 2c 3d
       -0.04141784 0.060655344 -0.08655895 0.04205837
000250 19 38 fa 3c 09 6e 6b 3d 32 2a 6a bd fd 6a c3 3d
       0.030544328 0.057477985 -0.057169147 0.09541891
000260 7b db 80 bd 67 42 61 3d 0a 44 ad bd cb 34 94 3d
       -0.062918626 0.054994967 -0.08460243 0.07236632
000270 8d 2e 9c bc 5e 4e f5 3c a0 8c 27 3d 65 83 3f 3d
       -0.019065166 0.029944595 0.040905595 0.046756167
000280 ec 8a ad bd 36 7d af bb 3a 37 28 bc fe cc f2 3c
       -0.08473763 -0.0053555025 -0.010267073 0.029638764
000290 7d a2 e1 3c 20 ee da 3d ee 02 35 bc d4 71 71 3d
       0.0275433 0.1068995 -0.011048062 0.058946446
0002a0 4c 9c 57 3d ec 21 48 3d 47 a6 5c bd a7 49 95 3c
       0.05263929 0.048860475 -0.053869512 0.018223597
0002b0 14 bb a7 bc 89 45 0e 3d 5c 89 d1 3c 8c 61 43 bc
       -0.020474948 0.034734283 0.025578193 -0.011925112
0002c0 51 f7 21 3d 98 92 58 3d ba 91 8f bd 5d 91 77 bc
       0.0395425 0.052874178 -0.07010217 -0.015110341
0002d0 79 ab 5d bd 14 77 41 bd 50 40 d5 ba 15 38 c9 3d
       -0.054118607 -0.047232702 -0.0016269777 0.0982515
0002e0 25 9a 25 bd 3d 7a b0 3c c5 81 bc bd 20 40 87 bd
       -0.040430207 0.021542663 -0.09204439 -0.06604028
0002f0 ea cf e6 b9 ae e1 4a 3c ba 74 aa 3d 87 e8 c2 3d
       -0.00044023927 0.012382908 0.08323045 0.09517007
000300 93 ef 96 bd f8 43 b6 bd 14 88 b8 bd 06 d0 0b 3d
       -0.07369914 -0.08899683 -0.0901033 0.034133933
000310 e7 cb 5a bd 80 2e b2 bd aa 99 c9 bc b1 31 00 3e
       -0.053417113 -0.087002754 -0.024609406 0.12518956
000320 07 d5 62 bd b9 47 61 3d 3a 49 a8 3c 93 dd e9 3d
       -0.05537894 0.05500004 0.02054273 0.11419215
000330 e0 4e 1d 3c 79 d8 5d 3d 38 97 24 bd 9b 04 96 bc
       0.009601325 0.054161523 -0.040183276 -0.018312743
000340 0f a0 4d bd 94 31 a2 3d 6c 6e c9 bd 38 70 45 3b
       -0.050201472 0.079196125 -0.098355144 0.0030126702
000350 cb e6 a6 3d 12 eb 86 3c 21 36 b0 3d 1d b8 81 bd
       0.08149489 0.016469512 0.08604074 -0.06333945
000360 a3 cf 90 bd 54 26 f3 3c c5 17 ba bd 83 ce 81 3c
       -0.070708536 0.029681362 -0.09086565 0.015845543
000370 c7 37 cc 3c be f5 a5 bc 24 26 80 3c 36 77 96 3d
       0.02492894 -0.02025878 0.015643187 0.073469564
000380 ab 3f 1f 3c ad fa 8a 3c b5 8a d1 bd be ce 2b 3c
       0.0097197695 0.016965235 -0.102315344 0.010486303
000390 bb 44 c5 3d 0e f3 ba 3b 06 ba 90 bd 18 52 22 bd
       0.0963225 0.005705244 -0.07066731 -0.039629072
0003a0 fb c8 51 3c 63 7f 86 bc e2 80 2d 3d 3b f5 22 bd
       0.012804265 -0.016418165 0.04235924 -0.03978465
0003b0 ed 77 83 bd 62 99 a6 3d 7f 64 e0 bc f6 9c da 3d
       -0.064193584 0.08134724 -0.02739167 0.10674469
0003c0 35 67 cf 3d d1 83 ba bb a7 cf e5 ba 63 3b 9f bd
       0.10127107 -0.0056919833 -0.0017533199 -0.07774999
0003d0 50 57 db bd 9a 16 34 bd 87 aa 9d bd 43 02 a7 3c
       -0.10710013 -0.043966867 -0.07698541 0.02038682
0003e0 04 fd 70 3d fb 80 40 3d ec 82 75 3d 38 89 27 3c
       0.058835045 0.046998005 0.05993931 0.010225587
0003f0 53 b0 59 3d 47 d8 88 3d 9e f7 e5 3c f6 1a c3 bc
       0.05314667 0.06681877 0.028072175 -0.023816567

bias f4 [64]
000000 26 99 63 bc 82 05 e6 3c cc 06 a4 3d ef 26 5f bc
       -0.013891494 0.028078798 0.08009109 -0.013620122
000010 4a b8 e6 3c 76 5e 5b 3d 6f 99 88 3d dc cd e7 3c
       0.028164048 0.05355688 0.0666989 0.028296404
000020 ae ab b7 bd 66 fe 20 3c 04 bc 35 3d 0d a7 39 bc
       -0.08968292 0.009826278 0.04436876 -0.011331332
000030 f1 ba b8 3d dd 9c 47 3c 34 2a 03 3a 96 87 f5 bc
       0.09020031 0.012183395 0.0005003542 -0.029971879
000040 ec 56 ad bc 26 90 99 3d d1 39 22 bd 01 7b 6f 3d
       -0.021159612 0.07498197 -0.03960592 0.058466915
000050 60 a6 1b bd 48 51 97 bd 72 a1 a9 ba b3 1b 93 ba
       -0.038000464 -0.0738855 -0.0012941791 -0.0011223465
000060 31 5e 1f bd cd ec bf 3d 24 49 6e bc d5 82 d3 3c
       -0.038908187 0.09371338 -0.014543805 0.025819222
000070 dc 2a 79 3d d3 28 9e bc d2 92 76 bd 8a a6 ce 3d
       0.06083189 -0.019306576 -0.060198613 0.100903586
000080 8a 87 e6 3d 22 35 37 3d 86 6e b2 3d 9c 66 32 bd
       0.11256321 0.044728406 0.08712487 -0.043554887
000090 20 1d f6 bc 68 2e f6 3b a3 93 8c 3d 4a 21 89 bc
       -0.030043185 0.0075128563 0.06864097 -0.016739506
0000a0 47 48 96 3d eb cf 21 3d 45 d9 f1 3b ce 91 bc 3c
       0.073380046 0.039504927 0.007380637 0.023018744
0000b0 e9 58 80 3d cc 40 d0 3d 67 38 53 3d 99 94 bf 3c
       0.06266958 0.10168609 0.05156746 0.023386287
0000c0 02 e7 8b bd 95 f7 6d 3c c3 b1 71 3d aa 4a ad 3d
       -0.068311706 0.01452436 0.059007417 0.08461507
0000d0 b1 dd ad 3b 38 ec bc 3d 80 90 a2 bc b0 6b 7b bd
       0.0053059687 0.09224743 -0.019844294 -0.061381996
0000e0 fc 27 93 3d 80 8a bf 3d 12 83 05 bd af 7a 18 bd
       0.07185361 0.09352589 -0.0325957 -0.037226375
0000f0 04 04 46 bd 03 a9 81 bc fd d3 8f 3d 93 f0 b5 3c
       -0.048343673 -0.015827661 0.070228554 0.022209441

weight f4 [5, 64]
000000 24 73 8a bc 59 c3 a4 bd a3 08 01 3e 3b 65 28 3e
       -0.016900606 -0.08045072 0.12600951 0.16444866
000010 4a fa 00 3c 70 e5 d5 3d 34 68 4b 3d 55 71 31 3e
       0.007872174 0.10444152 0.049659923 0.17328389
000020 6a 18 d0 bd 93 5a f7 3d bc 77 e9 bd b4 47 a4 3d
       -0.101609066 0.120778225 -0.11399791 0.08021489
000030 0b f1 44 3c 5c 80 b4 bd 46 47 46 3c 39 2a 07 be
       0.01202036 -0.08813545 0.012101954 -0.131997
000040 b5 f8 ee 3d 0b c3 0b 3e c2 92 12 bd ba 0e ea bd
       0.11668531 0.13648622 -0.03578449 -0.1142859
000050 07 56 54 bd d2 eb 19 be 84 1e 62 bd fc ef c3 3c
       -0.051839855 -0.15031365 -0.055204883 0.023918144
000060 eb 26 7a 3d e1 5c a8 3d 4e a4 9b 3c 94 a0 ce bc
       0.06107227 0.0822084 0.018999245 -0.025223054
000070 34 8a d4 3d 2d 8a 52 bd 6e 8a 70 3d e3 92 25 3e
       0.10377923 -0.051401306 0.058725767 0.16169314
000080 a6 e6 11 bc 1b ba 2e 3e 63 41 e1 bd e5 33 d7 bd
       -0.0089050885 0.17063181 -0.109988 -0.10507945
000090 3b a0 37 be 1b 0e ce 3d 6d c7 59 3a 13 90 22 3d
       -0.17932217 0.10061284 0.000830761 0.03968818
0000a0 e7 99 45 3d ab 04 18 be ec c3 9c 3d f3 5d 04 bb
       0.048242476 -0.1484553 0.07654557 -0.00201976
0000b0 15 64 bc 3c b8 8d 2c 3d c4 4c 0a 3e 4b 14 e4 bd
       0.022996942 0.04212734 0.13505846 -0.11136683
0000c0 e4 d8 d4 bd 10 bf c0 bd 95 ac 57 3d fd c9 39 be
       -0.10392931 -0.09411442 0.05265482 -0.18143459
0000d0 35 65 bb 3d 45 a2 b9 bd d0 4f 62 bd 35 94 9b ba
       0.09150163 -0.090641536 -0.055251896 -0.0011869731
0000e0 cd 69 1d 3e 33 50 13 3e 5b 6c 0a 3e 50 09 5d 3d
       0.15372391 0.14386062 0.13517897 0.05396396
0000f0 61 63 fb bd 0e 93 17 3e 61 f5 6d bc 9d a0 11 be
       -0.122748144 0.1480219 -0.014523835 -0.14221425
000100 1f aa 42 3d 0b 21 1f 3e 9d 41 26 bc a6 a7 26 be
       0.04752552 0.15539949 -0.010147479 -0.1627489
000110 63 0c 15 bd 11 1b 05 be f9 e5 cb 3d 54 0b d8 bd
       -0.036388766 -0.12998606 0.09955973 -0.10549036
000120 55 02 c0 3d 56 fb cf 3d a6 2e 9f 3d b5 bb 3e bc
       0.09375445 0.101553604 0.07772569 -0.0116414325
000130 ee 27 cd 3d cb 90 db 3b ca 1a fa bc 09 75 ed bd
       0.100173816 0.0067006103 -0.030530352 -0.11594588
000140 07 95 ce bd 39 d6 bf 3d 07 64 37 3c 5b ed 42 3c
       -0.100870185 0.093670316 0.011193282 0.01189741
000150 21 8e 58 3d 98 5b 0b 3e 9a 53 ba 3d 3d 3b 10 3d
       0.05286992 0.13609159 0.09097977 0.035212744
000160 7d b8 ac 3d d0 66 f0 bd cd d7 19 bb 3d 96 85 3d
       0.08433626 -0.1173836 -0.0023474575 0.06522796
000170 61 17 2e bd 79 9f 1a 3e 5d c1 b2 bc a0 b0 d0 3c
       -0.042502765 0.15099896 -0.021820718 0.025474846
000180 2c 41 05 3e 14 b8 e7 ba 4d f7 f1 3d d9 15 28 3c
       0.13013142 -0.0017678761 0.11814747 0.010259115
000190 55 93 2b 3d 9c 83 e4 bd b9 f5 c9 bd ce f0 a4 bd
       0.041888554 -0.11157915 -0.09861321 -0.08053742
0001a0 63 1e 17 3e e4 df cb bd 74 56 d5 bd 15 88 15 bd
       0.14757685 -0.09954813 -0.1041688 -0.03650673
0001b0 70 bf 69 3d f0 31 40 3d 0c 27 c3 bd 4a 7a 3a 3d
       0.057067335 0.046922624 -0.09528932 0.04552678
0001c0 89 a0 c9 3d 56 e7 fc 3c 30 6b ed 3c 90 dc bc bc
       0.09845073 0.030872028 0.028981775 -0.023054391
0001d0 a5 b2 63 bd e2 fd 1d 3e a6 9f 0f 3e c2 98 d5 3d
       -0.05559029 0.1542888 0.14025745 0.10429527
0001e0 59 18 56 3d f2 6d 83 3d f3 32 9a 3c a7 bc aa 3d
       0.052269313 0.06417455 0.018823123 0.08336764
0001f0 72 27 d3 3d 6c e4 59 3d 83 56 2d bc 67 a1 af bc
       0.10310258 0.053196356 -0.010579708 -0.021439267
000200 d9 90 73 bd 82 88 ef bd dc 72 db 3d 55 7d aa bd
       -0.05946431 -0.11695959 0.10715267 -0.083246864
000210 f4 26 5b 3b 74 fc da bd 51 31 4c bd 8d 89 80 3d
       0.0033439966 -0.10692683 -0.04985172 0.06276236
000220 0d ec b0 3c a7 f9 42 3d 32 e0 65 bc bb 79 03 be
       0.021596933 0.04760137 -0.014030503 -0.12839405
000230 2e d5 ed 3d 28 43 9f bd cd 07 02 bc 31 7c cc bd
       0.116129264 -0.07776481 -0.00793643 -0.09984625
000240 00 41 9b 3d 46 88 d2 3d 3b 7c 17 bd db d3 a0 bd
       0.07580757 0.10279898 -0.03698371 -0.07852908
000250 08 30 9d 3d af e0 4e 3d d7 48 ac 3d be 60 a6 3d
       0.07675177 0.050507244 0.084123306 0.08123921
000260 3e 48 9a 3d 04 83 e3 bc 45 e3 02 be 25 d6 79 bd
       0.0753331 -0.027772434 -0.12782009 -0.06099524
000270 aa d9 f2 bc e0 70 a8 3d ce 0a cf bb 75 5a 46 3d
       -0.029644806 0.08224654 -0.0063184267 0.04842611
000280 e6 c0 1c bd fc ef ba bd 71 8b 80 3d 34 eb b1 bd
       -0.0382699 -0.09127805 0.06276596 -0.086874396
000290 1a 43 ea 3d 79 3a a6 3d dc b5 dc 3d f6 ad b6 3d
       0.1143858 0.081166215 0.107768744 0.08919899
0002a0 ef 6a 8b bd 01 c5 96 3d 51 00 32 3d d3 98 55 3d
       -0.06807505 0.07361794 0.043457333 0.052147698
0002b0 b9 e8 91 bd 5f ab 4e 3d 26 a0 fe bd 4c e8 c5 bc
       -0.071244664 0.0504564 -0.1243289 -0.02415862
0002c0 06 62 77 bd 09 b5 6d bd 49 d2 1f 3c b5 37 b6 bd
       -0.060396217 -0.058033977 0.009754726 -0.08897344
0002d0 3b a1 ae 3c bd f1 c0 bd 45 b4 c0 3b 5b 55 75 bd
       0.021317115 -0.09421108 0.005880865 -0.059895854
0002e0 4d 58 d3 3d 0a a8 e8 bd ee f4 86 bd 0f c0 56 bc
       0.103195764 -0.11360176 -0.065896854 -0.013107314
0002f0 bd 27 a0 3d 0e 46 ac 3d ef 38 96 3d 3d 9b 91 3b
       0.078200795 0.08411799 0.07335078 0.0044435547
000300 9a 3f 3c 3d 36 82 d4 bd ac 99 82 bd c3 7a 44 bc
       0.045959093 -0.10376398 -0.06376967 -0.011992159
000310 a2 42 08 3d 90 40 30 bd f7 bd a7 bd 19 4e c6 3d
       0.03326667 -0.04303032 -0.0819053 0.09682865
000320 67 31 da 3d 0f ce 22 3d 21 45 70 3d af 1a dc 3c
       0.10653954 0.039747294 0.058659676 0.026868192
000330 1e 94 28 bd 6e d3 98 3b 46 e3 3a 3d 7c 4c 94 3b
       -0.04115688 0.0046638763 0.0456269 0.004525719
000340 8d fd 99 3d 58 36 63 bd 01 a6 37 bc 3f 13 51 bd
       0.07519064 -0.055471748 -0.011209012 -0.051043745
000350 06 f8 f6 bd 2c 92 ce 3b 6b 67 6c bd 74 9b f8 3d
       -0.120590255 0.006304046 -0.057715815 0.12139025
000360 fa 74 f8 3c 5d 54 fb bd 54 65 03 3e 18 21 10 3d
       0.030329216 -0.122719504 0.12831622 0.03518781
000370 b0 93 05 3d 5d 94 af 3c 3d 57 b4 3d e1 8d 0d be
       0.03261155 0.02143305 0.08805702 -0.13823654
000380 a9 69 39 3c 74 02 6f bb 43 f0 c3 3b 4d 22 02 bc
       0.011316695 -0.0036469968 0.005979569 -0.007942748
000390 7c 50 dc 3d 68 55 84 bc 43 cb b0 bd d8 6e b3 3d
       0.10757539 -0.016154006 -0.08632519 0.08761376
0003a0 38 96 9a bc 72 38 84 3d 03 6f 80 bd 1f f0 a9 3d
       -0.018870458 0.064560786 -0.06271174 0.082977526
0003b0 c6 c8 99 bd 53 b9 e0 bb a4 98 72 3c be bc c5 3d
       -0.075089976 -0.00685803 0.0148069 0.0965514
0003c0 3b b0 3c 3d fd b0 a8 3d 79 bb 4c bd 88 cf 81 3d
       0.046066504 0.08236883 -0.049983475 0.063384116
0003d0 b2 d9 b7 bd 31 48 b6 bd 40 d4 66 3d 22 0e 87 bd
       -0.08977069 -0.08900488 0.05635476 -0.065944925
0003e0 cd b5 56 3d 52 d8 77 3d a9 de a0 ba ab f3 3d 3c
       0.052419472 0.060509034 -0.0012273389 0.0115937395
0003f0 b0 60 61 bd 8e 06 d1 ba 71 4f f7 3c 55 85 82 3d
       -0.05502385 -0.0015947388 0.030189248 0.06373087

bias f4 [5]
000000 31 b0 f5 3d 18 d4 c4 bd fa ec cd 3d 89 cd d8 3d
       0.119964965 -0.09610766 0.10054965 0.10586078
000010 5f ff 82 bc
       -0.015990911
