Policy-Gradients/Poker-Agent/checkpoint_135000.pt (torch, 227379 bytes, 8 tensors)

weight f4 [256, 55]
0.009901985 -0.101010434 -0.054045733 -0.014690416 0.08206249 0.047237523 0.059689656 0.21719876
0.18727395 0.025139594 -0.14585918 -0.062373936 0.13239588 -0.038079016 0.056372374 -0.01708139
0.047459304 0.05038188 0.09686933 -0.121294074 0.006091038 -0.14080939 -0.07133774 0.08911192
0.15318613 -0.0142393755 -0.10301027 0.119256295 -0.06895749 0.016727813 0.11194154 0.071823634
0.021349505 0.072697684 -0.11282482 0.019742887 -0.023598082 -0.10155091 -0.049123183 -0.018990349
-0.14413692 -0.04833772 0.037620436 0.024166396 -0.13812093 -0.048503876 -0.056428958 0.03381345
-0.038002033 0.03926246 0.10034906 -0.01003854 -0.12048608 0.060564622 -0.08191823 0.0092628505
-0.07260048 0.11332812 -0.0050146743 0.13540038 0.15529045 0.010851281 0.039100233 0.24440746
0.13654743 -0.0011175523 0.29432976 0.18063173 0.033581518 0.05235906 0.12163877 0.06087577
-0.07114297 -0.05863468 0.099737614 0.035536177 0.02666051 -0.105114825 -0.032519624 0.1319579
0.049824104 -0.11776174 -0.08223811 -0.007767009 -0.121409185 -0.07994703 -0.075363204 0.25589344
-0.07045407 0.14882568 0.036460847 -0.033504292 0.06178713 -0.020406319 0.058143914 -0.1172382
0.05331903 -0.026827127 0.14305586 0.0944525 -0.06983203 0.11316674 0.12343935 -0.0421614
-0.018948123 0.022802964 -0.12768072 -0.103979 0.123614706 -0.061790653 0.027548024 0.020922631
-0.0039794375 0.015348661 0.026966542 0.0702126 0.09994321 -0.16395491 -0.18633512 0.035376858
-0.0144294 -0.23565143 -0.047111172 -0.07527992 -0.11152828 -0.097805806 -0.07709658 -0.080266245
0.093114294 -0.080772616 -0.12030631 0.060022455 -0.024674239 -0.059041385 -0.004082447 -0.036759634
-0.046020307 0.10107573 -0.07956424 0.020783024 0.06288326 -0.09287515 -0.1916066 -0.06429069
0.13205998 -0.03824278 -0.00012421141 -0.07175806 -0.05341715 -0.03186169 -0.07649738 -0.026221847
0.04519552 0.04722391 0.11494674 -0.044808947 -0.093953885 0.075972825 -0.066063 -0.014254267
0.057609458 0.12122009 -0.051256366 -0.008394681 0.13875747 0.13043053 0.10528181 -0.06626364
-0.08481657 -0.03667694 0.020077182 -0.021418752 -0.00073837244 -0.22757408 -0.050270807 -0.11739633
-0.16825329 -0.038825154 -0.06645946 -0.0259347 0.05509227 -0.05146259 0.12640943 0.064806774
0.15577199 0.089346945 0.035277862 -0.06047927 -0.039790858 -0.02583247 -0.10479712 0.06122508
0.057274215 0.09095458 0.12584744 -0.09357463 -0.09600784 -0.07614764 0.11449291 -0.04867833
-0.04188979 -0.03339062 0.024246404 -0.057810664 0.04172798 0.097169496 -0.076599285 0.008076511
0.0055424427 -0.06009084 -0.12417233 -0.0019104177 -0.05332515 0.116068155 0.014887479 0.12010154
0.09751789 0.022087447 0.10190135 -0.0008570067 -0.14538112 -0.07580952 0.08610249 -0.024955167
0.13644461 0.030818377 -0.056312352 0.11919278 0.1670523 0.06067079 -0.011226486 0.30166572
0.027660603 -0.06974043 0.22851864 0.1576786 0.17574795 -0.0034436765 0.1750422 -0.15223607
0.123360656 -0.109958485 -0.07994517 0.13360451 0.15278874 -0.06978725 -0.019695235 0.08639709
0.055579066 0.020526972 -0.00028015312 0.048177473 -0.047888543 0.12391093 0.032676086 0.084746875
00000000: ef3b 223c 8fde cebd 0f5f 5dbd 12b0 70bc
00000010: 6110 a83d 227c 413d 247d 743d 5a69 5e3e
00000020: bec4 3f3e 8df1 cd3c 1c5c 15be d07b 7fbd
00000030: c992 073e bef8 1bbd b8e6 663d 45ee 8bbc
00000040: b064 423d 3b5d 4e3d 6d63 c63d 0769 f8bd
00000050: 5597 c73b 5630 10be 8519 92bd 4f80 b63d
00000060: d3dc 1c3e 454c 69bc 0cf7 d2bd a53c f43d
00000070: 9639 8dbd c408 893c 9b41 e53d 4518 933d
00000080: 28e5 ae3c 86e2 943d b310 e7bd d6bb a13c
00000090: c450 c1bc ecf9 cfbd 6435 49bd a691 9bbc
000000a0: a198 13be c6fd 45bd e317 1a3d 9bf8 c53c
000000b0: 936f 0dbe 00ac 46bd 0d22 67bd f97f 0a3d
000000c0: 05a8 1bbd acd1 203d cf83 cd3d b078 24bc
000000d0: 68c1 f6bd 9c12 783d bfc4 a7bd 36c3 173c
000000e0: 8faf 94bd 9318 e83d 2352 a4bb 66a6 0a3e
000000f0: 7604 1f3e 92c9 313c 9127 203d f345 7a3e
00000100: 17d3 0b3e d57a 92ba 64b2 963e 86f7 383e
00000110: c68c 093d 7476 563d bf1d f93d df58 793d
00000120: 68b3 91bd eb2a 70bd 3c43 cc3d 628e 113d
00000130: 2467 da3c 7146 d7bd 4c33 05bd f91f 073e
00000140: 5c14 4c3d 112d f1bd 746c a8bd 6582 febb
00000150: 61a5 f8bd 45bb a3bd 0658 9abd 7704 833e
00000160: 394a 90bd c265 183e f857 153d cc3b 09bd
00000170: 8014 7d3d 272b a7bc 5028 6e3d 951a f0bd
00000180: 0e65 5a3d 90c4 dbbc 3c7d 123e 5070 c13d
00000190: 1804 8fbd f7c3 e73d c5cd fc3d 6fb1 2cbd
000001a0: 1839 9bbc 48cd ba3c bcbe 02be f1f2 d4bd
000001b0: b529 fd3d 3218 7dbd 65ac e13c f065 ab3c
000001c0: f165 82bb f378 7b3c f0e8 dc3c a0cb 8f3d
000001d0: 07af cc3d cce3 27be a2ce 3ebe 53e7 103d
000001e0: 4a69 6cbc 9c4e 71be a5f7 40bd 5c2c 9abd
000001f0: f068 e4bd 694e c8bd d0e4 9dbd a162 a4bd
00000200: b5b2 be3d 1d6c a5bd 2863 f6bd 1bda 753d
00000210: a121 cabc 61d5 71bd 0cc6 85bb 4591 16bd
00000220: ca7f 3cbd cb00 cf3d 94f2 a2bd 2941 aa3c
00000230: f0c8 803d 5435 bebd 8534 44be d6aa 83bd
00000240: bb3a 073e 76a4 1cbd bf3e 02b9 e4f5 92bd
00000250: f1cb 5abd 6781 02bd a9aa 9cbd 33cf d6bc
00000260: f01e 393d dc6d 413d 3269 eb3d 9689 37bd
00000270: e56a c0bd a497 9b3d 0a4c 87bd bb8a 69bc
00000280: e5f7 6b3d 3d42 f83d 32f2 51bd d889 09bc
00000290: 7016 0e3e 958f 053e fd9d d73d 3bb5 87bd
000002a0: 4fb4 adbd 8f3a 16bd e778 a43c 6176 afbc
000002b0: 568f 41ba 2e09 69be c3e8 4dbd 7d6d f0bd
000002c0: 974a 2cbe 2007 1fbd e61b 88bd 0275 d4bc
000002d0: 6fa8 613d 70ca 52bd 7971 013e 6ab9 843d
000002e0: b182 1f3e 88fb b63d 857f 103d 1cb9 77bd
000002f0: bdfb 22bd 9e9e d3bc df9f d6bd 26c7 7a3d
00000300: 5e98 6a3d 6546 ba3d 27de 003e 0ea4 bfbd
00000310: c29f c4bd 4bf3 9bbd 427b ea3d ee62 47bd
00000320: a194 2bbd 9ac4 08bd 65a0 c63c e0ca 6cbd
00000330: f5ea 2a3d cd00 c73d 16e0 9cbd 5853 043c
00000340: 619d b53b d021 76bd 104e febd fb66 faba
00000350: 796b 5abd 24b5 ed3d 9dea 733c ccf7 f53d
00000360: 76b7 c73d bcf0 b43c a8b1 d03d bfa8 60ba
00000370: cade 14be 0642 9bbd 8156 b03d c76e ccbc
00000380: 23b8 0b3e d276 fc3c c8a7 66bd 581b f43d
00000390: c20f 2b3e ef81 783d 4cef 37bc ee73 9a3e
000003a0: 7d98 e23c 12d4 8ebd ca00 6a3e 8076 213e
000003b0: 45f7 333e 4eaf 61bb 433e 333e c6e3 1bbe
000003c0: 83a4 fc3d ea31 e1bd 4bba a3bd 9fcf 083e
000003d0: a774 1c3e 9eec 8ebd e757 a1bc f5f0 b03d
000003e0: e0a6 633d 2e28 a83c 84e1 92b9 be55 453d
000003f0: c726 44bd 03c5 fd3d 5cd7 053d c58f ad3d

bias f4 [256]
0.046220224 -0.096035175 0.15548569 -0.07310575 0.0602309 0.103825375 -0.02161009 -0.06717561
-0.05079192 0.009993899 -0.11740086 0.08262043 0.04958318 0.006633029 0.15833193 -0.052724563
-0.08133493 0.14062048 0.049434308 -0.007980576 -0.07093307 0.06014245 0.055650305 0.04398679
0.09320608 0.019887581 0.094813175 0.16381092 -0.10687592 0.04988393 0.18070921 -0.14214514
0.06719603 0.12134569 -0.027083514 0.0078706285 -0.097217955 -0.052362263 0.04529856 0.14605707
0.046909682 -0.09298181 0.036874484 0.014471341 0.053809516 -0.025552077 0.09797288 0.036304258
-0.02814616 -0.029685682 0.07739342 0.025602099 -0.11960514 -0.08265466 0.11222962 0.045066345
-0.111707896 -0.028869715 -0.08579222 0.089964665 0.02843026 -0.052436065 0.10589835 -0.016159149
0.012798357 -0.13433342 -0.0037576123 0.16505694 -0.1309718 -0.10995093 0.060168646 0.0034130455
0.029602962 0.1447366 -0.016955068 0.07078854 0.033851787 -0.05051925 0.07849022 -0.021886732
-0.12702633 0.027999762 0.07856224 -0.108042136 0.016949642 -0.0036361523 -0.006768652 0.14075835
0.12557884 -0.06490822 -0.13994738 0.016204748 0.05747323 -0.12084485 0.0092471475 0.16361792
-0.04578719 -0.073001854 -0.033724524 -0.032872174 -0.056757145 -0.12939557 -0.114477634 0.024155695
-0.039549667 -0.008865325 0.0073443446 -0.02182019 -0.119013175 0.038465835 0.013106954 0.046921402
-0.023075063 -0.011429395 0.1452101 -0.0038501888 -0.046134476 -0.10139299 -0.1398799 0.087080255
0.0074635996 -0.09649877 0.14919347 -0.062159065 0.038173523 -0.08059596 0.15693046 0.048322994
0.021280503 -0.11016471 0.08564749 -0.026560348 -0.037947018 -0.052673187 -0.09345931 0.06415047
-0.056770954 0.060784366 0.057970993 0.09843017 0.09154528 0.04742989 -0.08573665 -0.11574187
-0.027345626 -0.05386159 -0.036659315 -0.042374585 0.04846618 -0.13097948 0.03418194 -7.1659575e-05
0.080169424 0.00022682964 0.057315595 0.07795991 0.027027419 -0.020272175 -5.5761e-05 -0.055203345
-0.011661437 -0.059977975 0.054110434 0.10573316 0.07505614 0.17349392 0.031613894 0.10166412
-0.048457906 0.041126683 -0.02061226 0.08496156 0.10431361 0.09563312 -0.018580027 0.13955589
-0.0023674832 -0.062642306 0.11488932 0.1103903 -0.06568661 -0.046312187 0.12499673 0.02717997
0.13029948 0.0063486374 0.08063207 -0.0001570727 -0.042229462 -0.030660061 -0.10234336 0.10805583
0.047089808 0.11549041 -0.070017226 -0.068830736 -0.09335516 -0.05487655 -0.045578204 0.16557686
0.08181557 -0.0058456417 0.03420268 -0.08459414 0.09494242 -0.082768455 -0.109996274 0.027503213
-0.097184435 0.17784783 0.015595416 0.058857862 0.021229781 0.0036001243 0.1051756 -0.07510252
-0.16175231 -0.053497378 0.054074395 0.05062304 0.06001894 -0.070842534 -0.08530213 -0.050808754
-0.022568129 0.019402614 0.04404552 -0.13497144 0.059352122 0.08465076 -0.047254246 -0.013499953
-0.08425382 -0.09347382 0.07273719 0.054022606 0.12155998 -0.13506773 0.09034839 -0.13703835
-0.08090391 0.09001505 -0.09378651 0.081322454 0.035081435 0.08603294 -0.08941196 -0.04666242
-0.022438297 0.06952133 0.06488194 0.13587257 -0.0021153698 0.106338225 -0.012660141 -0.012053637
00000000: 6b51 3d3d 17ae c4bd a437 1f3e 78b8 95bd
00000010: adb4 763d 66a2 d43d a507 b1bc 5e93 89bd
00000020: 300b 50bd 73bd 233c dd6f f0bd e634 a93d
00000030: bc17 4b3d e159 d93b c421 223e b6f5 57bd
00000040: ee92 a6bd d1fe 0f3e a17b 4a3d f6c0 02bc
00000050: 5b45 91bd ee57 763d 93f1 633d 7e2b 343d
00000060: d4e2 be3d 48eb a23c 692d c23d 0dbe 273e
00000070: c3e1 dabd 1753 4c3d d60b 393e 7f8e 11be
00000080: 129e 893d 1784 f83d 3fde ddbc cff3 003c
00000090: 351a c7bd d079 56bd fc8a 393d fc8f 153e
000000a0: 5e24 403d 3f6d bebd b309 173d 3419 6d3c
000000b0: 5e67 5c3d 9752 d1bc 01a6 c83d c6b3 143d
000000c0: c792 e6bc 632f f3bc 7180 9e3d 7ebb d13c
000000d0: 8af3 f4bd d946 a9bd a5d8 e53d 7d97 383d
000000e0: 1cc7 e4bd 2e80 ecbc d5b3 afbd 653f b83d
000000f0: 94e6 e83c 33c7 56bd 3ce1 d83d 3160 84bc
00000100: 33b0 513c b38e 09be 4642 76bb b004 293e
00000110: 791d 06be f42d e1bd 6673 763d 67ad 5f3b
00000120: e981 f23c d535 143e 5be5 8abc 95f9 903d
00000130: 2ca8 0a3d 46ed 4ebd 7bbf a03d ce4b b3bc
00000140: 3113 02be c25f e53c 3de5 a03d 3245 ddbd
00000150: fad9 8a3c 834c 6ebb 91cb ddbb f522 103e
00000160: bd97 003e 9aee 84bd 5e4e 0fbe d2bf 843c
00000170: 0d69 6b3d 817d f7bd 5981 173c 758b 273e
00000180: 598b 3bbd ff81 95bd ba22 0abd f9a4 06bd
00000190: 2e7a 68bd 4680 04be 4073 eabd 2ae2 c53c
000001a0: d5fe 21bd de3f 11bc d4a8 f03b 41c0 b2bc
000001b0: 2ebd f3bd 5a8e 1d3d 8dbe 563c a830 403d
000001c0: ea07 bdbc 5b42 3bbc f5b1 143e 7353 7cbb
000001d0: 81f7 3cbd 21a7 cfbd ad3c 0fbe 2257 b23d
000001e0: 3691 f43b 26a1 c5bd 2cc6 183e 819a 7ebd
000001f0: d75b 1c3d 7f0f a5bd 61b2 203e 55ee 453d
00000200: 7354 ae3c 099e e1bd f467 af3d 1695 d9bc
00000210: 556e 1bbd d7bf 57bd 9867 bfbd 5261 833d
00000220: a988 68bd 07f9 783d fe72 6d3d c295 c93d
00000230: 177c bb3d d845 423d b296 afbd 130a edbd
00000240: ef03 e0bc f89d 5cbd 1428 16bd f990 2dbd
00000250: 7984 463d 7c1f 06be 5d02 0c3d f147 96b8
00000260: de2f a43d 1ed9 6d39 c2c3 6a3d 72a9 9f3d
00000270: 9b68 dd3c d511 a6bc ebe0 69b8 e71c 62bd
00000280: 9d0f 3fbc 77ab 75bd e7a2 5d3d a18a d83d
00000290: 09b7 993d 64a8 313e 927d 013d 4735 d03d
000002a0: cc7b 46bd 7474 283d 0bdb a8bc 5400 ae3d
000002b0: 60a2 d53d 4cdb c33d 2435 98bc bde7 0e3e
000002c0: c727 1bbb 9c4a 80bd 184b eb3d 4f14 e23d
000002d0: b486 86bd d9b1 3dbd 49fe ff3d 87a8 de3c
000002e0: 3a6d 053e 3b08 d03b 6d22 a53d e2b3 24b9
000002f0: cdf8 2cbd cf2a fbbc 6599 d1bd 604c dd3d
00000300: 3ee1 403d 3c86 ec3d 3165 8fbd 21f7 8cbd
00000310: fd30 bfbd 3cc6 60bd 36b0 3abd fb8c 293e
00000320: ec8e a73d cc8c bfbb 1c18 0c3d b13f adbd
00000330: 2c71 c23d 8282 a9bd ba45 e1bd 6b4e e13c
00000340: a208 c7bd be1d 363e ea83 7f3c f114 713d
00000350: 14ea ad3c 10f0 6b3b 4e66 d73d 5acf 99bd
00000360: 66a2 25be 1120 5bbd 1d7d 5d3d 1b5a 4f3d
00000370: 6cd6 753d e415 91bd e2b2 aebd d71c 50bd
00000380: cce0 b8bc 3bf2 9e3c 1369 343d f435 0abe
00000390: 361b 733d 615d ad3d ab8d 41bd e82e 5dbc
000003a0: 448d acbd 346f bfbd 3cf7 943d cf46 5d3d
000003b0: 70f4 f83d 324f 0abe 9408 b93d c853 0cbe
000003c0: f3b0 a5bd cf59 b83d 2413 c0bd 638c a63d
000003d0: 8db1 0f3d 0a32 b03d 9e1d b7bd 1821 3fbd
000003e0: 85d0 b7bc 3361 8e3d d3e0 843d 2e22 0b3e
000003f0: 04a2 0abb dbc7 d93d 7b6c 4fbc 9e7c 45bc

weight f4 [128, 256]
-0.033334926 -0.10861062 0.07179349 0.0860751 0.027445221 0.028216971 0.044870585 0.042369347
-0.033525564 0.06559426 -0.057208057 0.049904086 0.034084536 -0.044041347 0.080109894 0.11880819
-0.07281346 0.077766545 -0.010302594 0.07714792 -0.029695239 0.078355424 0.08341305 -0.04502549
0.013637842 0.032993168 0.0022265667 0.034768697 -0.10501165 0.10086813 0.07915547 -0.0058671995
0.104635224 0.06695238 -0.04289037 -0.038555376 -0.04686431 0.033888407 -0.0128151765 0.053326506
0.03823093 0.11797031 -0.016595906 -0.056472495 -0.068769254 -0.0027977964 0.04917052 0.04622331
-0.016280489 -0.05156915 -0.01591394 0.058875337 -0.009944226 -0.0285059 0.03182213 -0.07697966
0.010147703 0.03390524 -0.051846232 0.038456026 -0.055447035 0.013318731 0.0923812 -0.030644193
-0.046863776 0.015863057 0.03560262 0.089831874 0.044719 -0.036961034 0.03849919 -0.012969087
-0.009468239 -0.021391777 -0.038517546 -0.07527004 -0.028370256 -0.066034585 0.07729611 -0.04121708
0.05051436 -0.04743427 -0.06979996 -0.07682431 -0.071678236 0.05384743 0.07886213 0.09447035
0.0564199 0.021456039 -0.0644285 -0.080270536 0.05333608 -0.027825126 -0.034760892 0.029413812
-0.06269824 0.007647027 0.029918905 0.028174339 0.026116382 -0.07097687 -0.019754888 -0.055413697
0.024050172 0.043747712 0.03501957 0.087941766 -0.0228 -0.058861423 0.052815784 0.0707622
-0.11425805 -0.0030269767 -0.020086702 0.04497801 -0.06439405 -0.123232916 -0.06593516 0.038095497
-0.010003533 -0.0213506 0.059601657 -0.013744207 -0.0018377997 0.07823957 0.098805055 0.12741022
-0.068384096 -0.04206677 -0.010616034 -0.0034641952 -0.02416648 0.0070373677 -0.08390978 0.009023943
-0.0725986 0.056251407 -0.019965522 0.060699675 0.055487074 0.023453178 -0.038872786 -0.054505706
0.008104451 -0.027247703 -0.062580824 0.0024392658 -0.022031924 -0.084757544 0.11154616 -0.027897267
0.07733043 0.026227344 0.0022882093 -0.007839311 -0.072586566 -0.030849831 0.023607817 0.0500959
-0.0040467517 0.0035360486 -0.004775891 0.021587824 -0.06177263 -0.01473203 0.13259916 -0.0069387634
-0.020630904 0.03307443 -0.0083476165 -0.020887384 0.004861927 0.0111752795 0.0066940906 -0.004575257
0.03370603 0.0045727286 -0.012766926 -0.07868233 -0.008254666 -0.03350259 0.00024061963 0.004914948
0.09429514 0.0014449633 0.03824956 -0.038203552 0.042857967 -0.037961245 0.05555723 0.069335945
0.028960677 0.015531719 -0.10040731 0.09841421 0.035381448 0.06404659 0.094475806 0.0782458
0.02488686 0.016214082 -0.01775235 -0.0777839 -0.033946745 -0.11356537 -0.11828475 0.02031819
0.034256466 0.13269761 0.049939066 0.0057341 -0.05200232 0.07444774 -0.0049339514 0.088298395
0.013369183 -0.027517468 0.030770902 0.056912623 0.060305893 0.0016405786 0.04619778 0.026839145
-0.019421073 0.08592074 -0.042817067 0.024173817 -0.034587257 0.025002299 0.011579906 -0.009949522
0.04267064 -0.10639579 -0.010850551 0.115372516 0.06101214 0.005297702 -0.021175573 -0.11252266
-0.0076436023 -0.0052679074 0.015570222 0.020383632 -0.07004288 0.022671055 0.018720664 0.06893648
-0.06115555 -0.017516224 -0.035389174 0.030674016 -0.004362114 -0.027864706 0.009953207 -0.02787112
00000000: 348a 08bd 3f6f debd 7708 933d 2448 b03d
00000010: cdd4 e03c 4727 e73c 38ca 373d 7b8b 2d3d
00000020: 1a52 09bd 4956 863d ff52 6abd 3a68 4c3d
00000030: 3a9c 0b3d b364 34bd a810 a43d b551 f33d
00000040: 391f 95bd 1144 9f3d 36cc 28bc bbff 9d3d
00000050: 6e43 f3bc cf78 a03d 76d4 aa3d a66c 38bd
00000060: 4171 5f3c d823 073d 97eb 113b 9f69 0e3d
00000070: 5910 d7bd f393 ce3d 431c a23d a341 c0bb
00000080: fe4a d63d 541e 893d d0ad 2fbd 3eec 1dbd
00000090: caf4 3fbd 92ce 0a3d bff6 51bc e56c 5a3d
000000a0: 0998 1c3d 6b9a f13d 23f4 87bc b44f 67bd
000000b0: e5d6 8cbd 3c5b 37bb 0767 493d a754 3d3d
000000c0: a95e 85bc 2c3a 53bd f35d 82bc 4427 713d
000000d0: 1bed 22bc 3585 e9bc ec57 023d 83a7 9dbd
000000e0: 8d42 263c 39e0 0a3d b75c 54bd 1184 1d3d
000000f0: 6e1c 63bd cf36 5a3c 5b32 bd3d 8809 fbbc
00000100: 3bf4 3fbd 3ef3 813c 0ed4 113d c6f9 b73d
00000110: 452b 373d 7464 17bd 54b1 1d3d 4b7c 54bc
00000120: ac20 1bbc cf3d afbc 93c4 1dbd 2e27 9abd
00000130: bd68 e8bc 243d 87bd 6c4d 9e3d 3ed3 28bd
00000140: 25e8 4e3d 704a 42bd 48f3 8ebd 1056 9dbd
00000150: 0acc 92bd 1f8f 5c3d 7882 a13d ac79 c13d
00000160: 8e18 673d 93c4 af3c 17f3 83bd e164 a4bd
00000170: ef76 5a3d 85f1 e3bc 7061 0ebd 3cf5 f03c
00000180: ef67 80bd e993 fa3b 7e18 f53c dfcd e63c
00000190: 06f2 d53c 525c 91bd 01d5 a1bc 79f9 62bd
000001a0: de04 c53c cd30 333d ae70 0f3d d01a b43d
000001b0: 11c7 babc ad18 71bd 5d55 583d c6eb 903d
000001c0: 2000 eabd 3e60 46bb de8c a4bc dd3a 383d
000001d0: 07e1 83bd 8a61 fcbd 0309 87bd 060a 1c3d
000001e0: dce5 23bc 74e7 aebc de20 743d 622f 61bc
000001f0: 53e2 f0ba 113c a03d 4e5a ca3d d377 023e
00000200: f60c 8cbd 354e 2cbd e0ee 2dbc 8d07 63bb
00000210: c8f8 c5bc b899 e63b e4d8 abbd 29d9 133c
00000220: 93ae 94bd e067 663d bc8e a3bc 39a0 783d
00000230: 6a46 633d e120 c03c 1239 1fbd 6041 5fbd
00000240: 88c8 043c 9336 dfbc 602a 80bd 17dc 1f3b
00000250: 4b7c b4bc 5d95 adbd 5072 e43d cf88 e4bc
00000260: 6b5f 9e3d bada d63c c8f5 153b 7470 00bc
00000270: 44a8 94bd c9b8 fcbc 2e65 c13c 5c31 4d3d
00000280: 9d9a 84bb 0dbd 673b 147f 9cbb f3d8 b03c
00000290: 4c05 7dbd 9d5e 71bc 13c8 073e 915e e3bb
000002a0: 2402 a9bc 0e79 073d 71c4 08bc 051c abbc
000002b0: cd50 9f3b 8518 373c 1a5a db3b 0aec 95bb
000002c0: 560f 0a3d d4d6 953b 5e2c 51bc 3424 a1bd
000002d0: 943e 07bc 033a 09bd d74e 7c39 920d a13b
000002e0: cf1d c13d ec64 bd3a 92ab 1c3d 547b 1cbd
000002f0: d68b 2f3d 407d 1bbd fa8f 633d 0100 8e3d
00000300: f13e ed3c c078 7e3c 59a2 cdbd 648d c93d
00000310: 23ec 103d dc2a 833d 887c c13d 563f a03d
00000320: 87df cb3c 65d3 843c 606d 91bc 2a4d 9fbd
00000330: be0b 0bbd f694 e8bd 463f f2bd 5572 a63c
00000340: 8250 0c3d e2e1 073e e88c 4c3d 1ee5 bb3b
00000350: 6200 55bd 0f78 983d fcac a1bb cad5 b43d
00000360: 6b0a 5b3c 506c e1bc 4213 fc3c 361d 693d
00000370: 5003 773d af08 d73a e239 3d3d c4dd db3c
00000380: f118 9fbc 37f7 af3d f360 2fbd 2b08 c63c
00000390: 5eab 0dbd 9fd1 cc3c a5b9 3d3c 5203 23bc
000003a0: 69c7 2e3d 09e6 d9bd 82c6 31bc 6d48 ec3d
000003b0: dee7 793d 5898 ad3b 6578 adbc 4872 e6bd
000003c0: 2f77 fabb 699e acbb 3f1a 7f3c 93fb a63c
000003d0: a472 8fbd a6b8 b93c 145c 993c 922e 8d3d
000003e0: 3e7e 7abd 2f7e 8fbc 3df4 10bd 1348 fb3c
000003f0: 10f0 8ebb 8644 e4bc c712 233c fa51 e4bc

bias f4 [128]
0.07492436 0.00395408 0.014208944 0.05950513 -0.013455003 0.032548677 0.009182921 0.02451754
0.093033925 0.032356367 -0.040603455 -0.009219905 0.0036138468 -0.010326081 0.049982265 0.0895444
0.063404605 -0.071753986 -0.08215355 0.060353834 -0.026288142 -0.05792772 0.025184363 0.045350872
-0.027376244 0.001661846 -0.04826104 0.09050505 0.045524083 0.038622938 0.016169908 -0.06680413
-0.031252973 0.03956325 0.032140892 0.029557168 -0.062233042 -0.0024239284 -0.036998376 -0.036643934
0.08946427 -0.016000805 0.02436765 0.088960625 -0.031322304 0.04983223 0.022831768 0.0029937145
0.0011759943 -0.030091066 0.042758375 0.08146904 0.09771897 -0.057090823 -0.06946282 -0.037417132
0.017356863 -0.05093807 0.0033650934 0.07768363 -0.03143988 0.05991355 -0.035146136 0.04481867
0.06630071 0.044448998 -0.043717347 0.028246503 0.020741066 -0.006936959 0.0069933287 0.040273298
0.03130156 -0.05931188 0.04644353 0.01385579 0.027603112 -0.07171593 -0.03164927 -0.039475523
0.027803399 0.023994103 -0.03503967 0.04493565 -0.044506725 -0.0060883677 -0.04147599 0.062454257
0.029518181 -0.033573814 0.012176511 0.06458792 0.049672946 -0.0449042 -0.0088004945 0.025461586
0.026968587 -0.071785964 0.0031091298 0.02519603 0.0045049503 0.015904227 -0.037004888 0.043275557
0.027249714 0.05638976 0.079020604 -0.026886158 -0.053966906 0.043990534 0.052064165 0.06425564
0.015331235 -0.008617405 0.010424262 0.037588637 -0.03127165 -0.025084618 -0.040504485 0.035022404
0.061194424 -0.025052235 -0.02776266 0.0535769 0.028304122 0.055104937 -0.008818556 -0.008540189
00000000: f171 993d 3a91 813b a1cc 683c a7bb 733d
00000010: 5f72 5cbc c351 053d f673 163c 02d9 c83c
00000020: 9288 be3d 1c88 043d cf4f 26bd 160f 17bc
00000030: 4ad6 6c3b b92e 29bc 34ba 4c3d 0e63 b73d
00000040: 46da 813d c1f3 92bd 1f40 a8bd 9535 773d
00000050: 3b5a d7bc 9e45 6dbd 704f ce3c d6c1 393d
00000060: 2544 e0bc 4cd2 d93a 5ead 45bd b65a b93d
00000070: 7677 3a3d 1633 1e3d c176 843c 9bd0 88bd
00000080: 1e03 00bd 130d 223d 2ba6 033d e021 f23c
00000090: 13e8 7ebd c5da 1ebb 9c8b 17bd f317 16bd
000000a0: 0b39 b73d 1f14 83bc aa9e c73c fd30 b63d
000000b0: d14b 00bd e11c 4c3d b009 bb3c 3232 443b
000000c0: d223 9a3a 8a81 f6bc 6823 2f3d 3dd9 a63d
000000d0: e220 c83d 11d8 69bd 8642 8ebd b542 19bd
000000e0: fb2f 8e3c 70a4 50bd e688 5c3b 9818 9f3d
000000f0: 1bc7 00bd e967 753d 65f5 0fbd c893 373d
00000100: abc8 873d 2710 363d f610 33bd 3665 e73c
00000110: 2be9 a93c 6e4f e3bb 4b28 e53b 9df5 243d
00000120: 1136 003d 04f1 72bd 923b 3e3d 6503 633c
00000130: ec1f e23c cddf 92bd aaa2 01bd 16b1 21bd
00000140: f4c3 e33c 488f c43c c285 0fbd 720e 383d
00000150: af4c 36bd ee80 c7bb bae2 29bd 09d0 7f3d
00000160: 1dd0 f13c b284 09bd fd7f 473c ac46 843d
00000170: dc75 4b3d 77ed 37bd f32f 10bc d194 d03c
00000180: 3aed dc3c 8504 93bd 8bc2 4b3b e867 ce3c
00000190: 439e 933b 9549 823c 7092 17bd b641 313d
000001a0: cb3a df3c f3f8 663d 8ed5 a13d 5c40 dcbc
000001b0: 670c 5dbd 6b2f 343d 3c41 553d 7698 833d
000001c0: dc2f 7b3c 0430 0dbc 86ca 2a3c 8bf6 193d
000001d0: b416 00bd 427e cdbc 08e8 25bd a773 0f3d
000001e0: 01a7 7a3d 583a cdbc 856e e3bc 7473 5b3d
000001f0: 0cde e73c b7b5 613d b47b 10bc 26ec 0bbc

weight f4 [64, 128]
0.06968125 0.006807133 0.07778469 0.09419618 -0.002485313 0.118348286 -0.024007674 -0.10029134
0.040734153 0.013649747 -0.08912473 0.017965393 0.08078639 -0.0026641742 0.03481338 0.0612695
0.097492225 -0.008932642 -0.016564472 0.114381656 0.034490924 0.06159304 0.11394688 0.11877455
0.07880435 0.0040611336 -0.0066435114 0.085669465 -0.030910753 -0.06645805 0.05005075 0.00908312
0.028686862 -0.03641528 -0.040720332 0.053456947 -0.0115106655 0.088172585 -0.06748693 -0.018119996
0.06074201 0.055078108 0.017618043 0.04275657 -0.029679323 0.12154978 -0.050340205 0.058642182
-0.025502574 0.058428902 0.018464599 -0.009316932 -0.007742236 -0.072547354 -0.059706196 -0.046390958
0.044138107 0.016142206 -0.107370324 0.09237658 -0.034420375 -0.008204345 0.049561337 0.03495746
0.057924278 0.05903569 -0.033427093 -0.05027254 0.044540398 -0.03386515 -0.046388775 0.09501304
-0.09108223 -0.103466965 0.10998883 0.025786497 0.05863569 -0.028496737 -0.021931026 -0.04868369
0.023778724 0.030659994 -0.03584278 -0.010567339 0.02137162 0.0072198873 0.036353514 -0.015501448
0.012560008 0.00016685683 -0.05292302 0.06761025 0.101567596 -0.008447435 -0.02070906 -0.030276394
-0.06380134 -0.024576496 0.04923272 -0.022192303 0.013795256 0.016247874 -0.10237658 0.02670448
-0.087198466 0.043017566 0.051480785 0.053122874 0.041103236 0.03430024 0.0051408736 0.09199201
0.07762837 -0.008965003 0.103987455 -0.036071964 -0.00077840715 -0.060020078 0.057552353 0.0007085915
-0.0112983305 -0.07155062 -0.045314945 0.067307755 -0.08393596 0.047601197 0.023704372 -0.08795678
-0.05234594 0.06125328 0.04047077 0.098637134 -0.08701057 0.009354895 0.038386602 -0.08139628
0.044268675 -0.060278587 -0.07417548 -0.092547506 -0.0039400356 0.056799825 0.00730112 0.015254111
-0.043413088 0.062452294 -0.08765571 0.044065855 0.03012431 0.05254344 -0.054558236 0.098447084
-0.053213317 0.05315172 -0.098418966 0.07857602 -0.009332161 0.025722705 0.048419982 0.04400403
-0.08902548 -0.018068003 -0.00886628 0.031451903 0.030421354 0.11242878 -0.008689833 0.06082755
0.05321571 0.053348966 -0.049570385 0.020410227 -0.020237602 0.033621397 0.032102942 -0.010043478
0.045927126 0.040219553 -0.068866104 -0.010690225 -0.048555147 -0.053733207 -0.008810553 0.09588865
-0.043920323 0.025349906 -0.09398881 -0.06513128 -0.0040734676 0.01632639 0.082808904 0.090196095
-0.09199357 -0.091696985 -0.094366476 0.037033062 -0.04626193 -0.088962734 -0.02340942 0.12692411
-0.06262061 0.05227065 0.019070249 0.11778655 0.0070939804 0.050857436 -0.057430997 -0.024375124
-0.049641013 0.07957687 -0.10604465 0.003798833 0.07805469 0.017883874 0.08376969 -0.07461525
-0.07234278 0.027763698 -0.100652024 0.018814214 0.015661292 -0.020795818 0.012408532 0.06807129
0.01416345 0.013526468 -0.10984215 0.00097118213 0.10015783 0.0034157094 -0.074266925 -0.041683026
0.011314165 -0.017055009 0.045979436 -0.04496211 -0.06788999 0.0831116 -0.04524188 0.111227706
0.10414305 -0.0126591325 0.00355379 -0.07509969 -0.104247674 -0.04861198 -0.081014454 0.030111587
0.06395993 0.043175388 0.056288477 0.0099882735 0.052215077 0.06887369 0.02776941 -0.026414562
00000000: 0bb5 8e3d 5f0e df3b 944d 9f3d ede9 c03d
00000010: a2e0 22bb 9660 f23d beab c4bc 8c65 cdbd
00000020: dbd8 263d 30a3 5f3c 0787 b6bd 292c 933c
00000030: 5673 a53d 6d99 2ebb 7a98 0e3d baf5 7a3d
00000040: 01aa c73d 375a 12bc 37b2 87bc ee40 ea3d
00000050: 5b46 0d3d fc48 7c3d fb5c e93d 1240 f33d
00000060: 2d64 a13d 4213 853b d0b1 d9bb 7973 af3d
00000070: 8c38 fdbc 281b 88bd 0402 4d3d 5ed1 143c
00000080: b600 eb3c 3028 15bd 5dca 26bd acf5 5a3d
00000090: 3b97 3cbc d493 b43d 9636 8abd 6370 94bc
000000a0: 9dcc 783d 9599 613d b753 903c 8321 2f3d
000000b0: 0d22 f3bc 17ef f83d 8831 4ebd c932 703d
000000c0: c6ea d0bc 2553 6f3d 1243 973c 0ca6 18bc
000000d0: 95b2 fdbb b593 94bd 7c8e 74bd 7204 3ebd
000000e0: 29ca 343d a93c 843c f9e4 dbbd ef2f bd3d
000000f0: 61fc 0cbd 846b 06bc d400 4b3d 8e2f 0f3d
00000100: 0242 6d3d 68cf 713d d9ea 08bd 94ea 4dbd
00000110: fe6f 363d 2fb6 0abd 2802 3ebd 3296 c23d
00000120: 5289 babd 7de6 d3bd d341 e13d 343e d33c
00000130: fa2b 703d fd71 e9bc b2a8 b3bc 8d68 47bd
00000140: 99cb c23c ab2a fb3c e1cf 12bd a222 2dbc
00000150: 8913 af3c ce94 ec3b 6ce7 143d c9f9 7dbc
00000160: 7ec8 4d3c 4af6 2e39 cfc5 58bd 3e77 8a3d
00000170: ac02 d03d 1c67 0abc 0ca6 a9bc 3306 f8bc
00000180: 47aa 82bd a654 c9bc 40a8 493d a2cc b5bc
00000190: 7f05 623c 431a 853c d0aa d1bd 5bc3 da3c
000001a0: 1c95 b2bd 3033 303d 84dd 523d 5f97 593d
000001b0: de5b 283d 697e 0c3d c674 a83b 4f66 bc3d
000001c0: 9ffb 9e3d f3e1 12bc 60f7 d43d 32c0 13bd
000001d0: 050e 4cba 9dd7 75bd 04bc 6b3d c5c0 393a
000001e0: a21c 39bc 2289 92bd 2a9c 39bd a6d8 893d
000001f0: 9ee6 abbd 79f9 423d ac2f c23c af22 b4bd
00000200: b268 56bd b8e4 7a3d aec4 253d 4402 ca3d
00000210: 9932 b2bd 4645 193c 453b 1d3d 18b3 a6bd
00000220: 1253 353d aee6 76bd 50e9 97bd 8c89 bdbd
00000230: 6a1b 81bb efa6 683d 3c3e ef3b 61ec 793c
00000240: ecd1 31bd facd 7f3d d684 b3bd 667e 343d
00000250: 42c7 f63c ca37 573d 7578 5fbd a09e c93d
00000260: 35f6 59bd 9eb5 593d e28f c9bd 77ec a03d
00000270: ece5 18bc 6cb8 d23c 0854 463d 923d 343d
00000280: fe52 b6bd 5903 94bc e043 11bc b6d3 003d
00000290: 3436 f93c 0f41 e63d cd5f 0ebc 4f26 793d
000002a0: b7f8 593d 7284 5a3d 510a 4bbd 5933 a73c
000002b0: 54c9 a5bc 97b6 093d 607e 033d 668d 24bc
000002c0: 151e 3c3d 42bd 243d ac09 8dbd 0e26 2fbc
000002d0: c3e1 46bd 5a17 5cbd 235a 10bc 4561 c43d
000002e0: cce5 33bd 9baa cf3c 357d c0bd 8c63 85bd
000002f0: b97a 85bb ecbe 853c b797 a93d bbb8 b83d
00000300: 2067 bcbd a1cb bbbd 3643 c1bd fbaf 173d
00000310: 267d 3dbd 1832 b6bd 1dc5 bfbc 65f8 013e
00000320: 3c3f 80bd c019 563d 3639 9c3c 133a f13d
00000330: 9f74 e83b e34f 503d c43c 6bbd 57ae c7bc
00000340: 6054 4bbd 33f9 a23d f02d d9bd d7f5 783b
00000350: 23db 9f3d 3481 923c 718f ab3d e1cf 98bd
00000360: 7428 94bd b270 e33c a622 cebd 4420 9a3c
00000370: 1c4c 803c fe5b aabc 284d 4b3c f668 8b3d
00000380: d10d 683c 1e9e 5d3c ecf4 e0bd ee96 7e3a
00000390: 8c1f cd3d 18da 5f3b 4219 98bd d2bb 2abd
000003a0: 0c5f 393c f2b6 8bbc ef54 3c3d 312a 38bd
000003b0: e809 8bbd 6a36 aa3d 8d4f 39bd 5acb e33d
000003c0: f448 d53d 4068 4fbc b4e6 683b decd 99bd
000003d0: ce7f d5bd 5b1d 47bd e8ea a5bd 93ac f63c
000003e0: 6cfd 823d add8 303d bf8e 663d dba5 233c
000003f0: 7adf 553d a60d 8d3d ac7c e33c 5a63 d8bc

bias f4 [64]
-0.0068409806 0.027907277 0.089128435 -0.012738237 0.02492918 0.047201846 0.0623662 0.017928736
-0.09746963 0.023160059 0.044900075 -0.009228626 0.095222466 0.009120152 -0.006029354 -0.03463572
-0.024734367 0.08124586 -0.034457706 0.0668675 -0.039303765 -0.07286403 0.0031753413 -0.0017077607
-0.035849076 0.09165807 -0.013647047 0.019653901 0.06444616 -0.017034067 -0.06877816 0.10443988
0.11855887 0.043768693 0.087976575 -0.048671357 -0.03035233 0.0076115597 0.063081995 -0.025285237
0.077766575 0.03796915 0.0029710918 0.025310315 0.06397285 0.11375606 0.046856344 0.01615538
-0.07344337 0.007843456 0.06533033 0.084995516 0.0076884977 0.10336824 -0.017144084 -0.067820944
0.0867181 0.0989812 -0.022492655 -0.041102335 -0.043189626 -0.00076513545 0.084852345 0.016681619
00000000: 4e2a e0bb cd9d e43c f888 b63d 0ab4 50bc
00000010: 4838 cc3c b956 413d b373 7f3d 49df 923c
00000020: 289e c7bd 2aba bd3c 24e9 373d aa33 17bc
00000030: ff03 c33d b16c 153c e391 c5bb 2fde 0dbd
00000040: ba9f cabc 3b64 a63d 8623 0dbd d4f1 883d
00000050: fcfc 20bd bd39 95bd 6319 503b f1d6 dfba
00000060: 7bd6 12bd 3ab7 bb3d dd97 5fbc 3801 a13c
00000070: 59fc 833d 078b 8bbc 90db 8cbd 93e4 d53d
00000080: fece f23d cd46 333d 102d b43d 9e5b 47bd
00000090: 73a5 f8bc 646a f93b 2231 813d fc22 cfbc
000000a0: 1544 9f3d 8a85 1b3d a6b6 423b 9457 cf3c
000000b0: 3304 833d f0f8 e83d 70ec 3f3d 4a58 843c
000000c0: 7a69 96bd d781 003c e8cb 853d 2112 ae3d
000000d0: cbef fb3b bab2 d33d c071 8cbc b5e5 8abd
000000e0: 4299 b13d a8b6 ca3d 8442 b8bc ec5a 28bd
000000f0: 9be7 30bd 5f93 48ba 11c7 ad3d e4a7 883c

weight f4 [5, 64]
-0.009754409 -0.076158576 0.13331567 0.20011236 0.0050195297 0.12709911 0.056860518 0.19577467
-0.13277006 0.12800618 -0.14342646 0.07759919 0.017451018 -0.070991196 -0.0063596703 -0.17116626
0.11331755 0.14410995 -0.035267532 -0.10973472 -0.057641733 -0.162969 -0.055661034 0.027219433
0.06912708 0.08828626 0.031715658 -0.054755133 0.112234645 -0.057445846 0.08356685 0.16934077
-0.0034785124 0.18720418 -0.12458522 -0.110003024 -0.21818149 0.120310634 -0.0015287466 0.033148654
0.05473665 -0.18856326 0.10437822 0.0029804206 0.030503163 0.050023973 0.15662962 -0.11564166
-0.14128199 -0.12646575 0.05964154 -0.20179717 0.101703525 -0.090030886 -0.050436933 -0.012195446
0.1606335 0.15142393 0.14410715 0.06373826 -0.12709473 0.1550744 -0.010487606 -0.18430582
0.048040338 0.15566629 -0.013881396 -0.20625824 -0.03690704 -0.15483291 0.090121776 -0.12986052
0.09806677 0.10125002 0.0821844 -0.011315792 0.10133449 -0.008499073 -0.03702802 -0.112222746
-0.09987611 0.09207053 0.014216747 -0.009366398 0.054460913 0.13996297 0.0926978 0.034547992
0.08154597 -0.13452004 -0.0049358765 0.06599491 -0.0491923 0.15626982 -0.048978206 0.022736277
0.13205695 -0.01869255 0.122646324 0.022352826 0.046826288 -0.13580018 -0.10472014 -0.07553549
0.14892478 -0.09472942 -0.13652177 -0.034966566 0.05565119 0.046111792 -0.11946998 0.049690325
0.10216528 0.032718357 0.027833031 -0.018482925 -0.062715486 0.15767935 0.14029413 0.103380516
0.05217944 0.06324761 0.012954206 0.07236366 0.106626965 0.05220069 -0.007870459 -0.014956673
-0.05647745 -0.11603121 0.112608835 -0.06098239 -0.004154011 -0.09518388 -0.057182275 0.07168222
0.033074796 0.052155163 -0.0028922358 -0.12533134 0.11842244 -0.088504076 0.004125265 -0.088487744
0.06939021 0.10939204 -0.03498745 -0.10191702 0.08275468 0.05828942 0.086924374 0.076541975
0.06647674 -0.012595341 -0.13585077 -0.05040576 -0.021043677 0.08659561 0.0021003329 0.05336261
-0.037276827 -0.083954096 0.07178244 -0.073463835 0.12630534 0.09534726 0.11593827 0.083488
-0.0670052 0.08606229 0.05400055 0.054879766 -0.06672861 0.055781197 -0.11148451 -0.025804793
-0.04897547 -0.048278697 0.01771823 -0.078343965 0.024077736 -0.09359442 0.0080215745 -0.050847992
0.10946608 -0.10806215 -0.055432107 -0.018730761 0.08259313 0.090894535 0.077768065 0.016134165
0.037098426 -0.10738932 -0.06679816 -0.011893353 0.022521948 -0.04771706 -0.08445329 0.09174592
0.12193666 0.03444741 0.0746587 0.029748067 -0.045860037 -0.0035190347 0.06718642 0.024328792
0.06614107 -0.06192586 -0.008696655 -0.031935457 -0.10976592 0.019181687 -0.055415865 0.11325857
0.016451318 -0.11403568 0.11419145 0.05490259 0.031740345 0.03038101 0.08304089 -0.14164123
0.0062192706 -0.006529358 0.019742528 0.0041703545 0.12572235 -0.016882751 -0.0722277 0.08139397
-0.026086599 0.08172159 -0.063466616 0.079269215 -0.08065713 -0.012924214 0.01045147 0.08650855
0.06435426 0.09979386 -0.05752659 0.07764683 -0.09265857 -0.08691897 0.05247033 -0.05099314
0.047252078 0.054350954 -0.0093219895 0.00715413 -0.04650138 -0.007355092 0.023465497 0.08078005
00000000: f5d0 1fbc 07f9 9bbd e783 083e 41ea 4c3e
00000010: de7a a43b 4526 023e 93e6 683d 2879 483e
00000020: e0f4 07be 0d14 033e 63de 12be 53ec 9e3d
00000030: 70f5 8e3c d563 91bd c864 d0bb 3546 2fbe
00000040: 0813 e83d 8f91 133e b074 10bd 99bc e0bd
00000050: bd19 6cbd 58e1 26be d3fc 63bd 4afb de3c
00000060: 8092 8d3d 6dcf b43d 47e8 013d eb46 60bd
00000070: 47db e53d 564c 6bbd 1925 ab3d ab67 2d3e
00000080: c1f7 63bb 74b2 3f3e 8926 ffbd 4449 e1bd
00000090: f86a 5fbe 6c65 f63d 3960 c8ba e2c6 073d
000000a0: 8a33 603d ba16 41be 40c4 d53d 2953 433b
000000b0: c5e1 f93c f0e5 4c3d 8463 203e 89d5 ecbd
000000c0: 3aac 10be 3d80 01be b04a 743d eba3 4ebe
000000d0: f049 d03d 1d62 b8bd f596 4ebd 68cf 47bc
000000e0: 1c7d 243e e00e 1b3e d390 133e 3489 823d
000000f0: 1f25 02be d3cb 1e3e 35d4 2bbc aaba 3cbe
00000100: f2c5 443d fc66 1f3e cb6e 63bc 5c35 53be
00000110: d62b 17bd 858c 1ebe c491 b83d 28fa 04be
00000120: 3bd7 c83d 2c5c cf3d 4b50 a83d df65 39bc
00000130: 7588 cf3d b23f 0bbc b1aa 17bd 0ad5 e5bd
00000140: d98b ccbd 798f bc3d 5ced 683c 8575 19bc
00000150: 6812 5f3d 7452 0f3e 58d8 bd3d 3282 0d3d
00000160: 9301 a73d 9fbf 09be 22bd a1bb 5728 873d
00000170: dd7d 49bd 3205 203e 5f9d 48bd 6e41 ba3c
00000180: f039 073e 1e21 99bc ff2d fb3d 461d b73c
00000190: eccc 3f3d 340f 0bbe 8377 d6bd 5ab2 9abd
000001a0: bd7f 183e 8001 c2bd 5dcc 0bbe 1a39 0fbd
000001b0: 81f2 633d b8df 3c3d adac f4bd 1588 4b3d
000001c0: 083c d13d af03 063d 1902 e43c 8169 97bc
000001d0: fa70 80bd b276 213e 44a9 0f3e 2ab9 d33d
000001e0: 1cba 553d f787 813d e13d 543c 6633 943d
000001f0: 3d5f da3d 64d0 553d 19f3 00bc d50c 75bc
00000200: e654 67bd c5a1 edbd 769f e63d acc8 79bd
00000210: 5f1e 88bb c4ef c2bd f637 6abd 21ce 923d
00000220: 7079 073d a7a0 553d aa8b 3dbb dc56 00be
00000230: 7787 f23d a041 b5bd 3b2d 873b 1039 b5bd
00000240: 741c 8e3d ef08 e03d 004f 0fbd dfb9 d0bd
00000250: 497b a93d e3c0 6e3d 6805 b23d 0ac2 9c3d
00000260: f524 883d b05c 4ebc 771c 0bbe 4576 4ebd
00000270: ca63 acbc 0a59 b13d bda5 093b c192 5a3d
00000280: 96af 18bd 20f0 abbd ac02 933d 3574 96bd
00000290: 3056 013e 6d45 c33d 0b71 ed3d c2fb aa3d
000002a0: 063a 89bd 6d41 b03d ae2f 5d3d 9bc9 603d
000002b0: 02a9 88bd d37a 643d fe51 e4bd 9364 d3bc
000002c0: 819a 48bd e2bf 45bd d225 913c cd72 a0bd
000002d0: ac3e c53c 6eae bfbd ec6c 033c fc45 50bd
000002e0: c12f e03d b04f ddbd c70c 63bd 4171 99bc
000002f0: 9626 a93d ea26 ba3d dd44 9f3d cc2b 843c
00000300: 85f4 173d efee dbbd 79cd 88bd 57dc 42bc
00000310: f37f b83c f772 43bd d9f5 acbd 49e5 bb3d
00000320: edb9 f93d ba18 0d3d a9e6 983d 38b2 f33c
00000330: bcd7 3bbd 9b9f 66bb 0999 893d 2d4d c73c
00000340: f874 873d f8a5 7dbd 6a7c 0ebc c1ce 02bd
00000350: f4cc e0bd ea22 9d3c bffb 62bd 1cf4 e73d
00000360: eac4 863c 8a8b e9bd 35dd e93d 8ae1 603d
00000370: 2a02 023d 99e1 f83c 5811 aa3d 660a 11be
00000380: 06cb cb3b 3af4 d5bb 15bb a13c 78a7 883b
00000390: 5cbd 003e b24d 8abc 1eec 93bd e2b1 a63d
000003a0: 90b3 d5bc a65d a73d c9fa 81bd e657 a23d
000003b0: 912f a5bd 15c0 53bc a43c 2b3c 652b b13d
000003c0: 2bcc 833d b960 cc3d 00a1 6bbd 4d05 9f3d
000003d0: c7c3 bdbd 9302 b2bd 21eb 563d 2fde 50bd
000003e0: 658b 413d 1b9f 5e3d 42bb 18bc 316d ea3b
000003f0: 3b78 3ebd fc02 f1bb b73a c03c 0370 a53d

bias f4 [5]
0.1188923 -0.09493976 0.10667752 0.10850398 -0.022289287
00000000: ce7d f33d c76f c2bd be79 da3d 5637 de3d
00000010: 0698 b6bc
