Policy-Gradients/Poker-Agent/checkpoint_25000.pt (torch, 227369 bytes, 8 tensors)

weight f4 [256, 55]
-0.019341657 -0.03699634 -0.0999382 -0.02174082 0.11754598 0.14813578 -0.033713374 0.0268743
0.059672732 0.08728723 0.11965103 -0.0073933215 0.09342272 0.07339973 -0.0005156749 0.13547516
0.11763853 -0.025998138 -0.02185865 0.09614423 -0.051165782 -0.13091458 -0.03878531 -0.01772845
-0.0037236619 -0.094845645 -0.10734761 -0.07802228 -0.04186942 0.09548206 -0.099905595 -0.0029030005
-0.07924366 0.045184657 0.071329825 -0.090201385 0.033970717 -0.095585234 0.0752153 0.04775656
-0.060016833 -0.08394032 0.10648916 -0.07542794 -0.082202144 0.041373022 -0.03441488 0.035104845
0.0025749847 0.013018962 -0.109005086 -0.06692224 0.011502939 -0.025210729 0.11705037 0.064381376
-0.12688965 0.079758 0.033068962 -0.12625363 -0.09562657 0.09877801 -0.009544564 -0.051105563
-0.039824504 0.08283125 -0.05743079 -0.018903863 -0.13572893 0.07256245 -0.0061257435 0.08855246
0.12775287 -0.14361842 -0.0744764 0.095590316 0.016941274 0.12806858 -0.07755793 0.024798157
0.010353302 0.07021867 -0.03320101 0.10740502 -0.01767229 -0.00893396 -0.114430174 0.12561667
-0.09314766 0.055107255 -0.053925578 0.030776443 -0.1205184 0.07752563 -0.12183928 -0.10298171
-0.057179622 -0.041064695 0.12711136 -0.035930213 0.08265409 -0.047863 0.087812856 -0.025601655
-0.07430397 0.10401653 -0.06624234 -0.006872709 0.05103333 -0.09411011 -0.09094629 0.118106246
0.083468914 0.062758595 0.13773482 0.08652454 0.08702554 0.06778887 0.07273745 -0.1284279
0.057161193 0.118866816 0.04655897 -0.011199581 0.09362508 0.029091705 0.09203474 0.121537715
-0.008835104 0.084516756 0.001007029 0.040530246 0.018462697 0.117402144 -0.0067187864 -0.13244592
-0.045749694 0.14044565 -0.041050497 0.05328849 -0.09719258 7.930657e-06 0.041749947 0.10978565
-0.015111641 -0.080285266 0.10510774 -0.037562083 -0.07174501 0.08211605 -0.035702266 0.06736662
0.12790024 -0.0605116 -0.09445545 -0.09670303 -0.012390122 -0.12790772 0.040137127 -0.02119204
0.10996149 -0.09067474 0.12397554 -0.078751914 0.09351865 -0.025973704 -0.052922886 0.056012694
0.119714834 -0.03713476 -0.008006143 0.062136196 0.120003074 0.20466414 -0.10969805 0.010346172
0.1276349 -0.06290604 0.049289167 -0.105335966 0.057333905 -0.07532148 0.027020894 0.12874833
-0.079406306 0.09613728 -0.14356165 0.13402258 0.11984608 0.18865278 0.031944066 0.006103005
-0.06947423 0.047752447 -0.024800843 -0.08067311 -0.009908351 -0.014714126 0.08256184 0.046545196
-0.014218153 -0.041431196 -0.087024346 -0.022371195 0.099278376 0.029308494 -0.11988787 -0.04508912
0.11935581 -0.078822434 -0.13138801 -0.13475083 -0.009918278 0.09003763 0.06305295 -0.015210117
0.07702598 -0.0053575533 0.06649845 0.03986874 0.05772253 0.13054998 -0.08533389 -0.11445065
0.04936229 -0.100637764 -0.037376314 0.08034981 -0.16524224 -0.054848563 -0.090763055 -0.018554846
0.09660218 0.12609537 -0.064448304 -0.04841414 -0.14214104 0.11337265 0.09622042 0.12634005
-0.14458942 -0.07580286 -0.06666147 -0.022623327 0.015923107 -0.09323137 0.020799097 -0.059870675
-0.07967746 -0.10962926 0.13544191 0.062648974 0.07022686 0.0553313 0.077929296 -0.12525406
00000000: 6572 9ebc 7989 17bd 66ac ccbd ce19 b2bc
00000010: f2bb f03d e8b0 173e 0917 0abd 7e27 dc3c
00000020: 656b 743d a6c3 b23d 990b f53d ad43 f2bb
00000030: 6954 bf3d 9952 963d 5b2e 07ba 00ba 0a3e
00000040: 78ec f03d 0cfa d4bc e910 b3bc 44e7 c43d
00000050: 3693 51bd 790e 06be 58dd 1ebd 413b 91bc
00000060: ae08 74bb 6f3e c2bd 10d9 dbbd 25ca 9fbd
00000070: 457f 2bbd 198c c33d 4e9b ccbd 4440 3ebb
00000080: 804a a2bd 8c13 393d 5f15 923d 81bb b8bd
00000090: e124 0b3d 31c2 c3bd 7b0a 9a3d 629c 433d
000000a0: 36d4 75bd e7e8 abbd fd16 da3d f779 9abd
000000b0: 9959 a8bd c276 293d 9ef6 0cbd 19ca 0f3d
000000c0: 13c1 283b 7c4d 553c 0f3e dfbd 870e 89bd
000000d0: d376 3c3c bb86 cebc 1bb8 ef3d 62da 833d
000000e0: 5cef 01be 2a58 a33d 5273 073d a248 01be
000000f0: ddd7 c3bd 204c ca3d ce60 1cbc 1154 51bd
00000100: 051f 23bd 6ea3 a93d 8c3c 6bbd 46dc 9abc
00000110: 86fc 0abe 9f9b 943d 76ba c8bb fe5a b53d
00000120: a6d1 023e b510 13be 1587 98bd dbc4 c33d
00000130: 6dc8 8a3c 6924 033e b1d6 9ebd 8125 cb3c
00000140: e5a0 293c cece 8f3d c8fd 07bd 2af7 db3d
00000150: 7ac5 90bc bf5f 12bc 5e5a eabd a8a1 003e
00000160: 33c4 bebd 25b8 613d 11e1 5cbd e11e fc3c
00000170: 5ad2 f6bd c2c5 9e3d df86 f9bd 13e8 d2bd
00000180: 2e35 6abd 7433 28bd 7b29 023e 8f2b 13bd
00000190: 8c46 a93d fe0b 44bd 3ad7 b33d 90ba d1bc
000001a0: ae2c 98bd 9e06 d53d 10aa 87bd 7634 e1bb
000001b0: 5308 513d cdbc c0bd 0c42 babd b0e1 f13d
000001c0: c0f1 aa3d 9487 803d 5b0a 0d3e c733 b13d
000001d0: 723a b23d e4d4 8a3d 5ff7 943d 9a82 03be
000001e0: db21 6a3d 7270 f33d 9eb4 3e3d 737e 37bc
000001f0: 82be bf3d ba51 ee3c b67c bc3d c4e8 f83d
00000200: 1dc1 10bc 1f17 ad3d 49fe 833a 0b03 263d
00000210: 153f 973c 8970 f03d 4429 dcbb e79f 07be
00000220: 0864 3bbd fcd0 0f3e 9124 28bd 0845 5a3d
00000230: e70c c7bd ea0d 0537 fe01 2b3d 4dd7 e03d
00000240: d196 77bc 9a6c a4bd ba42 d73d b3da 19bd
00000250: 0cef 92bd 762c a83d 8a3c 12bd 83f7 893d
00000260: 48f8 023e 03db 77bd dc71 c1bd 3d0c c6bd
00000270: f0ff 4abc 3efa 02be d466 243d ee9a adbc
00000280: 7d33 e13d aeb3 b9bd e3e6 fd3d af48 a1bd
00000290: b586 bf3d cec6 d4bc abc5 58bd 916d 653d
000002a0: 0d2d f53d 9e1a 18bd 332c 03bc 8682 7e3d
000002b0: 2cc4 f53d 7a93 513e 5fa9 e0bd fe82 293c
000002c0: b9b2 023e e2d4 80bd 70e3 493d 62ba d7bd
000002d0: f5d6 6a3d 2642 9abd ec5a dd3c 9ad6 033e
000002e0: c69f a2bd 9fe3 c43d d301 13be 373d 093e
000002f0: dd71 f53d 322e 413e c8d7 023d b7fb c73b
00000300: 8148 8ebd 1298 433d 232b cbbc f237 a5bd
00000310: a356 22bc 8413 71bc 2f16 a93d 2da6 3e3d
00000320: 42f3 68bc c2b3 29bd d239 b2bd cc43 b7bc
00000330: 7652 cb3d 5e18 f03c c687 f5bd 5eaf 38bd
00000340: d270 f43d a86d a1bd 948a 06be 1ffc 09be
00000350: 4680 22bc a665 b83d e821 813d db33 79bc
00000360: ccbf 9d3d 6a8e afbb 5730 883d 674d 233d
00000370: 766e 6c3d e5ae 053e 89c3 aebd 1a65 eabd
00000380: 1d30 4a3d 2c1b cebd e817 19bd 718e a43d
00000390: 4335 29be e3a8 60bd fbe1 b9bd 5500 98bc
000003a0: 5dd7 c53d 251f 013e 79fd 83bd e84d 46bd
000003b0: 6c8d 11be ec2f e83d 360f c53d 495f 013e
000003c0: 400f 14be 883e 9bbd cf85 88bd 8e54 b9bc
000003d0: 2d71 823c 17f0 bebd de62 aa3c f43a 75bd
000003e0: f02d a3bd 4e85 e0bd 49b1 0a3e 1b4e 803d
000003f0: 1ad3 8f3d 13a3 623d 6599 9f3d 9a42 00be

bias f4 [256]
0.0062604155 0.06882597 -0.08259379 0.018426104 -0.02250541 0.14283161 -0.05606094 -0.048840027
-0.028486468 -0.058535405 0.019543963 -0.10604015 0.09207982 0.05767732 0.123981394 0.1346463
-0.009883111 0.100387506 0.055121426 0.09358014 0.09304614 0.097013116 -0.04458038 0.12313129
0.07261086 -0.09543104 0.04652064 0.1321959 -0.019816633 0.0922869 0.14396004 -0.043766253
-0.0018290597 0.06917608 -0.010532123 0.010401611 0.11504932 -0.052733023 0.0015043799 -0.07514856
0.12250646 0.1650292 -0.03164418 0.10621483 0.021519337 0.12093394 0.14542265 0.07486682
-0.10831474 0.12234193 -0.09128202 0.11005708 -0.0016866091 -0.12149072 -0.00010442861 0.0845011
-0.09759258 0.06994443 -0.1182375 0.037645806 -0.09306148 -0.0019287636 0.018027466 -0.0371852
-0.0031968188 0.01902062 -0.037242018 0.14872445 0.030577563 0.0832143 -0.10903885 -0.05508189
-0.08123219 0.05153583 -0.09184147 0.14308484 0.06768581 0.15753388 0.096939646 -0.10557767
-0.011653997 -0.022919219 0.12499109 0.005908372 -0.11956494 0.07838299 0.04619742 -0.09504835
-0.10392404 0.023544718 -0.14007764 -0.10615691 0.06491414 0.03181226 0.019744799 -0.047767635
-0.08060408 0.09208424 0.01366216 0.06369465 -0.1258867 0.039513458 -0.06318618 -0.10598529
0.10564732 0.116083816 -0.020344991 -0.034542628 0.15981914 -0.10052677 -0.016364455 0.11778354
0.101585925 0.024306236 0.014194974 0.04204282 -0.11818113 -0.082704246 0.1048655 0.02990153
-0.029797189 -0.070577286 0.06438298 -0.11375583 0.0330423 0.060902152 -0.12062894 -0.05271463
0.091051795 0.11457385 -0.099598594 0.08944946 -0.021476101 0.060385693 -0.018441372 -0.057725888
0.046678565 0.05634575 -0.01719087 -0.07940078 0.06381089 -0.11590442 0.07385926 -0.036035605
-0.08396128 -0.005169059 -0.12083442 0.045719597 0.030456224 0.15675777 -0.048250716 0.010092373
0.04799596 -0.106855094 -0.12708996 0.1154138 0.075894535 0.09773098 0.11204566 -0.06091293
0.017981786 0.06457895 0.07300352 0.09476967 0.14872383 0.13346331 -0.047913633 0.10217138
0.15812299 0.0132179 -0.104144335 0.027477529 -0.05207822 0.09729758 0.07594376 0.110337436
-0.002892949 -0.050093975 -0.11033965 0.078679375 0.11863024 -0.040554404 -0.0737255 -0.029696513
0.006624041 -0.11836533 0.052653413 0.14253402 0.113642 -0.09806282 -0.11418039 0.09359791
0.031176664 0.12435698 0.09443831 0.09153409 0.051439524 0.021538084 -0.03243692 0.08178447
-0.054583937 0.020225719 -0.09163011 0.12325001 0.086148165 -0.028095646 0.026396606 0.025102574
-0.07764905 -0.046185937 0.010682376 0.105479605 -0.050347567 0.11895214 -0.1028259 0.034281533
-0.021469004 -0.015044061 0.035595696 0.016073536 -0.11880232 0.16161081 -0.0789865 0.055334914
-0.058334947 0.15832381 -0.09166773 0.08843318 0.011474939 0.112881325 -0.09574948 -0.12202359
0.09809527 0.03314036 -0.018028766 0.07198881 -0.040774465 -0.05006698 0.08095415 -0.028031599
0.06825429 0.05351318 0.018114973 0.03156757 -0.025199078 0.13088855 -0.034616273 0.10408529
0.06661214 0.11454118 -0.031839795 0.035240464 0.053973198 0.07383504 -0.029250301 0.056915317
00000000: 2c24 cd3b a1f4 8c3d ef26 a9bd 57f2 963c
00000010: 445d b8bc 7342 123e 28a0 65bd 7b0c 48bd
00000020: 745c e9bc d2c2 6fbd a91a a03c 942b d9bd
00000030: 5894 bc3d 0e3f 6c3d f5e9 fd3d b8e0 093e
00000040: c6ec 21bc f797 cd3d 01c7 613d f2a6 bf3d
00000050: fa8e be3d d0ae c63d eb99 36bd 422c fc3d
00000060: 01b5 943d 5971 c3bd 6d8c 3e3d 5d5e 073e
00000070: 7e56 a2bc ea00 bd3d 436a 133e 3e44 33bd
00000080: 0fbd efba 30ac 8d3d ed8e 2cbc 856b 2a3c
00000090: fa9e eb3d 95fe 57bd 9d2e c53a 7de7 99bd
000000a0: abe4 fa3d 6afd 283e 549d 01bd 2987 d93d
000000b0: 5249 b03c 37ac f73d ade9 143e c653 993d
000000c0: 1ed4 ddbd 688e fa3d 11f2 babd 9b65 e13d
000000d0: 3611 ddba 20d0 f8bd af00 dbb8 ea0e ad3d
000000e0: 9ede c7bd 063f 8f3d 8126 f2bd 7d32 1a3d
000000f0: 0497 bebd 91ce fcba 56ae 933c 824f 18bd
00000100: b881 51bb 22d1 9b3c 168b 18bd 394b 183e
00000110: cc7d fa3c 426c aa3d c34f dfbd 8c9d 61bd
00000120: 105d a6bd 3c17 533d 6117 bcbd d584 123e
00000130: dc9e 8a3d 9050 213e 4b88 c63d 1b39 d8bd
00000140: 68f0 3ebc 16c1 bbbc 54fb ff3d 049b c13b
00000150: 77de f4bd 4387 a03d 8239 3d3d b6a8 c2bd
00000160: 21d6 d4bd dae0 c03c 8370 0fbe cb68 d9bd
00000170: b4f1 843d 934d 023d d8bf a13c ffa7 43bd
00000180: c013 a5bd a996 bc3d 41d7 5f3c 5772 823d
00000190: 71e8 00be ddd8 213d c267 81bd d10e d9bd
000001a0: 9f5d d83d 5abd ed3d 8aaa a6bc 927c 0dbd
000001b0: a1a7 233e fbe0 cdbd c00e 86bc 7f38 f13d
000001c0: 480c d03d df1d c73c 0992 683c 1835 2c3d
000001d0: f308 f2bd d860 a9bd b9c3 d63d 0ef4 f43c
000001e0: 3c19 f4bc d38a 90bd 39db 833d d1f8 e8bd
000001f0: 5d57 073d 8974 793d 4e0c f7bd 4ceb 57bd
00000200: 5d79 ba3d b2a5 ea3d 59fa cbbd 4731 b73d
00000210: a6ee afbc fd56 773d 5c12 97bc fb71 6cbd
00000220: 0632 3f3d cdca 663d ded3 8cbc e09c a2bd
00000230: 49af 823d 4c5f edbd 8643 973d 129a 13bd
00000240: e4f3 abbd 3661 a9bb 0978 f7bd 7944 3b3d
00000250: 557f f93c 1c85 203e 8ba2 45bd 7b5a 253c
00000260: 6997 443d d8d6 dabd df23 02be 125e ec3d
00000270: 986e 9b3d 2e27 c83d 3278 e53d d67f 79bd
00000280: 8a4e 933c f841 843d df82 953d 9a16 c23d
00000290: 0f4b 183e 9baa 083e 1641 44bd 3a3f d13d
000002a0: feea 213e e48f 583c a049 d5bd 8e18 e13c
000002b0: f94f 55bd f443 c73d 6788 9b3d 98f8 e13d
000002c0: a197 3dbb 572f 4dbd c1f9 e1bd a722 a13d
000002d0: 69f4 f23d 601c 26bd 65fd 96bd 1a46 f3bc
000002e0: 7c0e d93b 8669 f2bd 1bab 573d 70f4 113e
000002f0: 23bd e83d 29d5 c8bd 69d7 e9bd 43b0 bf3d
00000300: 3466 ff3c dfae fe3d df68 c13d 3a76 bb3d
00000310: 40b2 523d a370 b03c 93dc 04bd 9e7e a73d
00000320: 6893 5fbd 68b0 a53c 91a8 bbbd 806a fc3d
00000330: 736e b03d d728 e6bc b23d d83c eaa3 cd3c
00000340: 7706 9fbd 772d 3dbd 2205 2f3c b105 d83d
00000350: 4039 4ebd 2e9d f33d 6396 d2bd cb6a 0c3d
00000360: c4df afbc 5d7b 76bc cbcc 113d a6ac 833c
00000370: a14e f3bd 4e7d 253e adc3 a1bd dda6 623d
00000380: a0f0 6ebd a31f 223e 4abc bbbd 741c b53d
00000390: 6201 3c3c 532e e73d 4e18 c4bd 81e7 f9bd
000003a0: 2ce6 c83d 30be 073d 10b1 93bc df6e 933d
000003b0: 2003 27bd 0913 4dbd 4acb a53d 86a2 e5bc
000003c0: e8c8 8b3d a330 5b3d da65 943c ff4c 013d
000003d0: 4c6e cebc a607 063e cbc9 0dbd ab2a d53d
000003e0: f26b 883d 9194 ea3d 726a 02bd 4e58 103d
000003f0: 0013 5d3d d336 973d 549e efbc 0920 693d

weight f4 [128, 256]
0.07087655 0.0050158277 0.042656828 0.049014684 -0.049109526 0.054678034 0.041526277 0.078055784
-0.028424617 -0.018427495 0.023598509 0.052222997 0.015870823 0.046551526 -0.02430322 0.08524665
0.05834765 0.012241799 0.04217405 -0.052424405 -0.01760954 -0.03751768 0.034136157 -0.02390329
0.04097358 -0.03599229 0.051880073 0.0508728 0.09224193 -0.02313299 -0.024629394 0.0008210207
0.020161347 0.038290605 0.087826855 -0.0328751 0.034915503 0.048612326 -0.097681545 0.008239345
0.063078195 -0.036377493 9.738034e-05 0.03435397 -0.048613153 0.051101252 0.048110705 0.040445376
0.0576035 0.010467973 -0.004064001 -0.017318273 -0.016700784 0.06744591 -0.06487119 0.07290507
0.048916284 0.032960173 0.058621116 -0.010775492 -0.044927523 0.032835126 0.0034141294 -0.00902992
-0.001183717 0.0076065664 -0.03204077 0.0077729532 0.025444547 0.023452668 0.028306343 -0.05072166
0.008237049 0.03922758 -0.009724405 -0.06573564 -0.012293478 -0.04239105 0.05449231 0.0749613
0.0722706 -0.026878826 0.029999621 0.06906296 -0.024550395 -0.0068475003 0.064454064 0.055520672
0.014603912 0.058718354 -0.04043807 0.018211596 0.0441654 -0.042586923 -0.014727394 -0.021905601
0.0024390453 0.067224436 0.07796315 0.051488258 -0.012785134 0.020913867 -0.045055885 0.057141475
-0.043391664 -0.014369688 -0.0020423296 -0.046658188 -0.050253753 -0.021697663 -0.0483157 0.042487416
-0.053946402 -0.047154307 0.062203556 0.050422054 0.00052077114 0.041502327 0.017808773 0.077625506
0.05469012 0.049124613 0.060505863 -0.00979371 -0.05782701 0.05035238 0.049081914 0.032873254
-0.02063049 -0.043326303 0.040657394 0.005179741 -0.0054064593 0.07628585 0.06946578 -0.009471242
-0.057560086 0.061006494 -0.03802004 0.013820952 -0.010356061 0.067779616 3.734893e-05 0.094790615
0.05473167 0.0058765975 0.03864114 -0.04795584 0.018949779 0.028059455 0.002922214 -0.060745336
-0.0046276352 0.04995251 0.031832058 0.01006165 0.009351555 0.011966157 0.00090926705 -0.02610369
0.036855716 -0.0031394302 -0.041211583 0.016120484 0.046571117 0.016348679 0.041815624 -0.010173857
0.060359605 0.049853638 0.027016658 -0.0032795542 0.06574535 -0.00085953163 -0.057253454 0.013849122
0.071288444 0.018182766 0.055859033 0.015914688 -0.021914259 -0.020938551 -0.04302959 -0.0180004
-0.0398315 -0.021538502 -0.028785642 0.021604244 0.047945984 0.08081337 0.02820128 0.0019226896
0.01717473 0.0658857 -0.05047539 0.01764762 0.050197795 -0.056449786 0.016670942 -0.07346011
0.049134545 0.06582107 -0.0031434828 0.0049699578 -0.022067906 -0.04437544 0.0008353534 0.04645128
0.062251635 0.06028849 -0.009288376 0.012836957 -0.025673937 -0.042530276 -0.009181898 0.0268126
-0.0103124175 0.004028596 0.011831015 0.0063112723 -0.04905789 0.06154025 0.0033238968 0.07094444
-0.05760022 0.009935764 0.0737221 0.02262288 -0.009529146 0.078056194 0.0035943403 0.04741435
0.05881546 -0.035092544 0.021314561 -0.01328634 -0.06162467 0.03600102 -0.06368067 0.016260866
0.020838805 -0.021632254 0.05475768 0.09650181 0.08280015 0.058783107 -0.011477533 0.06268809
-0.031068318 -0.0007936213 -0.030072268 -0.01690643 0.023498436 -0.006747375 -0.047427196 -0.034346372
00000000: ba27 913d d05b a43b edb8 2e3d 9fc3 483d
00000010: 1227 49bd 13f6 5f3d 7517 2a3d b6db 9f3d
00000020: beda e8bc 42f5 96bc a951 c13c c8e7 553d
00000030: 8703 823c d0ac 3e3d 8c17 c7bc cc95 ae3d
00000040: f2fd 6e3d d491 483c b2be 2c3d f9ba 56bd
00000050: e241 90bc 24ac 19bd 5bd2 0b3d d5d0 c3bc
00000060: ead3 273d a76c 13bd 3380 543d ff5f 503d
00000070: 56e9 bc3d 6581 bdbc 95c3 c9bc c439 573a
00000080: 6929 a53c 9cd6 1c3d 91de b33d 0aa8 06bd
00000090: 8f03 0f3d b81d 473d 430d c8bd 51fe 063c
000000a0: 242f 813d 9100 15bd ac38 cc38 c0b6 0c3d
000000b0: 961e 47bd 8c4f 513d bb0f 453d 0daa 253d
000000c0: a6f1 6b3d dc81 2b3c 502b 85bb 0ddf 8dbc
000000d0: 15d0 88bc 1521 8a3d 30db 84bd 414f 953d
000000e0: 715c 483d 3f01 073d b21c 703d b08b 30bc
000000f0: ec05 38bd 207e 063d 96bf 5f3b 3bf2 13bc
00000100: f426 9bba 8140 f93b 2f3d 03bd 42b4 fe3b
00000110: 1571 d03c cf1f c03c b4e2 e73c 84c1 4fbd
00000120: b0f4 063c 19ad 203d 1c53 1fbc 68a0 86bd
00000130: 956a 49bc 3da2 2dbd 5433 5f3d 4f85 993d
00000140: 9c02 943d fc30 dcbc c4c1 f53c e270 8d3d
00000150: e91d c9bc ff60 e0bb 7e00 843d a569 633d
00000160: 3f45 6f3c a882 703d 64a2 25bd 7c30 953c
00000170: c7e6 343d a06f 2ebd 2b4b 71bc 6073 b3bc
00000180: 64d8 1f3b f7ac 893d 25ab 9f3d 5ae5 523d
00000190: bd78 51bc 8f53 ab3c 858c 38bd 2e0d 6a3d
000001a0: 75bb 31bd d76e 6bbc 9bd8 05bb a81c 3fbd
000001b0: e1d6 4dbd 4cbf b1bc afe6 45bd 4907 2e3d
000001c0: e7f6 5cbd e024 41bd 28c9 7e3d 5b87 4e3d
000001d0: 5c84 083a 58fe 293d b4e3 913c 1ffa 9e3d
000001e0: bf02 603d e436 493d ffd4 773d cc75 20bc
000001f0: 04dc 6cbd 4c3e 4e3d 1e0a 493d 1ba6 063d
00000200: 4601 a9bc ec76 31bd 5e88 263d d1ba a93b
00000210: ab28 b1bb c13b 9c3d 1344 8e3d 452d 1bbc
00000220: 20c4 6bbd f2e1 793d e7ba 1bbd 4671 623c
00000230: 78ac 29bc 0ad0 8a3d 1ca7 1c38 9521 c23d
00000240: 512e 603d 7990 c03b 2c46 1e3d 586d 44bd
00000250: 913c 9b3c f1dc e53c 9e82 3f3b 1ad0 78bd
00000260: 6ba3 97bb 019b 4c3d 5562 023d 9ed9 243c
00000270: 4437 193c b30d 443c e15b 6e3a 68d7 d5bc
00000280: 05f6 163d e6be 4dbb 7acd 28bd 1b0f 843c
00000290: 5bc1 3e3d aaed 853c dc46 2b3d 40b0 26bc
000002a0: a23b 773d 5433 4c3d 0a52 dd3c caed 56bb
000002b0: 80a5 863d 3152 61ba 9982 6abd 6ee7 623c
000002c0: adff 913d 06f4 943c 71cc 643d 855f 823c
000002d0: 8885 b3bc 5387 abbc cc3f 30bd 9375 93bc
000002e0: 5b26 23bd 8371 b0bc decf ebbc 62fb b03c
000002f0: 0263 443d 7b81 a53d 5f06 e73c c202 fc3a
00000300: 05b2 8c3c 15ef 863d 48bf 4ebd be91 903c
00000310: 349c 4d3d e437 67bd 8091 883c 4172 96bd
00000320: 4e41 493d 32cd 863d e402 4ebb 07db a23b
00000330: c1c7 b4bc 05c3 35bd 9efb 5a3a b343 3e3d
00000340: 92fb 7e3d 10f1 763d 462e 18bc 1a52 523c
00000350: 2652 d2bc 3a34 2ebd ac6f 16bc 19a6 db3c
00000360: 6af5 28bc 5002 843b e0d6 413c cace ce3b
00000370: edf0 48bd a111 7c3d bcd5 593b 524b 913d
00000380: 35ee 6bbd 9dc9 223c 9dfb 963d 9e53 b93c
00000390: 2320 1cbc eddb 9f3d 068f 6b3b 8d35 423d
000003a0: 7be8 703d 33bd 0fbd e09b ae3c f3ae 59bc
000003b0: 266a 7cbd ce75 133d 036b 82bd 8235 853c
000003c0: 24b6 aa3c 2036 b1bc 9749 603d bea2 c53d
000003d0: 2093 a93d 8ec6 703d 430c 3cbc 9d62 803d
000003e0: fc82 febc 060b 50ba 1e5a f6bc 5a7f 8abc
000003f0: cb7f c03c 1519 ddbb 0543 42bd c8ae 0cbd

bias f4 [128]
-0.031015174 -0.004094644 0.06564334 0.015486332 0.028467821 0.023304328 -0.0061076796 -0.023412064
0.042600952 -0.01821419 0.031096114 -0.031133084 -0.035695054 0.04360081 0.024931176 -0.0061676055
0.028627496 -0.027284658 0.05214594 0.042690437 0.04431924 0.034636404 -0.044907898 -0.032915726
0.05614182 -0.035827536 -0.04513029 0.054947827 -0.070095785 0.04452062 0.058244746 0.069968045
0.0013292882 0.060331106 0.0013913021 -0.033142976 0.038273215 0.010967705 -0.017970582 0.040289458
0.044898923 -0.010160123 0.043586787 -0.020841965 0.017699357 0.052438986 0.05681188 -0.04417445
-0.047413222 0.01988421 0.028363708 -0.051458776 -0.03151202 0.033054892 0.028542683 0.030767445
0.0664859 0.0051374906 -0.016952684 0.03986366 -0.06240974 -0.030001432 0.02437025 0.010714467
0.00017947075 -0.01060448 0.035942554 -0.04119382 0.04860591 -0.04037066 0.0070414376 -0.028741712
-0.012001238 0.022467757 0.022569848 0.013649057 -0.0010687383 0.08148351 0.04754045 -0.00092279253
0.04973032 0.05426632 0.065506086 0.01874761 -0.06218665 0.061160553 -0.042266175 -0.0031907316
-0.006180045 0.024314152 0.07254363 0.03058444 -0.019490814 0.047660716 0.03705056 0.040339366
0.049566343 0.030650806 0.03698967 0.030742403 -0.019797424 -0.033428017 -0.040034883 -0.04272635
0.044373903 0.03152248 0.03178747 -0.014252616 -0.026358383 -0.020588255 0.05622553 0.03596642
0.025137022 0.03689732 0.024877708 -0.044551518 -0.0028848455 -0.017254626 -0.05372213 0.023501571
0.04459256 -0.046785213 0.06728378 0.05547249 0.0140098445 0.07303449 -0.018977892 -0.0024766023
00000000: 8913 febc 5d2c 86bb 0470 863d 62ba 7d3c
00000010: 5935 e93c b8e8 be3c ee22 c8bb a8ca bfbc
00000020: 567e 2e3d ed35 95bc 47bd fe3c cf0a ffbc
00000030: fa34 12bd c396 323d 773c cc3c a019 cabb
00000040: 3684 ea3c 1384 dfbc fb96 553d 2bdc 2e3d
00000050: 1788 353d e7de 0d3d 58f1 37bd a4d2 06bd
00000060: f7f4 653d e5bf 12bd 8ada 38bd f910 613d
00000070: 618e 8fbd 415b 363d 0b92 6e3d 684b 8f3d
00000080: 833b ae3a c01d 773d 5a5c b63a eec0 07bd
00000090: 60c4 1c3d e4b1 333c 0b37 93bc 8f06 253d
000000a0: efe7 373d a576 26bc 0f88 323d c5bc aabc
000000b0: 3efe 903c 43ca 563d 93b3 683d 45f0 34bd
000000c0: 5e34 42bd 36e4 a23c 025b e83c 70c6 52bd
000000d0: bf12 01bd 9164 073d 58d2 e93c 020c fc3c
000000e0: c229 883d 6558 a83b 5be0 8abc 1448 233d
000000f0: 5ba1 7fbd 90c5 f5bc 1ea4 c73c bb8b 2f3c
00000100: 5030 3c39 6abe 2dbc 8038 133d daba 28bd
00000110: fe16 473d b55b 25bd dcbb e63b bd73 ebbc
00000120: d7a0 44bc 4d0e b83c 67e4 b83c 4ba0 5f3c
00000130: e814 8cba d4e0 a63d c6b9 423d 8fe7 71ba
00000140: 05b2 4b3d 5c46 5e3d 0e28 863d 9694 993c
00000150: 6eb7 7ebd 7d83 7a3d 4c1f 2dbd 981b 51bb
00000160: fa81 cabb 792e c73c c191 943d 388c fa3c
00000170: 33ab 9fbc e237 433d 54c2 173d e43a 253d
00000180: 1406 4b3d 6617 fb3c 7b82 173d 7ed7 fb3c
00000190: 352e a2bc d1eb 08bd 9efb 23bd d301 2fbd
000001a0: 69c1 353d b71d 013d 9433 023d ce83 69bc
000001b0: 89ed d7bc b3a8 a8bc be4c 663d 8651 133d
000001c0: 28ec cd3c a521 173d 56cc cb3c a77b 36bd
000001d0: ad0f 3dbb 9359 8dbc bc0b 5cbd 5e86 c03c
000001e0: b0a6 363d daa1 3fbd 14cc 893d 1f37 633d
000001f0: 8c89 653c 1b93 953d 8677 9bbc 7e4e 22bb

weight f4 [64, 128]
0.030099496 0.013392241 -0.0027596538 -0.062231418 0.056400973 0.07327126 -0.023754392 -0.030599294
-0.023597278 -0.0024446184 0.048489742 -0.0047345078 0.06950964 0.03612938 0.056687944 0.051942237
-0.05326004 0.05664566 -0.027131362 0.009015663 -0.042269055 0.07202252 0.01898697 0.0071154344
0.042066947 -0.06631711 -0.05105449 -0.092808805 0.06570018 -0.0035397608 -0.07259509 0.05460146
-0.057157572 -0.03398569 -0.06317223 0.10177425 0.04257655 0.024598505 -0.06935541 0.03538023
-0.014281428 -0.089342214 -0.051261954 -0.05318189 0.05248719 0.027904753 -0.0069467667 -0.013199361
0.08658858 0.0030916033 0.014024458 0.07031082 -0.055350315 -0.042295292 -0.0030144926 0.00471065
0.031980835 0.08325527 -0.05568152 0.039449435 0.08953073 -0.00042655514 0.07507523 0.039526258
-0.07787831 0.013400297 -0.02658701 -0.002982711 0.07744761 0.09186952 -0.032327384 0.053970598
0.05341834 -0.08957831 0.048035827 -0.06006242 0.09092423 -0.050516542 -0.020527616 0.046628024
0.058597792 0.09329386 -0.058221355 0.08430816 0.061582282 -0.07749548 -0.014347773 -0.008879076
0.09136485 -0.024969602 0.056113485 -0.007616517 -0.085872844 0.015481566 0.0074161766 0.019914338
-0.032077122 0.028559377 0.08222685 -0.0064811585 0.034495384 0.057430863 -0.04957607 -0.006011771
-0.03545486 0.0525676 0.0052604154 -0.034427263 0.021507215 0.012199306 0.027659643 -0.022987926
0.08824085 -0.061131936 0.007902878 0.104451455 -0.07392051 0.028578231 0.08080988 0.060768314
-0.03801721 -0.06123553 -0.0036785204 0.0018820021 -0.035044685 -0.048899908 -0.009100783 -0.015235953
0.087716505 -0.023650348 0.06956948 0.112039655 0.017889848 -0.053376622 0.103078745 0.030496914
0.023577986 -0.083870694 0.11321203 -0.06231825 0.04603066 0.07365743 0.08395433 0.08013541
0.06557332 -0.012739844 0.08027842 0.07377032 0.046635725 -0.0023010073 0.11507512 0.052695643
-0.062302202 0.10637763 0.06869607 -0.043919947 -0.025343347 -0.074117646 0.097977996 -0.04499878
0.031646572 -0.024155416 0.012938971 -0.026325002 -0.042130787 -0.040993396 0.0263508 -0.018439824
-0.039234966 -0.09621138 -0.052580092 -0.059650555 -0.05583965 0.023823975 0.022662189 -0.045033325
-0.06510524 0.057971578 -0.00700994 0.11374002 -0.09860374 0.0228114 0.074820146 0.08772767
0.028537739 0.100273125 0.052614927 0.0911572 -0.0637797 -0.048624944 -0.08926775 0.009080621
-0.035339233 0.05803922 0.043196723 0.04301837 0.0067955493 0.074886516 -0.052274894 0.114512205
-0.058971692 -0.020524258 -0.01930606 0.07066466 -0.032528326 -0.037044395 -0.061867025 0.08074298
-0.011555828 0.080616035 0.0024927706 0.028454466 -0.043173853 -0.03135449 -0.07046435 -0.001956577
0.1099808 -0.015422137 0.010110405 0.09026812 -0.031711385 0.023501037 0.005648136 -0.09645304
-0.0018021144 -0.019533267 0.08273614 -0.02773891 0.0486654 0.02582919 0.084493615 0.06283104
-0.095076896 -0.05205215 0.0601248 -0.074745096 0.10409681 -0.05905362 0.0781225 -0.061129466
-0.043826323 0.0555562 0.03688595 0.04493057 -0.03397547 -0.09948514 -0.06458691 -0.03298249
-0.033332847 0.049353935 -0.001121773 -0.07966099 0.12153597 0.023948414 0.07879568 0.051768377
00000000: 3893 f63c 216b 5b3c 4fdb 34bb 5fe6 7ebd
00000010: b504 673d 3e0f 963d 9298 c2bc 5fab fabc
00000020: 144f c1bc e435 20bb 2e9d 463d ee23 9bbb
00000030: 125b 8e3d 67fc 133d 9e31 683d 62c1 543d
00000040: 3327 5abd 4805 683d 9742 debc 6eb6 133c
00000050: 5122 2dbd 8b80 933d 908a 9b3c 9728 e93b
00000060: 644e 2c3d 44d1 87bd 831e 51bd 8b12 bebd
00000070: d18d 863d 55fb 67bb bcac 94bd c8a5 5f3d
00000080: 0f1e 6abd 9434 0bbd 7160 81bd 056f d03d
00000090: c064 2e3d ce82 c93c 360a 8ebd dcea 103d
000000a0: a7fc 69bc 0df9 b6bd 0ef8 51bd 41d5 59bd
000000b0: cffc 563d 8298 e43c b4a1 e3bb 2242 58bc
000000c0: 5a55 b13d 7f9c 4a3b d7c6 653c 1fff 8f3d
000000d0: 03b7 62bd d43d 2dbd cb8e 45bb cc5b 9a3b
000000e0: 56fe 023d bd81 aa3d 4e12 64bd bb95 213d
000000f0: e35b b73d 43a3 dfb9 0bc1 993d 49e6 213d
00000100: aa7e 9fbd eb8c 5b3c 00cd d9bc 9679 43bb
00000110: da9c 9e3d 1626 bc3d b869 04bd 4610 5d3d
00000120: 30cd 5a3d d574 b7bd 37c1 443d 0304 76bd
00000130: 7c36 ba3d 6fea 4ebd 8829 a8bc 07fd 3e3d
00000140: 3d04 703d da10 bf3d 8479 6ebd c2a9 ac3d
00000150: b43d 7c3d f3b5 9ebd ec12 6bbc 8b79 11bc
00000160: 7f1d bb3d 0d8d ccbc 41d7 653d fa93 f9bb
00000170: 1ade afbd 65a6 7d3c 6603 f33b 6523 a33c
00000180: 4d63 03bd 5bf5 e93c 8d66 a83d e65f d4bb
00000190: 084b 0d3d a03c 6b3d 4710 4bbd 64fe c4bb
000001a0: 1e39 11bd 2051 573d 905f ac3b 9a03 0dbd
000001b0: e62f b03c 99df 473c 7a96 e23c 2d51 bcbc
000001c0: 9eb7 b43d 7b65 7abd 137b 013c a5ea d53d
000001d0: a363 97bd e51c ea3c a67f a53d 32e8 783d
000001e0: efb7 1bbd 1bd2 7abd 5513 71bb 83ad f63a
000001f0: 048b 0fbd 454b 48bd 731b 15bc 38a0 79bc
00000200: b6a4 b33d 60be c1bc 727a 8e3d 0c75 e53d
00000210: bb8d 923c 72a1 5abd f31a d33d aad4 f93c
00000220: 9f26 c13c 66c4 abbd b5db e73d 6c41 7fbd
00000230: a58a 3c3d b5d9 963d 3ff0 ab3d 091e a43d
00000240: 4e4b 863d c7ba 50bc 0369 a43d e514 973d
00000250: 1a05 3f3d 7fcc 16bb 81ac eb3d 63d7 573d
00000260: 9830 7fbd 84dc d93d 86b0 8c3d 67e5 33bd
00000270: da9c cfbc feca 97bd b0a8 c83d a450 38bd
00000280: d69f 013d 94e1 c5bc fafd 533c 88a7 d7bc
00000290: 5591 2cbd b1e8 27bd a2dd d73c 1d0f 97bc
000002a0: d8b4 20bd 790a c5bd 395e 57bd 2454 74bd
000002b0: 1eb8 64bd 7f2a c33c 0ea6 b93c dd74 38bd
000002c0: e555 85bd 9b73 6d3d a4b3 e5bb 87f0 e83d
000002d0: c2f0 c9bd f9de ba3c 4e3b 993d 91aa b33d
000002e0: fac7 e93c ff5b cd3d c082 573d a0b0 ba3d
000002f0: ee9e 82bd f32a 47bd 03d2 b6bd e3c6 143c
00000300: dfbf 10bd 88ba 6d3d 0cef 303d 0834 303d
00000310: 33ad de3b 1a5e 993d 331e 56bd 6085 ea3d
00000320: 4d8c 71bd 7d22 a8bc be27 9ebc a2b8 903d
00000330: 6c3c 05bd ddbb 17bd 4768 7dbd 935c a53d
00000340: a854 3dbc 051a a53d c05d 233b 5719 e93c
00000350: 11d7 30bd 916d 00bd 9d4f 90bd ea39 00bb
00000360: 9d3d e13d 22ad 7cbc 1da6 253c 7ede b83d
00000370: cce3 01bd 3f85 c03c 0014 b93b 2c89 c5bd
00000380: ed34 ecba 3b04 a0bc 9171 a93d b63c e3bc
00000390: 5f55 473d bd97 d33c fd0a ad3d 8fad 803d
000003a0: adb7 c2bd a334 55bd 6c45 763d f513 99bd
000003b0: b530 d53d 35e2 71bd b0fe 9f3d e462 7abd
000003c0: 3b83 33bd e68e 633d b915 173d 1e09 383d
000003d0: dd29 0bbd ddbe cbbd 2446 84bd a618 07bd
000003e0: 0688 08bd 5a27 4a3d 7508 93ba 4d25 a3bd
000003f0: dae7 f83d 772f c43c a15f a13d 140b 543d

bias f4 [64]
-0.06491384 -0.037144586 -0.02057743 -0.0601047 -0.039183483 -0.025588607 0.02420509 0.07935773
-0.07356507 -0.024983922 0.0001232445 0.016427536 -0.03425862 -0.040278442 0.060570836 0.026742972
-0.08016059 0.04520433 -0.079983704 0.021896388 0.042852525 0.05022032 0.08542771 -0.04741767
0.025269482 0.06169197 0.043520097 0.045340106 -0.05981823 -0.049897157 0.064835116 0.016994735
0.0651337 0.07556518 -0.013779862 -0.010163143 0.09353212 -0.026314883 -0.04112579 -0.070592314
-0.08478919 0.03548734 -0.03389468 -0.07393781 0.047822572 -0.03893092 0.071550794 -0.0011596028
-0.055059075 -0.0062842835 -0.082898036 0.054285064 0.0978094 -0.009053339 0.0142875295 0.050954707
-0.06224546 -0.062280666 0.095884174 -0.057529245 -0.042649586 0.008586344 -0.09964326 -0.041053712
00000000: 8cf1 84bd ec24 18bd 0092 a8bc 5930 76bd
00000010: dc7e 20bd 339f d1bc c149 c63c 4e86 a23d
00000020: 49a9 96bd 15ab ccbc 323b 0139 0a93 863c
00000030: c452 0cbd 02fb 24bd 2019 783d 1414 db3c
00000040: 3c2b a4bd 2d28 393d 7fce a3bd 0e60 b33c
00000050: 2186 2f3d d2b3 4d3d b9f4 ae3d 0839 42bd
00000060: f201 cf3c b8b0 7c3d 2142 323d 8cb6 393d
00000070: f603 75bd f660 4cbd 46c8 843d 8b38 8b3c
00000080: d164 853d ebc1 9a3d eec4 61bc 5083 26bc
00000090: c58d bf3d 4f92 d7bc 8473 28bd b492 90bd
000000a0: f4a5 adbd 2c5b 113d 26d5 0abd b56c 97bd
000000b0: 9ae1 433d 0776 1fbd 3989 923d d0fd 97ba
000000c0: a085 61bd 64ec cdbb 72c6 a9bd 045a 5e3d
000000d0: 4b50 c83d 7554 14bc 3e16 6a3c e2b5 503d
000000e0: 18f5 7ebd 031a 7fbd ec5e c43d c9a3 6bbd
000000f0: 55b1 2ebd bdad 0c3c c411 ccbd f027 28bd

weight f4 [5, 64]
-0.08769802 -0.0883819 0.0351941 0.095629506 0.03349693 0.1264344 -0.11515082 -0.06632455
-0.036990233 0.019904528 -0.12488809 -0.08650715 0.047483798 -0.03325151 0.043367136 0.0834247
-0.115283065 0.011883272 0.08795133 -0.043916043 -0.056005985 -0.093730465 -0.11716402 -0.07759771
-0.02958293 0.10194637 0.056219205 0.07710564 -0.10939217 0.145564 0.048499607 0.05000063
-0.12679663 0.013757337 -0.115831 -0.022544565 -0.15193814 0.038663656 0.118562594 -0.09709391
0.012338898 -0.062217858 0.10277262 0.00050135277 -0.00852015 0.04395537 -0.09212869 0.112668656
-0.03120062 -0.06755511 -0.072116286 0.04743063 0.16037795 0.13818254 0.071985714 0.13537301
0.16087289 0.05045736 0.061541535 -0.10493357 -0.13794145 0.0059582866 0.016783997 0.053980157
-0.048064385 0.0686526 0.0586039 -0.1262334 0.07211636 0.05216189 0.063796766 0.043407217
-0.026336715 -0.09487377 0.02781886 -0.009313103 -0.112900786 -0.005451831 -0.005723342 0.0789574
0.0440773 0.038947996 0.11744479 0.08771208 -0.025027405 -0.035076242 0.11966302 -0.06542436
-0.067788206 -0.07295625 0.13890892 0.09691093 0.08739338 -0.08778162 0.050048184 -0.022673147
0.017427541 0.038113624 -0.010644513 0.060374446 0.110604525 -0.09139098 0.11400324 -0.009535263
-0.13566834 -0.08843907 -0.04743269 -0.0010215136 -0.017395856 -0.014116608 -0.00997516 -0.0138995545
0.10419611 -0.0047264155 0.114977404 0.043960318 -0.029243153 0.050618403 0.10742709 0.13167943
-0.111718535 -0.007185315 -0.033866152 -0.072894104 0.05362451 -0.08670995 -0.10978389 0.016772544
0.082302555 -0.07709839 0.03022242 -0.08855169 -0.06344336 0.10050739 -0.049012486 0.005828816
0.0068338118 -0.0075861677 0.03403167 0.047549002 0.10214807 -0.009318909 0.08528029 0.027719444
0.10557107 0.058900148 -0.008026213 0.020449204 0.09225227 0.026388627 0.10949395 0.06451874
-0.087447084 0.05133766 0.08336789 -0.012956103 0.052890927 0.031253602 0.077002816 -0.029830115
0.07471092 -0.11284662 0.022219414 0.09256811 0.064050056 -0.0022741174 -0.014777185 0.01004304
0.005550922 0.048253845 -0.020170067 -0.048623566 0.014033488 -0.041050714 0.097685084 0.09328662
0.008179446 -0.107740924 -0.008597098 0.059562873 -0.09026708 0.09365464 -0.03593474 0.038704094
0.09724551 0.12301824 -0.10795176 0.014176846 -0.099771045 0.018187772 -0.04168495 -0.077188276
0.0053828205 -0.012207992 0.0078056767 -0.0870266 0.06491084 -0.0484091 -0.088174015 0.042022206
0.11550937 -0.033130955 0.0010706006 -0.069569156 0.07718238 0.08793791 -0.00958131 -0.069464326
-0.00786819 -0.008321074 0.024095654 -0.0995329 -0.10349702 0.02191116 0.10207753 -0.014461969
0.10851452 -0.06581459 -0.027921388 0.03235899 -0.011877443 -0.058432333 0.040586032 0.123622395
0.10738851 -0.07263076 0.05539149 -0.11484497 0.0889167 -0.04602049 0.0458898 -0.068005346
0.0689502 -0.08392416 0.012489443 -0.11429768 -0.07774522 0.07378239 -0.09747581 -0.07485713
-0.050704475 0.054321744 0.04368886 0.0873308 -0.06651352 0.086031824 0.06498024 0.02462837
0.0015990203 0.08806179 0.13097918 -0.129704 0.052998524 -0.0025699975 -0.049712773 0.054794643
00000000: 059b b3bd 9201 b5bd b027 103d 67d9 c33d
00000010: 1434 093d 0578 013e 31d4 ebbd 2ad5 87bd
00000020: 1283 17bd d20e a33c 54c5 ffbd a92a b1bd
00000030: 5f7e 423d bc32 08bd bda1 313d 92da aa3d
00000040: 8719 ecbd 0eb2 423c d41f b43d 4fe1 33bd
00000050: 8866 65bd c2f5 bfbd b1f3 efbd 8ceb 9ebd
00000060: e757 f2bc 42c9 d03d 1c46 663d 90e9 9d3d
00000070: 0109 e0bd bb0e 153e 86a7 463d 76cd 4c3d
00000080: fad6 01be 7466 613c ce38 edbd 61af b8bc
00000090: ac95 1bbe c85d 1e3d f2d0 f23d 2cd9 c6bd
000000a0: 1729 4a3c 27d8 7ebd 747a d23d 376d 033a
000000b0: 1998 0bbc 8c0a 343d f7ad bcbd d3be e63d
000000c0: 7198 ffbc 555a 8abd b4b1 93bd 9f46 423d
000000d0: 1e3a 243e b97f 0d3e 3f6d 933d 399f 0a3e
000000e0: ddbb 243e 60ac 4e3d fa12 7c3d 69e7 d6bd
000000f0: 8640 0dbe bb3d c33b 987e 893c 4c1a 5d3d
00000100: 29df 44bd bc99 8c3d a50a 703d 5443 01be
00000110: beb1 933d b5a7 553d e1a7 823d c4cb 313d
00000120: 18c0 d7bc 2e4d c2bd 61e4 e33c fc95 18bc
00000130: 8738 e7bd 46a5 b2bb df8a bbbb 6bb4 a13d
00000140: 668a 343d ef87 1f3d e586 f03d 64a2 b33d
00000150: 4606 cdbc 1bac 0fbd e311 f53d 35fd 85bd
00000160: 8bd4 8abd 166a 95bd 243e 0e3e 3d79 c63d
00000170: 4dfb b23d dac6 b3bd 53ff 4c3d 09bd b9bc
00000180: 34c4 8e3c 081d 1c3d 5366 2ebc 324b 773d
00000190: a084 e23d 322b bbbd 887a e93d cb39 1cbc
000001a0: a4ec 0abe 8b1f b5bd c848 42bd 4fe4 85ba
000001b0: c181 8ebc 5849 67bc da6e 23bc f5ba 63bc
000001c0: c564 d53d 0ce0 9abb 4679 eb3d bc0f 343d
000001d0: 568f efbc 3e55 4f3d bc02 dc3d f9d6 063e
000001e0: b0cc e4bd ca72 ebbb 3cb7 0abd 8149 95bd
000001f0: 60a5 5b3d fc94 b1bd 60d6 e0bd 9366 893c
00000200: 3e8e a83d c3e5 9dbd 0295 f73c 975a b5bd
00000210: 98ee 81bd d2d6 cd3d 51c1 48bd a7ff be3b
00000220: 2bee df3b 6395 f8bb cb64 0b3d bec2 423d
00000230: 0233 d13d 56ae 18bc 6fa7 ae3d e313 e33c
00000240: a535 d83d 4841 713d 6180 03bc 1785 a73c
00000250: c2ee bc3d f62c d83c 5d3e e03d 6722 843d
00000260: 7517 b3bd 7047 523d c9bc aa3d d645 54bc
00000270: 28a4 583d c703 003d a7b3 9d3d 495e f4bc
00000280: 0a02 993d 211c e7bd 7d05 b63c 5994 bd3d
00000290: ad2c 833d 5c09 15bb 021c 72bc 908b 243c
000002a0: 82e4 b53b d3a5 453d b23b a5bc 8129 47bd
000002b0: b7ec 653c cb24 28bd 1e0f c83d 0e0d bf3d
000002c0: 1503 063c 46a7 dcbd d8da 0cbc 33f8 733d
000002d0: f2dd b8bd 01ce bf3d 4e30 13bd 2f88 1e3d
000002e0: a728 c73d fdf0 fb3d d015 ddbd 0046 683c
000002f0: c354 ccbd 86fe 943c d7bd 2abd e314 9ebd
00000300: 5f62 b03b 0804 48bc c3c6 ff3b 013b b2bd
00000310: f9ef 843d 9f48 46bd 9494 b4bd 7a1f 2c3d
00000320: 2d90 ec3d 53b4 07bd 6553 8c3a 467a 8ebd
00000330: cc11 9e3d ca18 b43d edfa 1cbc 5043 8ebd
00000340: 95e9 00bc 1d55 08bc 4064 c53c e8d7 cbbd
00000350: 3ff6 d3bd 087f b33c 060e d13d e5f1 6cbc
00000360: dc3c de3d cdc9 86bd 65bb e4bc dc8a 043d
00000370: 9b99 42bc be56 6fbd 8a3d 263d bd2d fd3d
00000380: 82ee db3d 70bf 94bd 30e2 623d d733 ebbd
00000390: f519 b63d fb7f 3cbd f1f6 3b3d 6346 8bbd
000003a0: c335 8d3d 6ee0 abbd 85a0 4c3c e714 eabd
000003b0: e338 9fbd 391b 973d 66a1 c7bd b24e 99bd
000003c0: 7faf 4fbd 7a80 5e3d 17f3 323d 7eda b23d
000003d0: 3e38 88bd 7431 b03d 5c14 853d 6fc1 c93c
000003e0: 3896 d13a bd59 b43d 681f 063e 20d1 04be
000003f0: fb14 593d 676d 28bb 9f9f 4bbd 5970 603d

bias f4 [5]
0.004799251 0.040753286 -0.055414774 -0.034892503 -0.083381385
00000000: 0943 9d3b ebec 263d 9afa 62bd 71eb 0ebd
00000010: dcc3 aabd
