Policy-Gradients/Poker-Agent/checkpoint_5000.pt (torch, 227359 bytes, 8 tensors)

weight f4 [256, 55]
00000000: 7fc8 96bc 64af 17bd e3f1 d2bd b7af 23bd
00000010: eab8 e33d d498 0c3e 2baf 19bd 91d7 ed3a
00000020: 73a7 e83b fd95 b93d c8cb e33d e39e 1ebd
00000030: 0c7a af3d 07dd 973d 3a63 4cbc 895a f33d
00000040: 5d59 db3d 7ae3 c4bc 50ca 23bd 765b c03d
00000050: 8e64 78bd f5c1 e8bd d3fe 2abd b3ce 00bd
00000060: 2533 dabc 26ba c8bd 8082 b8bd 7e86 bcbd
00000070: 55e1 14bd 406c c93d 81b9 cfbd ba7c 99bc
00000080: 61d4 c4bd 7cdd 163d 3ee7 803d 95d3 d1bd
00000090: a4ab 063d 1185 e1bd 5791 a13d 2c9a 423d
000000a0: 0cb2 5abd fd00 a4bd aadc d63d 7608 85bd
000000b0: f926 9ebd b0eb 3c3d 9ef6 0cbd 7676 ce3c
000000c0: ea58 b5b9 53ff e13b 82f2 d1bd 9aa9 80bd
000000d0: 16d2 233c 6e06 12bd 9a7e f03d 1331 903d
000000e0: 15d9 02be 4993 a73d 9103 e53c 3e1e 0ebe
000000f0: a862 bfbd 421b de3d 1cdb 86bc f60d 3cbd
00000100: 330a 0dbd 6b72 c03d 4a1d 79bd 3b7a 54bc
00000110: d8a1 02be 7886 913d f357 05bc 6c30 bd3d
00000120: fd6c ff3d 959a 05be 0eb0 22bd e2df d43d
00000130: 0883 76bb b5e1 e63d 8210 9dbd e2d6 1d3c
00000140: aeec be3b 9f75 7a3d 0d15 13bd a885 d93d
00000150: 88f5 10bc add0 33bb 2f32 f5bd bda8 ac3d
00000160: 45a5 91bd 69be b33d fb63 42bd 6049 d93c
00000170: 666b f3bd 02e2 963d c6c4 f4bd f1df d8bd
00000180: c45d 38bd 058d 20bd eb1b 043e 117c fdbc
00000190: 90db ae3d fe0b 44bd 4f81 c63d 19c5 9ebc
000001a0: 21a1 9ebd 3b57 d93d 0568 64bd b99c d4bb
000001b0: cc59 843d c25c d1bd 1fa6 c1bd 8506 f33d
000001c0: b296 ab3d 50c1 373d 513f 033e 18d1 8f3d
000001d0: 26bc a03d 197c 353d 8456 8f3c d7ee 01be
000001e0: 52d8 413d 4bb5 b63d 1485 ac3c 9cf9 91bc
000001f0: d079 943d 39f6 153c ea7a 9a3d d033 023e
00000200: 23b2 c8bc 94bc cf3d fe37 dd3a 9830 0d3d
00000210: bdc0 3a3c a3bf ad3d 416f 0abd 682b fabd
00000220: 9225 42bd bbbd 023e 8ec4 24bd 1afc 643d
00000230: 240d debd 4800 2d3c e58a 20bc d2c6 ee3d
00000240: 3931 18bc df7b cebd f6ba bf3d 6c2d 6ebd
00000250: 132f 7abd a004 bc3d d695 01bb 6ea8 913d
00000260: 5f76 ff3d cdda 52bd 45ee 75bd 6dc1 c3bd
00000270: f0ff 4abc 4983 0abe 28f7 093d 780d 03bd
00000280: ffa1 da3d b6af aabd ae16 003e 90cb a7bd
00000290: c15c b03d eb1e abbc 19ee 66bd 6dd4 813d
000002a0: 7b5e d33d 8b8c 6bbd cae7 7abc 670d 713d
000002b0: 92bf b63d 9c96 103e ce56 d8bd 7f67 a23b
000002c0: b5a9 b23d 45bf a4bd fe72 523d cfef fbbd
000002d0: 0ccf 0c3d 17c3 b2bd 53dc fa3c 876f ec3d
000002e0: 9707 88bd bf85 b33d ee5f 0ebe ba60 0a3e
000002f0: 2dcf c33d e1b7 233e 618d 323d 9ae1 ae3c
00000300: 7be8 a4bd ba9e 633d 12e1 e7bc 23e0 9dbd
00000310: e567 4fbc d472 21bd 2db5 b53d 9788 4c3d
00000320: 20ed babc 428f 7dbd 0552 ccbd 1418 9bbc
00000330: 320b c23d bc53 4e3d e97b f8bd 842f 3abd
00000340: 262d 023e cf73 62bd 6005 05be 1ffc 09be
00000350: 04aa 89bc 204b b93d ee55 7c3d eecc 5dbc
00000360: 71f1 b53d ccb9 23bb 4062 833d fa5d 083d
00000370: ed31 f43c b05f e03d 251e ccbd 6980 08be
00000380: 9020 2b3d 2526 dbbd ac55 6cbd fd39 dc3d
00000390: 5480 edbd 05a7 5abd 64ad acbd bd7d e83c
000003a0: ce91 f03d 2def fb3d 1961 1cbd 47c2 83bc
000003b0: e21f 05be 6833 e23d 76dd c43d d9b9 8b3d
000003c0: 5801 ddbd ccbf 4ebd 1c92 10bd 92ba d9bc
000003d0: f6ff 553d 87fa c6bd 6132 d3bc d761 39bd
000003e0: 1ba8 00be 04e5 f8bd 036e ee3d ac2f 823d
000003f0: 445e 933d 7664 fc3b b18e 103d 3886 08be
-0.01840615 -0.0370325 -0.103000425 -0.039962497 0.11119254 0.13730174 -0.03752057 0.0018145909
0.0071000396 0.09061811 0.111228526 -0.038725745 0.085682005 0.074152045 -0.012474829 0.118825026
0.10710404 -0.02403425 -0.039987862 0.09392445 -0.06064277 -0.11365119 -0.041746926 -0.031447124
-0.026635716 -0.0980113 -0.09009266 -0.0920534 -0.036347706 0.098351 -0.10142804 -0.018736232
-0.096108206 0.036832318 0.06294106 -0.10245434 0.032878533 -0.110117085 0.078890495 0.04751031
-0.053392455 -0.08008001 0.10491307 -0.064957544 -0.07722277 0.046123207 -0.03441488 0.025202971
-0.00034589256 0.006896892 -0.10251333 -0.06282349 0.009998819 -0.035650663 0.11742897 0.0704061
-0.12778123 0.08182389 0.027955802 -0.13878724 -0.09344989 0.10845043 -0.016461901 -0.04591175
-0.034433555 0.093968235 -0.060818948 -0.012968595 -0.12757051 0.07105726 -0.0081386445 0.09237751
0.1247196 -0.1304725 -0.03971868 0.10394265 -0.0037614722 0.11273519 -0.07669164 0.009633752
0.0058265543 0.06114733 -0.035908747 0.10621196 -0.008847602 -0.0027437613 -0.119724624 0.08430622
-0.07111601 0.08776552 -0.04745863 0.026524246 -0.11885719 0.07367326 -0.11951594 -0.105895884
-0.045011297 -0.039196987 0.12901275 -0.030942949 0.08537972 -0.047863 0.096926324 -0.019381093
-0.07745577 0.10612341 -0.055763263 -0.0064884094 0.0646244 -0.1022277 -0.09455513 0.11866478
0.08378352 0.04486209 0.12817122 0.07022303 0.078483865 0.044307802 0.017497309 -0.12688766
0.04732544 0.08921298 0.02105955 -0.017819218 0.072497964 0.009152942 0.07542975 0.12715077
-0.024499005 0.1014339 0.0016877649 0.03447017 0.011398491 0.084838174 -0.033797506 -0.1221531
-0.04739911 0.12767689 -0.04022651 0.055904485 -0.1084235 0.010559149 -0.00979874 0.11659016
-0.009289079 -0.1008222 0.09361832 -0.058148786 -0.06108005 0.0918057 -0.0019773147 0.071122035
0.12473749 -0.051478196 -0.060041685 -0.095583774 -0.012390122 -0.13526644 0.033682972 -0.031995267
0.106754296 -0.083342955 0.12508652 -0.08193123 0.086114414 -0.020888766 -0.05637941 0.06339345
0.10320755 -0.05750708 -0.015314052 0.058850672 0.08923258 0.14119953 -0.10563432 0.0049561854
0.08723775 -0.08044294 0.051379196 -0.12301599 0.034377143 -0.08728617 0.030622637 0.1154471
-0.06642073 0.087657444 -0.13903782 0.13513461 0.09561 0.15988113 0.04359186 0.02134781
-0.08052155 0.055571295 -0.028305564 -0.07708766 -0.012659048 -0.03941615 0.08872447 0.04993495
-0.022818148 -0.0619042 -0.099765815 -0.01893238 0.094747916 0.050372824 -0.12133009 -0.04545547
0.12712535 -0.055286225 -0.12990332 -0.13475083 -0.016804703 0.09047532 0.061605386 -0.013537629
0.08883942 -0.002498257 0.06415224 0.033292748 0.029808963 0.10955751 -0.09966687 -0.13330235
0.0417791 -0.10700635 -0.05769889 0.10753248 -0.11596742 -0.05338194 -0.08431509 0.02838027
0.1174656 0.123014785 -0.038178537 -0.01608385 -0.13000444 0.11044961 0.09612553 0.06822557
-0.10791272 -0.05047588 -0.03529559 -0.026578221 0.052246056 -0.09715753 -0.025780858 -0.045259323
-0.12564127 -0.12153056 0.11642077 0.06356749 0.07195714 0.0077024056 0.03529233 -0.1333245

bias f4 [256]
00000000: 506a 083c 94b8 923d 4a5a a6bd 9e68 c73c
00000010: dfe7 60bd 423d 083e af69 75bd d80f 83bd
00000020: 1723 2fbd 9eb6 93bd 1d00 0e3d 0cbe 01be
00000030: b2ab c23d 440e 8b3d 97ab d83d 6d77 f43d
00000040: ac97 febb f0ae d63d f507 713d 37e8 bc3d
00000050: 2ee9 c13d 3a9e 893d 0456 39bd 485e f13d
00000060: d264 843d a420 f4bd 037d 553d fb11 0c3e
00000070: fe7e e0bc 2635 b23d 0226 013e bb13 40bd
00000080: c362 cabb 7596 993d f567 4abc 5706 ae3c
00000090: 3b2d fa3d 2251 89bd 6964 e6bc 2f59 a9bd
000000a0: 3063 f33d 8e7d 113e 68b9 f6bc 3a58 bd3d
000000b0: ce1a 8a3c 90ec fa3d 814c 053e 4ad4 493d
000000c0: a40d f5bd 43bb d93d 5ff1 b9bd e9cf c23d
000000d0: 1d04 083c eaeb ffbd 4cc8 04bc 33f8 b13d
000000e0: 7e1f dbbd 5d0e 7b3d 4cff 00be 8430 dc3c
000000f0: 90a1 ccbd 6dec fdbc be85 9d3c 6ca8 3dbd
00000100: 2bf8 dd3b bfc1 9b3c d649 31bd 763b ec3d
00000110: d84f 583c 6568 ac3d a2ae 07be 5a46 80bd
00000120: 5ca4 cabd 1d9f 503d 771e c2bd 7f4a ea3d
00000130: 04e3 8a3d ceb6 143e a14e b73d 670b d4bd
00000140: 991c 79bb 05f5 f3bc a664 e43d f766 5fba
00000150: 0656 e6bd cdef 9e3d 27ab 363d 9d3e d3bd
00000160: a17c c9bd 5f5c 5f3c 10f9 0dbe 384b 06be
00000170: 68b9 2b3d 07ec 1f3d 1e42 be3b 0ccb 72bd
00000180: a21d a9bd 5098 c23d 52bc 043b fdf9 8f3d
00000190: 1371 04be 06db 063d 7868 67bd 85ed dfbd
000001a0: c5b7 cb3d b641 c23d 9344 03bd cb38 0abd
000001b0: aad8 053e 9f66 efbd 96e2 dbbc d0bb e93d
000001c0: bcd0 b73d 87a1 283c 8144 773b ea66 0c3d
000001d0: 3e59 04be f819 c3bd 8857 f13d c5ae 213d
000001e0: 811d b7bc c0e3 89bd 8627 8f3d e41f f4bd
000001f0: 2dd8 9e3c 12c5 703d 4523 f7bd c4b9 59bd
00000200: 8a6e a23d a0bc bd3d 091f d1bd bcdc 813d
00000210: c0d5 38bb 7fdd 5d3d 3223 32ba b46a 79bd
00000220: 96fb cf3c 5c0e 603d 3f77 e1bc 9f78 9bbd
00000230: 70e8 113d 74da f1bd 463a 9c3d b1eb 55bd
00000240: bc06 cabd c4ff 9ebc edd8 fbbd a671 0a3d
00000250: 6c88 003d a8a2 023e f043 4abd 1be3 053c
00000260: dead 773d b623 e6bd c970 fcbd 1657 023e
00000270: 4c64 833d 94a6 813d 578f cc3d 9395 a6bd
00000280: 70f7 4fbb 6c86 553d 93da 6c3d f49b a73d
00000290: 852f 0c3e 5427 fb3d 857e 49bd 7471 b63d
000002a0: 1f7b 163e 1b5a 913c f1fd f2bd 941a b23b
000002b0: 6ae1 61bd d4fb de3d 5b00 6d3d f885 d93d
000002c0: 5c1c 60bc 4d94 3dbd 7fb7 f1bd 776b 3d3d
000002d0: 0744 053e 53a8 2cbd 172c 82bd 2ea5 c4bc
000002e0: f750 b339 bf87 f4bd 73ec 0d3d f2c8 033e
000002f0: 307c ca3d 4e77 d0bd e21d ecbd 42b4 a83d
00000300: 9685 813c 7a8b fe3d 523c 993d d7b8 b13d
00000310: 6778 503d e46d 8a3c 97b9 dbbc b23f 853d
00000320: c365 74bd a464 8e3c df9d bdbd 3a58 013e
00000330: 1bb6 a53d 671f ebbc c7b5 1a3d 27b1 1e3d
00000340: a477 bcbd 580b 5bbd a6e3 133c bcb3 d33d
00000350: 6e1b 85bd 137f e33d 1990 f9bd e0de f23c
00000360: 8fa5 42bc f481 4abc 0f6e e03c eda5 e9bb
00000370: e641 07be 1ec5 0e3e cfa6 a7bd 9829 473d
00000380: 9856 97bd 9a41 133e 6468 e5bd d014 b93d
00000390: 2821 87bb 3398 f33d c28a cabd 83dd f8bd
000003a0: 5bb1 b63d 505c c33c 0c99 20bd b1ba 743d
000003b0: 7513 51bd 10c7 8fbd 0355 843d 5b83 13bd
000003c0: b880 693d e898 7d3d 1347 9f3c 586d 263d
000003d0: 062d 6cbc aab1 043e 8b9c 68bd a2b7 d83d
000003e0: 7b59 5c3d 3c93 d03d d673 0fbd 2319 0e3d
000003f0: 8679 3d3d 1df9 623d 9b4e 3bbd 19de 0a3d
0.008326128 0.07164112 -0.0812269 0.024341878 -0.05490863 0.13304618 -0.05991524 -0.06399506
-0.042758074 -0.07212566 0.034668077 -0.12670153 0.095054045 0.0678983 0.10579603 0.11936841
-0.0077695455 0.104825854 0.05884548 0.09223979 0.094683036 0.067196324 -0.045248047 0.11785561
0.064645424 -0.11920288 0.052121174 0.13678734 -0.027404305 0.087015435 0.12612155 -0.046893816
-0.006176324 0.074994005 -0.012353887 0.021243257 0.12215658 -0.06704928 -0.028124051 -0.082689635
0.11884153 0.14208052 -0.030117705 0.092453435 0.016858485 0.12252152 0.13017465 0.04927472
-0.11965492 0.106314205 -0.09079241 0.09512312 0.008301762 -0.12496169 -0.008104395 0.08689918
-0.10699366 0.061292995 -0.12597388 0.026878603 -0.09991753 -0.030996526 0.019228812 -0.046303198
0.0067739687 0.019013284 -0.043283306 0.11534779 0.01320263 0.08418349 -0.13250211 -0.062634185
-0.0989463 0.050932992 -0.09478467 0.1143999 0.06781581 0.1452286 0.08950544 -0.10353737
-0.003801143 -0.02977992 0.1115201 -0.0008522118 -0.112468764 0.07760582 0.044596817 -0.10314677
-0.09838224 0.013632863 -0.13864541 -0.13114631 0.041924864 0.039043453 0.0058062216 -0.05927567
-0.08257605 0.095017076 0.002025385 0.07030103 -0.1293376 0.03292372 -0.056496114 -0.10933975
0.09947161 0.094851896 -0.03204782 -0.03374557 0.13070932 -0.11689495 -0.026841443 0.114127755
0.0897536 0.010292417 0.003773004 0.034277834 -0.12924668 -0.095264375 0.117842734 0.039473314
-0.022352936 -0.06732893 0.0698996 -0.11920145 0.01939019 0.05878169 -0.12067274 -0.053155676
0.0793124 0.09264493 -0.102109976 0.0634093 -0.0028203577 0.054166313 -0.00067954056 -0.060892776
0.02538852 0.054701194 -0.027522681 -0.07591366 0.03562206 -0.11809245 0.07628302 -0.052226726
-0.09864566 -0.019409068 -0.12297235 0.03379979 0.031380102 0.12757361 -0.049381196 0.008171822
0.060468547 -0.1123728 -0.123261996 0.12728533 0.064156145 0.063306004 0.099882774 -0.08133998
-0.0031733178 0.052130148 0.057825636 0.081840426 0.13690002 0.122633606 -0.049192924 0.08908358
0.14695404 0.017743161 -0.11864842 0.0054352973 -0.055146612 0.10887876 0.057861667 0.10621256
-0.013678636 -0.04628401 -0.11802577 0.046245065 0.13014232 -0.042152714 -0.06356066 -0.024004545
0.00034201864 -0.11939954 0.034649324 0.12869623 0.09886968 -0.101790056 -0.11529137 0.082375064
0.015810769 0.12428947 0.07482208 0.086778335 0.050896075 0.016898103 -0.026821895 0.065062895
-0.05966736 0.017381974 -0.09258627 0.12631312 0.080913745 -0.028701497 0.037771013 0.038743164
-0.09202507 -0.053477615 0.009026444 0.10337016 -0.064993724 0.11108222 -0.121856876 0.02964729
-0.011880293 -0.012360085 0.02739623 -0.0071303756 -0.13208732 0.13942382 -0.08186113 0.04862365
-0.07389563 0.14380494 -0.112015516 0.09037173 -0.0041238256 0.11894264 -0.09889747 -0.12151625
0.089205466 0.023847729 -0.039208457 0.059748355 -0.051043946 -0.0702039 0.06461527 -0.036013942
0.05700752 0.0619134 0.01944307 0.040631622 -0.014415031 0.12958398 -0.056789916 0.105819
0.053796273 0.10184333 -0.03502258 0.03469194 0.046258472 0.055413354 -0.04572926 0.033903215

weight f4 [128, 256]
00000000: db3c 643d 110f 2b3c 75bb 9c3c fe24 fb3c
00000010: 64b9 6cbd 3e54 413d 4eb5 d73c 91bd 723d
00000020: 6da8 69bc 1963 90bb 0a3b 973c 6eaa 483d
00000030: 0eef 5a3a 59c7 113d b0e5 a6bc 3f73 5b3d
00000040: aa38 663d e71c 1fbb aebe ff3c cef0 50bd
00000050: 9c2f c3bc 5d17 c9bc 2e3c b33c 2078 c9bc
00000060: b26d 1f3d e55f fdbc 55d6 1f3d a222 103d
00000070: 9f23 9b3d 2dc6 f1bc a92a 51bc daf8 ceb9
00000080: 76de 003d ccb4 ab3c 9dc7 973d 22d6 03bd
00000090: b4c4 b43c d5ac a13c 28f9 89bd 03c9 8b3b
000000a0: 3c35 953d 5f84 fbbc 00f3 34bc 7c52 003d
000000b0: 6197 36bd 5a40 193d 16bc 593d e860 713d
000000c0: ae65 1e3d d3b4 883c 41a5 27bc beaf f8bb
000000d0: 9286 76bc 0778 3c3d 062e 79bd 1421 913d
000000e0: e0da 1e3d 5d0c 4d3d 1e26 4e3d b7e0 d9bb
000000f0: 1506 60bd f219 e63c 07fe b5bc 3c70 96bc
00000100: 314a 39bc eb2a b5bb 9638 ecbc db1b ce3c
00000110: 6f88 173d cd69 7a3c 52dd 4abb d1bc 3cbd
00000120: 68eb 863b 7c2c df3c eb8f 0ebd 97b1 39bd
00000130: 0320 a1bc f194 01bd 0f6e 4c3d 7158 573d
00000140: 47db 4b3d 33d3 b6bc abe9 103d 61fe 563d
00000150: fd19 ecbc 0096 65bb 130b 853d c33e 423d
00000160: b3ab 5c3a 9148 593d 11c7 15bd f9e6 83bc
00000170: a238 643d dca3 37bd 2281 7ebc f266 06bd
00000180: dd24 373b 6654 6b3d 4b54 8d3d e37b 183d
00000190: 647d 8bbc d20a 823c 6cf4 2bbd 6678 883d
000001a0: 9192 26bd 107d 34bc bf13 563c f182 f8bc
000001b0: 4c5a 10bd aa28 92bc 5ef2 29bd 6622 493d
000001c0: 41ef 5ebd 1b89 1cbd 08b2 8e3d b567 1b3d
000001d0: d7ba a73a caf2 1c3d ada6 2a3c f2ab 8e3d
000001e0: f993 233d b761 103d 6a0e 543d 0efa eebc
000001f0: e8b1 47bd c1b2 fd3c 0c96 0d3d 96a4 a03c
00000200: b95b 8dbc 5773 d4bc 3a00 d33c f773 9d3c
00000210: 3a56 73bc 713d 5f3d d48a 803d b431 9339
00000220: e92d 35bd 3cf0 7b3d b76d 37bd 7ade 2fbb
00000230: c046 0d3c 8b0d 2b3d ee4f 22bc 5251 983d
00000240: 6e58 853d d263 83bc 0126 1f3d 122c 23bd
00000250: a0fd 9f3c 2682 ee3c 7b2b 36bc da19 72bd
00000260: 9d79 d3bb 106b 4b3d c403 cc3c a75d 8c3b
00000270: c705 e8b9 0bf5 9c3c 9b17 b03c 6aca febc
00000280: 8744 6b3b b6da 44bb 3cb6 0fbd 3b58 883c
00000290: 4ad5 223d 78e8 943c 716d 093d 8d59 c23a
000002a0: 9acf 613d 5d50 513d 7377 4d3b ffb4 76bb
000002b0: 8817 823d 9145 d5bb 1357 62bd 4524 a53c
000002c0: b151 743d 1461 d23b 7f83 273d 2fc4 f13c
000002d0: 6001 13bd 4e73 03bd f878 27bd 00d5 bebc
000002e0: 78f7 24bd 4ac5 9cbc 6149 f5bb e4dc f93c
000002f0: ce13 4d3d f795 583d e4e0 903c 4afc d5ba
00000300: 20e1 ac3c c083 673d cff0 3cbd 84d7 533c
00000310: b750 f23c e47b 53bd 8e16 063c 1bb1 66bd
00000320: 65dd 183d 1f6c 283d 8905 2fbc ff25 3e3b
00000330: 79a1 ddbc 4be2 1ebd 8643 3ebc accf 123d
00000340: 7f30 5f3d 2578 e73c 80cc 53bc f3b2 e93b
00000350: 416d 0cbd 2f14 31bd faea 2fbd a1d2 8f3c
00000360: 8c73 56bc a067 90ba eb5a 5a3c bdec 3b3b
00000370: 51ee 41bd afe6 7b3d a772 76bc 5eb1 523d
00000380: 96c3 61bd 1685 323c 25fb 023d d73f 823c
00000390: d5ca 85bc 3a7b 883d 111e 74bc 420a 463d
000003a0: 21b0 2d3d 3f93 13bd d083 c93c 7e17 103a
000003b0: ab7c 62bd 28e9 2d3d 3659 4ebd d2e2 eb3a
000003c0: 30e7 873c 5db4 e8bc e67e 423d c61a a83d
000003d0: 3752 903d e1cf 583d 59a7 c63b 6aa8 293d
000003e0: fdd4 04bd 7141 3e3c eef1 9cbc b980 08bd
000003f0: 80de 223c 7aee 73bb ea17 2dbd a2ec 13bd
0.0557221 0.010440604 0.019132355 0.030657288 -0.05779399 0.04719948 0.02633157 0.059262816
-0.014261347 -0.0044063446 0.01846077 0.04899066 0.0008351662 0.035590503 -0.020373195 0.053576704
0.056206383 -0.0024278702 0.031218853 -0.0510109 -0.023826413 -0.024547273 0.021879282 -0.024593413
0.038922973 -0.030929515 0.039022762 0.03518928 0.075751536 -0.029513443 -0.012766519 -0.0003947679
0.031462155 0.020960234 0.0741112 -0.032186635 0.022066452 0.019735733 -0.06736976 0.004265906
0.07285544 -0.030702768 -0.011044264 0.031328663 -0.04457796 0.037414886 0.05315789 0.058930308
0.038671188 0.016687786 -0.010232271 -0.0075893095 -0.0150467325 0.046012904 -0.060834907 0.07086387
0.038782954 0.05006062 0.05032932 -0.0066491025 -0.0546933 0.028088544 -0.022215856 -0.018364064
-0.0113091925 -0.005528798 -0.028835576 0.025159767 0.036995348 0.015284014 -0.003095467 -0.046078507
0.004117418 0.027242891 -0.03480522 -0.04533538 -0.019668585 -0.031636182 0.049909648 0.05257458
0.049769666 -0.022317505 0.035379093 0.05248869 -0.028820986 -0.0035032034 0.06496253 0.047423135
0.0008417919 0.05304772 -0.036566798 -0.016101347 0.05571807 -0.044834003 -0.015533717 -0.03281302
0.0027945556 0.057453535 0.06900843 0.037227523 -0.017027564 0.0158743 -0.041981146 0.06663589
-0.04066712 -0.011016145 0.013066231 -0.030335875 -0.035242364 -0.017841656 -0.041490905 0.04910507
-0.05442739 -0.03821669 0.069675505 0.0379407 0.0012796771 0.03831748 0.010415715 0.0696639
0.03993604 0.035249438 0.05177156 -0.02917197 -0.04875365 0.030969026 0.034566924 0.01960973
-0.01725565 -0.025933905 0.025756944 0.019220335 -0.014852101 0.054501954 0.06276479 0.00028075057
-0.044233236 0.061508402 -0.044782367 -0.0026835487 0.008622825 0.041760962 -0.009906752 0.074373856
0.06511007 -0.016038809 0.038854603 -0.03983695 0.019530118 0.029114794 -0.011118765 -0.059106685
-0.0064537064 0.04966265 0.02490414 0.004283625 -0.00044254793 0.019159814 0.021495631 -0.031102378
0.0035899 -0.0030037588 -0.0350859 0.016643634 0.03975419 0.018177256 0.033551637 0.0014827714
0.055129625 0.05110203 0.0031351715 -0.0037644503 0.063521445 -0.006508537 -0.05525882 0.020158896
0.05964822 0.006420264 0.04089689 0.029512493 -0.035889983 -0.032092385 -0.04088685 -0.023294926
-0.040275067 -0.019137044 -0.007485554 0.030500837 0.050067715 0.052877393 0.017685361 -0.0016325798
0.021103442 0.05652213 -0.04612809 0.012929801 0.029579503 -0.051631823 0.008184088 -0.056321245
0.037320513 0.041118737 -0.010682472 0.0029014347 -0.027054535 -0.03879003 -0.0116127785 0.035842583
0.05448961 0.028255532 -0.012927175 0.007131928 -0.03428388 -0.04323214 -0.0429487 0.01755649
-0.013089072 -0.0011017211 0.013327341 0.0028675043 -0.047346417 0.061499294 -0.015041984 0.05143868
-0.055118166 0.010895988 0.03197779 0.015899582 -0.01633207 0.066641286 -0.0148997465 0.048349626
0.042404298 -0.036029097 0.024598986 0.00054966647 -0.055294674 0.042458683 -0.050378047 0.0017996675
0.016589731 -0.028406316 0.0474843 0.08208232 0.07046931 0.052932624 0.00606243 0.041420378
-0.032429684 0.011612282 -0.01915833 -0.033325884 0.009940743 -0.0037221 -0.042259134 -0.036114343

bias f4 [128]
00000000: 39e0 efbc 26e5 67bb 3d3f 7f3d ba6e 983c
00000010: 5b9e 093d a668 5c3c 9a66 f338 13b1 9abc
00000020: 1f00 e83c dd86 0abd a38b 023d 1f35 2ebd
00000030: 6090 25bd 8b2e cb3c cf31 3c3c 9d7a 8abc
00000040: 46f9 f03c 565c 16bd 770a 4f3d c55b d83c
00000050: 2056 413d 7872 293d bf63 62bd a483 62bd
00000060: 7532 353d 51bf e9bc 95c4 2fbd 6860 223d
00000070: 3130 88bd ae94 173d ea28 6c3d c70e 713d
00000080: eced f53a dd88 3e3d d31a 2c3b 5cb1 0dbd
00000090: 8571 3b3d 1d64 943c a99b 68bc cf33 d93c
000000a0: 3ea7 413d 425c d4bc 2e8b 243d 1a8b dfbc
000000b0: 7de3 eb3b 5bc8 403d 22df 373d edb0 2bbd
000000c0: bd3e 1ebd d112 813b 243d 543c 5e74 41bd
000000d0: c5ff 3abd 6551 2e3d cb6b c53c ecd1 e03c
000000e0: d22a 6e3d 784f 88bc fee1 debc 9f0f 4a3d
000000f0: 3125 58bd b681 26bd 3f74 643c 7bf9 683c
00000100: 6fcd 76bc 2b9b c5bb 5a99 103d 3868 2fbd
00000110: dcec 233d 725c 21bd 954a fd3b 8f19 a2bc
00000120: f58e 19bc 0009 f438 f162 013c d82b 873c
00000130: 26f0 393b cbdb 8c3d 4478 4d3d 335c 353b
00000140: bc07 613d 1706 743d f059 683d 7373 b43c
00000150: 3d51 77bd 50db 533d 7513 5ebd e1ef b6bc
00000160: 4475 61bc 805e 2f3c eca4 7f3d 4626 163c
00000170: 2b7b 10bd 07f8 563d 55a1 0c3d 93da db3c
00000180: 8338 153d 99f3 c23c 64cd 1a3d 3c7f 063d
00000190: 1e29 17bd 2caf 37bd 5a8b 5bbd 37ed 2abd
000001a0: 46c1 0d3d d090 1a3d 475e a33c 7250 e6bc
000001b0: 8068 cebc acaf 06bd 2bf6 1e3d 5b52 183d
000001c0: c9b0 fd3c 4ce2 1a3d 874c 223c 985b 44bd
000001d0: 42f4 5abc 8ed2 f2bc 7846 4fbd c520 f93c
000001e0: e306 f73c 12b2 1fbd 63bf 433d 6d55 2c3d
000001f0: 9a6c b63c fd3e 833d dc0e 11bd 681f a03b
-0.029281722 -0.0035384386 0.062316168 0.018607486 0.033598285 0.0134526845 0.00011606254 -0.018883264
0.02832037 -0.033820022 0.03187145 -0.04253113 -0.04042089 0.024802467 0.011486485 -0.01690417
0.029415738 -0.036709152 0.05054709 0.026410947 0.047201276 0.04136893 -0.055270907 -0.055301324
0.044237573 -0.02853361 -0.042912085 0.03964272 -0.06649817 0.037007026 0.057656206 0.058851983
0.0018762923 0.04651724 0.0026261106 -0.03459297 0.045762558 0.018114144 -0.0141972685 0.026513962
0.047278635 -0.025922898 0.040171795 -0.027288008 0.0071987496 0.047066074 0.04489053 -0.041916776
-0.03863405 0.0039390107 0.01295403 -0.047230117 -0.045654077 0.042558093 0.024099251 0.027443849
0.058146305 -0.016639456 -0.02720737 0.049331304 -0.052769843 -0.040651046 0.013943731 0.014219637
-0.015063628 -0.0060304604 0.035302497 -0.042824 0.04002081 -0.039394803 0.007729838 -0.019787578
-0.0093724625 0.00011636503 0.007897125 0.016500399 0.00283719 0.0687786 0.050163522 0.0027673363
0.054939017 0.05957612 0.056726396 0.022027707 -0.06038021 0.051722825 -0.054217774 -0.02233118
-0.013760868 0.010703683 0.06241314 0.009164399 -0.035273712 0.05248263 0.034333546 0.026837623
0.036430847 0.023797797 0.037793532 0.032836184 -0.036904447 -0.04484479 -0.053599693 -0.041730132
0.034608148 0.03773576 0.019942416 -0.028114531 -0.025196314 -0.032882378 0.038808983 0.037187915
0.030968087 0.03781347 0.009905941 -0.047938913 -0.0133639 -0.029641416 -0.050604314 0.030411134
0.030154651 -0.03898818 0.047789942 0.042073656 0.022268582 0.064084984 -0.03541456 0.0048865564

weight f4 [64, 128]
00000000: 60b0 9c3c b521 e23b 8573 c4bb ed1a 8dbd
00000010: da67 723d e511 a13d 1c71 06bd 30a0 20bd
00000020: d8b3 b1bc d81b c23b 32e8 273d b608 32bb
00000030: 6bc7 563d 5005 eb3c 4f51 5a3d aabb 323d
00000040: d8bb 80bd 4476 5e3d 9a0b 11bd 2807 9d3a
00000050: 399d 45bd fa30 853d 7848 673b 213e 813c
00000060: 92e9 443d 2237 99bd 6ff2 6abd bdd2 b4bd
00000070: 777a 8b3d 8230 1d3b 8e7a a8bd c87e 823d
00000080: 511d 61bd d3e8 20bd 4691 6abd 18ab ba3d
00000090: 82e4 053d c608 813c d025 9cbd 2de0 1f3d
000000a0: d894 46bc 2856 acbd cd79 4fbd cde3 69bd
000000b0: b649 703d 9fd5 833c 990a 39bc c608 5ebc
000000c0: 96ce b13d 2673 0e3b 421f bc3c 782b 713d
000000d0: df97 52bd 01b0 48bd bd1e 253c 5fc5 20bb
000000e0: 0d72 073d 90cf 973d fc2d 6fbd 4632 093d
000000f0: def4 c33d b336 49bb 5ff3 963d 67ca d93c
00000100: 2181 93bd abea 3e3c 0e56 1dbd a7db 43bc
00000110: 5987 8c3d d244 c23d 31f7 20bd 27ba 3d3d
00000120: 1d20 703d a72d acbd 81f5 5e3d 413c 8abd
00000130: 7749 a83d 8dd5 51bd 6c75 aabc 8791 1f3d
00000140: 1b92 553d 936d af3d 621f 85bd 290a 933d
00000150: 425c 6d3d ccf2 9cbd 5095 8dbc 4469 a5bc
00000160: 231b b03d b463 9bbc 162b 893d 7f8b 4abc
00000170: 7e05 b3bd 166b 1f3c 3331 02ba 5110 f43c
00000180: 891e 16bd f861 123d 33d5 983d 1c33 3dbc
00000190: 35c2 de3c 732e 5f3d 6a04 89bd a50f 9abc
000001a0: 06cd 03bd 1311 5a3d 4ad2 753c 439c 22bd
000001b0: 7159 5c3c 5c73 933c 6cc6 af3c 8660 77bc
000001c0: 6665 a93d 189f 8cbd 2ae3 733c 53c2 bd3d
000001d0: 2cc0 8bbd 947f 1e3d c12d a63d 9994 5a3d
000001e0: 2baf 2abd ea71 87bd d5d8 97bb 6404 d03a
000001f0: 3bc8 38bd 8758 41bd c79f cebc 447b b5bc
00000200: 5cd4 813d 7bb1 0ebd 5613 8b3d a164 be3d
00000210: 1d84 8e3c 35da 57bd c0f4 a83d d93a 003c
00000220: 53de ae3c 41ca 7dbd a8d5 bc3d bb83 7fbd
00000230: 108a 533c 27a3 853d a313 a23d 4be4 aa3d
00000240: 5dbd 3a3d 02dc febb a609 613d ea71 7e3d
00000250: 0891 cf3c bb3a d7bc 7806 a43d c8cf 9e3d
00000260: 324b 63bd f826 a73d f65d 943d 4fe2 28bd
00000270: cb19 a3bc e392 68bd 4ccb 953d c84d 0bbd
00000280: f8bb 243d da17 27bd 7c3f 863c d115 80bd
00000290: 1109 82bd 6532 8dbd 5e47 c53b 281f 0cbc
000002a0: aacc 15bd 019d 82bd f7e5 7bbd a838 7abd
000002b0: 9cc0 12bd 779d d8bb 534b 443c effc 3cbd
000002c0: a1f7 8cbd a164 993d d961 4b3c 893a b63d
000002d0: 2186 a3bd ea5d 0e3b 7ffc ba3d 0e0b 843d
000002e0: a350 093d fd34 ac3d 8638 8b3d 1804 973d
000002f0: 454b 7bbd 4695 8fbd 1d70 b2bd adfd febc
00000300: f77e 9abc 4037 4d3d 5d30 e83b 5c55 c33c
00000310: f37a 35bc 12f5 9c3d 1b46 77bd 1f23 c03d
00000320: 3373 72bd 5f2c ebbb 5377 75bb a7b1 343d
00000330: 0ff7 eebc 9b60 0cbd f26d 82bd b525 7a3d
00000340: c7fa 04bd a7e0 6e3d f22f 8a3a 6115 31bb
00000350: a6f1 4cbd c7ff f4bc c559 86bd 0dcc a6bc
00000360: 9830 c23d 8098 5a3a 1cab 053d 57e7 ab3d
00000370: 0c02 d5bc 5155 d13a 7bc4 ebbb 74af 9bbd
00000380: 3d43 923b b42a cebb 4817 7b3d da78 d1bc
00000390: c5da 513d b152 543c 8ddc 423d 68cc 113d
000003a0: fb44 a7bd 8b81 3abd 482f a13d 53bb a1bd
000003b0: bea7 a83d fd9c 20bd 391e 943d 5c49 6dbd
000003c0: 2a5b 8abd be08 0a3d dac0 533d e91e 9e3c
000003d0: 1515 b5bc c26e a3bd f6db 76bd 846b 5abd
000003e0: c043 13bd 7811 ff3c d87e 303b c576 75bd
000003f0: 60b9 cc3d 9015 303d a126 4c3d bbcf 023d
0.01912707 0.006900991 -0.0059952163 -0.06889901 0.05918107 0.07864741 -0.032822713 -0.039215267
-0.021692201 0.0059237294 0.040992923 -0.0027165837 0.052436274 0.028689057 0.0533002 0.043636
-0.06285828 0.054312006 -0.035411455 0.0011980282 -0.048245642 0.06503482 0.0035290997 0.015776696
0.048074313 -0.07481219 -0.05736011 -0.08829258 0.06810468 0.0023985212 -0.082265005 0.06371838
-0.0549596 -0.03928454 -0.05726745 0.09114665 0.032688625 0.015751254 -0.076244 0.03903215
-0.012120448 -0.084148705 -0.050653268 -0.057102013 0.058664046 0.016093073 -0.011294031 -0.013551896
0.08681981 0.0021736114 0.022964124 0.058879346 -0.051414367 -0.048995975 0.010078129 -0.0024531705
0.03306775 0.07412636 -0.058393463 0.03349521 0.09568189 -0.003070277 0.07370638 0.02658577
-0.07202364 0.011652629 -0.038412146 -0.011954225 0.06861753 0.09485783 -0.03929824 0.046320107
0.058624376 -0.08407145 0.05443335 -0.06749774 0.08217137 -0.05122905 -0.020807944 0.038957145
0.05214129 0.085658215 -0.065001264 0.07179672 0.057949312 -0.07663497 -0.017283112 -0.020191796
0.08598926 -0.01896844 0.06697671 -0.01236236 -0.08741282 0.009730121 -0.00049664377 0.029792937
-0.036650214 0.03573796 0.074625395 -0.01154783 0.027192215 0.054487657 -0.06690295 -0.018806288
-0.032177947 0.05323894 0.01500375 -0.039699804 0.013449059 0.017999344 0.02145692 -0.015098697
0.08271293 -0.06866282 0.014885703 0.0926558 -0.06823763 0.038695887 0.081141956 0.05336437
-0.04167096 -0.06613524 -0.0046340027 0.0015870449 -0.04511283 -0.047203567 -0.025222672 -0.022153504
0.063393325 -0.034837227 0.067907974 0.09296537 0.01739698 -0.052698333 0.08249807 0.00782653
0.021346247 -0.061960462 0.09220439 -0.062381487 0.012911335 0.065252595 0.07913902 0.08344325
0.045590747 -0.007777692 0.054940842 0.062120356 0.025337711 -0.026273122 0.08009046 0.07754475
-0.055491634 0.081617296 0.07244484 -0.04123145 -0.01990976 -0.056780707 0.073141664 -0.034009725
0.040218323 -0.04079423 0.016387694 -0.06254161 -0.063493855 -0.068943776 0.0060204705 -0.00855235
-0.036572136 -0.06377602 -0.06149861 -0.061089188 -0.035828218 -0.006610568 0.011980849 -0.046139654
-0.06883169 0.074898966 0.012413465 0.088978834 -0.079845674 0.0021723458 0.09130191 0.06447421
0.033524167 0.08408544 0.0679789 0.07373828 -0.06135108 -0.070108935 -0.0871279 -0.031126821
-0.01885937 0.05010152 0.0070858435 0.023844413 -0.011076677 0.07663931 -0.060369592 0.09381699
-0.059191894 -0.0071769203 -0.0037455156 0.044114735 -0.029170541 -0.034271818 -0.06368627 0.061071116
-0.032465722 0.058319714 0.0010542853 -0.00270208 -0.05003514 -0.02990712 -0.06560091 -0.02036097
0.09481925 0.00083387643 0.032633886 0.08393734 -0.026001953 0.0015970861 -0.007195053 -0.076018244
0.004463582 -0.0062917117 0.0613015 -0.025570322 0.051234026 0.012959168 0.047573615 0.035595328
-0.08167454 -0.045533698 0.07870346 -0.078970574 0.08235119 -0.039212216 0.07232327 -0.05793129
-0.067556694 0.033699743 0.05169759 0.019301848 -0.02210478 -0.0798011 -0.060268365 -0.05332519
-0.035953283 0.03113626 0.0026931074 -0.05992772 0.09996295 0.042989314 0.049841527 0.03193639

bias f4 [64]
00000000: 0d72 88bd ec47 24bd 0aee 21bd 07d8 90bd
00000010: f5d0 37bd c072 06bd a8a7 8e3c 5360 9f3d
00000020: 22ac 8fbd d6a3 afbc fa2d 51bb 1620 b13a
00000030: 34bb 17bd d7a3 24bd 984a 603d 8d9a 163c
00000040: 8957 a7bd fc2c 053d 2a5b a8bd f3a6 873c
00000050: 8c50 253d 5e3a 483d 6174 a43d 8f6c 23bd
00000060: 0cba d83c 3ce8 573d 4957 fd3c d815 413d
00000070: 8558 5ebd ac52 58bd 6081 573d 1835 263c
00000080: 86b1 893d 0701 903d 8797 40bc eac8 b9bc
00000090: 7679 b83d f93f bcbc 1853 36bd 4e34 b0bd
000000a0: 35a4 acbd 5441 233d edd8 56bd 2742 9ebd
000000b0: cc5a 113d 43c4 0abd 55b2 933d 90f0 c9bb
000000c0: 2c2d 45bd 4916 28bc 8981 babd 1572 333d
000000d0: bed5 b63d 6b2e 9bbc e118 283b a753 103d
000000e0: a559 8abd ac9a 60bd cdd9 b53d 21ea 6ebd
000000f0: 2a31 5ebd 7d2f 573b ff32 bcbd 894d 39bd
-0.066623785 -0.040107653 -0.039533652 -0.07072454 -0.04487701 -0.032824278 0.01741393 0.07782044
-0.070152536 -0.021440428 -0.0031918273 0.0013513591 -0.037043765 -0.040195312 0.05475864 0.009192121
-0.08170993 0.032513604 -0.08220513 0.0165591 0.04036002 0.04888379 0.0803001 -0.03989845
0.026455902 0.05271171 0.03092541 0.047139972 -0.054283638 -0.052813217 0.052613616 0.0101444945
0.06723313 0.07031446 -0.011754877 -0.022678811 0.09007542 -0.022979723 -0.044512838 -0.08603726
-0.084297575 0.039857224 -0.05245297 -0.07727461 0.03548698 -0.033878576 0.072117485 -0.0061627105
-0.048138782 -0.010259219 -0.09106738 0.04380997 0.08927487 -0.018943032 0.0025649595 0.035236027
-0.067553796 -0.054835007 0.08879433 -0.05832875 -0.054246105 0.0032834702 -0.09189414 -0.04523996

weight f4 [5, 64]
00000000: c60d 8fbd 5454 7ebd 5747 4c3c a3e0 553d
00000010: 119d 4d3d 935f da3d b0ad acbd 3ecb 23bd
00000020: 9297 cdbc 2cc5 9b3c d88e bebd b042 7dbd
00000030: eb4e 863d 9817 26bd a33a ee3c a78d 8e3d
00000040: 008f b3bd c644 1ebb c286 de3d 494d dabc
00000050: 75d8 81bd 1218 90bd 52b8 b8bd 7779 93bd
00000060: 7479 66bc 8d83 a43d 2ea9 3a3d e56e 913d
00000070: 5876 c1bd 7ce0 d63d 72ee 013d d342 0b3d
00000080: 048b d5bd 5286 543c c8a8 b8bd daf5 f1bc
00000090: 12ee 02be ac31 2a3d ee07 f43d 367f 72bd
000000a0: 189a 00bd a1d7 7ebd 04a1 9c3d 1624 043d
000000b0: c749 aebc 4cd9 5e3d 5c5b 96bd 1be2 bb3d
000000c0: 40e6 12bc 8467 20bd b9c3 4ebd 1666 0f3d
000000d0: d037 093e dace f43d ca46 6d3d 6139 f83d
000000e0: c7cd 033e 6f7d 703d cb71 2a3d c294 a5bd
000000f0: 4101 f1bd 2ad8 51bc f678 e73c 7b2d 6d3d
00000100: dce5 61bd fe3f 903d 59a6 533d d532 d4bd
00000110: 834f 913d 8bc6 423d 5131 553d 6392 2e3d
00000120: f5fc a3bc d52e abbd 5f2e cd3c d67f 3f3b
00000130: 046e d2bd 2c50 113b d618 a7bc 0d10 863d
00000140: 547e 3d3d 4301 d23c 001f eb3d 6068 b43d
00000150: ca8f 1cbd 7440 fdbc 3e5e e03d af8d 92bd
00000160: c742 80bd b97c 9ebd 02dc fb3d edb2 c73d
00000170: 0ed6 c83d 21a7 8abd e559 253d 2d7b 10bd
00000180: c250 9b3c aa02 113d 27f5 05bc d726 263d
00000190: 7ade e53d 9494 bdbd f466 ec3d ebd8 d63a
000001a0: d491 eabd 93a7 b1bd 4c33 53bd 6225 a53b
000001b0: f292 efbc 262a a4bc a659 cabb 586b 98bc
000001c0: 4217 da3d 3c54 c8ba b8b9 c53d acd8 fc3c
000001d0: 133d e4bc 7add 2d3d 3317 c63d 5864 f63d
000001e0: 234f d6bd 3496 4a3b 90bb 1bbd 2471 87bd
000001f0: 7819 533d b0c4 c0bd 1251 cfbd 027f e53c
00000200: f04d c13d 81f0 86bd fc66 173d 2773 aabd
00000210: 6d91 57bd 8b2f d83d a143 15bd fff7 903c
00000220: 3a2f 3fba 6169 5fbc 89a7 383d 72b2 823d
00000230: 0c20 e63d ac48 71bc 3265 b93d b5a4 013d
00000240: 2417 f13d 4598 813d f837 bdbb 3ca8 073d
00000250: 93e8 c63d 56ad 143d fbde f43d 096b 9f3d
00000260: 0c72 a3bd 2e48 623d efbe b33d 46bf 50bc
00000270: 7417 5d3d daeb 1e3d 1c70 a53d 9fa8 ebbc
00000280: 1ecb ad3d e5d6 dbbd 40ba 043d 5ad6 cb3d
00000290: d318 983d 9653 d9bb f0e6 c1bc 11ab e13c
000002a0: 546f 9a3b d4e9 703d 6528 82bc d3ff 0dbd
000002b0: cff7 923c 521e 35bd 78e8 da3d 1e19 c73d
000002c0: b9a4 d6ba 19d1 c9bd eae2 cebb df2e 7f3d
000002d0: da75 b1bd 772a c73d a191 04bd 5aec 2b3d
000002e0: c31f cf3d 3106 ef3d bda5 d9bd a658 cd3c
000002f0: bebe c1bd ba0f ad3c f024 48bd 06d2 a8bd
00000300: 7bc0 113c d207 b3bb 13cd 783b 5c97 b5bd
00000310: dcc9 933d 5bf0 5abd 2244 a4bd 31e7 4c3d
00000320: 257c f23d b7bc 17bd bf17 0d3c 2273 83bd
00000330: 21de ac3d 7bac ab3d 5f35 86bc 2d77 96bd
00000340: 3602 44ba c6fb 4cbc 5e0f 783c d761 b4bd
00000350: 7b35 d4bd 51a4 e63c 50bb e03d eaeb 7bbc
00000360: 8f3e eb3d 962e 90bd eaf5 01bd f8ec f53c
00000370: 7fd7 61bc 178d 78bd baf4 183d 034d f43d
00000380: 73c0 e83d 1650 92bd ea4a 7d3d 8368 ecbd
00000390: c086 c43d 2e2b 34bd 683e 243d 5c2f 7bbd
000003a0: 3ca8 873d 9deb abbd cb61 083c 2bdd dcbd
000003b0: cd5d a4bd 245d 9a3d 5d8a bfbd 48eb a0bd
000003c0: 93b6 59bd e76e 803d f851 663d 6106 ad3d
000003d0: cebe 91bd d624 a83d ce26 803d 4de2 af3c
000003e0: 0bb9 8abb 0299 b23d ba29 013e 147e fdbd
000003f0: 7838 683d 663d b5bb 968c 4ebd cb0a 4c3d
-0.06985049 -0.06209214 0.012468181 0.052216183 0.05019862 0.106627606 -0.08431566 -0.03998875
-0.025096688 0.019014917 -0.09304589 -0.061831176 0.06558021 -0.040549845 0.029080695 0.06960612
-0.087675095 -0.002414988 0.10865547 -0.02664818 -0.06340114 -0.07035841 -0.09019531 -0.07200902
-0.014067043 0.08032904 0.0455715 0.071012296 -0.094464004 0.10492036 0.03172154 0.033999275
-0.10426906 0.012971478 -0.090165675 -0.029536176 -0.12786129 0.041551277 0.11915575 -0.05920335
-0.031396955 -0.06221736 0.07647899 0.032260977 -0.021275414 0.05440645 -0.07341644 0.091739856
-0.008966029 -0.03916122 -0.050479624 0.035009466 0.13400197 0.11953516 0.057928838 0.12120319
0.12871467 0.058713373 0.041612428 -0.08085014 -0.11767817 -0.012807885 0.02825592 0.0579047
-0.05515085 0.070434555 0.051672313 -0.10361258 0.07095244 0.047552627 0.052048985 0.042620074
-0.02001808 -0.08358542 0.025046526 0.0029220483 -0.1027489 0.002217303 -0.020397585 0.0654603
0.046263054 0.025635367 0.11480522 0.088089705 -0.038223065 -0.030914523 0.10955475 -0.0715593
-0.06262737 -0.07738633 0.122978225 0.09750924 0.09806453 -0.067701586 0.040368933 -0.03527372
0.018959407 0.03540293 -0.008176125 0.040564384 0.11224075 -0.09256855 0.11543074 0.0016391551
-0.11453596 -0.0867454 -0.051562592 0.005039857 -0.029244874 -0.02003963 -0.0061752377 -0.018605873
0.10648967 -0.0015283893 0.09654564 0.030865036 -0.027861154 0.042447545 0.09672394 0.12030858
-0.10464313 0.0030912282 -0.03802067 -0.06613377 0.05153796 -0.09412515 -0.10122885 0.028014664
0.094386935 -0.06588841 0.036963448 -0.08322745 -0.052628923 0.10555943 -0.03644145 0.017696379
-0.0007293109 -0.013635964 0.04508165 0.06381692 0.11236581 -0.014726799 0.090525046 0.031651217
0.11771992 0.06327871 -0.0057744943 0.033119425 0.09712329 0.03629812 0.11956593 0.07784087
-0.07980737 0.055244617 0.08776652 -0.012740916 0.053977445 0.038799144 0.08078024 -0.028766928
0.08486007 -0.10734347 0.032404184 0.09952994 0.0742661 -0.0066322787 -0.02366969 0.027547391
0.0047129784 0.058816746 -0.015888402 -0.0346678 0.01794043 -0.04421837 0.10688871 0.097215876
-0.0016375995 -0.09854335 -0.0063136714 0.06230056 -0.086650565 0.097248964 -0.032365445 0.04197345
0.1011348 0.11671103 -0.10627315 0.025066685 -0.09460209 0.021125663 -0.04886335 -0.08243184
0.008895989 -0.0054635787 0.003796403 -0.0886676 0.07216236 -0.053451877 -0.08020808 0.05002517
0.11840085 -0.037045207 0.008611619 -0.06418444 0.08440805 0.083825074 -0.016382871 -0.0734695
-0.0007477136 -0.012511199 0.015140383 -0.08807724 -0.10361763 0.028154524 0.10973227 -0.0153760705
0.114865415 -0.070401356 -0.031728663 0.030020222 -0.013784288 -0.06068143 0.037342764 0.11928751
0.11364832 -0.071441814 0.06183902 -0.115433715 0.09596014 -0.04398649 0.040098578 -0.061324462
0.06623885 -0.08394549 0.008324097 -0.10784372 -0.080257036 0.075372964 -0.093525626 -0.07857376
-0.053152632 0.06271153 0.056230515 0.08448482 -0.07116471 0.08210151 0.062574014 0.021470213
-0.0042334846 0.0872059 0.12613574 -0.12377563 0.056694478 -0.005531001 -0.050427042 0.04981498

bias f4 [5]
00000000: 53b7 083b 975f 0c3d 0f74 50bd 69cc 09bd
00000010: 364c a1bd
0.0020861223 0.03427085 -0.050891932 -0.033642206 -0.07875864
