Policy-Gradients/Poker-Agent/checkpoint_50000.pt (torch, 227369 bytes, 8 tensors)

weight f4 [256, 55]
0	0xbcf2b205	-0.029625902
1	0xbd0754bb	-0.03303979
2	0xbdc3a1cb	-0.09552344
3	0xbca09e1a	-0.019606639
4	0x3deb2bbd	0.11482952
5	0x3e200da2	0.156302
6	0xbd22768a	-0.03966383
7	0x3d1b0f31	0.037856285
8	0x3df5247a	0.11969848
9	0x3dbc6709	0.0919934
10	0x3df1db3a	0.11809392
11	0x3cc85d04	0.024458416
12	0x3dd3c4fc	0.10340306
13	0x3d7d3efe	0.061827652
14	0x3ce8cad3	0.028417027
15	0x3e2d91ce	0.16950151
16	0x3de9f0f8	0.11422914
17	0xbc7c5b3d	-0.015402612
18	0xb9588a2b	-0.00020650837
19	0x3df57335	0.119848646
20	0xbd9ebc28	-0.07750732
21	0xbe0e38d1	-0.13888861
22	0xbd4f3e09	-0.05059627
23	0xbc314372	-0.010819303
24	0xbc231ef0	-0.009956107
25	0xbde182fa	-0.1101131
26	0xbdcf0012	-0.10107435
27	0xbd899d0a	-0.06719406
28	0xbd35f0a9	-0.044418965
29	0x3db69d43	0.08916714
30	0xbdbe0be5	-0.092796125
31	0x3b4ba6a7	0.0031074674
32	0xbd55c18c	-0.052186534
33	0x3d876e97	0.0661289
34	0x3dc6e746	0.09712081
35	0xbdc00861	-0.09376598
36	0x3cdc99d7	0.026928825
37	0xbdae5214	-0.08511749
38	0x3dade512	0.08490957
39	0x3d3b7c53	0.04577286
40	0xbd35cd9a	-0.04438553
41	0xbdc8f9e1	-0.098132856
42	0x3de5f93a	0.11229177
43	0xbda7456d	-0.08167539
44	0xbd78977f	-0.060691353
45	0x3d51f7d5	0.05126174
46	0xbd14a4f7	-0.036290135
47	0x3cea5045	0.028602729
48	0x3c80e509	0.015734212
49	0x3cbdfdb2	0.02319226
50	0xbe0537b4	-0.1300953
51	0xbd8f9d68	-0.07012445
52	0x3c813cdc	0.01577609
53	0xbce870f3	-0.02837417
54	0x3de9fa8c	0.11424741
55	0x3dae5623	0.08512523
56	0xbdd7f573	-0.105448626
57	0x3dc04920	0.093889475
58	0x3d4b2b51	0.049601857
59	0xbddc4a85	-0.10756401
60	0xbd93c210	-0.07214749
61	0x3df61d23	0.12017276
62	0xbcc6b011	-0.024253877
63	0xbd95e2be	-0.07318638
64	0xbcf8c913	-0.030369317
65	0x3dbb74be	0.09153126
66	0xbd9b5c84	-0.07586005
67	0x3c91e7ed	0.017810786
68	0xbde8220e	-0.113346204
69	0x3da0f427	0.07859068
70	0xbcd6cb64	-0.026220031
71	0x3db45667	0.088055424
72	0x3ded6b12	0.11592688
73	0xbe20771d	-0.15670438
74	0xbdcc1c05	-0.09966282
75	0x3de3e97e	0.111285195
76	0x3c6f9781	0.014623524
77	0x3e24fb90	0.16111588
78	0xbd898c4e	-0.06716214
79	0x3d33dce3	0.043911826
80	0x3ce1ad9f	0.02754861
81	0x3d9c80bd	0.076417424
82	0xbd06747a	-0.032825924
83	0x3df83546	0.12119536
84	0x3c62f574	0.013852466
85	0x3b109952	0.0022064042
86	0xbe02421d	-0.12720533
87	0x3dc2e529	0.09516365
88	0xbdd001e2	-0.10156609
89	0x3cefabe8	0.029256776
90	0xbd30a557	-0.04312643
91	0x3d30b990	0.043145716
92	0xbdc2474f	-0.09486257
93	0x3dab7821	0.08372522
94	0xbe09cee2	-0.13457826
95	0xbdced3bc	-0.10098979
96	0xbd6f3d18	-0.058407873
97	0xbd2ff44c	-0.04295759
98	0x3dedf05b	0.1161811
99	0xbd4784c8	-0.048710614
100	0x3d993396	0.07480542
101	0xbd3cf85d	-0.046135295
102	0x3dcdbb1a	0.100454524
103	0xbd2326d0	-0.039831936
104	0xbd532378	-0.051547498
105	0x3dc9c186	0.09851365
106	0xbd20938b	-0.039203208
107	0xbc99f030	-0.018791288
108	0x3d948ba1	0.072531946
109	0xbd74e8d6	-0.059792362
110	0xbdd0c662	-0.101940885
111	0x3ddc4e56	0.10757129
112	0x3db634e5	0.088968076
113	0x3d7a4e4d	0.06110983
114	0x3e14988a	0.14511314
115	0x3db3d429	0.08780701
116	0x3da247f8	0.07923883
117	0x3da5e57e	0.08100413
118	0x3de9be89	0.11413295
119	0xbdfeae4a	-0.12435587
120	0x3d823fa8	0.06359798
121	0x3e18e4b2	0.1493099
122	0x3d758e59	0.059950206
123	0xbc9ed7ff	-0.019390104
124	0x3df05434	0.117348105
125	0x3d8138b8	0.06309646
126	0x3db0735e	0.086157545
127	0x3e08cf4c	0.13360327
128	0x3c366661	0.0111328075
129	0x3dae95b6	0.08524649
130	0x3bc661fa	0.00605416
131	0x3cf98b3e	0.030461904
132	0x3c632d9f	0.013865857
133	0x3df3aeca	0.11898573
134	0xbbfd15c1	-0.0077235405
135	0xbe091bf9	-0.13389577
136	0xbd7fcb10	-0.062449515
137	0x3e1654d4	0.14680797
138	0xbd448f48	-0.047988206
139	0x3d382ce5	0.04496469
140	0xbdc1913c	-0.094515294
141	0x3c1d3bbf	0.009596764
142	0x3d80f08c	0.06295881
143	0x3decf80c	0.11570749
144	0xbc1146d8	-0.008866988
145	0xbd9fe7ce	-0.07807885
146	0x3dd3f932	0.103502646
147	0xbd08fa42	-0.03344179
148	0xbd7d130a	-0.061785735
149	0x3d98e68b	0.074658476
150	0xbcccbf36	-0.02499352
151	0x3d54c4db	0.05194555
152	0x3e09b726	0.13448772
153	0xbd8035f1	-0.062602885
154	0xbda523f1	-0.08063496
155	0xbdcb8e35	-0.09939233
156	0xbc6d991b	-0.014501835
157	0xbdfd07cc	-0.12355003
158	0x3d4e9e56	0.05044397
159	0xbc58fc5d	-0.013243762
160	0x3dc449f9	0.09584422
161	0xbdbfb14a	-0.09359987
162	0x3e07108b	0.13189904
163	0xbda25788	-0.079268515
164	0x3dc43acb	0.09581526
165	0xbcff7232	-0.031182382
166	0xbd609aa4	-0.054834977
167	0x3d6d1e77	0.05789038
168	0x3dfc9760	0.1233356
169	0xbceff238	-0.029290304
170	0xbb801bad	-0.003909549
171	0x3d62ec92	0.055401392
172	0x3e056a26	0.13028774
173	0x3e767f11	0.2407191
174	0xbdd8de14	-0.10589233
175	0x3c5c2c9c	0.01343837
176	0x3e18cd30	0.14922023
177	0xbd61365d	-0.054983485
178	0x3d251f15	0.040312845
179	0xbdbbe34f	-0.09174215
180	0x3dacfb8d	0.08446417
181	0xbda09a20	-0.07841897
182	0x3d0697f0	0.032859743
183	0x3e166dbe	0.14690301
184	0xbd9acc31	-0.07558478
185	0x3d9ec9e1	0.07753349
186	0xbe0ce82b	-0.1376044
187	0x3dfdebda	0.12398501
188	0x3df197e4	0.11796549
189	0x3e3a6644	0.18203074
190	0x3ce73937	0.028225524
191	0x3c345e3e	0.011008797
192	0xbd84a106	-0.06476025
193	0x3d3f45a1	0.046697263
194	0xbcf96c1d	-0.03044706
195	0xbda2a7c4	-0.07942155
196	0xbb52d9a5	-0.0032173183
197	0x3c0f2acd	0.008738232
198	0x3db4c3ce	0.08826409
199	0x3d61f6c8	0.05516699
200	0xbc84d9a7	-0.016217066
201	0xbd1bc789	-0.03803209
202	0xbd9f874b	-0.07789477
203	0xbc6088f2	-0.013704525
204	0x3dc48899	0.095963664
205	0x3d129e81	0.035795692
206	0xbdfd83c5	-0.12378649
207	0xbd28595e	-0.041100852
208	0x3df1db81	0.11809445
209	0xbd8e64fd	-0.06952856
210	0xbe041a4a	-0.12900653
211	0xbe0c102a	-0.13678041
212	0xbc4e92b2	-0.012608217
213	0x3dd4466f	0.10364997
214	0x3d84bd9a	0.06481476
215	0xbcf569f3	-0.029957747
216	0x3d98739c	0.07443926
217	0xba254647	-0.00063047226
218	0x3d86114c	0.06546268
219	0x3d20e91e	0.039284818
220	0x3d7835a5	0.060598034
221	0x3e033705	0.12813957
222	0xbdb4cb41	-0.0882783
223	0xbe078cf0	-0.13237357
224	0x3d050134	0.03247185
225	0xbde7a593	-0.11310878
226	0xbd213e7d	-0.039366234
227	0x3d85cf9d	0.0653374
228	0xbe413492	-0.1886771
229	0xbd78ba2a	-0.060724415
230	0xbdc7e841	-0.09761096
231	0xbd65b411	-0.056079928
232	0x3daa9126	0.08328466
233	0x3e0cbc60	0.13743734
234	0xbdae3a08	-0.08507162
235	0xbd8957e5	-0.06706218
236	0xbe0f2dd1	-0.13982321
237	0x3ddcbf5c	0.107786864
238	0x3da18456	0.07886569
239	0x3e12efad	0.14349242
240	0xbe1a4d3c	-0.15068525
241	0xbda7fe1a	-0.08202763
242	0xbdbb899e	-0.09157108
243	0xbced8045	-0.028991828
244	0x3c1d3d59	0.009597146
245	0xbdeb69b8	-0.114947736
246	0x3cef929f	0.02924472
247	0xbd6fd2a2	-0.058550484
248	0xbda59be1	-0.08086372
249	0xbdd92d4c	-0.10604343
250	0x3e13fe13	0.1445239
251	0x3d550569	0.052007113
252	0x3d850880	0.06495762
253	0x3d8905ca	0.06690557
254	0x3db4bcc6	0.08825068
255	0xbdd6660f	-0.10468685

bias f4 [256]
0	0x3b969326	0.004595178
1	0x3dba6d70	0.09102905
2	0xbdb7ba81	-0.0897112
3	0x3c87fc6e	0.01659986
4	0xbca94594	-0.02066306
5	0x3e0dac26	0.138352
6	0xbd8369f3	-0.064166926
7	0xbd839dbb	-0.06426569
8	0xbcc2c2d1	-0.023774536
9	0xbd58bf35	-0.052916724
10	0x3ce8f25e	0.028435882
11	0xbdd2f61a	-0.103008464
12	0x3db5fd81	0.08886243
13	0x3d5c48d2	0.053780384
14	0x3e040522	0.12892583
15	0x3e07fcd8	0.13280046
16	0xbc5b2be9	-0.013377168
17	0x3dbf5a5f	0.09343409
18	0x3d542dc3	0.051801454
19	0x3dc3171a	0.09525891
20	0x3dd3aa05	0.10335163
21	0x3dcd1214	0.10013214
22	0xbd44f081	-0.048080925
23	0x3df96712	0.12177862
24	0x3d9407dc	0.072280616
25	0xbdc035e8	-0.09385282
26	0x3d2a7f7f	0.041625496
27	0x3e0459fa	0.12924948
28	0xbcb1e3a7	-0.021714998
29	0x3dbad568	0.09122735
30	0x3e1302eb	0.14356582
31	0xbc81839a	-0.015809823
32	0xbc31dee1	-0.010856361
33	0x3d860d30	0.06545484
34	0xbc792f65	-0.015209054
35	0x3b434628	0.0029796455
36	0x3ddca20b	0.10773095
37	0xbd6601f6	-0.056154214
38	0x3b6b759d	0.0035928257
39	0xbd8026c9	-0.06257398
40	0x3e00e390	0.12586808
41	0x3e2b7a27	0.16745816
42	0xbd1c1389	-0.038104568
43	0x3dcddce6	0.10051899
44	0x3c8e4e7f	0.017371414
45	0x3dec2212	0.11529936
46	0x3e151720	0.14559603
47	0x3da840a4	0.08215454
48	0xbde5b500	-0.11216164
49	0x3e00592b	0.12534015
50	0xbdd2f418	-0.103004634
51	0x3de7ffe8	0.11328107
52	0xbc547fca	-0.01296992
53	0xbe06660d	-0.13124867
54	0x3ba9551a	0.0051676156
55	0x3db4ce10	0.08828366
56	0xbdb61eed	-0.088926174
57	0x3d963fa6	0.07336359
58	0xbdf152ff	-0.117834084
59	0x3d386305	0.045016307
60	0xbdd4f035	-0.10397378
61	0x3b39f562	0.002837502
62	0x3c65850c	0.014008772
63	0xbcc6f6e8	-0.024287656
64	0xba4f46da	-0.0007906981
65	0x3c9575e6	0.018244695
66	0xbd15450d	-0.036442805
67	0x3e22776f	0.15865873
68	0x3cdb5360	0.026773155
69	0x3da50920	0.08058381
70	0xbddbf488	-0.1074
71	0xbd46a62e	-0.048498325
72	0xbda62df8	-0.081142366
73	0x3d3fecf3	0.04685683
74	0xbdc1e654	-0.0946776
75	0x3e17afa5	0.14813097
76	0x3d7c706f	0.061630663
77	0x3e2b5c3c	0.16734403
78	0x3dbb7d9a	0.09154816
79	0xbddb6ba8	-0.10713893
80	0xbcada5f8	-0.021197304
81	0xbc22c457	-0.009934506
82	0x3e019df8	0.12657917
83	0xbb8cf7f5	-0.0043020197
84	0xbdf71b25	-0.12065724
85	0x3d9b85a3	0.075938486
86	0x3d212e70	0.039350927
87	0xbdbb6859	-0.09150762
88	0xbdd7b5c3	-0.10532715
89	0x3cc23f05	0.02371169
90	0xbe0980c9	-0.13428034
91	0xbdefd2df	-0.11710142
92	0x3d86f92e	0.06590496
93	0x3cf5bd8c	0.02999761
94	0x3cb87d72	0.022520754
95	0xbd41042f	-0.04712313
96	0xbdb14968	-0.08656579
97	0x3dac43a5	0.0841134
98	0x3c904846	0.017612588
99	0x3d72a4cb	0.05923919
100	0xbe0e4fad	-0.13897581
101	0x3d3a7e4e	0.04553061
102	0xbd6831cc	-0.056688115
103	0xbdcfb5f7	-0.10142129
104	0x3dd442be	0.103642926
105	0x3de244c1	0.1104827
106	0xbc85c536	-0.016329389
107	0xbced1429	-0.028940277
108	0x3e27ba60	0.1637969
109	0xbdb774be	-0.08957814
110	0xbc95b78f	-0.018276004
111	0x3dede2d3	0.11615529
112	0x3dd6f138	0.104952276
113	0x3d4be293	0.049776625
114	0x3cc199e6	0.023632955
115	0x3cce2040	0.025161862
116	0xbdf671d8	-0.12033433
117	0xbdc19aaf	-0.09453332
118	0x3dd3b1a0	0.10336614
119	0x3ce1bf67	0.027557088
120	0xbd01e98a	-0.03171686
121	0xbd9b65e4	-0.075877935
122	0x3d7681b6	0.060182296
123	0xbdff9750	-0.124800324
124	0x3d21b8f0	0.03948301
125	0x3d510ba4	0.051036492
126	0xbde690d7	-0.11258095
127	0xbd602e62	-0.054731734
128	0x3dc47aa1	0.09593702
129	0x3df02eb4	0.11727658
130	0xbdcc4f7a	-0.099760965
131	0x3dc6ff7c	0.097166985
132	0xbd10de30	-0.035368145
133	0x3d5bcc20	0.053661466
134	0xbb9151d4	-0.0044348035
135	0xbd410371	-0.047122423
136	0x3d598de6	0.05311384
137	0x3d8a8927	0.06764441
138	0xbc43b3b2	-0.011944698
139	0xbda3a4c6	-0.079904124
140	0x3d8ce445	0.068794765
141	0xbdf4e3dd	-0.11957524
142	0x3d7f3c72	0.062313505
143	0xbd3c9f95	-0.046050627
144	0xbda56c6d	-0.08077321
145	0xb9fd7cb7	-0.0004834884
146	0xbdc749ff	-0.097309105
147	0x3d51c356	0.051211677
148	0x3c9c3f0f	0.019073037
149	0x3e205f40	0.15661335
150	0xbd723002	-0.059127815
151	0x3c0b0f2e	0.008487506
152	0x3d38446a	0.04498712
153	0xbdc49d31	-0.096002944
154	0xbe010fbf	-0.12603663
155	0x3dd5d17d	0.10440347
156	0x3d99264f	0.0747801
157	0x3dc8d850	0.09806883
158	0x3df4956c	0.119425625
159	0xbd7caa0a	-0.0616856
160	0x3c9a524d	0.018838072
161	0x3d84f996	0.06492917
162	0x3d993a6a	0.07481845
163	0x3dbc3f4b	0.0919176
164	0x3e098883	0.13430981
165	0x3e00751a	0.1254467
166	0xbd53eb01	-0.05173779
167	0x3dbec110	0.093141675
168	0x3e1a9f56	0.15099844
169	0x3c2cc820	0.01054576
170	0xbdd36500	-0.103219986
171	0x3cf139b2	0.029446457
172	0xbd7af080	-0.061264515
173	0x3dc2c401	0.09510041
174	0x3d9eb743	0.07749798
175	0x3dead773	0.11466875
176	0xbae68d8a	-0.0017589789
177	0xbd77bf75	-0.060485322
178	0xbdd65ab5	-0.1046652
179	0x3da6f105	0.081514396
180	0x3de6f6ae	0.11277519
181	0xbd1a5aa6	-0.037684105
182	0xbd94fea0	-0.07275128
183	0xbd073480	-0.033009052
184	0x3b6ba0d7	0.0035954022
185	0xbdd10650	-0.10206282
186	0x3d806b2a	0.0627044
187	0x3e13f24b	0.14447896
188	0x3de9e71f	0.11421036
189	0xbdd31b92	-0.10307993
190	0xbddc650d	-0.107614614
191	0x3dbcd1fd	0.092197396
192	0x3d191af5	0.037379224
193	0x3de7e048	0.11322075
194	0x3db7930b	0.08963593
195	0x3daa8445	0.0832601
196	0x3d3aedab	0.045636814
197	0x3ccade78	0.024764284
198	0xbd37d9d1	-0.04488546
199	0x3daa406e	0.0831307
200	0xbd7b5116	-0.061356626
201	0x3c787c0a	0.015166292
202	0xbdc488ca	-0.09596403
203	0x3df1ef1c	0.118131846
204	0x3d931aa2	0.07182814
205	0xbce33e2e	-0.02773961
206	0x3c9371ea	0.017998654
207	0x3c91e052	0.01780716
208	0xbd98a3ad	-0.07453094
209	0xbd5e76a8	-0.05431238
210	0x3c3575c9	0.011075445
211	0x3dd7dfbb	0.1054072
212	0xbd1c1fe1	-0.03811634
213	0x3de71958	0.11284131
214	0xbdd6f772	-0.10496415
215	0x3d0bd0eb	0.034134787
216	0xbcc6ec73	-0.02428267
217	0xbc6b6366	-0.01436696
218	0x3d1623f2	0.036655374
219	0x3c56e228	0.013115443
220	0xbde5477a	-0.11195274
221	0x3e223e7f	0.15844153
222	0xbd9772d2	-0.07394947
223	0x3d57b803	0.05266572
224	0xbd5437b6	-0.051810943
225	0x3e23a29a	0.15979996
226	0xbdd1853b	-0.1023049
227	0x3d9e5b05	0.07732204
228	0x3bc43118	0.0059872977
229	0x3de6106b	0.112336
230	0xbdcae9cd	-0.09907875
231	0xbdec63f3	-0.11542501
232	0x3ddeeefc	0.108854264
233	0x3d015cc6	0.031582616
234	0xbc9232c7	-0.017846478
235	0x3dab1384	0.08353332
236	0xbcdee2dc	-0.027207784
237	0xbd6c68c7	-0.05771711
238	0x3dafa904	0.08577159
239	0xbcaf829f	-0.02142459
240	0x3d763a6d	0.060114313
241	0x3d46d795	0.04854544
242	0x3c95c6b0	0.018283218
243	0x3cace1f1	0.021103831
244	0xbd0d6d81	-0.03452826
245	0x3e0b013c	0.1357469
246	0xbcdf5e6f	-0.02726671
247	0x3dd124f3	0.10212126
248	0x3d8ff5f6	0.07029335
249	0x3ded93cb	0.11600455
250	0xbd181b03	-0.037135135
251	0x3d0adef6	0.03390404
252	0x3d5ecadf	0.05439269
253	0x3da76a33	0.08174553
254	0xbcee26e9	-0.029071288
255	0x3d7335eb	0.059377592

weight f4 [128, 256]
0	0x3db4354b	0.08799227
1	0xbc6c0c34	-0.014407206
2	0x3d4696f6	0.04848381
3	0x3d220170	0.039552152
4	0xbd4ceba0	-0.050029397
5	0x3d4d4730	0.050116718
6	0x3d08bf2b	0.033385437
7	0x3da60ec4	0.08108285
8	0xbd129961	-0.035790805
9	0xbcd997ca	-0.026561636
10	0x3d209ce4	0.039212123
11	0x3d56f83b	0.052482825
12	0x3c389d90	0.011268035
13	0x3d35ca62	0.04438246
14	0xbd0e073b	-0.034674864
15	0x3dc054df	0.09391188
16	0x3d649cdd	0.05581366
17	0x3c0fae14	0.008769531
18	0x3d2966d7	0.04135784
19	0xbd692de7	-0.05692854
20	0xbd092f38	-0.033492297
21	0xbd2d4fe3	-0.042312514
22	0x3d2ec854	0.042671517
23	0xbd1af6f9	-0.037833188
24	0x3d20943a	0.03920386
25	0xbd2a46c4	-0.041571394
26	0x3d416374	0.047213987
27	0x3d3d02d2	0.046145268
28	0x3dc3c7f3	0.09559622
29	0xbcf71d0a	-0.030165214
30	0xbd1d6e1a	-0.03843508
31	0x3cd57128	0.026054934
32	0x3cbf9587	0.02338673
33	0x3d4123db	0.047153335
34	0x3dbb44fc	0.09144017
35	0xbd09c28e	-0.033632807
36	0x3cf1e0eb	0.029526195
37	0x3d4c6eb7	0.049910273
38	0xbdd90985	-0.10597519
39	0x3c5193c3	0.012791577
40	0x3d4dd810	0.05025488
41	0xbd42c2c6	-0.04754903
42	0xbaa3fa84	-0.0012510573
43	0x3cd7f170	0.026360244
44	0xbd486d38	-0.048932284
45	0x3d50df0f	0.050993975
46	0x3d2ed685	0.04268505
47	0x3cea1a04	0.028576858
48	0x3d8a037f	0.06738948
49	0x3b462532	0.0030234572
50	0x3c32f30c	0.010922205
51	0xbc966a6e	-0.018361297
52	0xbc230a10	-0.00995113
53	0x3d6f2c1f	0.058391687
54	0xbd97a049	-0.07403619
55	0x3d9a719a	0.07541199
56	0x3d1715de	0.03688609
57	0x3c9b4744	0.01895488
58	0x3d6c02b0	0.05761975
59	0xbce48381	-0.027894737
60	0xbd2300c6	-0.03979566
61	0x3d1e5997	0.03865966
62	0x3c31c744	0.010850731
63	0xbc914b81	-0.017736198
64	0x3a9d64ca	0.0012008187
65	0x3c0fa26e	0.008766754
66	0xbd138151	-0.036011998
67	0xbb90c1e2	-0.004417644
68	0x3cbcded9	0.02305548
69	0x3c6b75e0	0.014371365
70	0x3ceb3237	0.028710468
71	0xbd7dce55	-0.06196435
72	0x3c005320	0.007832319
73	0x3d36d200	0.044633865
74	0xbc1eedef	-0.0097002825
75	0xbd9e55c1	-0.077312
76	0xbc6fdf11	-0.0146405855
77	0xbd51be48	-0.051206857
78	0x3d516d73	0.05112977
79	0x3d99e92c	0.07515177
80	0x3d9cd551	0.076578744
81	0xbd1bf368	-0.038073927
82	0x3cd852ed	0.02640673
83	0x3d8be004	0.06829837
84	0xbd00f46e	-0.031483106
85	0xbbba3fe3	-0.0056838854
86	0x3d7dbc10	0.06194693
87	0x3d69df21	0.057097558
88	0x3bf878f6	0.007582779
89	0x3d69c9bc	0.057077155
90	0xbd2b1dbc	-0.041776404
91	0x3c951320	0.018197596
92	0x3d371f21	0.04470742
93	0xbd54fd04	-0.051999107
94	0xbb4b53ed	-0.0031025365
95	0xbcb70738	-0.02234231
96	0xbb6c6dcf	-0.0036076193
97	0x3d85353c	0.06504294
98	0x3d99d532	0.07511367
99	0x3d3b8976	0.04578539
100	0xbce292b4	-0.027657844
101	0x3c2d008a	0.010559211
102	0xbd5280bc	-0.051392302
103	0x3d4caa92	0.049967356
104	0xbd5f1484	-0.054462925
105	0xbbff8488	-0.0077977814
106	0xbc8d63a9	-0.017259436
107	0xbd52aec3	-0.051436197
108	0xbd7135a4	-0.058889046
109	0xbd0e64c6	-0.034764074
110	0xbd656d0c	-0.0560122
111	0x3d0b1a7e	0.03396081
112	0xbd762159	-0.060090397
113	0xbd8c097b	-0.06837746
114	0x3d8f707b	0.07003876
115	0x3d44d3e7	0.04805365
116	0xbbc087b2	-0.005875551
117	0x3d6932a2	0.056933053
118	0x3c213431	0.009839104
119	0x3d8867af	0.06660401
120	0x3d8036fa	0.06260486
121	0x3d23c60c	0.039983794
122	0x3d5c1819	0.05373392
123	0xbbb073ff	-0.0053849216
124	0xbd84dd16	-0.06487481
125	0x3d57ce95	0.052687246
126	0x3d4cf226	0.05003562
127	0x3cf7ff5f	0.030273138
128	0xbcecfde6	-0.028929662
129	0xbd6da141	-0.05801511
130	0x3d223433	0.039600562
131	0xbb715bfa	-0.0036828504
132	0xbc058636	-0.008149674
133	0x3d960d3b	0.07326742
134	0x3dbae8d7	0.09126442
135	0xbcd58d0a	-0.02606823
136	0xbd8a093e	-0.06740044
137	0x3d6783d8	0.05652222
138	0xbd269874	-0.040672734
139	0x3ba78b2a	0.005113025
140	0xbcb0cb8a	-0.02158143
141	0x3d91bfed	0.07116685
142	0xbbca648e	-0.006176538
143	0x3dccec90	0.10006058
144	0x3d24ce4f	0.040235814
145	0x3c0e18d5	0.008672913
146	0x3c53ffe7	0.01293943
147	0xbd54e077	-0.05197188
148	0x3c2e3d42	0.010634722
149	0x3ced93c1	0.029001119
150	0xbbd6b7e1	-0.006552682
151	0xbd717efd	-0.058958996
152	0xbac16cc0	-0.0014757141
153	0x3d5d6d74	0.05405946
154	0x3d181230	0.03712672
155	0x3bb4c6ee	0.0055168783
156	0x3c7475f6	0.014920702
157	0x3c9618f6	0.01832245
158	0xbcae9d9d	-0.02131539
159	0xbcfc83b8	-0.030824527
160	0x3d12dbae	0.035854034
161	0xbc58a342	-0.013222517
162	0xbd38b294	-0.04509218
163	0x3c35eca2	0.011103781
164	0x3d43dccd	0.047817994
165	0x3c550e45	0.01300389
166	0x3d2ba106	0.04190161
167	0xbb8c213e	-0.0042764237
168	0x3d696f57	0.056990948
169	0x3d5bc51d	0.05365478
170	0x3d35b3d0	0.044360936
171	0xbc5616f9	-0.013067001
172	0x3d6f23f5	0.0583839
173	0xbbcf115a	-0.006319207
174	0xbd8a43d0	-0.067512155
175	0x3bbe8ffb	0.0058155037
176	0x3d9065ac	0.07050642
177	0x3c868119	0.01641898
178	0x3d6db2af	0.058031734
179	0x3c114230	0.008865878
180	0xbcd5b9fa	-0.026089657
181	0xbc667139	-0.01406508
182	0xbd47bc85	-0.04876377
183	0xbcbddcc3	-0.023176556
184	0xbd4780ca	-0.048706807
185	0xbcf0665f	-0.02934569
186	0xbd32498c	-0.04352717
187	0x3c80924b	0.015694758
188	0x3d41cefd	0.04731654
189	0x3dbb02ef	0.09131419
190	0x3d5d2efd	0.05399989
191	0x3aaed5a8	0.0013338821
192	0x3cbdb8a5	0.023159334
193	0x3d831465	0.06400374
194	0xbd633b0a	-0.055476226
195	0x3c693edb	0.014236177
196	0x3d3cb1e0	0.046068072
197	0xbd724784	-0.059150234
198	0x3ad19d5d	0.0015992332
199	0xbda983e2	-0.08277108
200	0x3d3a2e02	0.045454033
201	0x3d7c8ba6	0.061656617
202	0xb9e86606	-0.00044326502
203	0xb9b12c45	-0.00033793054
204	0xbca04917	-0.019566102
205	0xbd33ad90	-0.043866694
206	0x3b150405	0.0022737992
207	0x3d228c87	0.0396848
208	0x3d8afa1b	0.06785985
209	0x3d80c4c9	0.06287534
210	0xbc4f4193	-0.012649911
211	0x3c4292d3	0.011875826
212	0xbcc4f37e	-0.024041887
213	0xbd21f2a2	-0.039538033
214	0x3c175a3c	0.009237822
215	0x3cbe63f0	0.023241013
216	0xbb212afa	-0.0024592266
217	0x3bc4e007	0.0060081515
218	0x3b03e2e3	0.0020124249
219	0x3c715585	0.014729862
220	0xbd6c3702	-0.057669647
221	0x3d804d9b	0.06264802
222	0x3b2d4454	0.0026438432
223	0x3d9ac915	0.075578846
224	0xbd65749d	-0.056019414
225	0xb986db2c	-0.00025721767
226	0x3dad6fc8	0.08468586
227	0x3ca286e5	0.019839713
228	0xba0083ad	-0.0004902434
229	0x3d9d18d6	0.07670753
230	0x3bdcc060	0.0067368
231	0x3d5db8d4	0.054131344
232	0x3d8206a4	0.06348923
233	0xbcc532f3	-0.024072146
234	0x3caf5a6b	0.02140542
235	0xbccf36cb	-0.025294682
236	0xbd9655db	-0.073405944
237	0x3d2c6962	0.04209269
238	0xbda2670f	-0.07929813
239	0x3c94accc	0.018148802
240	0x3c8d3862	0.0172388
241	0xbd006a1f	-0.031351205
242	0x3d56857e	0.0523734
243	0x3dc21162	0.09475972
244	0x3da7f24b	0.082005106
245	0x3d5de77b	0.054175835
246	0xbcfc58fe	-0.030804154
247	0x3d5c5347	0.053790357
248	0xbcf1ebda	-0.029531408
249	0xbbc9081c	-0.006135
250	0xbcfa10d5	-0.030525604
251	0xbca486a6	-0.020083737
252	0x3c90e3fc	0.017686836
253	0xbc794bf9	-0.015215867
254	0xbd4ddfe6	-0.050262354
255	0xbd08ebf1	-0.033428136

bias f4 [128]
0	0xbd23f6d6	-0.040030323
1	0xbbc826ca	-0.0061081396
2	0x3d9285a6	0.07154398
3	0x3c025348	0.007954426
4	0x3ce78b28	0.028264597
5	0x3cde1e5c	0.027114086
6	0xbc24785d	-0.0100384625
7	0xbce4a3a1	-0.027910056
8	0x3d2e85bf	0.04260802
9	0xbc65301e	-0.013988523
10	0x3ce1c95b	0.027561834
11	0xbcd6cb2f	-0.026219932
12	0xbd10e383	-0.035373222
13	0x3d23b6f0	0.039969385
14	0x3cc15c46	0.02360357
15	0xbb6960a2	-0.0035610576
16	0x3cd84dd7	0.026404304
17	0xbcdf4800	-0.027256012
18	0x3d46edaf	0.048566516
19	0x3d513106	0.051072143
20	0x3d1f98cb	0.038964074
21	0x3ce71139	0.028206455
22	0xbd095e83	-0.0335374
23	0xbd0409b2	-0.03223581
24	0x3d722fce	0.05912762
25	0xbd2b18ef	-0.041771825
26	0xbd393f7a	-0.04522655
27	0x3d6ddf27	0.058074143
28	0xbd3a76d1	-0.04552347
29	0x3d40709f	0.046982404
30	0x3d6a119a	0.057145692
31	0x3d935340	0.07193613
32	0x3c996ca8	0.01872857
33	0x3d80fa9f	0.06297802
34	0x3a656a01	0.00087514526
35	0xbd221243	-0.039568197
36	0x3d00b659	0.0314239
37	0x3bc7b3dc	0.006094439
38	0xbcb8fe73	-0.022582268
39	0x3d181da8	0.037137657
40	0x3d360f4b	0.04444818
41	0xbc77860c	-0.015107643
42	0x3d5c1638	0.053732127
43	0xbcdee893	-0.02721051
44	0x3c9b7b84	0.018979795
45	0x3d5e7841	0.0543139
46	0x3d60d236	0.054887973
47	0xbd3cfd9e	-0.046140306
48	0xbd2775a7	-0.040883686
49	0x3cb32398	0.021867558
50	0x3d026fd7	0.03184494
51	0xbd6641a0	-0.05621493
52	0xbce4266a	-0.027850349
53	0x3ce304cf	0.027712254
54	0x3cd5929f	0.026070891
55	0x3cbf1393	0.023324763
56	0x3d8ac6af	0.06776177
57	0xb8169fef	-3.5911737e-05
58	0xbc30ef38	-0.010799222
59	0x3d0f5324	0.0349914
60	0xbd857469	-0.06516344
61	0xbcd67651	-0.026179465
62	0x3cc40eeb	0.023932895
63	0x3a30286d	0.0006719891
64	0x3b984170	0.0046464726
65	0xbc4ab1df	-0.012371509
66	0x3d16ad0b	0.03678612
67	0xbd436035	-0.047699172
68	0x3d3cee46	0.046125673
69	0xbd309e48	-0.0431197
70	0x3b46c12a	0.0030327537
71	0xbd0842c8	-0.033266813
72	0xbc533a1c	-0.012892272
73	0x3cc22ba6	0.023702454
74	0x3cc65451	0.024210127
75	0x3bd87e01	0.0066068177
76	0xbab15afc	-0.0013531144
77	0x3da27812	0.07933058
78	0x3d760a39	0.060068343
79	0xbc1cea54	-0.009577353
80	0x3d31f725	0.043448586
81	0x3d48736b	0.048938196
82	0x3d730973	0.059335183
83	0x3c84eaa2	0.016225163
84	0xbd861dd4	-0.06548658
85	0x3d6d7d94	0.05798109
86	0xbd16983e	-0.036766283
87	0xbc540ee7	-0.012943006
88	0xbc8e6461	-0.017381849
89	0x3c9ba2c0	0.018998504
90	0x3d91ae2d	0.071132995
91	0x3d085ed5	0.033293564
92	0xbc84e508	-0.016222492
93	0x3d25c7fb	0.04047392
94	0x3d2da476	0.04239317
95	0x3d276bfb	0.040874463
96	0x3d521579	0.05129001
97	0x3d0186dd	0.031622756
98	0x3cedb182	0.029015306
99	0x3cef9010	0.029243499
100	0xbcebd157	-0.028786344
101	0xbcf8ae55	-0.030356565
102	0xbd275a3b	-0.040857535
103	0xbd53bdf5	-0.05169483
104	0x3d3909ce	0.045175366
105	0x3d017fb8	0.031615943
106	0x3d09b304	0.03361799
107	0xbc921ecd	-0.017836953
108	0xbccb8369	-0.024842935
109	0xbc96668a	-0.018359441
110	0x3d74f1e1	0.059800986
111	0x3d1164e0	0.035496593
112	0x3ca0937c	0.019601576
113	0x3cf5ad95	0.029989997
114	0x3cf25ce2	0.029585306
115	0xbd4a4209	-0.049379382
116	0xbb27253a	-0.0025504366
117	0xbc5797c0	-0.013158739
118	0xbd5aa474	-0.05337949
119	0x3cae645c	0.02128809
120	0x3d33d207	0.04390147
121	0xbd60247f	-0.054722305
122	0x3d94374c	0.072371095
123	0x3d614d5f	0.055005427
124	0x3c01473f	0.007890522
125	0x3d9ba1be	0.07599209
126	0xbc248ecb	-0.01004381
127	0xbbee0311	-0.007263549

weight f4 [64, 128]
0	0x3d0d1660	0.034445167
1	0x3c7a8a81	0.015291811
2	0xbc2288e6	-0.009920334
3	0xbd7ec17a	-0.062196232
4	0x3d68ff06	0.056883834
5	0x3d9382d3	0.07202687
6	0xbcbdc16b	-0.023163518
7	0xbcea5494	-0.028604783
8	0xbcd9affe	-0.026573177
9	0xbb4d5e5f	-0.0031336767
10	0x3d487935	0.048943717
11	0xbbff61b7	-0.007793631
12	0x3d8e2cf4	0.06942168
13	0x3d194fa9	0.037429485
14	0x3d68bd67	0.056821253
15	0x3d543ce2	0.051815875
16	0xbd59266e	-0.053015165
17	0x3d69ebc9	0.057109628
18	0xbcde5a25	-0.027142594
19	0x3ba4d58f	0.005030341
20	0xbd2a9f26	-0.041655682
21	0x3d926296	0.0714771
22	0x3c87fcc5	0.016600022
23	0x3bc65744	0.0060528833
24	0x3d15fae2	0.036616214
25	0xbd834225	-0.064091004
26	0xbd3fd565	-0.04683437
27	0xbdbea42f	-0.09308659
28	0x3dac26f9	0.08405871
29	0xbc12485c	-0.008928385
30	0xbd916359	-0.07099027
31	0x3d5945ab	0.053044956
32	0xbcd22465	-0.02565212
33	0xbd15d44e	-0.036579423
34	0xbd7a38be	-0.06108927
35	0x3ddc8885	0.107682265
36	0x3d2e2cce	0.042523198
37	0x3ce51a82	0.027966741
38	0xbd8db39c	-0.069190234
39	0x3d06ccc8	0.03291014
40	0xbc36e3cb	-0.0111627085
41	0xbdb508ef	-0.088395946
42	0xbd569aa5	-0.052393574
43	0xbd44f440	-0.048084497
44	0x3d4ecbeb	0.05048744
45	0x3ce9dd04	0.028547771
46	0xbc0e9bc4	-0.00870413
47	0xbc555814	-0.013021488
48	0x3db4a1ce	0.08819924
49	0x3bb36b22	0.0054754177
50	0x3c053067	0.008129216
51	0x3d9786bd	0.07398746
52	0xbd679170	-0.056535184
53	0xbd176c1c	-0.036968336
54	0x3aff6208	0.0019484172
55	0x3baf5c2e	0.005351565
56	0x3cfb206e	0.030655112
57	0x3dafb930	0.085802436
58	0xbd6e0c18	-0.058117002
59	0x3d1774b8	0.036976546
60	0x3db88c90	0.09011185
61	0xbc195e42	-0.009360852
62	0x3d922353	0.07135644
63	0x3d384ac5	0.04499318
64	0xbd9f0588	-0.07764727
65	0x3c52bdad	0.012862605
66	0xbcce8caa	-0.025213558
67	0xbb8c5143	-0.004282148
68	0x3d9b6578	0.07587713
69	0x3dc77c27	0.09740477
70	0xbce989e9	-0.028508143
71	0x3d5a143e	0.05324196
72	0x3d54bb45	0.051936407
73	0xbdb9ec3f	-0.090782635
74	0x3d41b089	0.047287498
75	0xbd72e681	-0.059301857
76	0x3dbbd12a	0.09170754
77	0xbd4a17dd	-0.049339164
78	0xbcfea991	-0.031086715
79	0x3d3e3e4d	0.046446133
80	0x3d6a8843	0.057258856
81	0x3dc68ed1	0.09695209
82	0xbd57c242	-0.052675493
83	0x3db32dfa	0.08749004
84	0x3d740c3e	0.059581988
85	0xbda2bb0e	-0.07945834
86	0xbc79bf49	-0.01524336
87	0xbbbd1f61	-0.005771563
88	0x3dc11b63	0.09429052
89	0xbc733905	-0.0148451375
90	0x3d5ef12e	0.054429226
91	0xbc013ffe	-0.007888792
92	0xbdadd064	-0.08487013
93	0x3c7a9dfd	0.015296456
94	0x3a72ea7e	0.00092665094
95	0x3cacf1a3	0.021111315
96	0xbd0459d2	-0.03231222
97	0x3cc85dcb	0.024458786
98	0x3da7a947	0.08186584
99	0xbc0cb810	-0.008588806
100	0x3d262edd	0.040572036
101	0x3d67b99b	0.05657349
102	0xbd445e7b	-0.047941666
103	0xb703ff00	-7.86758e-06
104	0xbd18f41c	-0.037342176
105	0x3d61d073	0.055130433
106	0x3b1ca4db	0.0023901972
107	0xbd066165	-0.032807726
108	0x3caff2cc	0.02147808
109	0x3c3bdbae	0.01146595
110	0x3ce57be8	0.028013185
111	0xbcb54d75	-0.022131661
112	0x3db34546	0.08753447
113	0xbd77c25a	-0.060488082
114	0x3b5bb4ca	0.0033524507
115	0x3ddf820a	0.10913475
116	0xbd9dcd7d	-0.077052094
117	0x3cadff8f	0.021240024
118	0x3da2ce4a	0.07949503
119	0x3d769fdb	0.060211044
120	0xbd128df3	-0.035779905
121	0xbd6bc00f	-0.05755621
122	0xbb5ce211	-0.0033704082
123	0x3bf857af	0.007578812
124	0xbd07c128	-0.033143193
125	0xbd44ad93	-0.048017096
126	0xbc553155	-0.01301225
127	0xbc81a9bb	-0.015828004
128	0x3db315ca	0.0874439
129	0xbcaf5044	-0.021400578
130	0x3d8adea3	0.06780746
131	0x3dde7df2	0.10863866
132	0x3c9f2c92	0.019430432
133	0xbd769730	-0.060202777
134	0x3dd20f28	0.10256797
135	0x3cdf536c	0.027261458
136	0x3ca582db	0.020203998
137	0xbdb3a5f2	-0.08771886
138	0x3de29370	0.11063278
139	0xbd6a7a76	-0.057245694
140	0x3d2cae53	0.042158436
141	0x3d941445	0.072304286
142	0x3da4e74b	0.08051928
143	0x3da1a58f	0.07892906
144	0x3d826ece	0.063687906
145	0xbc680867	-0.0141621595
146	0x3da035de	0.07822774
147	0x3d9bb39a	0.07602616
148	0x3d2eed3a	0.042706706
149	0xbbd7a24f	-0.006580628
150	0x3df57c98	0.11986655
151	0x3d3eebbc	0.046611533
152	0xbd821be1	-0.06352974
153	0x3dde5094	0.10855213
154	0x3d8fdb44	0.070242435
155	0xbd358c1b	-0.044323068
156	0xbd03b1d9	-0.03215203
157	0xbda4d06a	-0.08047564
158	0x3dc503b1	0.09619845
159	0xbd3a1790	-0.045432627
160	0x3c2abe1c	0.010421302
161	0xbcaae9fc	-0.020863526
162	0x3c502f1c	0.012706544
163	0xbcc1f9e8	-0.023678735
164	0xbd33e39c	-0.043918237
165	0xbd1fa6ba	-0.038977362
166	0x3cbe8657	0.023257418
167	0xbcb37312	-0.021905456
168	0xbd095af3	-0.033534
169	0xbddb14a1	-0.10697294
170	0xbd6ae957	-0.057351436
171	0xbd84e653	-0.06489243
172	0xbd7bc80d	-0.06147008
173	0x3cc75cd8	0.024336264
174	0x3ca38ca5	0.019964525
175	0xbd27f43e	-0.041004412
176	0xbd786d92	-0.06065137
177	0x3d6035fe	0.05473899
178	0xbc475bb3	-0.012167859
179	0x3de676ed	0.11253152
180	0xbdd10f2d	-0.10207973
181	0x3ce1e879	0.027576672
182	0x3d8b75d5	0.06809584
183	0x3daebdf0	0.085323215
184	0x3ce43699	0.027858065
185	0x3dc7dcf2	0.09758939
186	0x3d47c8ec	0.0487756
187	0x3dbca646	0.09211402
188	0xbd7695cc	-0.06020145
189	0xbd5b8524	-0.05359377
190	0xbdb6a315	-0.08917824
191	0x3c5e0192	0.013550179
192	0xbd219b84	-0.039454952
193	0x3d710135	0.05883904
194	0x3d27cb6c	0.040965483
195	0x3d1e7bb9	0.03869221
196	0x3bbc099b	0.0057384497
197	0x3d9c69c2	0.07637359
198	0xbd637685	-0.05553295
199	0x3de47c1c	0.111564845
200	0xbd721217	-0.059099283
201	0xbcc0c1ce	-0.023529913
202	0xbcaf5751	-0.02140394
203	0x3d8f3afb	0.069936715
204	0xbd055a23	-0.032556664
205	0xbd20731c	-0.039172277
206	0xbd827915	-0.06370751
207	0x3d9ceb2b	0.07662042
208	0xbc87b5dd	-0.016566211
209	0x3da35aa4	0.07976273
210	0x3790d2b0	1.7264247e-05
211	0x3cee81ff	0.029114721
212	0xbd318027	-0.043335106
213	0xbcf05f63	-0.029342359
214	0xbd910573	-0.070811175
215	0xbb337102	-0.002738059
216	0x3ddccf6d	0.10781751
217	0xbcacc395	-0.021089355
218	0x3bd649d3	0.0065395623
219	0x3db4bc81	0.08825017
220	0xbd0b7c57	-0.034054127
221	0x3cb79343	0.022409087
222	0x3be0b3d1	0.0068573733
223	0xbdcc4aa2	-0.099751726
224	0xbb5bda80	-0.0033546984
225	0xbcd2dc6c	-0.025739871
226	0x3da10fa5	0.07864312
227	0xbce4ea53	-0.027943766
228	0x3d3bcb14	0.045847967
229	0x3cf4cc3b	0.02988254
230	0x3dab0506	0.083505675
231	0x3d80aff8	0.062835634
232	0xbdc747ed	-0.09730516
233	0xbd4e56e5	-0.050375838
234	0x3d58d22f	0.05293482
235	0xbd9c19da	-0.07622118
236	0x3dcfd578	0.10148138
237	0xbd820076	-0.06347744
238	0x3d9ef17e	0.07760905
239	0xbd6c83f5	-0.05774303
240	0xbd42b342	-0.047534235
241	0x3d56d68f	0.052450713
242	0x3d0f14fb	0.034932118
243	0x3d3ba6c0	0.045813322
244	0xbd1c009d	-0.038086522
245	0xbdda26fb	-0.10651966
246	0xbd80e166	-0.06292991
247	0xbd0f0b03	-0.03492261
248	0xbd0c2197	-0.03421172
249	0x3d45308b	0.048141997
250	0xbb251d7f	-0.0025194583
251	0xbdaaa74d	-0.08332691
252	0x3df11fb7	0.11773627
253	0x3c902b61	0.01759881
254	0x3d9cc068	0.07653886
255	0x3d491384	0.049090877

bias f4 [64]
0	0xbd8a54f8	-0.06754488
1	0xbd251494	-0.040302828
2	0xbc5a84d7	-0.013337336
3	0xbd8ff62d	-0.07029376
4	0xbd1329f2	-0.035928674
5	0xbcd1adf5	-0.025595644
6	0x3cd1a105	0.025589475
7	0x3da61acc	0.0811058
8	0xbd9953ef	-0.07486712
9	0xbcfeee58	-0.03111951
10	0xbac6077d	-0.0015108433
11	0x3c4e7186	0.012600308
12	0xbd07dcfc	-0.03316973
13	0xbd213040	-0.039352655
14	0x3d6d8a26	0.057993077
15	0x3d024aae	0.0318095
16	0xbdb1521a	-0.08658238
17	0x3d343a5b	0.044000965
18	0xbdafa01f	-0.085754625
19	0x3caeb36c	0.02132579
20	0x3d31dbb4	0.043422416
21	0x3d3bdb0f	0.045863207
22	0x3dbae410	0.09125531
23	0xbd4f4b8c	-0.050609156
24	0x3cdbf7e6	0.026851606
25	0x3d78ebbb	0.060771685
26	0x3d3bdc01	0.04586411
27	0x3d3991cf	0.04530507
28	0xbd678030	-0.056518734
29	0xbd6825aa	-0.056676544
30	0x3d863565	0.06553153
31	0x3cad27db	0.021137169
32	0x3d683ebf	0.056700464
33	0x3d9e3082	0.07724096
34	0xbcc1cbb1	-0.023656698
35	0xbba62200	-0.005069971
36	0x3db58ee5	0.088651456
37	0xbce1de17	-0.027571721
38	0xbd3e1791	-0.046409193
39	0xbda1ebc7	-0.07906299
40	0xbdc2ad00	-0.095056534
41	0x3cf1c32b	0.029512009
42	0xbcfb54b3	-0.030680036
43	0xbda88dc0	-0.08230162
44	0x3d493166	0.049119376
45	0xbd28e76e	-0.041236334
46	0x3d8561d4	0.065128
47	0xbb2adc5c	-0.0026071286
48	0xbd79d6db	-0.060995918
49	0xbc30e37a	-0.010796422
50	0xbda1cf37	-0.07900851
51	0x3d730915	0.059334833
52	0x3dcb4531	0.099253066
53	0xbc2b9617	-0.010472796
54	0x3cc01774	0.023448683
55	0x3d6cffba	0.057861067
56	0xbd8a5d54	-0.06756082
57	0xbd8d22b3	-0.06891384
58	0x3dc6be8a	0.09704311
59	0xbd81586d	-0.06315694
60	0xbd3d6bc0	-0.046245337
61	0x3c0f8884	0.008760575
62	0xbdd9fb59	-0.10643644
63	0xbcf945e3	-0.030428832

weight f4 [5, 64]
0	0xbdd9b98d	-0.10631094
1	0xbdcd8070	-0.10034263
2	0x3d1b4c52	0.03791458
3	0x3df83d58	0.121210754
4	0x3ccb7b25	0.024838993
5	0x3e0baa83	0.13639264
6	0xbe055a0a	-0.13022628
7	0xbda16517	-0.078806095
8	0xbd23ba57	-0.03997263
9	0x3ce30dca	0.027716536
10	0xbe0e9fd8	-0.13928163
11	0xbddf7cfa	-0.10912509
12	0x3d5bcc8d	0.05366187
13	0xbcdedfe2	-0.027206365
14	0x3d430ffd	0.04762267
15	0x3daeedef	0.08541476
16	0xbe0647bd	-0.13113303
17	0x3c34b6e4	0.011029933
18	0x3d9a2c68	0.07528001
19	0xbd5e1a2d	-0.054224182
20	0xbd711c25	-0.05886473
21	0xbde617d8	-0.112350166
22	0xbe068a80	-0.13138771
23	0xbda7669d	-0.08173869
24	0xbd2ffc9e	-0.042965524
25	0x3de5abf0	0.11214435
26	0x3d5753d7	0.05257019
27	0x3d8fb2d6	0.07016532
28	0xbe01811d	-0.12646909
29	0x3e3b43d6	0.18287596
30	0x3d4dd5d3	0.050252747
31	0x3d5c5520	0.05379212
32	0xbe14f7c8	-0.14547646
33	0x3c3ed09d	0.011646417
34	0xbe08d2dc	-0.13361686
35	0xbd0b448a	-0.03400091
36	0xbe29a0d8	-0.16565263
37	0x3d2546c4	0.04035069
38	0x3defe9b3	0.117144965
39	0xbdef0150	-0.11670172
40	0x3d377853	0.044792484
41	0xbd85dd6d	-0.06536374
42	0x3dea3d3b	0.1143746
43	0xbc6b5612	-0.0143637825
44	0xbbe60379	-0.007019457
45	0x3d0badc4	0.034101263
46	0xbdddc06e	-0.10827719
47	0x3dfe73b3	0.124244116
48	0xbd1f6cea	-0.038922228
49	0xbdac2550	-0.08405554
50	0xbdaceec9	-0.08443982
51	0x3d499745	0.049216527
52	0x3e317ce4	0.17332798
53	0x3e146a43	0.1449366
54	0x3d96bdb2	0.073604
55	0x3e0d1cc1	0.137805
56	0x3e383a77	0.17991053
57	0x3d4f057b	0.050542336
58	0x3d926046	0.07147269
59	0xbdfc40b6	-0.1231703
60	0xbe2acf07	-0.16680537
61	0x3c51f5d1	0.012814955
62	0x3c96efd6	0.01842491
63	0x3d4ba5ec	0.049718782
64	0xbd11cb46	-0.035594247
65	0x3d98c9ba	0.07460351
66	0x3d775523	0.060383927
67	0xbe164ef6	-0.14678559
68	0x3da3b518	0.07993525
69	0x3d43ac7c	0.047771916
70	0x3d99271c	0.07478163
71	0x3d51822e	0.05114954
72	0xbce09d73	-0.027418828
73	0xbdd46d53	-0.103724144
74	0x3d1289d6	0.03577598
75	0x3a7eb437	0.0009716185
76	0xbde9ad60	-0.11410022
77	0xbc1a3fce	-0.009414626
78	0xbb395178	-0.002827732
79	0x3da8a940	0.08235407
80	0x3d4c533f	0.049884077
81	0x3d3a47a2	0.04547847
82	0x3e0940cf	0.13403629
83	0x3dc00b59	0.093771644
84	0xbc967b3f	-0.018369315
85	0xbced3182	-0.028954271
86	0x3e065a87	0.13120471
87	0xbd745e78	-0.059660405
88	0xbd81f9aa	-0.06346448
89	0xbd9ed9c7	-0.077563815
90	0x3e171aca	0.14756313
91	0x3ddcaa77	0.10774701
92	0x3db561db	0.08856555
93	0xbdf5bcad	-0.11998878
94	0x3d624aa8	0.05524698
95	0xbc9e99e8	-0.019360498
96	0x3cc3881a	0.02386861
97	0x3d317188	0.043321162
98	0xbbafa4e6	-0.0053602336
99	0x3d96d1c6	0.0736423
100	0x3df02556	0.11725871
101	0xbdc19630	-0.09452474
102	0x3de86966	0.11348228
103	0xbb72c490	-0.003704343
104	0xbe278bf5	-0.16361983
105	0xbda9f6a8	-0.08298999
106	0xbd59cc24	-0.0531732
107	0x3b428a83	0.002968461
108	0xbc68eeb4	-0.0142170675
109	0xbbb9809c	-0.0056610834
110	0xbb89ad34	-0.0042015556
111	0xbca412f5	-0.02002857
112	0x3dd5b236	0.10434382
113	0x375ee7f0	1.3286233e-05
114	0x3dfd6536	0.1237282
115	0x3d451dbb	0.048124056
116	0xbd1647fe	-0.03668975
117	0x3d4fadd5	0.05070289
118	0x3de2c834	0.11073342
119	0x3e09d336	0.13459477
120	0xbe000bc1	-0.12504484
121	0xbc406174	-0.011741985
122	0xbd194d52	-0.037427254
123	0xbd884680	-0.06654072
124	0x3d81b728	0.063337624
125	0xbdb136f1	-0.08653057
126	0xbdec1a9d	-0.115285136
127	0x3ccbb6c2	0.02486742
128	0x3db06f4f	0.086149804
129	0xbd9a900b	-0.07547005
130	0x3ce24406	0.027620327
131	0xbdca8c7c	-0.098900765
132	0xbd792c41	-0.06083322
133	0x3dc6fcb7	0.0971617
134	0xbd4070ee	-0.0469827
135	0x3beaad4d	0.0071617723
136	0x3c2ff56b	0.010739665
137	0xbc09108e	-0.008365763
138	0x3d1272b8	0.035753936
139	0x3d458e19	0.048231218
140	0x3dcb763a	0.09934659
141	0xbc37f87a	-0.011228675
142	0x3daa278e	0.08308326
143	0x3cd13d2a	0.02554186
144	0x3dda7eaf	0.10668694
145	0x3d714da4	0.058911934
146	0xbc4fa182	-0.012672784
147	0x3cb27058	0.021782085
148	0x3db99229	0.09061081
149	0x3ce6b958	0.02816455
150	0x3de37552	0.111063614
151	0x3d80924d	0.06277905
152	0xbdabdaba	-0.08391328
153	0x3d48c626	0.049017094
154	0x3daa5b3c	0.08318183
155	0xbc50536f	-0.012715205
156	0x3d3a78ca	0.04552535
157	0x3cc23e95	0.023711482
158	0x3d9a38f7	0.075303964
159	0xbcf4a9bb	-0.02986609
160	0x3d9b706a	0.07589801
161	0xbde4249c	-0.11139795
162	0x3cc3fec0	0.023925185
163	0x3dbe899b	0.0930359
164	0x3d841daa	0.064509705
165	0xbad3a599	-0.0016147374
166	0xbc53d9f3	-0.012930381
167	0x3c46a0e9	0.012123325
168	0xb92b9f34	-0.00016367139
169	0x3d3f68d3	0.046730828
170	0xbcc4c538	-0.024019822
171	0xbd40033f	-0.046878096
172	0x3c43e0f3	0.011955488
173	0xbd0ceed1	-0.03440744
174	0x3dca9e15	0.09893433
175	0x3db6293b	0.08894583
176	0x3c7f67af	0.015588685
177	0xbdd751fe	-0.10513686
178	0xbbbf1a79	-0.005832013
179	0x3d6a7297	0.057238188
180	0xbdc301fa	-0.095218614
181	0x3dbbeeab	0.09176382
182	0xbd1a5b50	-0.03768474
183	0x3d14c476	0.036320172
184	0x3db55942	0.08854915
185	0x3e0040a1	0.12524654
186	0xbdde6af4	-0.108602434
187	0x3c80ad1b	0.015707543
188	0xbdc4604e	-0.09588681
189	0x3c6ab37f	0.014325022
190	0xbd2644d7	-0.040592995
191	0xbd96cb70	-0.073630214
192	0x3c88dd74	0.01670716
193	0xbaa430fa	-0.0012526803
194	0x3c53b382	0.012921216
195	0xbdb5c075	-0.08874599
196	0x3d9b7856	0.07591312
197	0xbd3cc97a	-0.04609058
198	0xbd9c06a7	-0.07618456
199	0x3d53c29c	0.051699266
200	0x3ddc4e70	0.10757148
201	0xbd2ba7de	-0.041908138
202	0x3c462284	0.01209319
203	0xbd73cbf5	-0.05952068
204	0x3daab1fc	0.08334729
205	0x3d9f5096	0.077790424
206	0xbbfbabb6	-0.0076803816
207	0xbd84627e	-0.064640984
208	0x3b957ed9	0.0045622406
209	0xbba4fe30	-0.0050351843
210	0x3d0cf335	0.034411628
211	0xbdb39e6a	-0.087704495
212	0xbdc8b3ff	-0.097999565
213	0x3d09e615	0.03366669
214	0x3de64702	0.112440124
215	0xbc4c7cfe	-0.012480972
216	0x3df1df6c	0.118101925
217	0xbd82b8f0	-0.0638293
218	0xbcb5295a	-0.022114445
219	0x3d28e7d4	0.041236714
220	0xbb805c5d	-0.0039172606
221	0xbd77bf0c	-0.06048493
222	0x3d2c4dd5	0.042066414
223	0x3dffd180	0.12491131
224	0x3df3af16	0.11898629
225	0xbd7ccce0	-0.06171882
226	0x3d8b81fb	0.06811901
227	0xbdd388dd	-0.10328839
228	0x3dca9c73	0.098931216
229	0xbd581e92	-0.05276353
230	0x3d3645e4	0.044500247
231	0xbd5f3a7d	-0.05449914
232	0x3d85a3ef	0.065254085
233	0xbda33784	-0.07969573
234	0x3c657189	0.01400412
235	0xbdcf47db	-0.10121127
236	0xbd961d75	-0.07329837
237	0x3dab9297	0.08377569
238	0xbdb005da	-0.08594866
239	0xbd95ad5b	-0.073084556
240	0xbd63bbb8	-0.055598944
241	0x3d885543	0.066568874
242	0x3d6022c7	0.054720666
243	0x3db91dde	0.090389
244	0xbd8272d6	-0.063695595
245	0x3db256c8	0.087079585
246	0x3d8fa217	0.07013338
247	0x3cf0e89f	0.029407797
248	0x3a738766	0.00092898903
249	0x3da79a75	0.08183757
250	0x3e06100c	0.13092059
251	0xbdf1cc2d	-0.118065216
252	0x3d899bb9	0.06719155
253	0xbade5f86	-0.0016965724
254	0xbd66e782	-0.056373127
255	0x3d87ce51	0.066311486

bias f4 [5]
0	0x3b853245	0.0040648305
1	0x3d42e9ca	0.04758624
2	0xbd70a563	-0.058751475
3	0xbcf57d12	-0.029966865
4	0xbdbd58c8	-0.09245449
