Policy-Gradients/Poker-Agent/checkpoint_30000.pt (torch, 227369 bytes, 8 tensors)

weight f4 [256, 55]
0.02155014 -0.08651519 -0.057413395 -0.03626736 0.061762832 0.0425768 0.04622093 0.1952051
0.12855299 0.023695204 -0.121136904 -0.0910273 0.11874442 -0.009880765 -0.011221034 -0.070940845
0.024202842 0.070975885 0.086752385 -0.09973151 -0.014581959 -0.13647825 -0.054046363 0.10972874
0.16676962 -0.047619734 -0.078205176 0.14798635 -0.055743426 0.020076362 0.117441766 0.07732699
0.005515696 0.08757202 -0.09980825 0.027410144 -0.0075202943 -0.109814264 -0.058888413 -0.0016612393
-0.14174108 -0.019777726 0.059478495 0.008782507 -0.1378638 -0.042599924 -0.049789473 0.054552425
-0.013181397 0.044529155 0.13156936 -0.0038965784 -0.10603463 0.063751504 -0.06901766 0.0285884
-0.07559069 0.115416534 -0.009884521 0.10243409 0.14641924 0.0018431026 0.016014354 0.1492484
0.13563202 0.0044532563 0.17611192 0.15272027 0.06895738 -0.016531756 0.055436693 -0.019346656
-0.060896065 -0.088468015 0.10404909 0.032953598 0.033277128 -0.08554518 -0.024739295 0.15370779
0.027072057 -0.10850081 -0.053355742 -0.007785955 -0.08859855 -0.07879309 -0.07942161 0.18818027
-0.059692834 0.14307517 0.044917423 -0.035490654 0.06607419 -0.012271149 0.07876067 -0.11390144
0.07922856 0.011244465 0.120354906 0.09866283 -0.06379688 0.119999364 0.12308441 -0.024682997
-0.0348904 0.08002337 -0.12328681 -0.10573987 0.12831876 -0.06987668 0.037265874 0.022426382
-0.007526487 0.0028887035 0.048987888 0.0822778 0.10909482 -0.13204908 -0.1202134 0.056154013
-0.013749951 -0.17070423 -0.023851426 -0.10091169 -0.053462435 -0.044743266 -0.033325445 -0.08654675
0.107690446 -0.09540712 -0.101737045 0.049114395 -0.030435476 -0.07075153 -0.0023249045 0.012829148
-0.048955105 0.08173631 -0.08526894 0.014412567 0.06792275 -0.09860505 -0.15578316 -0.06591205
0.12640946 -0.036625285 -0.009898058 -0.06589642 -0.043301877 -0.039962042 -0.083527215 -0.059250474
0.012747438 0.07471305 0.09847459 -0.04617652 -0.09957782 0.08311225 -0.0860281 -0.006610469
0.0100766765 0.13161016 -0.043500368 0.008210765 0.13320398 0.11098626 0.11227989 -0.052002143
-0.05626346 -0.017427849 0.027693037 -0.026621688 -0.039138105 -0.1408488 -0.028498089 -0.12338993
-0.10288967 -0.0014704296 -0.07241323 0.019537294 0.091167696 0.0007643465 0.1179621 0.1139405
0.14448865 0.08899145 0.036628768 -0.049618654 -0.055468153 -0.03185648 -0.06879067 0.06270346
0.04143371 0.09594745 0.11633887 -0.08904829 -0.12205896 -0.004315512 0.103749834 -0.046965066
-0.03611354 -0.04153861 0.017129673 -0.078436166 0.0029692894 0.07997102 -0.066095285 -0.01469331
0.016284125 -0.055413876 -0.114450075 -0.014870301 -0.05720705 0.089717895 0.0014743156 0.1114796
0.10597522 0.023501161 0.09799335 0.012153239 -0.1284961 -0.07243624 0.07999714 -0.061742257
0.11387518 0.020552583 -0.06288932 0.111972764 0.09904076 0.034470085 -0.022433508 0.18552662
-0.009200446 -0.04619986 0.14564714 0.11102737 0.12585197 0.011078092 0.14879687 -0.13044609
0.10512359 -0.10920287 -0.05974414 0.14636897 0.16506888 -0.096245624 0.0162733 0.10838892
0.06117723 0.035741247 -0.0045919516 0.046242833 -0.0908051 0.1426668 0.04312269 0.09289031
00000000: eb89 b03c e02e b1bd 4f2a 6bbd 158d 14bd
00000010: 06fb 7c3d 0365 2e3d 2852 3d3d d9e3 473e
00000020: 65a3 033e 721c c23c a016 f8bd 856c babd
00000030: 4630 f33d efe2 21bc 6ed8 37bc 6f49 91bd
00000040: 0a45 c63c ce5b 913d 3cab b13d 0940 ccbd
00000050: 2be9 6ebc f4c0 0bbe b85f 5dbd 76b9 e03d
00000060: a8c5 2a3e e90c 43bd 092a a0bd bc89 173e
00000070: 3853 64bd 2f77 a43c 4f85 f03d 9d5d 9e3d
00000080: 03bd b43b f658 b33d 4568 ccbd 3d8b e03c
00000090: cd6c f6bb 4de6 e0bd fa34 71bd f1bd d9ba
000000a0: 9324 11be e604 a2bc b99f 733d 81e4 0f3c
000000b0: 2b2c 0dbe 427d 2ebd 0cf0 4bbd 5d72 5f3d
000000c0: c9f6 57bc 3464 363d 1eba 063e bd5d 7fbb
000000d0: af28 d9bd 2690 823d 2259 8dbd 3832 ea3c
000000e0: 4bcf 9abd 815f ec3d b0f2 21bc f7c8 d13d
000000f0: edee 153e 4394 f13a 8930 833c 93d4 183e
00000100: 1fe3 0a3e 9fec 913b af56 343e b462 1c3e
00000110: 8739 8d3d 9b6d 87bc 9611 633d e17c 9ebc
00000120: 276e 79bd b82e b5bd b017 d53d 5afa 063d
00000130: 994d 083d 5032 afbd 10aa cabc 9365 1d3e
00000140: 38c6 dd3c ac35 debd 8d8b 5abd 5321 ffbb
00000150: 2873 b5bd 465e a1bd cca7 a2bd 54b2 403e
00000160: 7980 74bd 4c82 123e 55fb 373d a65e 11bd
00000170: e851 873d ee0c 49bc 464d a13d 2845 e9bd
00000180: 9542 a23d b43a 383c a27c f63d bd0f ca3d
00000190: f0a7 82bd 3ac2 f53d ae13 fc3d ff33 cabc
000001a0: 3ce9 0ebd 4be3 a33d cc7d fcbd 258e d8bd
000001b0: fe65 033e 811b 8fbd 1aa4 183d 88b7 b73c
000001c0: c0a0 f6bb 6750 3d3b 86a7 483d 4381 a83d
000001d0: 1b6d df3d e037 07be 7132 f6bd c001 663d
000001e0: 7947 61bc 17cd 2ebe 1164 c3bc caaa cebd
000001f0: 6dfb 5abd b744 37bd 4380 08bd 6c3f b1bd
00000200: cf8c dc3d cf64 c3bd 835b d0bd 2d2c 493d
00000210: d253 f9bc 2ee6 90bd 6d5d 18bb 5931 523c
00000220: 2685 48bd 5e65 a73d 7ba1 aebd b022 6c3c
00000230: 151b 8b3d 72f1 c9bd 9f85 1fbe e6fc 86bd
00000240: 7b71 013e 6504 16bd 772b 22bc b4f4 86bd
00000250: 4f5d 31bd 3daf 23bd 5110 abbd a0b0 72bd
00000260: a1da 503c 2803 993d 0cad c93d 9723 3dbd
00000270: 75ef cbbd c136 aa3d 802f b0bd a29c d8bb
00000280: a518 253c d0c4 063e 712d 32bd 7286 063c
00000290: a066 083e c44c e33d 00f3 e53d 3300 55bd
000002a0: 8474 66bd d9c4 8ebc 82dc e23c ba15 dabc
000002b0: 474f 20bd ab3a 10be d374 e9bc dcb3 fcbd
000002c0: d2b7 d2bd 6ebb c0ba 634d 94bd ad0c a03c
000002d0: 21b6 ba3d 6d5e 483a 1d96 f13d a359 e93d
000002e0: d5f4 133e 2641 b63d 0c08 163d ee3c 4bbd
000002f0: 9332 63bd f17b 02bd 1fe2 8cbd ac6a 803d
00000300: 65b6 293d 1980 c43d 1343 ee3d f35e b6bd
00000310: 0cfa f9bd 2369 8dbb cb7a d43d 715e 40bd
00000320: cbeb 13bd 6424 2abd 8753 8c3c 24a3 a0bd
00000330: 6998 423b d9c7 a33d f75c 87bd 35bc 70bc
00000340: 4966 853c a9f9 62bd cd64 eabd 90a2 73bc
00000350: f151 6abd 04be b73d d33d c13a 6b4f e43d
00000360: 8909 d93d 8285 c03c bdb0 c83d 611e 473c
00000370: 7b94 03be 7459 94bd 8ad5 a33d 73e5 7cbd
00000380: 6437 e93d e45d a83c 1ecc 80bd fa51 e53d
00000390: e2d5 ca3d 8130 0d3d 7ac6 b7bc b1fa 3d3e
000003a0: 78bd 16bc 103c 3dbd 8624 153e 5162 e33d
000003b0: 57df 003e e380 353c 355e 183e a993 05be
000003c0: 094b d73d c1a5 dfbd 45b6 74bd bfe1 153e
000003d0: d107 293e 6d1c c5bd 954f 853c 03fb dd3d
000003e0: fa94 7a3d 6a65 123d 1578 96bb 2069 3d3d
000003f0: 06f8 b9bd 3f17 123e 6ba1 303d 463d be3d

bias f4 [256]
0.06295039 -0.08079166 0.1476266 -0.07591131 0.07109938 0.09993961 -0.020125719 -0.084613204
-0.051250525 0.014266981 -0.09331324 0.09453324 0.052930307 0.019614767 0.14437371 -0.060613036
-0.07560337 0.14061886 0.0115354825 -0.012036765 -0.07988456 0.048395492 0.04581723 0.07084564
0.09332553 0.040722948 0.08914259 0.15932713 -0.0889395 0.036998183 0.17290522 -0.123746194
0.0647078 0.116625875 -0.0409837 0.01565649 -0.08146361 -0.047237806 0.06065024 0.14352947
0.045355726 -0.097722925 0.039551426 0.035091806 0.07276865 -0.027959969 0.09908101 0.027460823
-0.03084492 -0.06037376 0.08587858 0.016899133 -0.10037994 -0.07994239 0.10773916 0.066570505
-0.082950786 -0.021594323 -0.08237492 0.08931297 0.047868203 -0.043708447 0.093749225 0.0038153792
0.020006016 -0.13734004 0.0055820243 0.15758258 -0.1387689 -0.0835303 0.05481495 -0.012938498
0.034167245 0.14835908 -0.020298477 0.08731413 0.046036873 -0.03949826 0.05729326 -0.036780525
-0.119828686 0.014779923 0.09386116 -0.12042121 0.02034882 -0.015016997 -0.013439757 0.12154931
0.12538217 -0.060180083 -0.11244775 0.013586882 0.035147436 -0.11350576 0.018243022 0.14412759
-0.029911388 -0.08308412 -0.02597295 -0.014561866 -0.03792736 -0.12257717 -0.10247252 0.023854708
-0.04620728 0.0072339494 0.008988634 -0.027018964 -0.114570394 0.050973266 0.00046777335 0.03902958
-0.035939723 -0.013217741 0.15182778 0.022099666 -0.039367586 -0.09418203 -0.13620989 0.113973565
0.0023828996 -0.08149551 0.12381503 -0.05819216 0.04930678 -0.105172664 0.13362154 0.04618158
0.041830245 -0.10912832 0.094168015 -0.037027437 -0.029527897 -0.034069058 -0.08655667 0.055505954
-0.0367289 0.08955724 0.08596206 0.11440368 0.090397224 0.07473787 -0.08892351 -0.10479178
-0.03757197 -0.028820248 -0.039397325 -0.032507006 0.061571278 -0.13066353 0.020025615 0.022109445
0.054224253 -0.042203043 0.05503759 0.06821538 0.032669067 -0.042444047 -0.006885804 -0.074253276
-0.019937297 -0.06984322 0.038387205 0.09523357 0.10060904 0.14811021 0.010640844 0.09828133
-0.03737564 0.04354938 -0.015626576 0.071503095 0.1114233 0.08743229 -0.026360156 0.12896813
0.0011834481 -0.06037381 0.09664237 0.121418595 -0.07621871 -0.020312054 0.11882684 0.051097836
0.12449825 -0.011608669 0.07844864 0.001668078 -0.06634472 0.0062546455 -0.08461346 0.10908384
0.05486498 0.120923705 -0.08058874 -0.06691641 -0.09785675 -0.057589408 -0.06259706 0.14965643
0.070928454 -0.00029282726 0.03869567 -0.07004635 0.107546486 -0.06593373 -0.098649964 0.032640282
-0.09632661 0.16947791 0.02431056 0.060168445 0.022383466 -0.011492725 0.10962041 -0.080503814
-0.14740367 -0.08265791 0.045513522 0.061122205 0.065612584 -0.05550154 -0.079370596 -0.06268841
0.004974422 0.018614564 0.061977305 -0.12101954 0.09037417 0.102651596 -0.051907185 -0.003469152
-0.089178324 -0.06177645 0.09643028 0.039778784 0.1036974 -0.11914249 0.098585315 -0.13180085
-0.07195247 0.096820496 -0.10425104 0.08133126 0.048660424 0.09439791 -0.07587278 -0.050033133
-0.030044388 0.07413029 0.10373115 0.12711877 0.02206327 0.078700475 0.002539621 -0.012017253
00000000: 22ec 803d 1976 a5bd 6d2b 173e 6477 9bbd
00000010: 8d9c 913d 23ad cc3d b1de a4bc b049 adbd
00000020: 12ec 51bd 0ec0 693c 031b bfbd a59a c13d
00000030: 73cd 583d 26af a03c b4d6 133e 6045 78bd
00000040: f1d5 9abd 64fe 0f3e 52ff 3c3c da35 45bc
00000050: 849a a3bd 5a3a 463d d9aa 3b3d 8517 913d
00000060: 7521 bf3d 1bcd 263d 6490 b63d a726 233e
00000070: ea25 b6bd 688b 173d 110e 313e a56e fdbd
00000080: 8685 843d 8cd9 ee3d 86de 27bd 0a42 803c
00000090: 65d6 a6bd 6e7c 41bd 636c 783d 64f9 123e
000000a0: edc6 393d f522 c8bd ad00 223d 6dbc 0f3d
000000b0: bb07 953d 4e0c e5bc fcea ca3d 85f5 e03c
000000c0: 7cae fcbc 7a4a 77bd 1ce1 af3d 0d70 8a3c
000000d0: ff93 cdbd d6b8 a3bd 59a6 dc3d 1e56 883d
000000e0: 1ae2 a9bd 94e6 b0bc 2fb4 a8bd b8e9 b63d
000000f0: 7311 443d a107 33bd 98ff bf3d 710b 7a3b
00000100: a8e3 a33c dea2 0cbe 6ae9 b63b 545d 213e
00000110: 6f19 0ebe ef11 abbd a485 603d fefb 53bc
00000120: f4f2 0b3d 71eb 173e fe48 a6bc c0d1 b23d
00000130: 2991 3c3d edc8 21bd 56ac 6a3d 2da7 16bd
00000140: be68 f5bd 7d27 723c 483a c03d 659f f6bd
00000150: 92b2 a63c da09 76bc 6d32 5cbc d8ee f83d
00000160: 2f64 003e 647f 76bd 024b e6bd 839b 5e3c
00000170: c2f6 0f3d b575 e8bd 6472 953c 2f96 133e
00000180: ba08 f5bc 0228 aabd 39c5 d4bc e594 6ebc
00000190: b859 1bbd bd09 fbbd 1ddd d1bd f36a c33c
000001a0: d843 3dbd c40a ed3b 1045 133c e056 ddbc
000001b0: e2a3 eabd 58c9 503d 7a3f f539 7bdd 1f3d
000001c0: 8835 13bd 398f 58bc be78 1b3e 5c0a b53c
000001d0: e83f 21bd 82e2 c0bd 9b7a 0bbe f96a e93d
000001e0: 6c2a 1c3b 1ee7 a6bd bc92 fd3d e75a 6ebd
000001f0: e8f5 493d c464 d7bd 16d4 083e e528 3d3d
00000200: 3156 2b3d ab7e dfbd 29db c03d 15aa 17bd
00000210: 7de4 f1bc ff8b 0bbd a044 b1bd 365a 633d
00000220: 0b71 16bd c969 b73d e00c b03d 7a4c ea3d
00000230: 2e22 b93d 2b10 993d 871d b6bd 139d d6bd
00000240: 11e5 19bd 7118 ecbc 175f 21bd 1126 05bd
00000250: 2a32 7c3d a9cc 05be c20c a43c de1e b53c
00000260: 401a 5e3d 19dd 2cbd 196f 613d 81b4 8b3d
00000270: 00d0 053d cfd9 2dbd 4fa2 e1bb 1a12 98bd
00000280: 8b53 a3bc f609 8fbd e73b 1d3d d109 c33d
00000290: 1d0c ce3d 34aa 173e ef56 2e3c b947 c93d
000002a0: 3317 19bd d660 323d 4e03 80bc 3770 923d
000002b0: e631 e43d b30f b33d 41f1 d7bc 3910 043e
000002c0: ee1d 9b3a 874a 77bd 6fec c53d 50aa f83d
000002d0: 8e18 9cbd 7765 a6bc 7c5b f33d f74b 513d
000002e0: f0f8 fe3d 4932 3ebc aea9 a03d 69a3 da3a
000002f0: bedf 87bd c5f3 cc3b d249 adbd 5967 df3d
00000300: 1aba 603d d9a6 f73d b60b a5bd 790b 89bd
00000310: 1f69 c8bd dfe2 6bbd e332 80bd 893f 193e
00000320: f042 913d 9c86 99b9 5a7f 1e3d 7674 8fbd
00000330: 5541 dc3d 4308 87bd fe08 cabd d1b1 053d
00000340: e346 c5bd 9e8b 2d3e f126 c73c 3073 763d
00000350: 885d b73c fc4b 3cbc aa80 e03d 2fdf a4bd
00000360: fdf0 16be 8d48 a9bd 636c 3a3d 475b 7a3d
00000370: e45f 863d 9555 63bd 0d8d a2bd c862 80bd
00000380: 7a00 a33b 927d 983c eadb 7d3d 18d9 f7bd
00000390: 1816 b93d 003b d23d a19c 54bd b65a 63bb
000003a0: 20a3 b6bd 4e09 7dbd 3d7d c53d 14ef 223d
000003b0: 4d5f d43d fa00 f4bd 19e7 c93d cdf6 06be
000003c0: d15b 93bd d349 c63d 9281 d5bd 0191 a63d
000003d0: 2750 473d b153 c13d 3063 9bbd 8bef 4cbd
000003e0: a61f f6bc 9fd1 973d ff70 d43d 6c2b 023e
000003f0: 08be b43c b72d a13d c56f 263b 03e4 44bc

weight f4 [128, 256]
-0.030987538 -0.07209359 0.06704543 0.07636502 0.030399304 0.00088509993 0.037123717 -0.0045494344
-0.0025256237 0.072473824 -0.0448079 0.05044987 0.035691172 -0.028678501 0.065122336 0.097599275
-0.0650886 0.0756711 -0.025436211 0.06468836 0.018843368 0.047165617 0.06597825 -0.055806253
0.020051416 0.03588994 -0.014531055 0.018068485 -0.09681618 0.0805071 0.05675652 -0.0043375283
0.075112194 0.05674989 -0.033537384 -0.030071653 -0.033564407 0.039379906 -0.021536615 0.029368525
0.01738321 0.09239367 -0.035214394 -0.052654672 -0.06400783 0.017848352 0.03905704 0.032271434
-0.028220717 -0.026111227 -0.015495865 0.06756132 -0.01707045 -0.024836928 0.021903347 -0.06508924
0.01529894 0.037816018 -0.04149596 0.03600702 -0.06260281 0.024399413 0.06504358 -0.032358274
-0.038623445 0.043433167 0.031727165 0.07477085 0.051386774 -0.03725601 0.03304196 -0.034215078
0.023655452 -0.03641062 -0.05032632 -0.060681 -0.022610335 -0.027869897 0.07480641 -0.04902764
0.028580613 -0.017099174 -0.070996195 -0.027987534 -0.05079076 0.03660825 0.060988653 0.07286533
0.051863663 0.03785723 -0.052081626 -0.07244826 0.036339622 -0.019879865 -0.017769877 0.02616819
-0.058592744 -0.022730075 0.03165737 0.0333559 0.037188247 -0.047472943 -0.012522555 -0.03245023
0.010773759 0.036725402 0.022316014 0.07425328 -0.0046693063 -0.032769278 0.032523364 0.006912485
-0.10246164 -0.0151292775 -0.026998224 0.050096598 -0.022659304 -0.09545888 -0.06068709 0.036672987
-0.013852247 -0.004009828 0.022557646 -0.0141226 0.0019880189 0.06249167 0.08461395 0.10336821
-0.06643654 -0.048251726 -0.017899998 -0.01059562 -0.016806647 0.008139093 -0.088554524 -0.0019030361
-0.063275754 0.0623086 -0.021668471 0.064909734 0.039988082 0.017340813 -0.02817202 -0.04012558
-0.012447559 -0.012825878 -0.05232549 0.030670816 -0.026249893 -0.0749376 0.08342012 -0.035887893
0.056435272 0.00074330583 0.018426012 -0.013660169 -0.05702153 0.018623607 0.011537579 0.044888463
-0.019013662 -0.012230193 -0.02661174 0.020522637 -0.055351138 -0.033167593 0.10220261 -0.024794364
-0.01749675 0.016163079 -0.024771085 -0.030290356 -0.010899047 -0.008439258 -0.0022476483 -0.024739455
0.040514443 0.005865578 -0.027483564 -0.08244788 0.0008830033 -0.03224681 -0.027914284 -0.0005253216
0.0839399 -0.015710091 0.032192037 -0.020703346 0.026748972 -0.04553107 0.04071491 0.0469549
-0.007914654 -0.0012452066 -0.08416017 0.046351884 0.025296303 0.033346377 0.07432951 0.07169711
0.0066057565 0.021274388 -0.031092912 -0.08902446 -0.04042223 -0.09723444 -0.08884622 0.0047959005
0.018431451 0.09570244 0.04538303 -0.010928909 -0.052662477 0.0608087 -0.0065711075 0.077138215
0.020889731 -0.03647474 -0.009841855 0.043028817 0.044677 -0.005115551 0.029877525 0.007884543
-0.014560774 0.07578321 -0.039181273 0.040035408 -0.056434378 0.027795903 0.015702104 0.002043837
0.023333356 -0.083592035 -0.021295631 0.08433617 0.038144812 0.018573565 -0.026702182 -0.060954798
0.024567265 -0.021568138 0.01239454 0.021309994 -0.070479915 0.011600822 0.046184298 0.06333148
-0.05117987 -0.025473118 -0.045813978 0.030448666 -0.004894199 -0.026615292 0.002694031 -0.035334457
00000000: 94d9 fdbc cea5 93bd 1d4f 893d 4365 9c3d
00000010: f607 f93c 0d06 683a 0a0f 183d 6c13 95bb
00000020: ef84 25bb 286d 943d 7d88 37bd 86a4 4e3d
00000030: e830 123d 2def eabc dc5e 853d 21e2 c73d
00000040: 2c4d 85bd 73f9 9a3d 9a5f d0bc 557b 843d
00000050: 685d 9a3c bc30 413d 9b1f 873d 1995 64bd
00000060: de42 a43c 5401 133d aa13 6ebc 5c04 943c
00000070: 9047 c6bd e8e0 a43d 8679 683d d321 8ebb
00000080: 6cd4 993d 9372 683d 7f5e 09bd d458 f6bc
00000090: d57a 09bd d34c 213d 8e6d b0bc 4396 f03c
000000a0: 3c67 8e3c e438 bd3d f83c 10bd 6dac 57bd
000000b0: 8a16 83bd b536 923c 46fa 1f3d 0d2f 043d
000000c0: 222f e7bc 36e7 d5bc 5ee2 7dbc 975d 8a3d
000000d0: 54d7 8bbc d076 cbbc a66e b33c 824d 85bd
000000e0: 68a8 7a3c f8e4 1a3d abf7 29bd 197c 133d
000000f0: e735 80bd 47e1 c73c 9235 853d 1c8a 04bd
00000100: 9e33 1ebd fae6 313d 58f4 013d 7621 993d
00000110: f07a 523d c299 18bd 0257 073d 1c25 0cbd
00000120: 14c9 c13c 4d23 15bd f922 4ebd a48c 78bd
00000130: 4f39 b9bc 694f e4bc 1a34 993d 35d1 48bd
00000140: e421 ea3c 9113 8cbc 7466 91bd 1d46 e5bc
00000150: f909 50bd 88f2 153d 3dcf 793d 6b3a 953d
00000160: fe6e 543d 2f10 1b3d 8b53 55bd c15f 94bd
00000170: dbd8 143d 19db a2bc 2292 91bc ac5e d63c
00000180: f2fe 6fbd 6c34 babc 29ab 013d 32a0 083d
00000190: b452 183d fd72 42bd 672b 4dbc 88ea 04bd
000001a0: 6c84 303c 606d 163d 13d0 b63c 1b12 983d
000001b0: fb00 99bb 1439 06bd 3837 053d 2182 e23b
000001c0: 69d7 d1bd cae0 77bc 612b ddbc 1732 4d3d
000001d0: 01a0 b9bc f27f c3bd 0793 78bd 6a36 163d
000001e0: 89f4 62bc e064 83bb d0ca b83c 7a62 67bc
000001f0: 6c49 023b 44f7 7f3d 144a ad3d b6b2 d33d
00000200: e10f 88bd 9aa3 45bd 04a3 92bc 4099 2dbc
00000210: 18ae 89bc d559 053c 135c b5bd 4c6f f9ba
00000220: b896 81bd 4d37 7f3d 1482 b1bc 65ef 843d
00000230: 8bca 233d 520e 8e3c 02c9 e6bc b85a 24bd
00000240: d9f0 4bbc a223 52bc 4153 56bd 5d41 fb3c
00000250: 040a d7bc e278 99bd 2bd8 aa3d 2fff 12bd
00000260: ac28 673d 69da 423a 26f2 963c e7ce 5fbc
00000270: 688f 69bd 8990 983c 1d08 3d3c f7dc 373d
00000280: 8ac2 9bbc 2661 48bc dd00 dabc 171f a83c
00000290: e0b7 62bd beda 07bd 9a4f d13d 8d1d cbbc
000002a0: 5855 8fbc 6f68 843c bbec cabc 7b23 f8bc
000002b0: eb91 32bc d044 0abc 484d 13bb 66aa cabc
000002c0: 79f2 253d 0934 c03b 3625 e1bc 6fda a8bd
000002d0: 5979 673a 3b15 04bd 7fac e4bc bcb5 09ba
000002e0: afe8 ab3d 73b2 80bc ccdb 033d 109a a9bc
000002f0: a920 db3c ca7e 3abd adc4 263d c853 403d
00000300: 77ac 01bc 3336 a3ba 2b5c acbd 79db 3d3d
00000310: 313a cf3c 3696 083d 123a 983d efd5 923d
00000320: 1a75 d83b a047 ae3c 90b6 febc 7552 b6bd
00000330: c891 25bd da22 c7bd 02f5 b5bd ee26 9d3b
00000340: 8efd 963c a4ff c33d 8ee3 393d 2b0f 33bc
00000350: 9cb4 57bd 8b12 793d 7252 d7bb a4fa 9d3d
00000360: f120 ab3c 8966 15bd bb3f 21bc fc3e 303d
00000370: 3bff 363d 5aa0 a7bb b6c1 f43c 2c2e 013c
00000380: 5090 6ebc 3a34 9b3d 8b7c 20bd 2bfc 233d
00000390: bc27 67bd 3cb4 e33c b3a1 803c e5f1 053b
000003a0: 9825 bf3c 4d32 abbd 2d74 aebc 71b8 ac3d
000003b0: bc3d 1c3d 9727 983c 89be dabc bdab 79bd
000003c0: 4a41 c93c aaaf b0bc 7812 4b3c 4c92 ae3c
000003d0: c657 90bd 6011 3e3c bf2b 3d3d efb3 813d
000003e0: fca1 51bd 00ad d0bc 70a7 3bbd 7b6f f93c
000003f0: 845f a0bb 5008 dabc 578e 303b ddba 10bd

bias f4 [128]
0.0570156 0.008362476 0.018036278 0.045746874 -0.015305173 0.015982669 -0.00328256 0.039548244
0.08077832 0.039057683 -0.02866264 -0.002887193 -0.009627218 -0.031806827 0.03462324 0.07748141
0.060814098 -0.06597127 -0.06993651 0.041970726 -0.021335917 -0.041892797 0.026284877 0.026644142
-0.024534272 -0.0066844863 -0.047748037 0.07924975 0.04184805 0.04411633 0.00038882054 -0.05990164
-0.013768555 0.045216918 0.020613873 0.025663145 -0.06368104 -0.01669079 -0.03167683 -0.029714175
0.07629591 -0.02895164 0.009651404 0.076882556 -0.02786139 0.040707015 0.009920509 -0.010186981
-0.006761961 -0.012883618 0.043114178 0.07178208 0.08476725 -0.046968546 -0.05240946 -0.045040667
0.033687085 -0.044720627 0.016636439 0.07533132 -0.030150767 0.052419104 -0.037744787 0.051909544
0.06049927 0.04763817 -0.025066962 0.043239955 0.0095535 0.008990892 0.017831912 0.028695963
0.040355597 -0.04055333 0.041781276 0.006581545 0.04600481 -0.06427629 -0.035361823 -0.025506996
0.02180144 0.031841546 -0.03483145 0.046184257 -0.026933085 0.012695389 -0.041641176 0.062491346
0.046422396 -0.034987632 0.013550071 0.056057423 0.04525707 -0.041810095 0.0055812993 0.042148687
0.0336888 -0.057922382 0.0034753187 0.042159162 -0.005891336 0.024961608 -0.022116126 0.043469556
0.045443002 0.033672515 0.06805908 -0.011767404 -0.048036672 0.031998977 0.0505649 0.043901693
6.6963454e-05 -0.010364884 -0.0032111919 0.046367932 -0.02620032 -0.018104361 -0.03274806 0.016894178
0.05641283 -0.020265486 -0.018357616 0.0592991 0.043291785 0.039732844 -0.0013804528 0.0048034145
00000000: 3189 693d c402 093c d1c0 933c 1361 3b3d
00000010: 8cc2 7abc 16ee 823c 3820 57bb 57fd 213d
00000020: 1b6f a53d f3fa 1f3d eacd eabc 1037 3dbb
00000030: 7bbb 1dbc e047 02bd 19d1 0d3d 93ae 9e3d
00000040: 3418 793d f21b 87bd df3a 8fbd 7fe9 2b3d
00000050: a9c8 aebc c897 2bbd 6253 d73c d144 da3c
00000060: 19fc c8bc 8909 dbbb 7293 43bd b14d a23d
00000070: dc68 2b3d 53b3 343d 9cda cb39 6c5b 75bd
00000080: 8195 61bc 6035 393d 6dde a83c 843b d23c
00000090: 356b 82bd 20bb 88bc 90bf 01bd 246b f3bc
000000a0: 0841 9c3d fd2b edbc ec20 1e3c 9a74 9d3d
000000b0: 923d e4bc 66bc 263d a189 223c 4ce7 26bc
000000c0: 7193 ddbb cf15 53bc 7e98 303d 7c02 933d
000000d0: 749a ad3d 1762 40bd 4dab 56bd 907c 38bd
000000e0: 78fb 093d fa2c 37bd 2449 883c 4f47 9a3d
000000f0: befe f6bc 6ab5 563d 479a 1abd 1a9f 543d
00000100: 15ce 773d 3e20 433d 3b59 cdbc 611c 313d
00000110: 4986 1c3c 894e 133c 3b14 923c cc13 eb3c
00000120: e94b 253d 401b 26bd d822 2b3d 00aa d73b
00000130: 8a6f 3c3d 4aa3 83bd 8fd7 10bd 0cf4 d0bc
00000140: ef98 b23c 486c 023d 6cab 0ebd b42b 3d3d
00000150: c6a2 dcbc 5200 503c f08f 2abd edf6 7f3d
00000160: 6925 3e3d 314f 0fbd 1e01 5e3c 789c 653d
00000170: 7a5f 393d 1041 2bbd 55e3 b63b 1aa4 2c3d
00000180: 44fd 093d 0540 6dbd 2cc2 633b 16af 2c3d
00000190: 1c0c c1bb 497c cc3c e12c b5bc 220d 323d
000001a0: 7122 3a3d 31ec 093d 8f62 8b3d 12cc 40bc
000001b0: 1ac2 44bd 5c11 033d 241d 4f3d 43d2 333d
000001c0: bb6e 8c38 79d1 29bc dc72 52bb 4dec 3d3d
000001d0: 0ea2 d6bc 994f 94bc d422 06bd a965 8a3c
000001e0: 2411 673d ce03 a6bc b662 96bc 9de3 723d
000001f0: ba52 313d e8be 223d 4ff0 b4ba f665 9d3b

weight f4 [64, 128]
0.042823367 0.018272202 0.07530475 0.07219806 0.0023818247 0.10046131 -0.04540627 -0.089571215
0.023179084 0.023567846 -0.08260091 0.025866598 0.074283145 -0.0057974965 0.013754929 0.033856243
0.09787412 -0.00018402038 -0.013460919 0.083490714 0.03603767 0.07126694 0.10823935 0.10360732
0.0751921 -0.015378976 0.014920895 0.063642554 -0.05087557 -0.07166806 0.026940428 0.031602394
0.04271048 -0.016693484 -0.057215825 0.030777445 -0.0021690575 0.067458235 -0.06517788 -0.016810887
0.04685707 0.022302601 -0.0070619383 0.025681024 -0.031179009 0.101975106 -0.06428523 0.03934769
-0.047751192 0.07558625 0.008851785 -0.035294402 -0.029147942 -0.0508417 -0.046250947 -0.050242115
0.058423184 0.022983486 -0.0873177 0.08145652 -0.02848679 -0.03134531 0.046782024 0.038371835
0.05514901 0.060998105 -0.01894955 -0.03573893 0.021904279 -0.020919127 -0.030359607 0.07017415
-0.0733343 -0.0885959 0.1044045 0.01400434 0.07462585 -0.022699961 -0.000716353 -0.03467547
0.02529473 0.033058114 -0.014174545 -0.01828708 0.029818654 0.0096143205 0.044022698 0.0048145554
0.025168685 0.006484447 -0.038250957 0.04965602 0.09139918 -1.714343e-05 -0.014680164 -0.01975857
-0.07398717 -0.013507544 0.06720324 -0.0040248325 -0.0077631325 0.025897436 -0.087699264 0.033080276
-0.07276873 0.01352231 0.04886573 0.060178917 0.061372932 0.019290997 0.018737715 0.07603616
0.050740197 0.01077561 0.07743912 -0.01790145 0.00053941173 -0.040736586 0.065045744 -0.0136032
-0.015128444 -0.059946194 -0.033403333 0.06957411 -0.06589587 0.025019927 0.038772125 -0.068921514
-0.06824297 0.06292518 0.03184658 0.08018047 -0.08227177 -0.009833468 0.029089905 -0.0742807
0.027994504 -0.05128044 -0.072050124 -0.08088205 -0.021897463 0.044842903 -0.01307738 -0.006416906
-0.03757224 0.07307164 -0.0760191 0.022541793 0.023321506 0.060114034 -0.062118754 0.082700394
-0.064167105 0.04510359 -0.041560486 0.057677038 -0.028025763 0.033944253 0.028122013 0.058728673
-0.076617606 0.008661034 -0.027544899 0.006091522 0.036832783 0.08908389 -0.012359754 0.06338753
0.036083072 0.021913264 -0.067505606 0.007613843 -0.023875631 0.012718732 0.017586248 -0.029203305
0.042145222 0.059133008 -0.07512803 -0.039944157 -0.06787462 -0.028619811 0.0055355923 0.08528993
-0.031848308 0.027740398 -0.07210003 -0.06901281 -0.0029872882 -0.00045210606 0.068731084 0.094934165
-0.08032339 -0.093442224 -0.07871748 0.04358301 -0.06804002 -0.08094935 -0.013002868 0.10390638
-0.048494063 0.06025887 0.0149349375 0.10004145 0.017904904 0.057651047 -0.0004292249 -0.012827333
-0.057296798 0.07107887 -0.049023055 0.0006162671 0.081143625 0.015875785 0.081705935 -0.050679903
-0.059131313 0.0327642 -0.075031355 0.005567709 0.0076747225 -0.019878669 0.015729312 0.07380206
0.011132468 0.018563507 -0.08637265 0.018658996 0.07974801 0.011666533 -0.061508738 -0.040700253
0.022370711 -0.035400633 0.036109917 -0.039419223 -0.043721214 0.06408072 -0.0060078143 0.09455241
0.08857354 0.009338917 -0.016544962 -0.05833377 -0.097967915 -0.025852798 -0.07615503 0.009942895
0.057126533 0.048004173 0.06356537 0.0065461663 0.059979297 0.055010054 0.041167557 -0.009309411
00000000: 8e67 2f3d 96af 953c 6039 9a3d 94dc 933d
00000010: 6318 1c3b a9be cd3d edfb 39bd 1d71 b7bd
00000020: 10e2 bd3c 5b11 c13c aa2a a9bd 30e6 d33c
00000030: c321 983d edf8 bdbb 5b5c 613c d8ac 0a3d
00000040: 3a72 c83d 98f5 40b9 308b 5cbc 2efd aa3d
00000050: 3c9c 133d 67f4 913d 98ac dd3d 1330 d43d
00000060: 51fe 993d 1af8 7bbc c576 743c 0757 823d
00000070: e762 50bd b4c6 92bd 2cb2 dc3c 8371 013d
00000080: 2ff1 2e3d c6c0 88bc 245b 6abd fb20 fc3c
00000090: bf26 0ebb 8b27 8a3d fb7b 85bd fcb6 89bc
000000a0: 33ed 3f3d f2b3 b63c d567 e7bb 0361 d23c
000000b0: 1f6b ffbc 53d8 d03d faa7 83bd 0b2b 213d
000000c0: c196 43bd f7cc 9a3d 1407 113c dd90 10bd
000000d0: aac7 eebc 633f 50bd a271 3dbd adca 4dbd
000000e0: 264d 6f3d dd47 bc3c 9fd3 b2bd add2 a63d
000000f0: 215d e9bc f163 00bd 829e 3f3d c92b 1d3d
00000100: eee3 613d 26d9 793d 163c 9bbc fc62 12bd
00000110: 9a70 b33c 975e abbc b6b4 f8bc 77b7 8f3d
00000120: 4b30 96bd c471 b5bd 07d2 d53d 7672 653c
00000130: 70d5 983d 45f5 b9bc a3c9 3bba de07 0ebd
00000140: e536 cf3c f267 073d 5a3c 68bc c9ce 95bc
00000150: 4046 f43c 6285 1d3c 2551 343d 6bc3 9d3b
00000160: 8f2e ce3c 7c7b d43b 09ad 1cbd 1c64 4b3d
00000170: 7e2f bb3d 3ccf 8fb7 1285 70bc b9dc a1bc
00000180: 9686 97bd bf4e 5dbc daa1 893d bee2 83bb
00000190: e061 febb dc26 d43c ac9b b3bd 2f7f 073d
000001a0: c607 95bd ae8c 5d3c 6f27 483d 2b7e 763d
000001b0: 2f62 7b3d 2708 9e3c d67f 993c d9b8 9b3d
000001c0: f4d4 4f3d 2f8c 303c 6798 9e3d 10a6 92bc
000001d0: 4f67 0d3a 68db 26bd b436 853d f5df 5ebc
000001e0: 4bdd 77bc 248a 75bd efd1 08bd df7c 8e3d
000001f0: 6af4 86bd 97f6 cc3c 85cf 1e3d b926 8dbd
00000200: f8c2 8bbd ebde 803d 8f71 023d a935 a43d
00000210: 1a7e a8bd 8e1c 21bc f44d ee3c 7b20 98bd
00000220: bb54 e53c 700b 52bd 048f 93bd 7da5 a5bd
00000230: 4f62 b3bc 31ad 373d 8242 56bc e944 d2bb
00000240: 59e5 19bd 96a6 953d e7af 9bbd 91a9 b83c
00000250: be0c bf3c 223a 763d 3c70 7ebd d35e a93d
00000260: 0b6a 83bd 8bbe 383d 543b 2abd c23e 6c3d
00000270: 4996 e5bc 2109 0b3d 2360 e63c 7a8d 703d
00000280: b1e9 9cbd 02e7 0d3c d7a5 e1bc 649b c73b
00000290: f9dd 163d 9d71 b63d 9180 4abc 52d1 813d
000002a0: d8cb 133d 7283 b33c 6140 8abd 8b7d f93b
000002b0: d496 c3bc 3a62 503c 0911 903c c53b efbc
000002c0: 78a0 2c3d 7435 723d b9dc 99bd 7c9c 23bd
000002d0: d901 8bbd 1874 eabc ea63 b53b 7dac ae3d
000002e0: 5f73 02bd d53f e33c 2ea9 93bd 9756 8dbd
000002f0: 61c6 43bb a608 edb9 e2c2 8c3d d86c c23d
00000300: 9780 a4bd a35e bfbd a136 a1bd 1984 323d
00000310: 9158 8bbd c6c8 a5bd fb09 55bc decc d43d
00000320: b6a1 46bd 01d2 763d abb1 743c 88e2 cc3d
00000330: 4ead 923c 8123 6c3d 9709 e1b9 bc29 52bc
00000340: 0cb0 6abd cc91 913d 66cc 48bd fc8c 213a
00000350: a12e a63d ef0d 823c 7155 a73d bb95 4fbd
00000360: ad33 72bd c133 063d 0aaa 99bd 5471 b63b
00000370: 3d7c fb3b 97d8 a2bc c2da 803c 8925 973d
00000380: f464 363c 7f12 983c 25e4 b0bd c0da 983c
00000390: ed52 a33d fc24 3f3c 96f0 7bbd 4fb5 26bd
000003a0: c842 b73c 4100 11bd fee7 133d 0d76 21bd
000003b0: 0415 33bd c13c 833d 33dd c4bb b2a4 c13d
000003c0: 0b66 b53d 4202 193c 4d89 87bc 64ef 6ebd
000003d0: 67a3 c8bd 3fc9 d3bc 2bf7 9bbd 86e7 223c
000003e0: 83fd 693d 06a0 443d 902e 823d 3981 d63b
000003f0: daac 753d 3952 613d 509f 283d 8086 18bc

bias f4 [64]
-0.016137695 0.019775435 0.07765863 -0.018393053 0.033300586 0.05414874 0.06385627 0.036705416
-0.08446493 0.0010167188 0.047107127 -0.01055474 0.095757864 0.011297764 -0.008788541 -0.033896256
-0.013312445 0.06826097 -0.059652455 0.059000354 -0.0400845 -0.08001386 -0.0035746517 0.007525616
-0.03878634 0.08788623 -0.012575114 0.021254797 0.053946193 -0.02737749 -0.06527655 0.09189287
0.102731 0.036799178 0.08053936 -0.054564223 -0.015569258 0.015229295 0.06939142 -0.012614459
0.056890637 0.04510943 0.017270839 0.030705385 0.048428282 0.0985213 0.0532672 0.03154186
-0.06571659 0.01577889 0.049913436 0.08844383 0.0041037714 0.08242839 -0.024164196 -0.072370894
0.06915303 0.076935984 -0.04682434 -0.03379853 -0.0501325 -0.021665467 0.08248071 0.030883899
00000000: 3333 84bc 1800 a23c 7d0b 9f3d 07ad 96bc
00000010: 3266 083d 12cb 5d3d 13c7 823d 6b58 163d
00000020: f3fb acbd 6c43 853a 67f3 403d caed 2cbc
00000030: b31c c43d 421a 393c d0fd 0fbc cdd6 0abd
00000040: 711c 5abc 68cc 8b3d 2256 74bd 5baa 713d
00000050: a52f 24bd 4ede a3bd b444 6abb 7199 f63b
00000060: 6dde 1ebd b2fd b33d da07 4ebc 8a1e ae3c
00000070: aff6 5c3d c246 e0bc b6af 85bd 5432 bc3d
00000080: a164 d23d bcba 163d d2f1 a43d bc7e 5fbd
00000090: 3316 7fbc 4b84 793c 171d 8e3d e0ac 4ebc
000000a0: 2806 693d aac4 383d 937b 8d3c dc89 fb3c
000000b0: bc5c 463d 89c5 c93d b52e 5a3d 0a32 013d
000000c0: 6b96 86bd bb42 813c 0872 4c3d 0a22 b53d
000000d0: ee78 863b 37d0 a83d fef3 c5bc 3137 94bd
000000e0: 1ba0 8d3d 9d90 9d3d e1ca 3fbd 5470 0abd
000000f0: bc57 4dbd c77b b1bc a6eb a83d 3b00 fd3c

weight f4 [5, 64]
-0.02135649 -0.07534073 0.113338575 0.12042906 0.010405336 0.08293227 0.04324164 0.15616487
-0.08230437 0.11223934 -0.093977354 0.083325416 0.009325069 -0.088154994 0.02777421 -0.111024104
0.11250101 0.12753358 -0.029238693 -0.10896656 -0.04578799 -0.13562079 -0.046356555 0.030320186
0.05625419 0.0681908 0.008362668 -0.007862062 0.08992453 -0.0374262 0.031463176 0.14947365
-0.012872724 0.14782631 -0.09538588 -0.109459944 -0.15774271 0.08243255 -0.0068307854 0.03884588
0.043648813 -0.1286756 0.055388324 -0.002201925 0.013003658 0.03090635 0.113415256 -0.098212235
-0.08393291 -0.0768826 0.042753655 -0.16464396 0.07452943 -0.081634395 -0.0541348 0.009024216
0.14409271 0.13467875 0.10421405 0.047373053 -0.11128623 0.13802639 -0.017238056 -0.11996784
0.03128665 0.13734986 -0.0223173 -0.12947378 -0.027031315 -0.12808388 0.11369543 -0.10673654
0.09234528 0.08666919 0.07679176 -0.009239162 0.084066376 0.020152962 -0.028039549 -0.11169779
-0.09428055 0.07939181 -0.007129864 0.024295399 0.04585423 0.1308634 0.07625955 0.0036710324
0.09327675 -0.113048226 0.0042700614 0.06777946 -0.05341327 0.14013885 -0.009532248 0.012120788
0.11204296 -0.001328841 0.1131372 0.00528898 0.041885715 -0.1127 -0.09411966 -0.06996776
0.12845221 -0.097810715 -0.09856394 -0.054362793 0.045521278 0.03320142 -0.09123617 0.04153768
0.09935172 0.03278123 0.015880715 -0.025295042 -0.061925903 0.13410556 0.12369091 0.10408106
0.03836374 0.04864532 0.031778686 0.09495822 0.09263419 0.03945769 -0.025834844 -0.02196804
-0.050969817 -0.10753935 0.12333157 -0.07605606 0.00051531807 -0.08814458 -0.05262934 0.076413736
0.017175479 0.05748371 -0.021951467 -0.12918833 0.12513389 -0.086502805 -0.0090634795 -0.10256929
0.07561889 0.1138306 -0.034098495 -0.08668811 0.07959762 0.050648976 0.08961886 0.112982556
0.07706417 -0.022237048 -0.1307389 -0.06552528 -0.01780473 0.08694061 0.0152592305 0.0647981
-0.028671104 -0.061948866 0.06367979 -0.10880495 0.1091571 0.09423654 0.10989879 0.08412379
-0.057072937 0.070728704 0.059435192 0.057941485 -0.06177498 0.06381892 -0.105835095 -0.034188468
-0.06583698 -0.062455967 0.020811252 -0.09065624 0.044103056 -0.08490716 0.0111319125 -0.06096488
0.11243932 -0.10179526 -0.03963952 -0.020040996 0.0820263 0.094802834 0.08150776 -0.00055374624
0.054869365 -0.1007238 -0.05288831 -0.0013513498 0.027887912 -0.03423608 -0.08915582 0.10595897
0.11030486 0.05054922 0.061932005 0.014409271 -0.035162248 -0.003552352 0.05204299 0.0065871174
0.07026336 -0.045545354 -0.007962256 -0.06396414 -0.114609525 0.01093808 -0.052749876 0.11341588
0.022456767 -0.11021081 0.123274446 0.037535857 0.04636961 0.025844062 0.08566129 -0.12770472
0.017968537 0.0022507214 0.010983535 0.005879015 0.111023866 -0.006588549 -0.07456443 0.082195684
-0.010949412 0.0674711 -0.056051936 0.09177359 -0.06342851 0.0040522064 0.020926086 0.08838236
0.04828866 0.08666072 -0.040307574 0.06723988 -0.08174166 -0.08597922 0.06294275 -0.062053066
0.06294294 0.070724346 0.0056441748 0.008311855 -0.050394565 0.009697086 0.03871223 0.06823582
00000000: cef3 aebc 3e4c 9abd 0e1e e83d 83a3 f63d
00000010: 247b 2a3c 65d8 a93d 251e 313d afe9 1f3e
00000020: 328f a8bd bddd e53d 3377 c0bd 84a6 aa3d
00000030: 2dc8 183c 9b8a b4bd bd86 e33c 9b60 e3bd
00000040: ee66 e63d 2a98 023e fc85 efbc dc29 dfbd
00000050: 308c 3bbd 2de0 0abe 5fe0 3dbd 0a62 f83c
00000060: cb6a 663d 9ea7 8b3d 9203 093c e1cf 00bc
00000070: 5a2a b83d 374c 19bd 88df 003d 9f0f 193e
00000080: 1ee8 52bc c85f 173e ac59 c3bd 892c e0bd
00000090: 4e87 21be 66d2 a83d c8d4 dfbb dc1c 1f3d
000000a0: 19c9 323d 89c3 03be dede 623d 2c4e 10bb
000000b0: 4b0d 553c 502f fd3c 4246 e83d 7f23 c9bd
000000c0: 04e5 abbd a074 9dbd 751e 2f3d 6d98 28be
000000d0: e3a2 983d ef2f a7bd 74bc 5dbd 4eda 133c
000000e0: 0a8d 133e 3ae9 093e 2d6e d53d 3f0a 423d
000000f0: 09ea e3bd ca56 0d3e d336 8dbc b3b1 f5bd
00000100: 6e26 003d 71a5 0c3e c5d2 b6bc c694 04be
00000110: c770 ddbc 6c28 03be 26d9 e83d b098 dabd
00000120: 861f bd3d 9e7f b13d 0045 9d3d db5f 17bc
00000130: fe2a ac3d d317 a53c 32b3 e5bc d0c1 e4bd
00000140: 2916 c1bd 2c98 a23d a2a1 e9bb 2507 c73c
00000150: a5d1 3b3d 0e01 063e f82d 9c3d b495 703b
00000160: e107 bf3d d485 e7bd dfeb 8b3b f5cf 8a3d
00000170: dfc7 5abd 8f80 0f3e 252d 1cbc 4596 463c
00000180: c876 e53d 812c aeba 7ab4 e73d 2e4f ad3b
00000190: 5b90 2b3d 42cf e6bd cfc1 c0bd 424b 8fbd
000001a0: fa88 033e fc50 c8bd e4db c9bd 85ab 5ebd
000001b0: 8574 3a3d 36fe 073d 07da babd 6a23 2a3d
000001c0: ea78 cb3d 9c45 063d 4618 823c 8c37 cfbc
000001d0: 04a6 7dbd f852 093e a951 fd3d 7328 d53d
000001e0: 4c23 1d3d 5140 473d 5e2a 023d 7579 c23d
000001f0: ffb6 bd3d 639e 213d 98a3 d3bc 52f6 b3bc
00000200: bac5 50bd 973d dcbd 4395 fc3d 48c3 9bbd
00000210: 6916 073a 2585 b4bd dd91 57bd ce7e 9c3d
00000220: 97b3 8c3c 0a74 6b3d 90d3 b3bc f249 04be
00000230: 1923 003e 6228 b1bd fd7e 14bc d90f d2bd
00000240: 14de 9a3d 0520 e93d ddaa 0bbd 8989 b1bd
00000250: 1404 a33d 4d75 4f3d 188a b73d 6663 e73d
00000260: d2d3 9d3d 782a b6bc 6be0 05be 1e32 86bd
00000270: 3adb 91bc eb0d b23d da01 7a3c deb4 843d
00000280: aadf eabc 18be 7dbd 8d6a 823d 21d5 debd
00000290: c28d df3d 16ff c03d 9e12 e13d 1849 ac3d
000002a0: 50c5 69bd 36da 903d 5172 733d 0d54 6d3d
000002b0: c307 7dbd 7eb3 823d 12c0 d8bd 3509 0cbd
000002c0: 8ad5 86bd d4d1 7fbd 5c7c aa3c fba9 b9bd
000002d0: 68a5 343d cee3 adbd a062 363c 4fb6 79bd
000002e0: 9646 e63d 097a d0bd 0d5d 22bd 042d a4bc
000002f0: 68fd a73d fd27 c23d 8aed a63d 4829 11ba
00000300: b3be 603d 4848 cebd 6aa1 58bd c61f b1ba
00000310: 3175 e43c 223b 0cbd 5497 b6bd 0401 d93d
00000320: 84e7 e13d b30c 4f3d 6aac 7d3d dd14 6c3c
00000330: 4a06 10bd 94ce 68bb 082b 553d bfd8 d73b
00000340: 3de6 8f3d c48d 3abd 1f74 02bc a2ff 82bd
00000350: 66b8 eabd a235 333c 4110 58bd 9646 e83d
00000360: 41f7 b73c 35b6 e1bd 5077 fc3d 33bf 193d
00000370: 0fee 3d3d edb6 d33c 306f af3d 07c5 02be
00000380: c132 933c d780 133b 49f4 333c c1a4 c03b
00000390: 7b60 e33d c1e4 d7bb 3cb5 98bd 3656 a83d
000003a0: 2a65 33bc 4a2e 8a3d b796 65bd cbf3 bb3d
000003b0: cfe6 81bd 5fc8 843b 2f6d ab3c d001 b53d
000003c0: 54ca 453d 2d7b b13d 8e19 25bd 10b5 893d
000003d0: 2c68 a7bd e015 b0bd 21e8 803d 5b2b 7ebd
000003e0: 3ae8 803d edd7 903d c5f2 b83b 722e 083c
000003f0: 886a 4ebd 87e0 1e3c b790 1e3d 39bf 8b3d

bias f4 [5]
0.116987646 -0.10687806 0.11327538 0.11316068 -0.016472813
00000000: 3897 ef3d e2e2 dabd ecfc e73d c9c0 e73d
00000010: fef1 86bc
