Policy-Gradients/Poker-Agent/checkpoint_105000.pt (torch, 227379 bytes, 8 tensors)

weight f4 [256, 55]
0.007921739 -0.09254419 -0.044311386 -0.009359183 0.08570323 0.054010928 0.06395452 0.22342323
0.18283217 0.02676889 -0.12415812 -0.05917111 0.13292494 -0.02959404 0.042396776 -0.02361468
0.05161143 0.04970552 0.10637904 -0.109598145 -0.008547596 -0.14176318 -0.06329201 0.09472316
0.15488614 -0.024264293 -0.09280591 0.12892444 -0.05748059 0.012838377 0.10771438 0.09013443
0.027045948 0.081324555 -0.10045975 0.020806653 -0.014787907 -0.0996812 -0.056762528 -0.00696306
-0.14860709 -0.036517408 0.037375033 0.01568753 -0.14688013 -0.03747754 -0.056428958 0.05370401
-0.022869943 0.041798335 0.11316472 -0.008069786 -0.10951173 0.063074626 -0.07173867 0.0070614796
-0.06738758 0.11599443 0.0002799232 0.13385963 0.15774527 0.01592749 0.04751049 0.2160072
0.13824241 0.00094744714 0.2695386 0.1786216 0.04945341 0.04182244 0.10318775 0.02970019
-0.07628078 -0.053956524 0.103528604 0.033423502 0.023293205 -0.10088941 -0.03135473 0.13606994
0.04373493 -0.11683581 -0.07713622 -0.0048823394 -0.11427389 -0.07390756 -0.07325722 0.23340094
-0.064899944 0.15278433 0.038712315 -0.022512875 0.06195043 -0.02177981 0.0709476 -0.11448753
0.05673252 -0.026935231 0.13314562 0.092568316 -0.05589094 0.11316674 0.1261568 -0.039759316
-0.02212458 0.051923115 -0.12681648 -0.10378802 0.12740773 -0.059727103 0.035475455 0.019745443
-0.007283575 0.007790545 0.03030122 0.07093467 0.100452535 -0.16601773 -0.16963187 0.04011255
-0.014291919 -0.22438827 -0.043527745 -0.08701028 -0.099658184 -0.0795973 -0.065920964 -0.07395876
0.08695823 -0.09260381 -0.115817316 0.0664817 -0.021610042 -0.06767593 0.0019511293 -0.018100275
-0.03859333 0.09592124 -0.08620774 0.026047176 0.06901985 -0.10062077 -0.18600594 -0.071455896
0.1205065 -0.033789895 -0.010017918 -0.06951665 -0.043453787 -0.032636512 -0.073165536 -0.034653306
0.04597795 0.051217124 0.11843118 -0.047367062 -0.093953885 0.07242109 -0.061720155 -0.018037306
0.038364507 0.12902148 -0.05367077 -0.0067034224 0.13431066 0.13115577 0.107357875 -0.05600353
-0.08753362 -0.041419085 0.019327478 -0.025311114 -0.026705436 -0.20326935 -0.047191933 -0.12016091
-0.15703614 -0.032380678 -0.07907266 -0.014471094 0.061785057 -0.03598883 0.12646925 0.06542801
0.15307127 0.09859247 0.031807795 -0.051843476 -0.039759647 -0.018607967 -0.09064771 0.056420494
0.05685971 0.09279857 0.12854475 -0.098604105 -0.112963594 -0.05474931 0.11276832 -0.05111814
-0.045923386 -0.05777674 0.020762037 -0.07234147 0.029291494 0.08596943 -0.07113756 0.0038062746
0.018612534 -0.07176536 -0.12441839 -0.0019104177 -0.056631826 0.106333606 0.0068553956 0.095909424
0.10398892 0.011952699 0.10145216 -0.014590771 -0.14901817 -0.07544199 0.08516073 -0.021162152
0.14039144 0.031043107 -0.05268434 0.13055316 0.15234211 0.0594834 -0.007993085 0.28117594
0.013588662 -0.06312049 0.20704187 0.14926049 0.16084772 -0.007962616 0.18023619 -0.13908733
0.11020864 -0.115787424 -0.076912045 0.13334754 0.15072279 -0.078796804 -0.005793357 0.09043121
0.0572251 0.022295639 0.0009835745 0.0526849 -0.057555538 0.13315488 0.045505382 0.08391841
00000000: 2eca 013c cf87 bdbd db7f 35bd 4257 19bc
00000010: 2d85 af3d 903a 5d3d 96fa 823d 0fc9 643e
00000020: 5b38 3b3e 6e4a db3c 9d46 febd 685d 72bd
00000030: 7a1d 083e 336f f2bc 3ea8 2d3d 9373 c1bc
00000040: 8266 533d 0498 4b3d 41dd d93d fe74 e0bd
00000050: 370b 0cbc 5e2a 11be 3e9f 81bd 37fe c13d
00000060: 799a 1e3e e9c5 c6bc 0611 bebd c504 043e
00000070: c470 6bbd 0e58 523c 5b99 dc3d 6698 b83d
00000080: 778f dd3c 7d8d a63d d7bd cdbd b772 aa3c
00000090: fa48 72bc a825 ccbd d37f 68bd 612a e4bb
000000a0: 752c 18be 4793 15bd 9016 193d 2383 803c
000000b0: bf67 16be 0d82 19bd 0d22 67bd bcf8 5b3d
000000c0: bf59 bbbc bb34 2b3d e8c2 e73d 2337 04bc
000000d0: b047 e0bd 452d 813d b9eb 92bd fc63 e73b
000000e0: 8002 8abd 7d8e ed3d a8c2 9239 8012 093e
000000f0: fa87 213e 5e7a 823c 5c9a 423d fe30 5d3e
00000100: 6b8f 0d3e 1a5e 783a f700 8a3e 95e8 363e
00000110: a98f 4a3d 024e 2b3d 1954 d33d d04d f33c
00000120: 1939 9cbd 8401 5dbd ce06 d43d 15e7 083d
00000130: 64d1 be3c 1b9f cebd d16d 00bd eb55 0b3e
00000140: 6623 333d 9d47 efbd 98f9 9dbd 08fc 9fbb
00000150: 6e08 eabd d95c 97bd e207 96bd a800 6f3e
00000160: 43ea 84bd 7f73 1c3e ce90 1e3d ec6c b8bc
00000170: bcbf 7d3d 926b b2bc fa4c 913d 7078 eabd
00000180: 5c60 683d 46a7 dcbc 5357 083e 7594 bd3d
00000190: e6ed 64bd f7c3 e73d 402f 013e aada 22bd
000001a0: 9b3e b5bc 55ad 543d 2edc 01be d08e d4bd
000001b0: 2c77 023e 68a4 74bd b64e 113d 32c1 a13c
000001c0: 0eab eebb d447 ff3b 443a f83c 3246 913d
000001d0: 0fba cd3d 8d00 2abe fab3 2dbe 0f4d 243d
000001e0: a728 6abc 0ac6 65be 264a 32bd 7232 b2bd
000001f0: 9719 ccbd e903 a3bd 9201 87bd b177 97bd
00000200: 2817 b23d 11a7 bdbd a131 edbd 8f27 883d
00000210: 8b07 b1bc ae99 8abd 09bd ff3a 0747 94bc
00000220: 0a14 1ebd 5b72 c43d af8d b0bd e360 d53c
00000230: 475a 8d3d 4312 cebd 5778 3ebe 7857 92bd
00000240: 1dcc f63d 4667 0abd 3222 24bc bf5e 8ebd
00000250: 99fc 31bd ddad 05bd d0d7 95bd a0f0 0dbd
00000260: 6053 3c3d 0cc9 513d 0c8c f23d f703 42bd
00000270: e56a c0bd 8251 943d 46ce 7cbd f9c2 93bc
00000280: 1a24 1d3d 351e 043e e2d5 5bbd 62a8 dbbb
00000290: bc88 093e b34d 063e 72de db3d f563 65bd
000002a0: d444 b3bd 0fa7 29bd a954 9e3c 4159 cfbc
000002b0: 5cc5 dabc d725 50be 544c 41bd ec16 f6bd
000002c0: 15ce 20be 9aa1 04bd d9f0 a1bd 2b18 6dbc
000002d0: 5412 7d3d 0669 13bd 2881 013e 1fff 853d
000002e0: b7be 1c3e d9ea c93d e448 023d d359 54bd
000002f0: 03db 22bd bc6f 98bc 82a5 b9bd 2d19 673d
00000300: bae5 683d 2d0d be3d 3ca1 033e f3f0 c9bd
00000310: 7559 e7bd d040 60bd 14f3 e63d 4161 51bd
00000320: 291a 3cbd 4ea7 6cbd 2615 aa3c c427 94bd
00000330: b7f4 ef3c be10 b03d 92b0 91bd b172 793b
00000340: 5079 983c b8f9 92bd 12cf febd fb66 faba
00000350: c6f6 67bd 6fc5 d93d 3aa3 e03b 296c c43d
00000360: 25f8 d43d 41d5 433c 26c6 cf3d 210e 6fbc
00000370: 3898 18be 5481 9abd c068 ae3d 405c adbc
00000380: c6c2 0f3e 1d4e fe3c 89cb 57bd baaf 053e
00000390: 92ff 1b3e dea4 733d 6ef5 02bc 4bf6 8f3e
000003a0: fba2 5e3c 5145 81bd c902 543e bed7 183e
000003b0: 44b5 243e a275 02bc d68f 383e e96c 0ebe
000003c0: 11b5 e13d f521 edbd 1084 9dbd 428c 083e
000003d0: 1357 1a3e 3860 a1bd 33d6 bdbb 0034 b93d
000003e0: de64 6a3d 58a5 b63c 49eb 803a 1fcc 573d
000003f0: 5bbf 6bbd c159 083e da63 3a3d 6add ab3d

bias f4 [256]
0.057306487 -0.08778831 0.15266708 -0.07388993 0.06407501 0.099803515 -0.018083073 -0.07765754
-0.05066094 0.014231236 -0.108367786 0.08435503 0.045793805 0.01429289 0.16104023 -0.055970404
-0.07536007 0.14587523 0.033513155 -0.012380408 -0.06966885 0.060447704 0.05581869 0.052885205
0.099045314 0.03223802 0.08741239 0.16482784 -0.11016257 0.051796816 0.17854385 -0.13782719
0.06267392 0.12125972 -0.025887419 0.010058808 -0.09459418 -0.05319874 0.04969301 0.15128002
0.049356014 -0.09646274 0.036897056 0.02474915 0.06079656 -0.04820673 0.100142024 0.025307538
-0.020203527 -0.043351945 0.082500674 0.02576424 -0.123313434 -0.08414451 0.11180933 0.043219678
-0.107745215 -0.025850069 -0.08976562 0.09313494 0.03702003 -0.044057604 0.10361186 -0.00982059
0.014138387 -0.13703455 0.0032219484 0.1639462 -0.12756477 -0.100669354 0.06078992 0.0048615835
0.033072233 0.1474798 -0.018410422 0.0759323 0.037016742 -0.044221684 0.07406847 -0.02689211
-0.13061446 0.030129388 0.08491432 -0.103947066 0.017486515 -0.0006809613 -0.010516456 0.13748339
0.12809947 -0.061496917 -0.13074 0.014559534 0.06364912 -0.121748336 0.016143935 0.16278705
-0.04509897 -0.07184239 -0.02846821 -0.027888974 -0.057224356 -0.121909395 -0.11073203 0.015595082
-0.046834122 0.00014444943 0.0074057006 -0.024111783 -0.12705548 0.048021667 0.012373466 0.05442667
-0.025559256 -0.004331707 0.15024532 0.0016482887 -0.044690643 -0.096910745 -0.14751503 0.09368589
0.010414793 -0.094686866 0.147773 -0.06355016 0.04064725 -0.0951256 0.1539992 0.04631381
0.018938899 -0.108835235 0.0916767 -0.029772645 -0.03353155 -0.047970977 -0.09156183 0.064231604
-0.046235863 0.06719534 0.067194164 0.10586238 0.08285868 0.05432136 -0.0823918 -0.11425225
-0.028277274 -0.047797088 -0.034287617 -0.030918049 0.056327246 -0.1274403 0.033860154 0.005274626
0.08026227 -0.0026840186 0.06555581 0.07917198 0.025783958 -0.029892791 0.0006841315 -0.06010858
-0.0077908505 -0.06345423 0.050220396 0.105489336 0.08886214 0.16500434 0.023593726 0.09916672
-0.04409649 0.044939723 -0.02660788 0.07884976 0.11103399 0.09357211 -0.019083656 0.14079352
-0.00060679694 -0.06417433 0.11113106 0.11709781 -0.07229762 -0.037063885 0.12873152 0.035113223
0.12898952 0.0033155237 0.08400229 0.004989457 -0.053574845 -0.01532435 -0.09517587 0.0966605
0.045076843 0.11850302 -0.07933656 -0.069514394 -0.08676778 -0.0539369 -0.049835164 0.15872106
0.08012403 -0.0024749346 0.030967921 -0.07845539 0.09655511 -0.07746473 -0.10013203 0.02325879
-0.100921206 0.1812634 0.015154125 0.05773288 0.028626477 0.0008587058 0.10498217 -0.07079079
-0.16096318 -0.04993502 0.05446168 0.04835619 0.06277089 -0.056565147 -0.07353186 -0.058074474
-0.017519249 0.021206178 0.051595178 -0.13702166 0.06533241 0.08461476 -0.040984 -0.014348123
-0.0798579 -0.080493495 0.07771421 0.052474298 0.11998781 -0.13393898 0.098721616 -0.13892387
-0.08141204 0.09290681 -0.09311434 0.08178998 0.04041383 0.090577774 -0.08824811 -0.04365723
-0.017780542 0.07139869 0.075142235 0.1352393 0.003849225 0.108755685 -0.006449519 -0.008571113
00000000: 35ba 6a3d 5cca b3bd c254 1c3e 9b53 97bd
00000010: c239 833d c965 cc3d f422 94bc eb0a 9fbd
00000020: d981 4fbd 212a 693c eeef ddbd 54c2 ac3d
00000030: 4992 3b3d ba2c 6a3c bbe7 243e 3941 65bd
00000040: 6156 9abd 5160 153e 1745 093d 32d7 4abc
00000050: 8bae 8ebd 0398 773d 24a2 643d 289e 583d
00000060: 45d8 ca3d 040c 043d 4405 b33d a1c8 283e
00000070: ea9c e1bd e628 543d 33d4 363e 9222 0dbe
00000080: 2f5b 803d 0457 f83d da11 d4bc b3cd 243c
00000090: 98ba c1bd ece6 59bd e68a 4b3d 26e9 1a3e
000000a0: 8829 4a3d 428e c5bd 5e21 173d bbbe ca3c
000000b0: d005 793d 6c74 45bd 4317 cd3d c151 cf3c
000000c0: de81 a5bc cf91 31bd 1df6 a83d 870f d33c
000000d0: c18b fcbd f553 acbd 4afc e43d 1e07 313d
000000e0: 86a9 dcbd 86c3 d3bc 0ad7 b7bd 88bd be3d
000000f0: 51a2 173d bf75 34bd 7432 d43d 8ae6 20bc
00000100: b1a4 673c c952 0cbe 5327 533b 83e1 273e
00000110: 57a0 02be bc2b cebd dafe 783d eb4d 9f3b
00000120: c076 073d f204 173e 74d1 96bc 6582 9b3d
00000130: de9e 173d cc21 35bd 36b1 973d d84c dcbc
00000140: ccbf 05be e8d1 f63c 8fe7 ad3d 33e2 d4bd
00000150: e13f 8f3c 8a82 32ba 374d 2cbc 72c8 0c3e
00000160: 822c 033e 31e4 7bbd b5e0 05be 1d8b 6e3c
00000170: 785a 823d 3157 f9bd 4940 843c a6b1 263e
00000180: b3b9 38bd 1a22 93bd 2a36 e9bc 6b77 e4bc
00000190: 1664 6abd a2ab f9bd 79c7 e2bd 8482 7f3c
000001a0: 23d5 3fbd 5977 1739 85ab f23b 1386 c5bc
000001b0: d51a 02be 5eb2 443d 14ba 4a3c 80ee 5e3d
000001c0: a561 d1bc fef0 8dbb e9d9 193e 640b d83a
000001d0: 890d 37bd 2479 c6bd 2e0e 17be 63de bf3d
000001e0: cfa2 2a3c 30eb c1bd ce51 173e 9626 82bd
000001f0: bb7d 263d 36d1 c2bd f7b1 1d3e 8db3 3d3d
00000200: c025 9b3c 02e5 debd fec0 bb3d c3e5 f3bc
00000210: 6158 09bd 377d 44bd c584 bbbd dc8b 833d
00000220: d161 3dbd b69d 893d 189d 893d 60ce d83d
00000230: d0b1 a93d 1380 5e3d 08bd a8bd 15fd e9bd
00000240: bea5 e7bc e1c6 43bd 2c71 0cbd d947 fdbc
00000250: 66b7 663d b67f 02be f2b0 0a3d c5d6 ac3b
00000260: 8c60 a43d 5ce6 2fbb 2042 863d eb24 a23d
00000270: e138 d33c bae1 f4bc 4a57 333a 6a34 76bd
00000280: 644a ffbb 4bf4 81bd e7b3 4d3d cb0a d83d
00000290: 5bfd b53d e6f6 283e a147 c13c ec17 cb3d
000002a0: 859e 34bd b712 383d c5f8 d9bc fc7b a13d
000002b0: ca65 e33d bca2 bf3d 5455 9cbc 2d2c 103e
000002c0: 7411 1fba d56d 83bd ae98 e33d fad0 ef3d
000002d0: c610 94bd 4dd0 17bd 32d2 033e e2d2 0f3d
000002e0: d415 043e 4249 593b 6509 ac3d 997e a33b
000002f0: 4c71 5bbd fc12 7bbc 91eb c2bd f1f5 c53d
00000300: 7fa2 383d b6b1 f23d 357b a2bd 905d 8ebd
00000310: 4eb3 b1bd f0ec 5cbd f51f 4cbd c687 223e
00000320: 1118 a43d 8332 22bb 70b0 fd3c 38ad a0bd
00000330: afbe c53d d4a5 9ebd 0612 cdbd 3889 be3c
00000340: c7af cebd 1d9d 393e 0249 783c 5079 6c3d
00000350: 1382 ea3c c51a 613a e400 d73d c3fa 90bd
00000360: 88d3 24be aa88 4cbd 3613 5f3d 2411 463d
00000370: 068e 803d dbb0 67bd df97 96bd 80df 6dbd
00000380: 8784 8fbc 94b8 ad3c 7755 533d 684f 0cbe
00000390: 00cd 853d 814a ad3d d7de 27bd 6414 6bbc
000003a0: 8a8c a3bd c6d9 a4bd a128 9f3d 4aef 563d
000003b0: 2bbc f53d 4d27 09be 8f2e ca3d 0f42 0ebe
000003c0: 5bbb a6bd ed45 be3d bbb2 bebd 8181 a73d
000003d0: f988 253d d780 b93d 6dbb b4bd ecd1 32bd
000003e0: 80a8 91bc 7a39 923d 2ce4 993d 2c7c 0a3e
000003f0: 4743 7c3b 4dbb de3d 7d56 d3bb db6d 0cbc

weight f4 [128, 256]
-0.030160353 -0.10125192 0.074000746 0.092299245 0.024934879 0.02747779 0.0403315 0.018757537
-0.022115361 0.06741564 -0.05493047 0.050681595 0.040961515 -0.041152675 0.07679293 0.1098969
-0.07036671 0.08067373 -0.013886179 0.07428821 -0.02638708 0.07482435 0.083335824 -0.04871728
0.010301317 0.023905221 -0.004935997 0.029892022 -0.10611317 0.09869887 0.06824742 -0.005832465
0.10235555 0.06578557 -0.043783944 -0.03493608 -0.046940185 0.028699636 -0.019740323 0.04255093
0.038200397 0.10288302 -0.029399697 -0.055447403 -0.06357749 0.0088893 0.04131515 0.040273495
-0.012359105 -0.04967391 -0.018068507 0.05757796 -0.009358724 -0.029598963 0.027456481 -0.07196496
0.012242463 0.03598804 -0.04908594 0.042887047 -0.055607934 0.0243471 0.08611051 -0.032962695
-0.045677036 0.0156765 0.035984438 0.08847099 0.043070152 -0.039532416 0.034235034 -0.019811958
-0.003870907 -0.02358979 -0.041908335 -0.07362391 -0.019565709 -0.062725104 0.07714452 -0.03898468
0.03625789 -0.034751024 -0.07491447 -0.06718575 -0.05794913 0.05470963 0.07549538 0.09345736
0.056077883 0.03534056 -0.061984874 -0.07955937 0.060395535 -0.023874102 -0.031627595 0.03373496
-0.058536667 0.009458396 0.04345774 0.029854799 0.03922289 -0.058942158 -0.010621794 -0.045625664
0.019733286 0.041184813 0.031552482 0.085478306 -0.009357596 -0.055707887 0.050919004 0.06358797
-0.115932055 -0.0010528815 -0.020813804 0.04819956 -0.05487481 -0.111430965 -0.06586269 0.036911413
-0.008755254 -0.013910597 0.051149417 -0.016511071 0.00010892436 0.07445897 0.10407753 0.112596214
-0.05740909 -0.043217495 -0.009236079 -0.0021895086 -0.02501243 0.008015334 -0.0820575 0.007632744
-0.0722935 0.05901493 -0.018761097 0.06663067 0.0432116 0.015977466 -0.0476096 -0.054410543
-0.00045298768 -0.017918352 -0.064995065 0.0065415544 -0.019560933 -0.07678608 0.10874534 -0.028949222
0.072557636 0.02903574 0.000121367186 -0.007358833 -0.06415463 -0.01706471 0.020622525 0.056873105
-0.008285709 -0.0042890706 -0.013245089 0.023426373 -0.06616787 -0.017779695 0.121898785 -0.008374762
-0.020422544 0.03024741 -0.008195903 -0.024494411 0.0001067221 0.0071387556 0.007120586 -0.0059713246
0.03319324 0.007927539 -0.016735857 -0.07746593 -0.0034705715 -0.031220563 -0.0037863185 0.00092936296
0.094524615 -0.0069734864 0.045212734 -0.02194162 0.04162722 -0.03700816 0.0519832 0.06809586
0.018826544 0.0070040585 -0.09440785 0.07035547 0.03890645 0.0581186 0.09309456 0.07685266
0.022030126 0.022820594 -0.022573715 -0.08283113 -0.0411253 -0.11786332 -0.10978199 0.01846916
0.026942907 0.12824048 0.047340468 -0.0012177557 -0.054930594 0.06731457 -0.008080293 0.08553812
0.014441069 -0.023559224 0.025043527 0.0551605 0.057461556 0.0009511141 0.045831267 0.019380875
-0.024406038 0.082438 -0.039190616 0.02449447 -0.04574482 0.03206183 0.015144628 -0.008892696
0.04126685 -0.10629354 -0.014012103 0.109824836 0.04934071 0.01232368 -0.020653497 -0.10456164
0.0059349625 -0.0025814942 0.012560752 0.014952552 -0.06999897 0.017690875 0.021108001 0.07162578
-0.06952026 -0.020645494 -0.038368527 0.03316502 -0.011958904 -0.028889006 0.0071038273 -0.018007172
00000000: d812 f7bc 2b5d cfbd b48d 973d 6307 bd3d
00000010: 3b44 cc3c 1a19 e13c a532 253d 68a9 993c
00000020: 462b b5bc 3611 8a3d c6fe 60bd 8197 4f3d
00000030: 43c7 273d b58f 28bd 9d45 9d3d a011 e13d
00000040: 6c1c 90bd 4538 a53d db82 63bc 6b24 983d
00000050: b829 d8bc 823d 993d f9ab aa3d c58b 47bd
00000060: dbc6 283c e2d4 c33c 25be a1bb 1de0 f43c
00000070: dd51 d9bd a222 ca3d 4ec5 8b3d 431e bfbb
00000080: c99f d13d 96ba 863d cb56 33bd 2319 0fbd
00000090: 5a44 40bd 801b eb3c 75b6 a1bc e249 2e3d
000000a0: 0578 1c3d 55b4 d23d a2d7 f0bc d11c 63bd
000000b0: ea34 82bd 6da4 113c 133a 293d d2f5 243d
000000c0: d87d 4abc df76 4bbd 6804 94bc ded6 6b3d
000000d0: 5555 19bc 8679 f2bc 6aec e03c 5d62 93bd
000000e0: 9d94 483c 3268 133d 570e 49bd 54aa 2f3d
000000f0: 25c5 63bd 9273 c73c b55a b03d e403 07bd
00000100: d817 3bbd 016c 803c 6b64 133d 4730 b53d
00000110: 546a 303d beec 21bd 093a 0c3d b04c a2bc
00000120: 0baf 7dbb 603f c1bc 13a8 2bbd 22c8 96bd
00000130: 4448 a0bc 0576 80bd f2fd 9d3d 66ae 1fbd
00000140: 2783 143d 1757 0ebd c26c 99bd af98 89bd
00000150: 115c 6dbd 3417 603d 529d 9a3d 9366 bf3d
00000160: ecb1 653d 43c1 103d dae3 7dbd 06f0 a2bd
00000170: 4f61 773d 9f93 c3bc f08b 01bd ab2d 0a3d
00000180: 25c4 6fbd 63f7 1a3c be00 323d 0d92 f43c
00000190: 2ea8 203d 556d 71bd 0807 2ebc fae1 3abd
000001a0: b3a7 a13c 68b1 283d 2d3d 013d 400f af3d
000001b0: 9a50 19bc f42d 64bd 7290 503d 693a 823d
000001c0: c96d edbd d700 8aba b681 aabc e76c 453d
000001d0: 69c4 60bd eb35 e4bd 05e3 86bd 6c30 173d
000001e0: 3272 0fbc 46e9 63bc 0d82 513d 3a42 87bc
000001f0: 526e e438 f27d 983d 9a26 d53d d898 e63d
00000200: cb25 6bbd d404 31bd ec52 17bc dc7d 0fbb
00000210: dee6 ccbc bf52 033c c30d a8bd 191c fa3b
00000220: 9d0e 94bd a4b9 713d dfb0 99bc a975 883d
00000230: a6fe 303d 2de3 823c 4902 43bd 97dd 5ebd
00000240: fa7e edb9 82c9 92bc 221c 85bd 895a d63b
00000250: 403e a0bc 0542 9dbd e0b5 de3d eb26 edbc
00000260: 1999 943d 5cdc ed3c 8386 fe38 5e22 f1bb
00000270: 8163 83bd 4acb 8bbc 92f0 a83c c6f3 683d
00000280: c8c0 07bc 558b 8cbb ee01 59bc aae8 bf3c
00000290: 0583 87bd b9a6 91bc 12a6 f93d 4c36 09bc
000002a0: 2e4d a7bc 6bc9 f73c 1c48 06bc 81a8 c8bc
000002b0: fecf df38 39ec e93b ce53 e93b 1aab c3bb
000002c0: a3f5 073d 82e2 013c a319 89bc 75a6 9ebd
000002d0: 8772 63bb 44c2 ffbc e223 78bb 7ea0 733a
000002e0: 1f96 c13d d881 e4bb fd30 393d eabe b3bc
000002f0: 4e81 2a3d de95 17bd 56ec 543d d875 8b3d
00000300: 203a 9a3c 4d82 e53b e758 c1bd 8716 903d
00000310: 5f5c 1f3d c50d 6e3d 5ca8 be3d ed64 9d3d
00000320: 8678 b43c 41f2 ba3c 83ec b8bc 5ea3 a9bd
00000330: 0173 28bd 5362 f1bd 61d5 e0bd a34c 973c
00000340: 5fb7 dc3c 7951 033e 14e8 413d 1a9d 9fba
00000350: e7fe 60bd 39dc 893d 3563 04bc 9c2e af3d
00000360: 3c9a 6c3c 46ff c0bc 1528 cd3c faef 613d
00000370: cf5c 6b3d 3054 793a 91b9 3b3d a4c4 9e3c
00000380: 2cef c7bc 41d5 a83d 5786 20bd a0a8 c83c
00000390: ec5e 3bbd 4453 033d 2c21 783c acb2 11bc
000003a0: 6e07 293d 6db0 d9bd 0593 65bc d8eb e03d
000003b0: 7c19 4a3d 43e9 493c 8631 a9bc 6a24 d6bd
000003c0: 137a c23b 492e 29bb 9dcb 4d3c 8cfb 743c
000003d0: 9f5b 8fbd 74ec 903c b0ea ac3c 89b0 923d
000003e0: a360 8ebd bd20 a9bc 5128 1dbd 0bd8 073d
000003f0: 47ef 43bc a3a8 ecbc 39c7 e83b c783 93bc

bias f4 [128]
0.070993885 0.007033662 0.017549958 0.055951424 -0.014086772 0.029100148 0.004681423 0.025633048
0.09311932 0.031582743 -0.03664508 0.0009719374 -0.00036591236 -0.011683822 0.04675494 0.08471011
0.06553656 -0.06927474 -0.08049511 0.055662572 -0.022185024 -0.057111852 0.023650859 0.04513523
-0.028751174 -0.00023953286 -0.047216784 0.0869046 0.049908783 0.044457663 0.013573144 -0.06485079
-0.028539963 0.046777386 0.028531909 0.030439833 -0.072645165 -0.007824651 -0.03735773 -0.037098035
0.08644352 -0.015546895 0.02035915 0.08555943 -0.030469228 0.045956533 0.022915324 -0.00024673354
-0.013140201 -0.027352292 0.04450831 0.078278765 0.09350038 -0.048675444 -0.0663132 -0.038679767
0.021953834 -0.051412918 0.012207431 0.0763801 -0.02932484 0.06021206 -0.035791103 0.04953346
0.06421012 0.036347207 -0.03953222 0.031480838 0.018736761 -0.003506696 0.011544874 0.03183132
0.040202238 -0.058054928 0.047322176 0.014662807 0.030499035 -0.069837324 -0.035423156 -0.033810467
0.028009713 0.029488422 -0.032258693 0.045128264 -0.039284933 0.0018370617 -0.042135842 0.063575946
0.03528795 -0.037745383 0.02018442 0.06300755 0.04470553 -0.042672157 -0.005103989 0.031158846
0.02595433 -0.06707935 0.012731576 0.0306026 0.0029902565 0.017992023 -0.03291979 0.041678548
0.032216743 0.04790483 0.078062624 -0.02304886 -0.04901382 0.04298893 0.05053053 0.059294067
0.01030217 -0.006619667 0.006724656 0.047713708 -0.03904755 -0.0139481975 -0.038680263 0.032061078
0.06055755 -0.023414208 -0.023030503 0.0627805 0.02695812 0.055413056 -0.0020282678 -0.004765026
00000000: 3e65 913d a27a e63b eec4 8f3c 522d 653d
00000010: 34cc 66bc 6f63 ee3c 9f66 993b 66fc d13c
00000020: 58b5 be3d e85c 013d 2719 16bd 9dc9 7e3a
00000030: edd7 bfb9 806d 3fbc 1c82 3f3d 7f7c ad3d
00000040: 0838 863d eadf 8dbd 9fda a4bd 70fe 633d
00000050: 5ebd b5bc 1eee 69bd 72bf c13c b8df 383d
00000060: 9587 ebbc 1d2b 7bb9 6366 41bd 0afb b13d
00000070: 276d 4c3d 3d19 363d e461 5e3c 7ed0 84bd
00000080: a4cc e9bc a599 3f3d c0bb e93c f55c f93c
00000090: fdc6 94bd f732 00bc 6b04 19bd 1cf4 17bd
000000a0: 4d09 b13d 67b8 7ebc 3bc8 a63c c839 af3d
000000b0: 9a9a f9bc eb3c 3c3d ebb8 bb3c 045c 81b9
000000c0: ff49 57bc ea11 e0bc 584e 363d 9e50 a03d
000000d0: 217d bf3d e75f 47bd 37cf 87bd ad6e 1ebd
000000e0: 87d8 b33c 5a96 52bd ad01 483c 2b6d 9c3d
000000f0: a63a f0bc eca0 763d b199 12bd 99e3 4a3d
00000100: 9880 833d cfe0 143d 8aec 21bd 0df2 003d
00000110: d67d 993c 99d0 65bb b626 3d3c 8f61 023d
00000120: 1aab 243d 01cb 6dbd e6d4 413d 453c 703c
00000130: 1dd9 f93c df06 8fbd df17 11bd d87c 0abd
00000140: a074 e53c b491 f13c b121 04bd 6ad8 383d
00000150: 3de9 20bd 90c9 f03a a296 2cbd 1b34 823d
00000160: 198a 103d e79a 1abd cc59 a53c 1a0a 813d
00000170: 251d 373d 00c9 2ebd 5d3f a7bb d640 ff3c
00000180: 2d9e d43c e660 89bd 1a98 503c 4eb2 fa3c
00000190: 2ef8 433b 0264 933c e7d6 06bd 20b7 2a3d
000001a0: b4f5 033d db37 443d 4cdf 9f3d f6d0 bcbc
000001b0: b7c2 48bd 2915 303d 1af9 4e3d 56de 723d
000001c0: 6fca 283c cbe9 d8bb 815a dc3b 736f 433d
000001d0: 53f0 1fbd fb86 64bc 326f 1ebd 7a52 033d
000001e0: 320b 783d 27cf bfbc 77aa bcbc 1093 803d
000001f0: 46d7 dc3c cdf8 623d b0ec 04bb ef23 9cbb

weight f4 [64, 128]
0.06478402 0.0037356813 0.0790426 0.09173144 -0.003803177 0.116752304 -0.03035201 -0.104240134
0.036517687 0.010494177 -0.08914385 0.018579146 0.077934876 -0.0085344445 0.033760365 0.05707096
0.09468752 -0.0048210523 -0.01162517 0.109467566 0.038878057 0.05961395 0.109551996 0.11345517
0.07741821 -0.00036471948 -0.008214689 0.08022219 -0.038750898 -0.07374512 0.043470446 0.008330223
0.030856194 -0.029324127 -0.04379554 0.05564787 -0.0035246084 0.087311625 -0.05870369 -0.012283496
0.05984458 0.05575032 0.017718272 0.03788036 -0.026024027 0.12304288 -0.05365974 0.0572904
-0.045858752 0.05830683 0.015470377 -0.0092114955 -0.013606058 -0.07878314 -0.06306089 -0.046488468
0.04125822 0.019353492 -0.114510216 0.08898669 -0.03746608 -0.012539481 0.049456656 0.030657569
0.064582 0.040991228 -0.037844982 -0.056387782 0.042123247 -0.036973994 -0.054043546 0.0939691
-0.09306168 -0.106096506 0.110064566 0.026291987 0.056749262 -0.03343743 -0.018698117 -0.05103016
0.019297434 0.028092239 -0.0344862 -0.0100985225 0.017250761 0.0032471188 0.034562398 -0.007702326
0.005138763 -0.0054410454 -0.045086157 0.06611317 0.10838573 -0.011494658 -0.02486815 -0.03322597
-0.0627312 -0.030097852 0.05692867 -0.02531202 0.009557866 0.01124974 -0.106319934 0.022726871
-0.09170253 0.038481224 0.04834005 0.05256898 0.032264758 0.03361157 -0.0029271296 0.087335005
0.07154804 -0.008031734 0.098131336 -0.046450384 -0.0013618049 -0.06851896 0.05475176 -0.005073471
-0.017360715 -0.0742246 -0.050056703 0.06407784 -0.08379816 0.04643647 0.018856388 -0.09438638
-0.053524274 0.060936555 0.04121883 0.10042191 -0.08940593 0.009292803 0.038815048 -0.08027564
0.043405417 -0.05751279 -0.07111439 -0.09109159 -0.00064182153 0.047721937 0.007664125 0.016144857
-0.038053017 0.05994196 -0.08869466 0.045772105 0.032595642 0.053151734 -0.054749817 0.0975294
-0.062318195 0.05705564 -0.09341106 0.075617015 -0.01620251 0.03299977 0.044475604 0.04756341
-0.085452266 -0.013356541 -0.0073723625 0.036086448 0.026056658 0.11090955 -0.009858452 0.05780687
0.05512649 0.052980844 -0.04903561 0.02111582 -0.021031914 0.03837944 0.029728815 -0.008107101
0.03954109 0.0429264 -0.072812915 -0.009659535 -0.050191093 -0.05503418 -0.006395768 0.098798186
-0.042880863 0.021482343 -0.09732947 -0.06452637 -0.0021946332 0.015341721 0.08391798 0.09367996
-0.07940956 -0.1013984 -0.09515295 0.030835344 -0.050251946 -0.08885091 -0.028661905 0.12990488
-0.05988966 0.05007792 0.020402726 0.117964916 0.0060287113 0.048520043 -0.04721767 -0.021712136
-0.049446788 0.07785088 -0.10098854 0.0043211114 0.07929337 0.016642628 0.08568497 -0.06996273
-0.07486026 0.027758412 -0.09385552 0.018970389 0.027737511 -0.021594336 0.012408909 0.069601536
0.018095342 0.011301527 -0.1041268 0.0047872956 0.100138016 0.0026486192 -0.073156275 -0.040144984
0.009968286 -0.013438047 0.043840982 -0.040821902 -0.07080339 0.08383959 -0.039849617 0.10952814
0.10293872 -0.010432691 0.0017497 -0.081181996 -0.10907166 -0.04970283 -0.078165 0.024021685
0.061837282 0.044480264 0.055792872 0.010751334 0.051218938 0.06971795 0.023807691 -0.03165129
00000000: 7cad 843d 55d2 743b 16e1 a13d b1dd bb3d
00000010: b93e 79bb d51b ef3d c7a4 f8bc da7b d5bd
00000020: 9293 153d c5ef 2b3c 0d91 b6bd 4b33 983c
00000030: 529c 9f3d 0ed4 0bbc 4f48 0a3d 3dc3 693d
00000040: 88eb c13d ebf9 9dbb 7f77 3ebc 8830 e03d
00000050: 993e 1f3d c22d 743d cc5c e03d 2f5b e83d
00000060: 708d 9e3d d237 bfb9 e796 06bc 884b a43d
00000070: 43b9 1ebd ae07 97bd 110e 323d 7d7b 083c
00000080: 21c6 fc3c 2739 f0bc f462 33bd 05ef 633d
00000090: 1efd 66bb 70d0 b23d 4873 70bd b740 49bc
000000a0: 971f 753d 735a 643d e925 913c 7028 1b3d
000000b0: 5730 d5bc e8fd fb3d 51ca 5bbd 57a9 6a3d
000000c0: 63d6 3bbd 24d3 6e3d 7777 7d3c d0eb 16bc
000000d0: f2eb 5ebc 0e59 a1bd 1126 81bd b16a 3ebd
000000e0: 61fe 283d 378b 9e3c 5584 eabd a73e b63d
000000f0: 0876 19bd 6572 4dbc 1093 4a3d 9525 fb3c
00000100: 9143 843d 6be6 273d 5703 1bbd e0f6 66bd
00000110: 6d89 2c3d 0b72 17bd c45c 5dbd df72 c03d
00000120: 1f97 bebd 2049 d9bd 8869 e13d 4b62 d73c
00000130: ea71 683d b0f5 08bd cb2c 99bc 0005 51bd
00000140: a715 9e3c b221 e63c 6741 0dbd 4674 25bc
00000150: 7851 8d3c 9dcd 543b 4d91 0d3d cb63 fcbb
00000160: 1263 a83b cc4a b2bb 43ac 38bd 5766 873d
00000170: 56f9 dd3d 1754 3cbc 4ab8 cbbc f417 08bd
00000180: 3779 80bd c58f f6bc 092e 693d 275b cfbc
00000190: 9898 1c3c d450 383c 44be d9bd b42d ba3c
000001a0: 89ce bbbd 7d9e 1d3d 3700 463d 9252 573d
000001b0: 0d28 043d 49ac 093d 16d5 3fbb b2dc b23d
000001c0: c787 923d 8997 03bc 15f9 c83d c242 3ebd
000001d0: 977e b2ba ab53 8cbd 6243 603d 5c3f a6bb
000001e0: 0f38 8ebc 1103 98bd 4208 4dbd 3e3b 833d
000001f0: 5f9e abbd 2b34 3e3d b678 9a3c a54d c1bd
00000200: 453c 5bbd 9c98 793d 13d5 283d 01aa cd3d
00000210: 751a b7bd d740 183c 87fc 1e3d 8e67 a4bd
00000220: e1c9 313d 8892 6bbd 6ca4 91bd 3a8e babd
00000230: ea3f 28ba 1478 433d 5723 fb3b 3842 843c
00000240: 7bdd 1bbd b385 753d 8ca5 b5bd 887b 3b3d
00000250: 0283 053d a2b5 593d 5841 60bd 7ebd c73d
00000260: 5d41 7fbd 2db3 693d 4c4e bfbd 18dd 9a3d
00000270: 20bb 84bc c42a 073d 0d2c 363d dad1 423d
00000280: 9901 afbd 65d5 5abc dc93 f1bb 62cf 133d
00000290: c674 d53c 8c24 e33d 5885 21bc e6c6 6c3d
000002a0: 50cc 613d 7102 593d 90d9 48bd 16fb ac3c
000002b0: 1f4b acbc c233 1d3d d889 f33c a5d3 04bc
000002c0: d7f5 213d 98d3 2f3d f01e 95bd 0743 1ebc
000002d0: 2d95 4dbd 856b 61bd 9793 d1bb b456 ca3d
000002e0: d8a3 2fbd bdfb af3c ac54 c7bd 6726 84bd
000002f0: d6d3 0fbb d75b 7b3c 31dd ab3d 47db bf3d
00000300: 7ba1 a2bd f7a9 cfbd 8ddf c2bd 679a fc3c
00000310: fcd4 4dbd 77f7 b5bd 5fcc eabc c905 053e
00000320: dc4e 75bd 811e 4d3d 9e23 a73c 9797 f13d
00000330: 7f8c c53b f4bc 463d 5167 41bd a6dd b1bc
00000340: b788 4abd 4870 9f3d 14d3 cebd 1c98 8d3b
00000350: 9064 a23d 1f56 883c 9a7b af3d 9f48 8fbd
00000360: 5650 99bd 9c65 e33c 5337 c0bd ca67 9b3c
00000370: c739 e33c 9be6 b0bc bd4e 4b3c 408b 8e3d
00000380: af3c 943c 0a2a 393c 6f40 d5bd bfde 9c3b
00000390: 2915 cd3d 7594 2d3b f5d2 95bd 116f 24bd
000003a0: 0652 233c 412b 5cbc 9a92 333d de34 27bd
000003b0: 5e01 91bd 17b4 ab3d 5a39 23bd 4a50 e03d
000003c0: 89d1 d23d e1ed 2abc 3156 e53a bf42 a6bd
000003d0: f660 dfbd 3295 4bbd f914 a0bd 20c9 c43c
000003e0: 1749 7d3d f030 363d 1187 643d 5d26 303c
000003f0: f3ca 513d 49c8 8e3d 5908 c33c c8a4 01bd

bias f4 [64]
-0.015615853 0.0293601 0.08622734 -0.007924175 0.024969112 0.05199261 0.06414878 0.02752646
-0.09813952 0.013765751 0.040591523 -0.017610567 0.093244545 0.008660299 -0.0030131573 -0.033371646
-0.021354651 0.07622508 -0.03760394 0.05785609 -0.029920435 -0.0721616 0.00846322 -0.0019082513
-0.03884968 0.09279638 -0.021504892 0.019525852 0.061599415 -0.015849704 -0.061292004 0.10443923
0.112447426 0.04469508 0.0895306 -0.050971474 -0.030702647 0.010488179 0.080186 -0.021613136
0.07444237 0.04013328 0.008531752 0.016649058 0.06468454 0.10525987 0.053195026 0.01905767
-0.07631669 0.007401417 0.063918665 0.07957767 0.008998602 0.10014192 -0.019563597 -0.06172425
0.079968646 0.09337938 -0.025169844 -0.038195536 -0.04104101 -0.007862522 0.06825539 0.0131745525
00000000: a2d9 7fbc 9884 f03c f697 b03d 66d4 01bc
00000010: 068c cc3c 34f6 543d 7060 833d 2c7f e13c
00000020: 5ffd c8bd bf89 613c 4c43 263d 0944 90bc
00000030: fff6 be3d ede3 0d3c 6478 45bb b5b0 08bd
00000040: f3ef aebc e51b 9c3d 9706 1abd 82fa 6c3d
00000050: b31b f5bc 76c9 93bd 51a9 0a3c 4a1e faba
00000060: d820 1fbd 070c be3d 072b b0bc aef4 9f3c
00000070: ab4f 7c3d 3dd7 81bc 530d 7bbd 3ce4 d53d
00000080: d64a e63d 3012 373d d25b b73d 77c7 50bd
00000090: 1e84 fbbc 9cd6 2b3c 8f38 a43d 080e b1bc
000000a0: 3e75 983d cb62 243d c3c8 0b3c 9b63 883c
000000b0: 5479 843d 7d92 d73d 07e3 593d d51e 9c3c
000000c0: ed4b 9cbd 9687 f23b cae7 823d 9ef9 a23d
000000d0: df6e 133c 3517 cd3d d643 a0bc 91d2 7cbd
000000e0: 9ac6 a33d b03d bf3d fd30 cebc ec72 1cbd
000000f0: 9e1a 28bd cfd1 00bc 7bc9 8b3d 14da 573c

weight f4 [5, 64]
-0.011829101 -0.07676232 0.13138808 0.1814035 0.005343708 0.11513466 0.05370819 0.18306996
-0.11547426 0.1262848 -0.12219319 0.08147783 0.015957795 -0.08380179 -0.0017922993 -0.1574514
0.11481813 0.142249 -0.03317098 -0.116185494 -0.052554432 -0.15526639 -0.05324424 0.02507665
0.06271008 0.081842214 0.025324332 -0.040896196 0.10930084 -0.05198283 0.068059266 0.16755413
-0.0048386496 0.17980275 -0.11589489 -0.11270027 -0.19920853 0.10891239 -0.0055159805 0.03169159
0.053389214 -0.17009881 0.0867682 0.00078112655 0.028745297 0.048015457 0.14623089 -0.11478672
-0.11927163 -0.11059094 0.058134537 -0.19140299 0.09735859 -0.0882356 -0.051407125 -0.005688551
0.15902591 0.14920262 0.14169474 0.056206934 -0.122376174 0.15366417 -0.011528304 -0.16281217
0.050130475 0.15743116 -0.010382456 -0.18456566 -0.038524244 -0.14075562 0.09106475 -0.115364365
0.09616144 0.10315552 0.08012398 -0.015349159 0.10394808 0.0019453975 -0.032334816 -0.11342699
-0.1018423 0.09473395 0.014463611 0.010342905 0.055241782 0.13910474 0.095191985 0.034727063
0.083815336 -0.12340038 -0.00462461 0.06452988 -0.043631487 0.1551123 -0.032186724 0.025626054
0.13351038 -0.009871196 0.121316686 0.011200292 0.04500842 -0.12156905 -0.100756496 -0.07625271
0.15039113 -0.09755969 -0.11735583 -0.03283302 0.057614855 0.048093904 -0.106979705 0.045406252
0.099217005 0.03096433 0.03017186 -0.020431014 -0.056767456 0.15778601 0.14303745 0.10393597
0.053674426 0.06571014 0.01663748 0.07652994 0.10654018 0.054002956 -0.00795846 -0.018237293
-0.06411589 -0.12163851 0.10481659 -0.06805304 -0.0050528315 -0.10236039 -0.058833152 0.06688747
0.03836232 0.04415746 0.00088130654 -0.13594125 0.110751815 -0.08976851 0.011811122 -0.077214025
0.06836559 0.09914326 -0.035295997 -0.083651796 0.085480504 0.062473275 0.08606028 0.07517978
0.059996955 -0.012493318 -0.14153217 -0.04175915 -0.029940657 0.09032289 0.00093597145 0.04493491
-0.043380845 -0.08841747 0.076948784 -0.07743091 0.13366108 0.08606526 0.12930073 0.08535586
-0.0734236 0.09585796 0.050812572 0.047633845 -0.0737501 0.047738846 -0.11894508 -0.023958616
-0.042364273 -0.038666606 0.0067631355 -0.0723123 0.019494733 -0.09428282 0.0021242455 -0.04513266
0.10143621 -0.116584554 -0.061859928 -0.02227932 0.08509212 0.08192287 0.0693001 0.024851015
0.037592422 -0.10906536 -0.06887977 -0.010448855 0.03639662 -0.046403922 -0.07508044 0.093410976
0.10692481 0.033283923 0.058103446 0.02887906 -0.047483187 0.0048254165 0.051922783 0.007817516
0.077718884 -0.06160439 -0.01900768 -0.044016454 -0.12354651 0.005313847 -0.06542735 0.12208788
0.031559013 -0.11931205 0.12852146 0.038954105 0.027339654 0.017388875 0.08379485 -0.14285246
0.0044948664 -0.0071403007 0.0043607936 0.0016446039 0.10825018 -0.015313964 -0.085366674 0.0840017
-0.027093353 0.0656549 -0.061302744 0.07818481 -0.082316026 -0.014021529 0.012105187 0.098319024
0.048200537 0.0845894 -0.056639437 0.062872306 -0.09633498 -0.095803484 0.04947386 -0.06494072
0.0460089 0.0535531 -0.010892964 0.018240362 -0.05975786 -0.007786419 0.026703361 0.06436675
00000000: d8ce 41bc 9035 9dbd 998a 063e d7c1 393e
00000010: 461a af3b b8cb eb3d 1efd 5b3d b176 3b3e
00000020: c57d ecbd cd50 013e 6c40 fabd d9dd a63d
00000030: ecb9 823c 46a0 abbd 96eb eaba f13a 21be
00000040: c525 eb3d b9a9 113e 4bde 07bd a9f2 edbd
00000050: 5143 57bd 27fe 1ebe a216 5abd 8c6d cd3c
00000060: 246e 803d e49c a73d f974 cf3c c582 27bd
00000070: 1ed9 df3d f3eb 54bd a862 8b3d 4f93 2b3e
00000080: 898d 9ebb 361e 383e 4d5a edbd 66cf e6bd
00000090: 52fd 4bbe 760d df3d 66bf b4bb 0acf 013d
000000a0: a6ae 5a3d 622e 2ebe 87b3 b13d 84c4 4c3a
000000b0: 427b eb3c dbab 443d 8dbd 153e 4d15 ebbd
000000c0: af44 f4bd 817d e2bd 7b1e 6e3d 25ff 43be
000000d0: f163 c73d deb4 b4bd 4790 52bd 0667 babb
000000e0: b0d7 223e 92c8 183e 6d18 113e 3e39 663d
000000f0: 5ca0 fabd 245a 1d3e 36e1 3cbc 3cb8 26be
00000100: 9d55 4d3d a235 213e 2d1b 2abc c8fe 3cbe
00000110: 99cb 1dbd 3e22 10be 2880 ba3d 2744 ecbd
00000120: 4af0 c43d 3443 d33d 0b18 a43d 0a7b 7bbc
00000130: bbe2 d43d b5fc fe3a 8371 04bd 694c e8bd
00000140: b292 d0bd e003 c23d c8f8 6c3c 4a75 293c
00000150: 3545 623d 7971 0e3e 04f4 c23d f73d 0e3d
00000160: 60a7 ab3d 57b9 fcbd 0a8a 97bb 3e28 843d
00000170: eeb6 32bd c2d5 1e3e 3ad6 03bd bbed d13c
00000180: f2b6 083e ccba 21bc e274 f83d 6e81 373c
00000190: c05a 383d 32f9 f8bd 6c59 cebd 612a 9cbd
000001a0: 2200 1a3e 60cd c7bd 4158 f0bd eb7b 06bd
000001b0: 8efd 6b3d 1dfe 443d 2d18 dbbd e8fb 393d
000001c0: 4932 cb3d e8a8 fd3c fa2a f73c f15e a7bc
000001d0: fe84 68bd a892 213e 6978 123e 62dc d43d
000001e0: b7d9 5b3d 0a93 863d 534b 883c bbbb 9c3d
000001f0: bd31 da3d 3432 5d3d 3364 02bc 6066 95bc
00000200: 314f 83bd 9c1d f9bd 15aa d63d 645f 8bbd
00000210: 3992 a5bb 53a2 d1bd 08fb 70bd 4cfc 883d
00000220: cf21 1d3d 74de 343d 7b07 673a 2f34 0bbe
00000230: d9d1 e23d 8dd8 b7bd 7083 413c 6322 9ebd
00000240: 4203 8c3d 9f0b cb3d 8992 10bd a251 abbd
00000250: 6710 af3d fae3 7f3d 5f40 b03d dbf7 993d
00000260: 5ebf 753d c6b0 4cbc cfed 10be a40b 2bbd
00000270: 1c46 f5bc 35fb b83d fb5b 753a ab0d 383d
00000280: 1db0 31bd 3814 b5bd 5397 9d3d 1994 9ebd
00000290: 73de 083e fc42 b03d 6967 043e 0ecf ae3d
000002a0: 1d5f 96bd 2e51 c43d d820 503d b51b 433d
000002b0: 4b0a 97bd cf89 433d 7a99 f3bd dc44 c4bc
000002c0: 2986 2dbd e060 1ebd 4b9d dd3b 7918 94bd
000002d0: 6bb3 9f3c 5a17 c1bd ed36 0b3b 06dd 38bd
000002e0: cabd cf3d e2c3 eebd d660 7dbd 1f83 b6bc
000002f0: c744 ae3d 2dc7 a73d 36ed 8d3d 5b94 cb3c
00000300: 83fa 193d a95d dfbd d610 8dbd ad31 2bbc
00000310: 9f14 153d 0a12 3ebd c6c3 99bd 414e bf3d
00000320: 65fb da3d b954 083d e1fd 6d3d c793 ec3c
00000330: bb7d 42bd 871e 9e3b fcac 543d 0a15 003c
00000340: 142b 9f3d e354 7cbd feb5 9bbc 994a 34bd
00000350: f405 fdbd c81f ae3b c6fe 85bd 3609 fa3d
00000360: 0644 013d e059 f4bd 219b 033e 578e 1f3d
00000370: 69f7 df3c 1d73 8e3c a29c ab3d ea47 12be
00000380: ac49 933b 2ff9 e9bb fde4 8e3b c08f d73a
00000390: 45b2 dd3d 6ce7 7abc b9d4 aebd 1509 ac3d
000003a0: e1f2 ddbc 1476 863d 9618 7bbd 5c1f a03d
000003b0: 4e95 a8bd 8eba 65bc d654 463c 7c5b c93d
000003c0: ed6d 453d 353d ad3d c1fe 67bd 32c3 803d
000003d0: 464b c5bd 9e34 c4bd 1aa5 4a3d a4ff 84bd
000003e0: d473 3c3d 7f5a 5b3d 6778 32bc d06c 953c
000003f0: a8c4 74bd 3725 ffbb 02c1 da3c b7d2 833d

bias f4 [5]
0.12038434 -0.09437337 0.11057456 0.09742949 -0.017893251
00000000: 118c f63d d346 c1bd ea74 e23d 1d89 c73d
00000010: de94 92bc
