Policy-Gradients/Poker-Agent/checkpoint_40000.pt (torch, 227369 bytes, 8 tensors)

weight f4 [256, 55]
-0.022950018 -0.03395871 -0.09471478 -0.03140184 0.116892315 0.1539967 -0.044531908 0.040245406
0.09929589 0.09313019 0.12154924 0.018895986 0.10641607 0.074572936 0.024832493 0.15338731
0.11105523 -0.025783964 -0.0060847155 0.10895924 -0.05869117 -0.14138784 -0.047682807 -0.016349953
-0.0010941093 -0.093057156 -0.10527713 -0.06344715 -0.047088142 0.09747335 -0.10252579 0.0045825867
-0.058683112 0.06060222 0.08629098 -0.095629886 0.020802615 -0.088897854 0.07818545 0.048159707
-0.048584446 -0.09679743 0.10963467 -0.0846565 -0.06845667 0.05182205 -0.03441488 0.03136697
0.017508665 0.023590263 -0.117407195 -0.06605238 0.017514437 -0.029151479 0.12126443 0.076864704
-0.1123914 0.08760531 0.05550692 -0.104658075 -0.07863269 0.117671855 -0.012673809 -0.062069777
-0.036930375 0.091684386 -0.06815126 0.0059457202 -0.11891979 0.077658564 -0.016462954 0.09520731
0.12150642 -0.13957813 -0.07790422 0.103297494 0.010606761 0.15853116 -0.07328181 0.036812603
0.023766847 0.0743118 -0.033840172 0.11752627 0.0029912745 0.008220877 -0.12136621 0.11482632
-0.09107442 0.05215325 -0.043470982 0.04871098 -0.09349156 0.08877523 -0.12540421 -0.09945621
-0.057457004 -0.039412733 0.12073667 -0.05229868 0.071889795 -0.047863 0.10287315 -0.03698209
-0.050083444 0.09654887 -0.04355499 -0.017254341 0.07630966 -0.073915906 -0.0978869 0.11218237
0.08488919 0.05512805 0.14532444 0.08780468 0.08202599 0.08262842 0.101662815 -0.12181963
0.06540154 0.14080398 0.062881775 -0.0075154514 0.115945585 0.05090513 0.08297389 0.12535235
0.0057778647 0.08288238 0.0018058376 0.037206776 0.015042132 0.11499673 -0.004622535 -0.13520403
-0.053807367 0.14469022 -0.048161145 0.05314598 -0.1038192 0.013060529 0.05739541 0.11152515
-0.012207592 -0.07872327 0.10208162 -0.035451915 -0.0667121 0.08017595 -0.02590767 0.051645365
0.1325133 -0.06955674 -0.082230255 -0.09351602 -0.012390122 -0.12266709 0.051855475 -0.009670487
0.10807086 -0.08864952 0.13314386 -0.07702111 0.10135553 -0.029985111 -0.05157502 0.055643316
0.115649894 -0.030739091 -0.0049825273 0.057571437 0.12879701 0.22594476 -0.10889026 0.011095881
0.1437046 -0.05322966 0.048217658 -0.09324478 0.072845906 -0.07806368 0.028672127 0.14001065
-0.07835109 0.08651223 -0.14030537 0.12280527 0.11587777 0.18871263 0.032128878 0.0116527155
-0.063700065 0.047094546 -0.026532892 -0.08664189 -0.0008001185 0.0008628758 0.086363964 0.05098018
-0.015783407 -0.041532017 -0.083493136 -0.018894533 0.09870215 0.036909 -0.12635851 -0.042460144
0.11438418 -0.068849124 -0.12753922 -0.13475083 -0.013337711 0.10091225 0.06705085 -0.020818118
0.07519979 -0.0018814993 0.06418093 0.045084495 0.054409575 0.1249204 -0.0862897 -0.12328245
0.037738487 -0.11220199 -0.041025836 0.06756801 -0.18593647 -0.058565997 -0.09183532 -0.04204951
0.08081176 0.12504686 -0.084119804 -0.06527767 -0.14245112 0.11300947 0.082836345 0.1326454
-0.14421669 -0.0779761 -0.08262378 -0.021091836 0.0069052903 -0.112496585 0.021674652 -0.059027154
-0.08352937 -0.11412343 0.14669333 0.050542362 0.05995955 0.058771785 0.07966954 -0.117336236
00000000: ad01 bcbc 4a18 0bbd d3f9 c1bd 379f 00bd
00000010: 3d65 ef3d 50b1 1d3e 1767 36bd 5ed8 243d
00000020: a55b cb3d 0bbb be3d cfee f83d c1cb 9a3c
00000030: abf0 d93d b2b9 983d 836d cb3c 9011 1d3e
00000040: ed70 e33d e438 d3bc 4b62 c7bb 0626 df3d
00000050: 2766 70bd f9c7 10be 0c4f 43bd 56f0 85bc
00000060: 3768 8fba c094 bebd 899b d7bd 94f0 81bd
00000070: 7fdf 40bd 1ca0 c73d 0bf9 d1bd 8629 963b
00000080: b45d 70bd 093a 783d 53b9 b03d 9ad9 c3bd
00000090: 3f6a aa3c 1410 b6bd b11f a03d 1d43 453d
000000a0: 7c00 47bd bb3d c6bd 2488 e03d 6360 adbd
000000b0: 0333 8cbd 5c43 543d 9ef6 0cbd a77a 003d
000000c0: 556e 8f3c 5e40 c13c 2f73 f0bd 7846 87bd
000000d0: 707a 8f3c 15cf eebc 7c59 f83d 3e6b 9d3d
000000e0: 762d e6bd 6a6a b33d 395b 633d f956 d6bd
000000f0: 2d0a a1bd f1fd f03d cfa5 4fbc e13c 7ebd
00000100: 4e44 17bd 06c5 bb3d e392 8bbd 51d4 c23b
00000110: 388c f3bd 740b 9f3d 51dd 86bc 0dfc c23d
00000120: 5cd8 f83d 92ed 0ebe 3f8c 9fbd a38d d33d
00000130: fbc7 2d3c fe55 223e c614 96bd d0c8 163d
00000140: b1b2 c23c c930 983d fe9b 0abd 9db1 f03d
00000150: 4209 443b dbb0 063c d98e f8bd 102a eb3d
00000160: 3a85 babd a59e 553d a10e 32bd 2a85 473d
00000170: 8178 bfbd cacf b53d f669 00be b3af cbbd
00000180: 0958 6bbd 3f6f 21bd ca44 f73d 2437 56bd
00000190: f53a 933d fe0b 44bd 28af d23d 887a 17bd
000001a0: 4c24 4dbd 6abb c53d b866 32bd fa58 8dbc
000001b0: 3d48 9c3d 3961 97bd ed78 c8bd dfbf e53d
000001c0: 62da ad3d f3cd 613d eecf 143e f1d2 b33d
000001d0: 3efd a73d 1739 a93d 9834 d03d 927c f9bd
000001e0: 3ef1 853d eb2e 103e 29c8 803d 2d44 f6bb
000001f0: e174 ed3d e681 503d 37ee a93d 5e5c 003e
00000200: 3e54 bd3b 3dbe a93d dbb1 ec3a 2266 183d
00000210: 4673 763c 6883 eb3d a278 97bb ed72 0abe
00000220: 1d65 5cbd ac29 143e 9f44 45bd 99af 593d
00000230: 299f d4bd d4fb 553c 7317 6b3d 4c67 e43d
00000240: 5a02 48bc aa39 a1bd 2b10 d13d 0736 11bd
00000250: 5aa0 88bd 4a33 a43d 523c d4bc 178a 533d
00000260: 91b1 073e c473 8ebd 5668 a8bd 5485 bfbd
00000270: f0ff 4abc e238 fbbd 6866 543d f670 1ebc
00000280: 4154 dd3d e18d b5bd dd56 083e 3ebd 9dbd
00000290: 7d93 cf3d 56a3 f5bc 5440 53bd 3fea 633d
000002a0: dad9 ec3d 8cd0 fbbc 7844 a3bb 07d0 6b3d
000002b0: 5de3 033e 105e 673e db01 dfbd 80cb 353c
000002c0: 4c27 133e 5807 5abd e17f 453d 1ff7 bebd
000002d0: 3c30 953d dadf 9fbd cfe1 ea3c f45e 0f3e
000002e0: 8976 a0bd 532d b13d 36ac 0fbe 5481 fb3d
000002f0: 5351 ed3d e23d 413e 9299 033d 08eb 3e3c
00000300: 2e75 82bd 36e6 403d 825b d9bc 4e71 b1bd
00000310: 0bbf 51ba 9d32 623a 97df b03d 98d0 503d
00000320: 344c 81bc 7a1d 2abd 73fe aabd b5c8 9abc
00000330: 5a24 ca3d e42d 173d 2064 01be b0ea 2dbd
00000340: 4142 ea3d c500 8dbd a499 02be 1ffc 09be
00000350: 6a86 5abc 15ab ce3d f551 893d c28a aabc
00000360: 5902 9a3d a49c f6ba 4b71 833d 85aa 383d
00000370: 93dc 5e3d 44d6 ff3d a7b8 b0bd 827b fcbd
00000380: ac93 1a3d 28ca e5bd b50a 28bd 1961 8a3d
00000390: 2166 3ebe e6e2 6fbd 2814 bcbd 1b3c 2cbd
000003a0: a380 a53d 490c 003e 0147 acbd 4db0 85bd
000003b0: b5de 11be 8271 e73d 1aa6 a93d 32d4 073e
000003c0: 8aad 13be efb1 9fbd a836 a9bd c9c8 acbc
000003d0: c645 e23b 9c64 e6bd 0a8f b13c 75c6 71bd
000003e0: 7211 abbd 8bb9 e9bd c736 163e 8205 4f3d
000003f0: 2598 753d afba 703d c929 a33d fb4d f0bd

bias f4 [256]
0.004788962 0.08584982 -0.08791418 0.01706458 -0.02556387 0.13895962 -0.06195695 -0.05774959
-0.025566343 -0.052788865 0.026254104 -0.10416935 0.08667173 0.056317527 0.12865877 0.12899567
-0.013838316 0.09617625 0.053392924 0.09482218 0.09944043 0.0979226 -0.050410688 0.11941655
0.07161855 -0.09405665 0.04101929 0.12886219 -0.019204432 0.088689454 0.14421748 -0.017533977
-0.0088114 0.06680533 -0.015004273 0.007648811 0.10960827 -0.055181503 -0.0032889938 -0.07064136
0.122591026 0.16637224 -0.039278302 0.10086029 0.022057876 0.11700426 0.14478132 0.084252365
-0.1140947 0.124221355 -0.1038628 0.11103347 -0.010873437 -0.13049248 0.004437762 0.086960584
-0.09290089 0.07135647 -0.11666422 0.04509095 -0.101377115 0.0033045406 0.01564433 -0.028021462
-0.00013868751 0.020528115 -0.031531196 0.15587811 0.028656824 0.08074986 -0.10748661 -0.052821126
-0.082630225 0.044482984 -0.093797795 0.14410757 0.062995926 0.16506952 0.09232499 -0.10846458
-0.018100278 -0.010036991 0.12577805 0.0016000243 -0.12675168 0.07512622 0.043360922 -0.085734695
-0.1043392 0.026029928 -0.13364908 -0.109853454 0.06243251 0.031109763 0.025717175 -0.048764963
-0.08697186 0.08679417 0.012167157 0.06179537 -0.13580352 0.039213255 -0.061332993 -0.11108011
0.10339159 0.11618169 -0.023691066 -0.03105299 0.16159716 -0.090225644 -0.02018801 0.113017105
0.105046436 0.040762346 0.01642255 0.027514163 -0.12516128 -0.09076255 0.1051052 0.029148744
-0.032115575 -0.075014204 0.06214391 -0.11771986 0.03765127 0.053628895 -0.1116927 -0.061413847
0.093917444 0.11535026 -0.10286708 0.09924739 -0.027025497 0.05563443 -0.006576521 -0.04447665
0.053416364 0.058073264 -0.013669979 -0.07983661 0.06313122 -0.12192035 0.06588853 -0.04443335
-0.07928123 -0.0023210733 -0.10611951 0.04764374 0.017591624 0.15613475 -0.055420075 0.009613597
0.051364966 -0.104249544 -0.12587416 0.10802037 0.077577256 0.09774167 0.1144759 -0.058800668
0.019978175 0.06252225 0.07244698 0.094115056 0.13588649 0.13091797 -0.04860034 0.10000381
0.1535437 0.014609561 -0.09507706 0.026894856 -0.05843427 0.09102759 0.0729153 0.1105265
-0.0032126424 -0.054659497 -0.10067173 0.082842015 0.11544556 -0.038092285 -0.07524706 -0.036887325
0.0028869426 -0.10227671 0.058143087 0.14260407 0.11451714 -0.10415608 -0.113196716 0.0926266
0.035545766 0.11623338 0.09031481 0.09093529 0.048308946 0.025379878 -0.040062282 0.082669586
-0.056285042 0.01595879 -0.09354531 0.11824107 0.07772405 -0.028151441 0.02179292 0.023169884
-0.07774415 -0.05106769 0.010612707 0.10640025 -0.04094916 0.11395077 -0.11094784 0.034240466
-0.02104065 -0.01862793 0.032304034 0.011487757 -0.1153571 0.1586197 -0.07179906 0.053918313
-0.05147495 0.15812212 -0.09805195 0.08237793 0.009773719 0.11347722 -0.10255815 -0.10904434
0.10262553 0.033671077 -0.01640712 0.075546406 -0.03340164 -0.04985133 0.08213364 -0.022572836
0.06045978 0.049162608 0.013682461 0.023354717 -0.030591678 0.13241059 -0.024561008 0.10181167
0.070292525 0.11710686 -0.030152446 0.033180833 0.052253824 0.08320506 -0.029449428 0.06380634
00000000: baec 9c3b 08d2 af3d 590c b4bd 05cb 8b3c
00000010: 526b d1bc 6e4b 0e3e 92c6 7dbd d68a 6cbd
00000020: 8270 d1bc 2339 58bd d912 d73c bd56 d5bd
00000030: f380 b13d 35ad 663d 20bf 033e 7117 043e
00000040: 1bba 62bc 0ef8 c43d 8ab2 5a3d 2232 c23d
00000050: 6da7 cb3d a58b c83d 707b 4ebd aa90 f43d
00000060: bfac 923d c6a0 c0bd d803 283d 73f4 033e
00000070: 9d52 9dbc d1a2 b53d bfad 133e 6aa3 8fbc
00000080: b15d 10bc 3cd1 883d 7bd4 75bc e1a2 fa3b
00000090: 4d7a e03d 0006 62bd 298c 57bb 6bac 90bd
000000a0: 0111 fb3d 7c5d 2a3e 49e2 20bd d78f ce3d
000000b0: b8b2 b43c ee9f ef3d 8e41 143e 818c ac3d
000000c0: 7baa e9bd c467 fe3d 05b6 d4bd 8465 e33d
000000d0: 8026 32bc d29f 05be a56a 913b 6418 b23d
000000e0: d242 bebd 5723 923d a7ed eebd 4ab1 383d
000000f0: ce9e cfbd fe90 583b 8a28 803c 448d e5bc
00000100: a56c 11b9 942a a83c db26 01bd 839e 1f3e
00000110: b7c1 ea3c 2f60 a53d f121 dcbd f75a 58bd
00000120: 093a a9bd ca33 363d 0f19 c0bd ef90 133e
00000130: 0204 813d fc07 293e e214 bd3d ad22 debd
00000140: 0947 94bc 3172 24bc f6cb 003e e8b7 d13a
00000150: 31cb 01be c7db 993d 399b 313d ac95 afbd
00000160: caaf d5bd b73c d53c 4edb 08be d9fa e0bd
00000170: 3bb9 7f3d e7d9 fe3c d3ac d23c c5bd 47bd
00000180: 4d1e b2bd 24c1 b13d c158 473c 241d 7d3d
00000190: 1410 0bbe 149e 203d 4e38 7bbd f87d e3bd
000001a0: f8be d33d aaf0 ed3d c413 c2bc d762 febc
000001b0: ba79 253e 39c8 b8bd 5361 a5bc 8375 e73d
000001c0: 9622 d73d 6bf6 263d 9588 863c 6265 e13c
000001d0: 472a 00be b7e1 b9bd 6541 d73d 59c9 ee3c
000001e0: 9f8b 03bd 0ca1 99bd 9d8a 7e3d 1c17 f1bd
000001f0: 3838 1a3d f9a9 5b3d 24bf e4bd 168d 7bbd
00000200: ca57 c03d c23c ec3d faab d2bd 3742 cb3d
00000210: 9364 ddbc eee0 633d db7f d7bb 262d 36bd
00000220: 1ecb 5a3d 3bde 6d3d 0cf8 5fbc 6081 a3bd
00000230: f14a 813d 60b1 f9bd 91f0 863d bfff 35bd
00000240: 335e a2bd 261d 18bb 3055 d9bd 1526 433d
00000250: 4f1c 903c cae1 1f3e 2900 63bd 5982 1d3c
00000260: 1264 523d c980 d5bd 28e5 00be c939 dd3d
00000270: d3e0 9e3d c92c c83d 5772 ea3d f8d8 70bd
00000280: 45a9 a33c aa0b 803d 155f 943d 65bf c03d
00000290: d425 0b3e 5c0f 063e 2611 47bd ccce cc3d
000002a0: 8f3a 1d3e f15c 6f3c c3b7 c2bd 9a52 dc3c
000002b0: c658 6fbd ac6c ba3d 9e54 953d b85b e23d
000002c0: 328b 52bb a3e2 5fbd fb2c cebd 13a9 a93d
000002d0: b96e ec3d a806 1cbd 211b 9abd 2a17 17bd
000002e0: dc32 3d3b 7476 d1bd 7227 6e3d cd06 123e
000002f0: f687 ea3d c84f d5bd aed3 e7bd 04b3 bd3d
00000300: 7098 113d c40b ee3d f9f6 b83d 483c ba3d
00000310: 9adf 453d 76e9 cf3c 5918 24bd ac4e a93d
00000320: 258b 66bd 02bc 823c af94 bfbd 6028 f23d
00000330: c92d 9f3d da9d e6bc 1187 b23c c5ce bd3c
00000340: 5338 9fbd 5b2c 51bd ebe0 2d3c 60e8 d93d
00000350: 4eba 27bd 055f e93d 9f38 e3bd bb3f 0c3d
00000360: 715d acbc 9a99 98bc 3c51 043d 2537 3c3c
00000370: 5840 ecbd 346d 223e 630b 93bd 73d9 5c3d
00000380: 66d7 52bd c4ea 213e 76cf c8bd c3b5 a83d
00000390: f321 203c bf66 e83d 020a d2bd a452 dfbd
000003a0: 552d d23d afea 093d 3968 86bc 13b8 9a3d
000003b0: 28d0 08bd e930 4cbd af35 a83d abea b8bc
000003c0: ada4 773d bb5e 493d 672c 603c 6452 bf3c
000003d0: 669b fabc a496 073e 2b34 c9bc a382 d03d
000003e0: 87f5 8f3d b9d5 ef3d 4302 f7bc a0e8 073d
000003f0: 1b08 563d 6a67 aa3d ed3f f1bc e6ac 823d

weight f4 [128, 256]
0.08351624 -0.00907801 0.045841597 0.04280331 -0.047227927 0.050353806 0.036939617 0.08124574
-0.038822636 -0.02569846 0.03410194 0.049316898 0.014255099 0.04719888 -0.034183074 0.084865995
0.058173195 0.011562849 0.04373648 -0.053766783 -0.029123489 -0.042503938 0.037700303 -0.034944944
0.040270064 -0.03669958 0.047744367 0.04913192 0.09458946 -0.028742041 -0.036971394 0.029305808
0.025610404 0.041044373 0.0906753 -0.029137556 0.032329176 0.048819043 -0.10067125 0.010427588
0.05683373 -0.050758034 -0.0014941762 0.028746048 -0.04704441 0.05148307 0.044812445 0.028878024
0.060853094 0.0033497738 0.0021563796 -0.020307982 -0.010365849 0.05485246 -0.07517875 0.078216635
0.041725703 0.026923954 0.05827658 -0.024302179 -0.035426296 0.03577072 0.01109629 -0.017098274
-0.003450801 0.0055095186 -0.038576476 -0.0033211291 0.023090992 0.01771693 0.02772182 -0.058219884
0.008663182 0.038046844 -0.006178349 -0.07187779 -0.012845318 -0.04520784 0.052614745 0.07391221
0.07804347 -0.03689695 0.030279256 0.07115896 -0.027608389 -0.0015816998 0.06067978 0.054475803
0.0106248045 0.05570462 -0.044700697 0.017109336 0.046017647 -0.047492903 -0.010797952 -0.021041423
-0.004806489 0.06847936 0.0746851 0.048814602 -0.025025556 0.014121039 -0.04634978 0.050495826
-0.050120864 -0.015087044 -0.0055690724 -0.047060687 -0.05661724 -0.0354377 -0.050284225 0.036638267
-0.06072009 -0.05940941 0.06652115 0.048283458 -0.0019818654 0.051221684 0.012572157 0.071503095
0.059277613 0.044264294 0.055001236 -0.0054188557 -0.06567292 0.05055378 0.04930654 0.027105357
-0.025758404 -0.05427818 0.036615092 0.0021367844 -0.0026369388 0.07602128 0.084735245 -0.025502525
-0.06499843 0.05379049 -0.042665996 0.008347993 -0.013806831 0.06756168 -0.003416249 0.1000649
0.04235849 0.006838141 0.021819206 -0.04962732 0.014081253 0.030910147 -0.003606719 -0.062269036
-0.0019090056 0.05006481 0.033050213 0.00879374 0.009881134 0.014077926 -0.011572746 -0.02840981
0.031031415 -0.009485784 -0.04426683 0.009525406 0.04540622 0.013685828 0.045546155 -0.008745769
0.059764877 0.05664074 0.040380634 -0.012370248 0.06078342 -0.0065661296 -0.063639544 0.009455171
0.070028365 0.015727283 0.05914054 0.011805106 -0.023515249 -0.016384844 -0.051127423 -0.01830619
-0.046146195 -0.03295811 -0.034125704 0.015683878 0.045396157 0.0884341 0.047028802 0.000997258
0.018124918 0.06450852 -0.055939462 0.014204066 0.048852086 -0.06048971 0.0045376015 -0.07774724
0.04899982 0.06414539 0.00026512612 0.0009986658 -0.02036833 -0.04120128 0.00013760124 0.0459743
0.06479479 0.06301764 -0.006931002 0.01139796 -0.027237333 -0.03901908 0.0039243707 0.024824616
-0.008489413 0.0037234067 0.0018053355 0.009880947 -0.055070918 0.06252593 0.0038831215 0.07552762
-0.05513635 0.0024001773 0.07835411 0.022113763 -0.0056813383 0.08011374 0.000840396 0.05169371
0.059653603 -0.03202585 0.022377828 -0.019022169 -0.06598746 0.038784854 -0.07422956 0.014378021
0.019326458 -0.025872588 0.051017024 0.0908819 0.082720585 0.053638034 -0.025368486 0.058028445
-0.028431006 -0.0035941477 -0.03224434 -0.020363886 0.018268082 -0.015143889 -0.051232733 -0.035126787
00000000: 900a ab3d efbb 14bc 66c4 3b3d 8652 2f3d
00000010: 1272 41bd cb3f 4e3d ff4d 173d 2b64 a63d
00000020: 7c04 1fbd 9485 d2bc 7aae 0b3d 8400 4a3d
00000030: 388e 693c 9d53 413d 8d03 0cbd 39ce ad3d
00000040: 0447 6e3d 1b72 3d3c 0625 333d 8f3a 5cbd
00000050: 6294 eebc 9c18 2ebd a26b 1a3d 6e22 0fbd
00000060: 39f2 243d 4c52 16bd 998f 433d 8d3e 493d
00000070: 1eb8 c13d 6e74 ebbc 516f 17bd bc12 f03c
00000080: e9cc d13c 251e 283d f9b3 b93d e2b1 eebc
00000090: 996b 043d 7af6 473d ba2c cebd 79d8 2a3c
000000a0: 7cca 683d a8e7 4fbd 3cd8 c3ba d57c eb3c
000000b0: a4b1 40bd e9df 523d 418d 373d 9b91 ec3c
000000c0: 1841 793d e187 5b3b 0c52 0d3b ed5c a6bc
000000d0: 86d5 29bc f9ac 603d 51f7 99bd 0b30 a03d
000000e0: 92e8 2a3d a08f dc3c 6cb3 6e3d 5d15 c7bc
000000f0: 2a1b 11bd 5284 123d 37cd 353c ae11 8cbc
00000100: d526 62bb 3189 b43b 5e02 1ebd 4da7 59bb
00000110: 5229 bd3c 1823 913c df18 e33c f977 6ebd
00000120: 05f0 0d3c 02d7 1b3d bf73 cabb aa34 93bd
00000130: 2b75 52bc db2b 39bd 8f82 573d 495f 973d
00000140: 41d5 9f3d 4221 17bd 340c f83c cabb 913d
00000150: fd2a e2bc 0a51 cfba 5c8b 783d 0522 5f3d
00000160: a913 2e3c 872a 643d 1418 37bd e128 8c3c
00000170: 007d 3c3d eb87 42bd e5e9 30bc 105f acbc
00000180: c17f 9dbb e83e 8c3d 80f4 983d d2f1 473d
00000190: 6502 cdbc ee5b 673c 44d9 3dbd b6d4 4e3d
000001a0: 894b 4dbd a62f 77bc c47c b6bb b5c2 40bd
000001b0: 7be7 67bd 1f27 11bd d5f6 4dbd 0212 163d
000001c0: a1b5 78bd 4857 73bd 3e3c 883d e0c4 453d
000001d0: 2fe2 01bb d4cd 513d 73fb 4d3c 3770 923d
000001e0: 15cd 723d 7a4e 353d fa48 613d a890 b1bb
000001f0: 867f 86bd 7b11 4f3d a8f5 493d 0e0c de3c
00000200: 4a03 d3bc cc52 5ebd b5f9 153d 4b09 0c3b
00000210: 7ed0 2cbb 0bb1 9b3d ac89 ad3d acea d0bc
00000220: e61d 85bd 6b53 5c3d 8ac2 2ebd 05c6 083c
00000230: 0c36 62bc c75d 8a3d 26e3 5fbb d4ee cc3d
00000240: 1980 2d3d 7c12 e03b 31be b23c 0446 4bbd
00000250: 0eb5 663c 4737 fd3c b45e 6cbb d10d 7fbd
00000260: 9937 faba c210 4d3d a95f 073d 9e13 103c
00000270: 7be4 213c 1aa7 663c 9d9b 3dbc b1bb e8bc
00000280: 9835 fe3c 436a 1bbc 2351 35bd 7310 1c3c
00000290: dffb 393d 863a 603c 9b8e 3a3d 6a4a 0fbc
000002a0: 04cc 743d 1f00 683d 2a66 253d 95ac 4abc
000002b0: 09f8 783d b028 d7bb 7355 82bd dde9 1a3c
000002c0: 086b 8f3d 81d6 803c 5a3d 723d 346a 413c
000002d0: 0da3 c0bc 8239 86bc fd6a 51bd ddf6 95bc
000002e0: cb03 3dbd 15ff 06bd 65c7 0bbd 7a7b 803c
000002f0: 52f1 393d f01c b53d 46a1 403d 6db6 823a
00000300: b57a 943c 0b1d 843d c720 65bd 2cb8 683c
00000310: 2019 483d 0fc4 77bd 29b0 943b f239 9fbd
00000320: 09b4 483d a95e 833d a000 8b39 aae5 823a
00000330: 7cdb a6bc acc2 28bd 0d49 1039 8c4f 3c3d
00000340: 22b3 843d 640f 813d 751d e3bb 82be 3a3c
00000350: d420 dfbc 79d2 1fbd 0298 803b fe5c cb3c
00000360: 2e17 0bbc 6604 743b 02a1 ec3a b2e3 213c
00000370: 0b92 61bd 980d 803d f87b 7e3b 3aae 9a3d
00000380: a7d6 61bd 4b4c 1d3b 1f78 a03d ec27 b53c
00000390: 852a babb ac12 a43d 054e 5c3a c9bc 533d
000003a0: 5657 743d 8a2d 03bd b551 b73c 61d4 9bbc
000003b0: 6f24 87bd dedc 1e3d ab05 98bd ca91 6b3c
000003c0: 8552 9e3c c0f2 d3bc 3af7 503d 4a20 ba3d
000003d0: 6969 a93d 8eb3 5b3d 92d1 cfbc 3caf 6d3d
000003e0: 24e8 e8bc cb8b 6bbb a412 04bd 2ad2 a6bc
000003f0: f2a6 953c 131e 78bc 6ad9 51bd 1be1 0fbd

bias f4 [128]
-0.03708773 -0.0048903995 0.06624219 0.009347545 0.028834824 0.026297586 -0.007692642 -0.02692486
0.04177426 -0.01697743 0.028303009 -0.028776035 -0.036593627 0.039851114 0.024677543 -0.0056532924
0.024658468 -0.029268233 0.048229575 0.04704903 0.03987908 0.029281097 -0.038654737 -0.032186195
0.057198774 -0.03844554 -0.045710213 0.055567503 -0.072748415 0.047310382 0.056092 0.070336744
0.016009258 0.06157125 0.0013409002 -0.037230305 0.032749355 0.007924605 -0.020539155 0.03845479
0.042723026 -0.011623196 0.047262814 -0.02740655 0.017998295 0.052312966 0.053452663 -0.043827645
-0.044829097 0.020567708 0.028148534 -0.05712864 -0.030920452 0.028458333 0.02793457 0.025250314
0.06742817 -0.00030274375 -0.013630871 0.039928466 -0.061651625 -0.028168881 0.0230128 0.0034798519
0.001955499 -0.011285947 0.035248302 -0.04682246 0.045054052 -0.042534184 0.0044228984 -0.031558838
-0.011530029 0.023851676 0.02281409 0.010061082 -0.0012696455 0.08060454 0.055129908 -0.008022578
0.04540727 0.050703257 0.06257249 0.016519524 -0.06502515 0.05992552 -0.040207956 -0.009839369
-0.014559335 0.02200725 0.07231881 0.02921295 -0.017790297 0.043536007 0.038182136 0.040619574
0.050308906 0.032459017 0.03149169 0.029538041 -0.023854978 -0.03097732 -0.042278428 -0.049225435
0.043645583 0.032435685 0.032039423 -0.016817436 -0.026871959 -0.020321546 0.056837235 0.035636414
0.021138852 0.031122034 0.026429422 -0.04739452 -0.0029686987 -0.015374626 -0.05371137 0.022850271
0.043760438 -0.05549793 0.06920794 0.05391406 0.0106214 0.07369908 -0.014498078 -0.0054134657
00000000: 4ee9 17bd a53f a0bb fca9 873d 7226 193c
00000010: 0237 ec3c 096e d73c 8f12 fcbb 8691 dcbc
00000020: 7d1b 2b3d 4014 8bbc b6db e73c b8bb ebbc
00000030: 33e3 15bd ec3a 233d 8f28 ca3c 413f b9bb
00000040: 8e00 ca3c efc3 efbc 608c 453d 7cb6 403d
00000050: 3f58 233d e9de ef3c 6e54 1ebd acd5 03bd
00000060: 4349 6a3d 1279 1dbd a23a 3bbd c09a 633d
00000070: 1ffd 94bd 88c8 413d bac0 653d b60c 903d
00000080: d925 833c 2332 7c3d 25c1 af3a ce7e 18bd
00000090: 3024 063d 34d6 013c bb41 a8bc c582 1d3d
000000a0: 57fe 2e3d 386f 3ebc a796 413d b383 e0bc
000000b0: 2971 933c 1f46 563d 2ef1 5a3d 9e84 33bd
000000c0: b79e 37bd 9c7d a83c c197 e63c b9ff 69bd
000000d0: e34c fdbc 7321 e93c 0ad7 e43c bfd9 ce3c
000000e0: c817 8a3d 94b9 9eb9 0454 5fbc 088c 233d
000000f0: 6a86 7cbd 6dc2 e6bc 5785 bc3c 3a0e 643b
00000100: d427 003b b1e8 38bc 8660 103d e8c8 3fbd
00000110: 998a 383d 5338 2ebd f6ed 903b d743 01bd
00000120: 72e8 3cbc 9764 c33c 9de4 ba3c 3dd7 243c
00000130: 3c6a a6ba fe13 a53d e6cf 613d 2271 03bc
00000140: f9fc 393d 38ae 4f3d 0126 803d f453 873c
00000150: e82b 85bd 7674 753d 19b1 24bd 4e35 21bc
00000160: 478a 6ebc 8c48 b43c e21b 943d ff4f ef3c
00000170: f5bc 91bc d052 323d df64 1c3d b660 263d
00000180: b610 4e3d bff3 043d 6efd 003d c3f9 f13c
00000190: 846b c3bc 26c4 fdbc 252c 2dbd 9ca0 49bd
000001a0: b6c5 323d 48db 043d c53b 033d b8c4 89bc
000001b0: 9522 dcbc 5f79 a6bc 29ce 683d 7df7 113d
000001c0: 632b ad3c a3f3 fe3c 8482 d83c c220 42bd
000001d0: 808e 42bb dbe5 7bbc 7400 5cbd 7e30 bb3c
000001e0: 253e 333d cc51 63bd e4bc 8d3d fdd4 5c3d
000001f0: 6105 2e3c 8bef 963d 5989 6dbc 7163 b1bb

weight f4 [64, 128]
0.033357937 0.013745482 -0.005882581 -0.062138543 0.05648666 0.07213548 -0.021362193 -0.02846179
-0.024915697 -0.0032347902 0.049268268 -0.007212503 0.06972127 0.03721953 0.05633849 0.05115434
-0.052264657 0.05739704 -0.026251586 0.0056326916 -0.041001417 0.07200209 0.015931956 0.0075313356
0.038231257 -0.06316855 -0.04913872 -0.094180815 0.064700246 -0.00697499 -0.07094436 0.052292783
-0.036581542 -0.03650461 -0.06211334 0.1063903 0.04434413 0.027813738 -0.06878764 0.03310493
-0.0126675395 -0.087698236 -0.05132275 -0.0477607 0.05104515 0.027987938 -0.007467602 -0.016074393
0.08552363 0.005187343 0.011926007 0.07399674 -0.05578927 -0.037528943 0.00054537546 0.00584145
0.030608451 0.08467988 -0.05704385 0.039548293 0.09017391 -0.0050825956 0.0723645 0.041852925
-0.07762766 0.013098571 -0.025597254 -0.0023044834 0.076457955 0.09549111 -0.026882023 0.055687755
0.053844843 -0.08950282 0.047123555 -0.058773026 0.09136308 -0.049030922 -0.021906763 0.047614757
0.058737304 0.09675809 -0.05424741 0.08621355 0.060168788 -0.07989099 -0.015875 -0.0073122587
0.09361269 -0.017714476 0.054252476 -0.0074089766 -0.085865915 0.016070105 0.0007275288 0.019971231
-0.03182422 0.025006492 0.082665965 -0.00804173 0.03948057 0.05570887 -0.049281523 -0.002777204
-0.037001934 0.053509884 0.0038074811 -0.032640286 0.022404939 0.011787769 0.027655449 -0.022799153
0.08815648 -0.060279913 0.0036319825 0.1074119 -0.07602826 0.023474425 0.079634 0.062371675
-0.036071643 -0.058281068 -0.0038145082 0.006652188 -0.032343686 -0.04739282 -0.01129805 -0.013137841
0.0863091 -0.022296103 0.06692129 0.10691831 0.01855007 -0.060046114 0.102922946 0.027028844
0.020991087 -0.0877586 0.110763 -0.062111873 0.042552672 0.07225183 0.08186741 0.079647996
0.064176895 -0.013916103 0.077977136 0.07355363 0.04305737 -0.005203947 0.117155276 0.048045278
-0.06390161 0.10606199 0.070342116 -0.045449734 -0.023743337 -0.07863948 0.0951784 -0.04642241
0.014098948 -0.02421007 0.012783746 -0.025251042 -0.043604527 -0.040319834 0.02379839 -0.021211822
-0.037916843 -0.10241139 -0.05849044 -0.061381876 -0.059991818 0.02393426 0.020539515 -0.044400703
-0.062465996 0.056423243 -0.00900039 0.113004655 -0.10068489 0.025183473 0.07077017 0.085303344
0.027038092 0.09770231 0.050429113 0.089927666 -0.061733972 -0.056217246 -0.09059472 0.010001911
-0.037889972 0.05782204 0.04101243 0.038560342 0.0046927473 0.076687135 -0.051916268 0.11341165
-0.05953714 -0.023111511 -0.022539347 0.06929524 -0.03194822 -0.0387998 -0.05801087 0.07772294
-0.015858537 0.07987018 0.0006208929 0.028340893 -0.04359035 -0.031409726 -0.07171303 -0.0038882073
0.109327555 -0.018108902 0.008125708 0.08874447 -0.0334352 0.021112246 0.0034014229 -0.100152455
-0.0031723634 -0.025572628 0.07987361 -0.02734548 0.048122704 0.026402337 0.08312632 0.0613417
-0.09698098 -0.051282577 0.05755341 -0.07615499 0.101109944 -0.06123052 0.076807894 -0.060616113
-0.04679634 0.052775357 0.034867387 0.042880204 -0.03689949 -0.104302526 -0.06364666 -0.033130325
-0.035005104 0.050921723 -0.0020747052 -0.08115929 0.11847181 0.02043767 0.074012846 0.050306678
00000000: 55a2 083d bb34 613c abc2 c0bb fc84 7ebd
00000010: 8e5e 673d c4bb 933d c4ff aebc b328 e9bc
00000020: 011c ccbc c6fe 53bb 86cd 493d dc56 ecbb
00000030: 06ca 8e3d 8273 183d 30c3 663d 3787 513d
00000040: 7713 56bd 2919 6b3d 910d d7bc 7192 b83b
00000050: 1af1 27bd d575 933d bc83 823c 6cc9 f63b
00000060: 6198 1c3d 835e 81bd af45 49bd dfe1 c0bd
00000070: 9081 843d 758e e4bb 474b 91bd f530 563d
00000080: 87d6 15bd dc85 15bd 8f6a 7ebd 28e3 d93d
00000090: 31a2 353d a3d9 e33c 89e0 8cbd 0999 073d
000000a0: 838b 4fbc 229b b3bd ce37 52bd b9a0 43bd
000000b0: b814 513d f646 e53c c9b2 f4bb 72ae 83bc
000000c0: 0327 af3d 96fa a93b 4d65 433c 9a8b 973d
000000d0: 4a83 64bd f3b7 19bd 87f7 0e3a a269 bf3b
000000e0: 93be fa3c a56c ad3d d0a6 69bd 64fd 213d
000000f0: 19ad b83d e78b a6bb d733 943d f96d 2b3d
00000100: 40fb 9ebd 649b 563c 55b1 d1bc d106 17bb
00000110: fd95 9c3d d890 c33d b037 dcbc d818 643d
00000120: 698c 5c3d 414d b7bd a104 413d fcbb 70bd
00000130: 911c bb3d a6d4 48bd d075 b3bc b107 433d
00000140: 8796 703d 1b29 c63d 8832 5ebd bb90 b03d
00000150: 8c73 763d e39d a3bd 4a0c 82bc ac9b efbb
00000160: 03b8 bf3d f31d 91bc d837 5e3d 00c7 f2bb
00000170: 78da afbd 74a5 833c a2b7 3e3a b59a a33c
00000180: 1d5a 02bd 6ada cc3c c64c a93d 76c1 03bc
00000190: 61b6 213d fc2e 643d 6cdb 49bd c001 36bb
000001a0: 578f 17bd 2e2d 5b3d ef86 793b d2b1 05bd
000001b0: 908a b73c 7d21 413c ae8d e23c 4ac5 babc
000001c0: 628b b43d 12e8 76bd 8e06 6e3b c5fa db3d
000001d0: b4b4 9bbd 704d c03c 2717 a33d 7179 7f3d
000001e0: dcbf 13bd 21b8 6ebd d4fc 79bb 99fa d93b
000001f0: d07a 04bd f91e 42bd 751b 39bc 1940 57bc
00000200: d3c2 b03d 51a6 b6bc 070e 893d fdf7 da3d
00000210: 51f6 973c eaf2 75bd 44c9 d23d 986b dd3c
00000220: 80f5 ab3c c8ba b3bd b6d7 e23d 0569 7ebd
00000230: b64b 2e3d c4f8 933d 1aaa a73d 7d1e a33d
00000240: 2d6f 833d 5e00 64bc 7ab2 9f3d 49a3 963d
00000250: ed5c 303d df85 aabb 1bef ef3d 20cb 443d
00000260: d9de 82bd 0737 d93d 870f 903d 8029 3abd
00000270: 6381 c2bc bc0d a1bd e5ec c23d 6d25 3ebd
00000280: 46ff 663c 3254 c6bc eb72 513c 46db cebc
00000290: a99a 32bd 6926 25bd d7f4 c23c 6ac4 adbc
000002a0: b14e 1bbd 10bd d1bd ac93 6fbd 906b 7bbd
000002b0: fbb9 75bd c811 c43c 7c42 a83c 83dd 35bd
000002c0: 58dc 7fbd 0f1c 673d 5f76 13bc fc6e e73d
000002d0: e133 cebd 924d ce3c f3ef 903d 85b3 ae3d
000002e0: fd7e dd3c 2618 c83d c28e 4e3d ff2b b83d
000002f0: c3dc 7cbd 0e44 66bd b989 b9bd 0edf 233c
00000300: 8432 1bbd ced6 6c3d a6fc 273d 73f1 1d3d
00000310: 9ec5 993b 250e 9d3d 27a6 54bd 5e44 e83d
00000320: 37dd 73bd 5a54 bdbc 70a4 b8bc aaea 8d3d
00000330: 23dc 02bd 8aec 1ebd ce9c 6dbd 342d 9f3d
00000340: c3e9 81bc fa92 a33d 6bc3 223a 292b e83c
00000350: cb8b 32bd 7ca7 00bd 48de 92bd 4bd1 7ebb
00000360: 20e7 df3d 1f59 94bc b121 053c a9bf b53d
00000370: 59f3 08bd 97f3 ac3c 68ea 5e3b bb1c cdbd
00000380: 6de7 4fbb b07d d1bc c694 a33d a103 e0bc
00000390: 501c 453d b749 d83c 223e aa3d 6f41 7b3d
000003a0: f79d c6bd ae0d 52bd 20bd 6b3d 26f7 9bbd
000003b0: bb12 cf3d dbcc 7abd 754d 9d3d 9a48 78bd
000003c0: 85ad 3fbd f92a 583d 1bd1 0e3d 27a3 2f3d
000003d0: eb23 17bd 909c d5bd 2e59 82bd aab3 07bd
000003e0: 8361 0fbd 4c93 503d c7f7 07bb d836 a6bd
000003f0: 59a1 f23d e76c a73c 0c94 973d 600e 4e3d

bias f4 [64]
-0.06624325 -0.03925332 -0.016714867 -0.064380586 -0.03771621 -0.025000265 0.024812875 0.07870151
-0.07589398 -0.0280823 -0.0019195565 0.013590595 -0.034224182 -0.039738894 0.059279118 0.030170755
-0.08436511 0.042069778 -0.08338632 0.021284662 0.042344224 0.04536139 0.08746934 -0.047503654
0.023302136 0.061114352 0.04521853 0.048666928 -0.057385232 -0.05192257 0.06378641 0.016456177
0.060591135 0.07759194 -0.020813093 -0.0069832937 0.091028914 -0.026899315 -0.043882582 -0.07733624
-0.09098284 0.03077368 -0.033744782 -0.07908188 0.04791352 -0.04087837 0.06795532 -0.00264866
-0.05965008 -0.010193355 -0.08114427 0.056745872 0.09968826 -0.010799335 0.018858183 0.055159364
-0.06256337 -0.06655069 0.09497933 -0.059933987 -0.045504253 0.0072078467 -0.10303155 -0.03505944
00000000: 8baa 87bd 17c8 20bd 9eed 88bc f8d9 83bd
00000010: 507c 1abd 5bcd ccbc 5f44 cb3c 422e a13d
00000020: 4e6e 9bbd da0c e6bc a199 fbba 16ab 5e3c
00000030: a82e 0cbd 40c5 22bd a9ce 723d a928 f73c
00000040: 9dc7 acbd 5c51 2c3d 72c6 aabd 2c5d ae3c
00000050: 2371 2d3d ddcc 393d 2023 b33d 3193 42bd
00000060: 1fe4 be3c 0b53 7a3d 1137 393d f956 473d
00000070: c70c 6bbd c3ac 54bd 73a2 823d 1bcf 863c
00000080: 692e 783d 86e8 9e3d 3880 aabc 1dd4 e4bb
00000090: 5e6d ba3d f45b dcbc 39be 33bd 7662 9ebd
000000a0: 3655 babd 1619 fc3c f837 0abd aef5 a1bd
000000b0: f840 443d 1470 27bd 292c 8b3d 2495 2dbb
000000c0: a453 74bd 0802 27bc f82e a6bd 5c6e 683d
000000d0: 5c29 cc3d b2ef 30bc 7a7c 9a3c c9ee 613d
000000e0: 3921 80bd ba4b 88bd 8684 c23d 577d 75bd
000000f0: ab62 3abd cd2f ec3b 3502 d3bd 7d9a 0fbd

weight f4 [5, 64]
-0.10136407 -0.09760422 0.039040845 0.10940544 0.027978493 0.13410874 -0.12430554 -0.07482053
-0.040925898 0.023210634 -0.13533165 -0.10327119 0.047603063 -0.02935027 0.047816407 0.08650176
-0.12688261 0.013674128 0.07592815 -0.04971086 -0.05559047 -0.10623432 -0.12588097 -0.07796653
-0.039088335 0.11010905 0.056067597 0.0786191 -0.113398775 0.16566351 0.051864 0.05369935
-0.1389761 0.011979337 -0.12777789 -0.027149128 -0.16134143 0.03894364 0.11666943 -0.11039519
0.029424204 -0.06375823 0.111679286 -0.010297942 -0.0056863385 0.033944294 -0.10220484 0.121342294
-0.037414026 -0.07942819 -0.07995593 0.050338537 0.17005736 0.14412868 0.07481563 0.13868302
0.1734455 0.0488633 0.06909178 -0.11816759 -0.15940924 0.011907469 0.016103776 0.05030723
-0.038524378 0.072052814 0.05920336 -0.1358691 0.07616887 0.05018136 0.06964429 0.047523286
-0.026388407 -0.09907658 0.032192037 -0.0034228624 -0.11126817 -0.008496854 -0.0028006518 0.080647714
0.047286563 0.042260773 0.117616005 0.09020349 -0.022133088 -0.03179816 0.1262275 -0.063570775
-0.06496792 -0.074444115 0.14305888 0.09613227 0.08319997 -0.10451561 0.052580643 -0.019037174
0.02084919 0.040072396 -0.007847629 0.06599401 0.114153616 -0.09284088 0.11385586 -0.006463911
-0.14958698 -0.08548618 -0.04994009 0.0017718539 -0.015482419 -0.005949438 -0.007280244 -0.016162185
0.10262786 -0.0013791496 0.1195649 0.046461318 -0.03277613 0.051500708 0.10929774 0.13336234
-0.1185955 -0.009082954 -0.03410151 -0.069764845 0.058868658 -0.08615055 -0.11282307 0.024049155
0.08893195 -0.07314528 0.02662787 -0.097877465 -0.05965077 0.09391907 -0.04513998 0.009604475
0.011878219 -0.009435952 0.03821068 0.049410373 0.10067536 -0.009736911 0.080095306 0.024500648
0.109511115 0.056648247 -0.0024807663 0.023871848 0.09022433 0.029508619 0.112968 0.06549777
-0.083808206 0.045120273 0.08204449 -0.011126544 0.05975398 0.025377031 0.07351522 -0.032883074
0.0778375 -0.111787476 0.02625367 0.09481836 0.06739669 -0.0028662651 -0.012968547 0.013808686
0.00039510842 0.046786696 -0.026497243 -0.04593448 0.010657872 -0.033886366 0.10089284 0.08597804
0.017149428 -0.10377205 -0.0039306986 0.056089126 -0.098223545 0.0883899 -0.038909752 0.035139125
0.088236555 0.12548004 -0.11309995 0.01675853 -0.09532974 0.012710479 -0.040314276 -0.07587028
0.01441851 -0.005799406 0.009151761 -0.08489261 0.07091781 -0.046068978 -0.081420675 0.047373645
0.11224949 -0.036972415 0.007910577 -0.06170382 0.081125505 0.08198768 -0.008079415 -0.06749838
-0.00014201165 -0.006651704 0.0311181 -0.093809 -0.100778066 0.029555382 0.10770732 -0.013954125
0.11468259 -0.064359106 -0.025096213 0.030688364 -0.016345141 -0.055458892 0.04120629 0.12392396
0.11482183 -0.066425756 0.06340481 -0.10842007 0.09458344 -0.048358437 0.046138413 -0.05914701
0.07037405 -0.08023655 0.013127039 -0.10585013 -0.07602937 0.08425637 -0.09019177 -0.07342108
-0.05189936 0.06145116 0.049883135 0.08827014 -0.06433771 0.08694967 0.06679533 0.02638085
0.0019931071 0.08567647 0.13092002 -0.121559165 0.064454876 -0.001962049 -0.052346613 0.06152474
00000000: f797 cfbd b9e4 c7bd 4be9 1f3d f60f e03d
00000010: 2733 e53c cd53 093e e793 febd 823b 99bd
00000020: eaa1 27bd 3a24 be3c 6194 0abe d87f d3bd
00000030: 6efb 423d fa6f f0bc 23db 433d d627 b13d
00000040: 84ed 01be 7309 603c 3880 9b3d 9d9d 4bbd
00000050: d5b2 63bd 6191 d9bd f1e6 00be ebac 9fbd
00000060: 171b 20bd db80 e13d 23a7 653d 0d03 a13d
00000070: 9e3d e8bd b2a3 293e 586f 543d daf3 5b3d
00000080: c04f 0ebe fb44 443c 35d8 02be d967 debc
00000090: b036 25be 5e83 1f3d 62f0 ee3d e016 e2bd
000000a0: 070b f13c ad93 82bd 1cb8 e43d b3b8 28bc
000000b0: 7754 babb 2c09 0b3d c550 d1bd 4f82 f83d
000000c0: 733f 19bd 3fab a2bd efbf a3bd c82f 4e3d
000000d0: 8423 2e3e 7896 133e f038 993d ec02 0e3e
000000e0: b29b 313e e224 483d fe7f 8d3d d901 f2bd
000000f0: 2d3c 23be 8b17 433c 11ec 833c f40e 4e3d
00000100: bdcb 1dbd 6d90 933d 397f 723d 4521 0bbe
00000110: 6dfe 9b3d f88a 4d3d aaa1 8e3d c7a7 423d
00000120: 802c d8bc a9e8 cabd ccdb 033d 1a52 60bb
00000130: 91e0 e3bd 6436 0bbc 248b 37bb a12a a53d
00000140: 8eaf 413d a219 2d3d a9e0 f03d 9bbc b83d
00000150: 7350 b5bc ca3e 02bd c841 013e 6531 82bd
00000160: e70d 85bd 2876 98bd 077e 123e ffe0 c43d
00000170: bf64 aa3d 480c d6bd cd5e 573d d9f3 9bbc
00000180: eccb aa3c f422 243d 5793 00bc de27 873d
00000190: 5fc9 e93d 5c23 bebd 432d e93d 37cf d3bb
000001a0: 542d 19be 6113 afbd fb8d 4cbd 8d3d e83a
000001b0: f9a9 7dbc 81f3 c2bb 1d8f eebb 8f66 84bc
000001c0: 8e2e d23d 95c4 b4ba 71de f43d 394e 3e3d
000001d0: 4340 06bd 68f2 523d 7ed7 df3d 2390 083e
000001e0: 33e2 f2bd acd0 14bc 06ae 0bbd dfe0 8ebd
000001f0: 4320 713d b36f b0bd c80f e7bd bc02 c53c
00000200: f421 b63d 31cd 95bd b122 da3c fb73 c8bd
00000210: 5e54 74bd a458 c03d b3e4 38bd 175c 1d3c
00000220: dd9c 423c 4099 1abc cd82 1c3d 8862 4a3d
00000230: e22e ce3d 9187 1fbc 0209 a43d 95b5 c83c
00000240: 5d47 e03d fe07 683d 5a94 22bb e58e c33c
00000250: 89c7 b83d 0fbc f13c c45b e73d b223 863d
00000260: a3a3 abbd 09d0 383d f106 a83d 1c4c 36bc
00000270: 97c0 743d 7ee3 cf3c 268f 963d 67b0 06bd
00000280: 4469 9f3d d5f0 e4bd f011 d73c 2130 c23d
00000290: 4707 8a3d f3d7 3bbb 077a 54bc d43d 623c
000002a0: 8e26 cf39 68a3 3f3d bf10 d9bc cb25 3cbd
000002b0: 5b9e 2e3c 6ecc 0abd e8a0 ce3d 4115 b03d
000002c0: f57c 8c3c 7186 d4bd 17cd 80bb b6bd 653d
000002d0: 6d29 c9bd c405 b53d d55f 1fbd 0bee 0f3d
000002e0: 5eb5 b43d d77d 003e f2a0 e7bd 2f49 893c
000002f0: 3d3c c3bd 9d3f 503c 9520 25bd e161 9bbd
00000300: 9d3b 6c3c f208 bebb 45f1 153c 2ddc adbd
00000310: 5b3d 913d d3b2 3cbd e2bf a6bd de0a 423d
00000320: 10e3 e53d 6370 17bd 5d9b 013c 25bd 7cbd
00000330: 2125 a63d 28e9 a73d 865f 04bc 973c 8abd
00000340: f6e8 14b9 8af6 d9bb 63eb fe3c ef1e c0bd
00000350: bb64 cebd 211e f23c a895 dc3d d89f 64bc
00000360: b5de ea3d b5ce 83bd 9396 cdbc 2a66 fb3c
00000370: 3fe6 85bc dd28 63bd edc7 283d d8cb fd3d
00000380: b527 eb3d 3a0a 88bd 62da 813d 570b debd
00000390: f6b4 c13d 7f13 46bd a2fb 3c3d 2344 72bd
000003a0: 4520 903d 0f53 a4bd cb12 573c f4c7 d8bd
000003b0: 49b5 9bbd 9b8e ac3d 76b6 b8bd cb5d 96bd
000003c0: 6c94 54bd 36b4 7b3d 4252 4c3d fac6 b43d
000003d0: 7dc3 83bd ab12 b23d fdcb 883d a71c d83c
000003e0: ca9e 023b 2577 af3d e60f 063e 03f4 f8bd
000003f0: eb00 843d b895 00bb 6769 56bd 5e01 7c3d

bias f4 [5]
0.005503191 0.045172263 -0.057923917 -0.03361067 -0.088375315
00000000: 1d54 b43b 8d06 393d a141 6dbd 58ab 09bd
00000010: 1efe b4bd
