Policy-Gradients/Poker-Agent/checkpoint_120000.pt (torch, 227379 bytes, 8 tensors)

weight f4 [256, 55]
000000 c4 df 57 3c 57 ba c7 bd 25 3e 4e bd d4 b6 81 bc
       0.0131759085 -0.097523384 -0.050352234 -0.01583425
000010 58 51 aa 3d cd f7 4a 3d 20 cd 80 3d 07 02 64 3e
       0.08316296 0.049552727 0.062891245 0.22266398
000020 93 69 3b 3e e1 c5 d6 3c 44 c0 06 be a1 7c 79 bd
       0.18301992 0.026217403 -0.13159281 -0.06090987
000030 ac d2 0d 3e 65 0c fb bc a8 d8 4d 3d 26 8d 8c bc
       0.13849896 -0.030645559 0.050255448 -0.017157149
000040 49 81 4c 3d 72 0d 48 3d d1 b8 ea 3d dd 49 de bd
       0.049927983 0.048840947 0.11461032 -0.10853932
000050 8e bc f0 ba 61 af 18 be 02 64 8d bd b0 8d be 3d
       -0.001836674 -0.14910652 -0.069038406 0.093043685
000060 e0 e3 21 3e 30 1d 9a bc ef ad ca bd 22 dd 08 3e
       0.15809584 -0.018812746 -0.098964565 0.13365605
000070 57 76 89 bd c1 1d 52 3c 66 32 e8 3d 86 9d ae 3d
       -0.06712025 0.012824477 0.11337738 0.08526139
000080 fc 88 13 3d c4 a7 b1 3d f4 42 c7 bd 61 6e a0 3c
       0.03601931 0.08674577 -0.09729567 0.019583883
000090 d2 55 bd bc 15 ff ca bd c8 38 42 bd e4 8a 3f bc
       -0.023112211 -0.09911934 -0.047417432 -0.011690829
0000a0 32 01 15 be 24 bf 41 bd 66 8e 1e 3d 13 e6 be 3c
       -0.14551237 -0.047301427 0.03871002 0.023303067
0000b0 be f7 0d be 2f 4e 45 bd 0d 22 67 bd f3 6f 47 3d
       -0.13864037 -0.048170265 -0.056428958 0.048690747
0000c0 a8 18 f5 bc f5 95 30 3d 43 d8 dc 3d ce d5 f0 bb
       -0.029918984 0.04311176 0.10783436 -0.0073497063
0000d0 61 42 e3 bd a7 c3 6b 3d 78 67 8b bd 1a 3c 2d 3c
       -0.11096645 0.057559635 -0.068068445 0.010573411
0000e0 a0 8f 84 bd e2 eb e3 3d 5a 8f f7 bb fa 30 07 3e
       -0.06472707 0.111289755 -0.0075549306 0.13202277
0000f0 99 c3 1f 3e 77 14 79 3c d7 19 2d 3d 29 bf 6e 3e
       0.15601958 0.015202633 0.04226097 0.2331511
000100 7c 26 0d 3e ec 66 53 3b 39 68 8d 3e 6c 6a 39 3e
       0.13784212 0.003225739 0.27618578 0.18107003
000110 3a 04 37 3d b1 ca 60 3d fb 62 e6 3d 7d 7a 17 3d
       0.044681765 0.0548808 0.11249348 0.03698205
000120 12 f3 a0 bd 61 01 41 bd ae 59 cf 3d e2 98 02 3d
       -0.07858862 -0.047120456 0.10124527 0.03188408
000130 18 af d0 3c 44 7d d6 bd 16 4b f9 bc bb d2 0f 3e
       0.025474116 -0.10473111 -0.030431312 0.14045231
000140 f6 47 3a 3d b1 46 e4 bd d9 d3 90 bd b6 71 25 bc
       0.045478784 -0.11146296 -0.07071657 -0.010097912
000150 cc 65 ee bd 03 85 a0 bd fd b8 89 bd df 96 82 3e
       -0.1164051 -0.0783787 -0.06724737 0.2550573
000160 3b c4 88 bd c2 7b 1b 3e 76 6a 0b 3d fe 40 0e bd
       -0.06678053 0.15183929 0.034037076 -0.03472995
000170 51 4f 81 3d 2b e3 80 bc 92 40 83 3d 95 f1 ee bd
       0.063139565 -0.015733322 0.064088 -0.11667172
000180 85 c1 4e 3d 40 ac e1 bc 8f 8c 13 3e b9 4f be 3d
       0.050477523 -0.027547956 0.14409088 0.0929255
000190 f1 c8 8d bd f7 c3 e7 3d 86 48 05 3e ca 6e 2a bd
       -0.06923092 0.11316674 0.13015947 -0.041609563
0001a0 03 e7 b1 bc c7 d9 37 3d 94 a2 00 be 87 a5 c9 bd
       -0.0217166 0.044885423 -0.12562019 -0.09846025
0001b0 71 c4 f7 3d f1 3c 78 bd 22 72 f5 3c 8f b7 95 3c
       0.12098015 -0.060604993 0.02996165 0.018276004
0001c0 a7 97 ce ba 5b 2d 5b 3c 08 7b 02 3d 9a ed 93 3d
       -0.0015761749 0.013377513 0.031855613 0.07223053
0001d0 9c 00 ca 3d 2d 7d 29 be 07 10 38 be 82 4c 2d 3d
       0.098633975 -0.16551657 -0.17974864 0.04230929
0001e0 82 a3 75 bc f1 b4 67 be bf d5 42 bd d9 64 a9 bd
       -0.014992597 -0.22627617 -0.047567125 -0.08271188
0001f0 fe 6f db bd de 2f bc bd 23 f5 88 bd 02 74 97 bd
       -0.1071472 -0.091888174 -0.06687381 -0.073951736
000200 d8 d2 9b 3d e3 22 c3 bd 08 8d ee bd eb b7 91 3d
       0.07608575 -0.095281385 -0.11647993 0.07115158
000210 1c 85 82 bc 0f 0f 86 bd 54 a4 ce bb fe fa e2 bc
       -0.015932612 -0.06545841 -0.0063062105 -0.027707573
000220 c8 52 2e bd 0d 12 b4 3d bf 7f a5 bd f8 25 f9 3c
       -0.042559415 0.087925054 -0.08081006 0.030413613
000230 45 2e 83 3d a2 86 d4 bd bf b0 4f be 98 de a0 bd
       0.064053096 -0.10377242 -0.20282267 -0.078549564
000240 f2 46 ec 3d 1c 99 f7 bc df 32 97 ba 1a 20 8c bd
       0.11536969 -0.030224375 -0.0011535547 -0.068420604
000250 67 37 5b bd f0 32 f8 bc e3 37 9e bd a1 11 df bc
       -0.053519633 -0.030297726 -0.07725503 -0.027230086
000260 b0 2c 4b 3d 9b cf 3c 3d 52 2d ec 3d b3 7d 41 bd
       0.049603164 0.046096426 0.11532082 -0.047239017
000270 e5 6a c0 bd 0b 72 8f 3d 3f 79 77 bd 63 e6 90 bc
       -0.093953885 0.07004174 -0.060418364 -0.017687982
000280 a7 9d 41 3d 6e da 01 3e 21 02 61 bd 25 82 92 bb
       0.04726949 0.1268098 -0.05493367 -0.004471081
000290 d4 08 09 3e 5e 6d 03 3e 0a 71 d1 3d 1b 73 7c bd
       0.13382274 0.12834689 0.102266386 -0.06163321
0002a0 a4 a9 ad bd 35 21 05 bd f5 f7 a7 3c d6 c8 e4 bc
       -0.08479622 -0.03250237 0.020503977 -0.027927797
0002b0 eb c9 9b bb 09 69 61 be 25 54 4d bd 44 04 f2 bd
       -0.004754295 -0.22012724 -0.050129075 -0.1181722
0002c0 8a 99 21 be 7f 6f 22 bd 9b 81 98 bd e6 6d e6 bc
       -0.15781227 -0.039657112 -0.07446595 -0.028128576
0002d0 c0 9b 6b 3d 10 e2 13 bd 7c 7d 01 3e ba 6b 86 3d
       0.05752158 -0.036104262 0.12645525 0.06563516
0002e0 af 5d 21 3e 65 a4 bb 3d 18 43 03 3d 43 32 58 bd
       0.15758394 0.09162215 0.032046407 -0.05278231
0002f0 86 26 35 bd 53 07 f3 bc f6 14 c8 bd 47 bf 63 3d
       -0.044226192 -0.029666578 -0.09769623 0.05560234
000300 d6 2a 44 3d 37 8b b7 3d b7 90 02 3e b7 48 ba bd
       0.047892414 0.089621 0.12750517 -0.090959005
000310 84 fb cf bd 5f df 86 bd 94 34 ec 3d 52 ee 3f bd
       -0.10155395 -0.065855734 0.11533466 -0.04685814
000320 62 4b 23 bd e6 db 25 bd 76 79 dc 3c 66 9c 8e bd
       -0.039866813 -0.040492915 0.026913386 -0.069634244
000330 a7 21 0e 3d 45 9d b0 3d 1e a9 91 bd 72 fe 34 3b
       0.034700062 0.08623747 -0.07112335 0.0027617482
000340 5e aa 92 3b 64 f2 87 bd 9e 96 fe bd fb 66 fa ba
       0.0044758758 -0.06638029 -0.12431072 -0.0019104177
000350 e0 b4 5e bd c5 7b ed 3d eb 6e 10 3c c5 bb cf 3d
       -0.054371715 0.11595873 0.008815507 0.10143236
000360 7e ad d5 3d e2 24 6e 3c 10 cd d8 3d 58 ff 0f bc
       0.10433482 0.014535161 0.105859876 -0.008788906
000370 8e bd 15 be 72 91 94 bd f9 ff a7 3d 8f ce ef bc
       -0.1462309 -0.07254304 0.0820312 -0.0292733
000380 80 58 07 3e 4c a2 de 3c 2e fa 5c bd 9b ea fd 3d
       0.13217354 0.027176999 -0.053949527 0.12398263
000390 80 83 21 3e 86 b7 6a 3d 2e 62 43 bc b3 c6 91 3e
       0.1577282 0.057303928 -0.011925263 0.28471908
0003a0 d6 db 91 3c f8 9e 90 bd c4 24 60 3e 32 3f 20 3e
       0.017805021 -0.07061571 0.21889025 0.15649107
0003b0 78 5e 23 3e 71 bf 10 bc 54 65 3b 3e 86 c1 15 be
       0.15954006 -0.008834706 0.18300372 -0.14624605
0003c0 63 9d f9 3d b2 32 ee bd ae 65 a8 bd dd 35 0b 3e
       0.12188222 -0.11630763 -0.08222519 0.13594766
0003d0 ac 37 21 3e a7 56 97 bd db 39 6a bc a6 b3 c7 3d
       0.15743893 -0.073895745 -0.01429602 0.09751062
0003e0 d1 67 5c 3d 5b 30 91 3c 9a 52 ce b9 2e 95 51 3d
       0.053809945 0.017723253 -0.00039352925 0.05116766
0003f0 83 d6 45 bd a4 b9 04 3e 27 77 21 3d 59 ad 9f 3d
       -0.048300277 0.12961441 0.039420273 0.07796735

bias f4 [256]
000000 ee c4 4d 3d 07 1c be bd 7d 4f 20 3e d0 a6 96 bd
       0.050236635 -0.092826895 0.15655322 -0.07356036
000010 4c 88 6e 3d 55 76 c8 3d 99 e0 ca bc 8d 2c 92 bd
       0.05823545 0.09788195 -0.0247653 -0.07137404
000020 f3 20 52 bd 38 ae 38 3c c0 8e e6 bd e2 bd a3 3d
       -0.051300954 0.011272006 -0.11257696 0.07995202
000030 c4 ea 3d 3d 18 75 02 3c d2 65 24 3e f8 58 5b bd
       0.046366468 0.007962488 0.16054466 -0.053551644
000040 e8 f7 9f bd dd fc 15 3e f4 f7 37 3d 07 30 0f bc
       -0.07810956 0.14647241 0.0449142 -0.008739478
000050 dd 3b 9e bd 23 9d 81 3d 19 be 73 3d 36 43 36 3d
       -0.07726262 0.063287996 0.059507463 0.04449769
000060 42 30 c6 3d 5e c8 a8 3c f9 f3 b2 3d ae 20 2a 3e
       0.09677173 0.020603355 0.0873794 0.16614029
000070 2e c4 e5 bd d3 da 4d 3d 95 68 3a 3e a2 25 12 be
       -0.11219059 0.050257515 0.18203957 -0.14272168
000080 73 68 84 3d bd f5 fd 3d 32 1d cf bc 20 a5 27 3c
       0.064652346 0.124003865 -0.025282476 0.01023224
000090 70 b5 c1 bd ab 79 59 bd 51 02 38 3d 10 01 17 3e
       -0.094584346 -0.053094547 0.044924084 0.14746499
0000a0 b9 70 41 3d 18 aa b9 bd 1c 9d 0a 3d 64 53 7f 3c
       0.04722664 -0.09065646 0.033841237 0.015583847
0000b0 2d 49 66 3d 20 1f 58 bd a4 58 cc 3d 50 5c f3 3c
       0.05622213 -0.052764058 0.09977844 0.029707104
0000c0 a8 10 b4 bc c8 cd 33 bd 00 a2 9c 3d 7f 62 d1 3c
       -0.021980599 -0.04389742 0.076480865 0.025559662
0000d0 a5 4f 05 be 9f d0 b0 bd be bf ec 3d 1c 7d 30 3d
       -0.13018663 -0.08633541 0.115600094 0.043088064
0000e0 d5 98 ec bd 7a 66 e2 bc e2 82 c1 bd 4c 7a c0 3d
       -0.11552588 -0.027636755 -0.09448792 0.09398326
0000f0 82 33 0c 3d f5 66 4c bd 5e 9e d6 3d 50 5e 6d bc
       0.03422881 -0.049902875 0.10479425 -0.014487818
000100 21 3f 57 3c 76 f3 0f be 61 86 4a bb 94 fd 29 3e
       0.01313761 -0.14057717 -0.003090285 0.16600639
000110 36 e2 0b be 75 08 dd bd 3b d8 6b 3d 6b 04 04 3b
       -0.13660511 -0.10792629 0.05757926 0.0020144235
000120 4b ce f6 3c 84 20 16 3e 1e e1 7a bc 85 1a 91 3d
       0.030127665 0.14660841 -0.015312461 0.07085136
000130 51 8a 14 3d be b2 59 bd b2 88 a7 3d b1 3c 62 bc
       0.03626472 -0.053148977 0.081803694 -0.013808415
000140 e1 00 05 be 39 65 fb 3c 52 30 9f 3d d0 a9 dc bd
       -0.12988617 0.030687915 0.07772888 -0.10774577
000150 df 60 ac 3c 89 e2 3d bb 9c ef 0a bc 14 e6 11 3e
       0.021042285 -0.0028974137 -0.008479979 0.14247924
000160 36 a0 01 3e 83 39 7a bd 64 b0 0d be 24 41 67 3c
       0.12658772 -0.061090004 -0.13836819 0.014114652
000170 99 85 74 3d 56 57 fe bd 96 15 45 3c 3f 6e 27 3e
       0.05969772 -0.12419002 0.012029072 0.1635065
000180 cc 99 33 bd 52 4e 92 bd a6 29 0c bd ee 5f 0c bd
       -0.043847844 -0.07143845 -0.034219407 -0.034271173
000190 12 59 82 bd c3 ff 05 be 1b 7a e2 bd 5b ca 86 3c
       -0.06364645 -0.13085847 -0.11058446 0.016453912
0001a0 ca 85 26 bd 2a da c6 bb 4c 06 cd 3b 31 9e a8 bc
       -0.040654935 -0.0060684877 0.006256854 -0.020583244
0001b0 d4 65 f5 bd bc 7c 2c 3d 66 df 38 3c d0 d3 44 3d
       -0.11982313 0.042111143 0.011283731 0.048053563
0001c0 bf 2a 00 bd b4 3c 41 bc a9 0a 18 3e 21 70 e5 bb
       -0.031290766 -0.011794258 0.14847817 -0.007001892
0001d0 20 99 38 bd 26 75 d9 bd f4 d3 18 be b2 99 ba 3d
       -0.045067906 -0.106180474 -0.14924604 0.09111346
0001e0 1f 6e 69 3c eb f8 cd bd f7 9d 19 3e ec ac 7b bd
       0.014247446 -0.10057243 0.15001665 -0.061444208
0001f0 80 7a 14 3d 5f 7b 93 bd 43 a4 21 3e 74 0d 5a 3d
       0.036249638 -0.072012655 0.15785317 0.053235486
000200 a5 bb c6 3c 33 74 e2 bd 42 5b b3 3d f5 8e e9 bc
       0.024259398 -0.110573195 0.087576404 -0.02851055
000210 cb 8f 15 bd 06 42 53 bd 50 e1 c0 bd db 60 8a 3d
       -0.036514085 -0.051576637 -0.09417975 0.06756755
000220 a1 1d 52 bd ba 00 76 3d 93 30 7c 3d c5 b9 c8 3d
       -0.051297788 0.060059287 0.06156976 0.09801058
000230 86 f5 be 3d 95 5c 44 3d 37 05 c2 bd 6d c9 eb bd
       0.09324174 0.047939856 -0.09473651 -0.11513028
000240 51 41 bf bc 42 7f 52 bd e6 48 14 bd d2 98 13 bd
       -0.023346575 -0.051390894 -0.036202334 -0.036034413
000250 53 be 49 3d 8d 3c 04 be 31 6b 10 3d 7c 66 4f ba
       0.049253773 -0.12913723 0.035258476 -0.00079116947
000260 ca 11 a5 3d 15 8d 94 ba fe 26 81 3d b9 dd a5 3d
       0.080600336 -0.001133355 0.06306265 0.08098931
000270 32 98 de 3c 6a e5 f0 bc db ca c8 3b 19 12 72 bd
       0.027172182 -0.029406268 0.006127698 -0.05909929
000280 f5 58 e2 bb 25 71 82 bd 7f 0f 4e 3d b7 0c e6 3d
       -0.006907577 -0.06369237 0.050307747 0.11232894
000290 06 5e aa 3d 4a 50 2c 3e 81 b1 11 3d c3 0c d0 3d
       0.08318715 0.16827503 0.03556967 0.10158684
0002a0 06 99 41 bd 22 30 28 3d a0 60 d0 bc 23 2b af 3d
       -0.047265075 0.041061528 -0.0254367 0.085531496
0002b0 8f 7e de 3d 3e b8 cb 3d 9d e7 72 bc f8 b8 0f 3e
       0.10863983 0.09947251 -0.014825729 0.14035404
0002c0 9d 98 9c bb dd 5a 7f bd 95 90 ea 3d 21 6e dc 3d
       -0.004778935 -0.062342513 0.11453358 0.10763193
0002d0 97 3c 94 bd 51 29 36 bd 4d 37 0c 3e 65 07 e5 3c
       -0.07238119 -0.044472996 0.1369297 0.027957628
0002e0 73 e1 05 3e 2d 33 39 3b 87 df ae 3d 62 22 60 3b
       0.13074283 0.0028259263 0.08538728 0.0034200181
0002f0 ee 87 55 bd 2a 56 d7 bc 82 c0 c8 bd c5 34 dd 3d
       -0.052131586 -0.026286203 -0.09802343 0.108010806
000300 61 9e 44 3d 6c 53 ef 3d ad 93 95 bd b2 9e 8b bd
       0.048002604 0.11685833 -0.073035575 -0.06817378
000310 17 7c bd bd 17 69 57 bd e6 f8 2f bd f5 e3 2d 3e
       -0.09252184 -0.052590456 -0.042961977 0.1698149
000320 a0 a2 a8 3d 83 fe 80 bb 85 d0 11 3d a0 c2 ad bd
       0.08234143 -0.00393659 0.03559925 -0.084843874
000330 5a 8c c5 3d b5 ac 9e bd de d6 db bd 2a c3 eb 3c
       0.096459106 -0.07747785 -0.10734342 0.028779585
000340 c5 06 ce bd c4 82 37 3e 52 26 69 3c f6 e5 70 3d
       -0.10059885 0.17920977 0.014230328 0.058813058
000350 06 29 af 3c db 34 e5 bb bd 1e d7 3d c8 a9 94 bd
       0.021381866 -0.0069948263 0.1050391 -0.07258946
000360 93 8b 29 be 5d d1 49 bd d1 49 62 3d ff 8d 50 3d
       -0.1655715 -0.04927193 0.055246178 0.050916668
000370 3d 06 77 3d 18 51 8c bd b7 4f a9 bd 74 24 73 bd
       0.060308684 -0.06851405 -0.082671575 -0.059360936
000380 3c 80 bd bc 36 a0 8a 3c 34 52 41 3d d7 f3 10 be
       -0.023132436 0.016922098 0.047197536 -0.14155518
000390 a3 34 81 3d 79 76 a1 3d 59 d0 3a bd 48 1a 79 bc
       0.06308868 0.07883925 -0.045608852 -0.01520402
0003a0 35 38 a4 bd 5d 61 ba bd 91 42 85 3d b2 14 60 3d
       -0.08018533 -0.09100602 0.06506837 0.054707237
0003b0 44 49 01 3e a9 5f 08 be 4e 85 b9 3d 75 e4 0e be
       0.12625605 -0.13317741 0.09058629 -0.13954337
0003c0 d8 bc a6 bd 16 a6 bb 3d 86 f9 c5 bd 07 59 a9 3d
       -0.08141488 0.09162538 -0.096667334 0.08268934
0003d0 80 52 0f 3d a7 a0 c0 3d e8 63 bf bd d7 9e 59 bd
       0.034990788 0.09405642 -0.093452275 -0.053129997
0003e0 25 d5 c2 bc 89 67 8c 3d bb 6d 81 3d 1c 8b 09 3e
       -0.023783276 0.06855685 0.063197576 0.13431972
0003f0 c6 67 9b ba c0 38 df 3d 5a 7a 57 bc 65 a8 f2 bb
       -0.0011856488 0.10899496 -0.0131517295 -0.007405328

weight f4 [128, 256]
000000 83 c3 1a bd 1b f7 d8 bd 68 68 97 3d d2 d8 ae 3d
       -0.03778411 -0.10594007 0.07392961 0.08537449
000010 ca 14 dc 3c 55 e2 ca 3c c1 77 14 3d 47 9b d6 3c
       0.026865382 0.024766127 0.03624702 0.026197089
000020 58 ef f4 bc ae 46 87 3d f2 80 72 bd 54 6f 52 3d
       -0.029899284 0.06605278 -0.059205003 0.051375702
000030 a4 a3 35 3d 18 42 3a bd 8e b6 9d 3d 9b 15 e7 3d
       0.044345513 -0.04547319 0.07700835 0.11283418
000040 bd b2 97 bd a6 97 b0 3d 1b 0a 1a bc 72 e9 9b 3d
       -0.074071385 0.08622675 -0.009401823 0.076128855
000050 ee ec 9a bc 8b c1 9d 3d 14 c0 a7 3d 88 94 4b bd
       -0.018911805 0.07702931 0.08190933 -0.049702197
000060 cb 15 78 3c 68 27 e9 3c be 9e ae bb 6b 2e 0a 3d
       0.015141915 0.028461173 -0.005328982 0.033735674
000070 be 5b d4 bd 1b 5b d2 3d 1b 21 a3 3d 1a f7 34 bb
       -0.10369061 0.10271283 0.07965299 -0.0027613104
000080 aa 21 d6 3d a2 f2 8d 3d 8b ca 31 bd bd 34 1a bd
       0.1045564 0.06931044 -0.04340605 -0.03764795
000090 21 4b 57 bd db 52 ce 3c 68 50 ab bc 0c f2 38 3d
       -0.052561883 0.025185993 -0.020912364 0.04515271
0000a0 c0 aa 19 3d 68 0a dd 3d 0a 18 e1 bc 1a 07 4d bd
       0.037516356 0.107930005 -0.027477283 -0.0500556
0000b0 e3 e9 85 bd 86 cf 2b 3c 14 1e 37 3d b9 5c 2c 3d
       -0.06538751 0.010486489 0.04470642 0.042080615
0000c0 f7 92 3e bc 04 44 40 bd 4b 4f 79 bc b9 83 72 3d
       -0.011631719 -0.046939865 -0.015216659 0.05920765
0000d0 8c 5a 85 bb 06 dc ee bc 86 5d fc 3c f2 d8 98 bd
       -0.004069632 -0.02915765 0.030806314 -0.07463254
0000e0 f5 9a c6 3b 1d 79 03 3d ae 92 51 bd 47 c8 25 3d
       0.006060953 0.032097925 -0.051165275 0.040474202
0000f0 86 53 76 bd ce 8a 98 3c 5b 44 b5 3d 6b 88 1a bd
       -0.060138248 0.018620875 0.088509284 -0.037727755
000100 3c 1f 32 bd 0b d1 35 3c 7f f2 0e 3d c9 9c b6 3d
       -0.04348682 0.011097203 0.03489923 0.08916623
000110 e2 b4 43 3d 52 cf 26 bd d6 ee 2e 3d 4b 16 b7 bc
       0.047779925 -0.04072506 0.04270824 -0.022349497
000120 f8 50 82 bb 83 2c d7 bc 90 2a 0a bd 31 64 99 bd
       -0.0039769374 -0.026266342 -0.033731997 -0.07489813
000130 f4 2d b8 bc 8f 4f 86 bd 87 43 a2 3d 3b 07 0b bd
       -0.02248285 -0.06558143 0.07923036 -0.033942442
000140 e7 50 16 3d ae 7b 38 bd 3f e3 92 bd 88 84 94 bd
       0.03669825 -0.045039825 -0.0717225 -0.07251841
000150 13 80 82 bd 44 e6 4e 3d ca f3 99 3d e5 d3 bd 3d
       -0.063720845 0.050512567 0.07517202 0.09268931
000160 84 78 62 3d 65 53 cc 3c 9b 33 88 bd e1 6a a1 bd
       0.055290714 0.02494211 -0.06650468 -0.07881714
000170 dd 29 59 3d 3e 41 c4 bc 66 b0 1d bd 8d 01 da 3c
       0.05301844 -0.023956891 -0.038498305 0.026612068
000180 a4 8f 6f bd 17 34 8c 3c 9b 71 1e 3d bf 16 f2 3c
       -0.058486596 0.017114682 0.03868256 0.029551862
000190 a0 19 18 3d f9 a4 85 bd f0 6b 68 bc 3d 20 4c bd
       0.037133813 -0.06525607 -0.014185891 -0.049835432
0001a0 ab 32 b2 3c af f5 24 3d d7 74 03 3d 82 e5 ad 3d
       0.021752676 0.040273365 0.03209385 0.08491041
0001b0 31 9e 6c bc 2e ff 77 bd 28 c1 42 3d 02 da 73 3d
       -0.014442013 -0.060546093 0.04754749 0.05953408
0001c0 b5 1a e7 bd 87 17 cf bb 5c 12 bb bc cb 43 2f 3d
       -0.11284391 -0.0063199433 -0.022835903 0.04278926
0001d0 a0 c4 67 bd 8a d0 f3 bd 59 66 8a bd c8 33 0a 3d
       -0.056584 -0.1190501 -0.067578025 0.03374079
0001e0 25 aa 45 bc 50 e4 90 bc 81 0e 65 3d 10 85 70 bc
       -0.012064491 -0.017686993 0.055922035 -0.014680162
0001f0 2f 77 f2 ba 28 8e b6 3d 9d 87 c8 3d 56 09 fb 3d
       -0.0018498654 0.08913833 0.09791491 0.1225764
000200 8b ef 87 bd de cc 2d bd 2c ad 40 bc 51 51 f5 bb
       -0.06637486 -0.042431705 -0.011760037 -0.0074865003
000210 59 a2 d9 bc bc e5 09 3b c3 4c b6 bd a3 9f 47 3c
       -0.026566671 0.0021041473 -0.0890136 0.012184056
000220 51 05 99 bd 00 fc 60 3d 2d e2 b1 bc b6 e6 86 3d
       -0.07471717 0.054927826 -0.021714294 0.06586973
000230 06 9e 5e 3d 6a 3f be 3c 3d bf 13 bd 73 7f 4c bd
       0.05434992 0.023223598 -0.03607105 -0.049926233
000240 7f dd c0 3b 5e 1b ab bc 75 33 7c bd 9e 7e d2 3a
       0.0058857794 -0.020887073 -0.06157251 0.0016059463
000250 1e 8f e4 bc c4 22 aa bd e5 68 de 3d 07 13 06 bd
       -0.027900275 -0.08307412 0.10859851 -0.03273299
000260 f5 e5 9a 3d e5 88 a0 3c f0 80 39 bb c2 9c f0 bb
       0.07563392 0.019596526 -0.0028305613 -0.0073429057
000270 1a 78 8b bd b1 25 ac bc fd 3d dd 3c e5 8b 44 3d
       -0.06810017 -0.021014066 0.027007097 0.047984976
000280 01 25 ae ba 74 ed 1d b9 d2 4e 39 bc ba 1c ba 3c
       -0.0013286175 -0.00015061145 -0.011310296 0.022718776
000290 a6 38 78 bd 0f 67 5a bc a8 a8 0a 3e 7a 69 71 bc
       -0.0606009 -0.013330235 0.135409 -0.01473462
0002a0 31 39 da bc 58 d1 e2 3c 0e ff 04 bc 77 a4 b2 bc
       -0.0266386 0.027687714 -0.00811745 -0.021806939
0002b0 e4 93 80 3b fc e5 67 3c 04 48 46 3c d3 6d 09 bc
       0.00392388 0.014153954 0.012102131 -0.008388001
0002c0 3f d1 13 3d da 0e 22 3c 1d ec 4c bc 06 70 9d bd
       0.036088225 0.009891236 -0.012507466 -0.076873824
0002d0 24 c2 e9 bb 23 09 0e bd fd ee 37 ba e1 ea 2b ba
       -0.007133739 -0.034676682 -0.0007016508 -0.0006558132
0002e0 e8 c6 c3 3d 28 37 98 bb 1f 93 27 3d 19 78 f5 bc
       0.09559423 -0.004645247 0.04091179 -0.029964494
0002f0 81 e5 2d 3d 8d 51 2b bd e5 75 49 3d af 3a 8f 3d
       0.0424552 -0.04182582 0.0491847 0.06993615
000300 96 7c c0 3c 27 7f 4b 3c 86 76 c5 bd 93 c0 ab 3d
       0.023496907 0.012420452 -0.09641747 0.0838634
000310 4f d7 ea 3c 04 e5 70 3d a0 ac bc 3d bd 7a b8 3d
       0.02866712 0.058812156 0.09212613 0.090077855
000320 83 8d b4 3c 8c 42 b0 3c 94 58 bf bc 47 46 a9 bd
       0.022040134 0.021516107 -0.023357667 -0.082653575
000330 d8 cb 1f bd 0d fc eb bd f3 ce eb bd 76 a3 bf 3c
       -0.03901276 -0.11522684 -0.11514082 0.023393374
000340 c4 a7 01 3d 67 bd 01 3e 25 4b 41 3d 3a b5 01 3b
       0.031654134 0.12669908 0.047190804 0.0019791857
000350 a6 0b 55 bd f8 9e 8f 3d b1 ba 1b bc 5a 43 b2 3d
       -0.052013062 0.07012743 -0.00950496 0.087042525
000360 72 4d 7d 3c 45 be 0b bd a8 95 d0 3c 55 64 6d 3d
       0.015460359 -0.034117002 0.025461987 0.057957012
000370 99 dd 5f 3d c4 8c d1 bb fc da 2d 3d 9f 33 82 3c
       0.05465469 -0.0063949544 0.042445168 0.015893755
000380 32 07 d2 bc 3c e5 b5 3d 31 77 2a bd 0b 43 d7 3c
       -0.025638197 0.088816136 -0.041617576 0.026277086
000390 9b b5 21 bd cd ca f4 3c a9 82 77 3c 9f 0d 8c bc
       -0.039479833 0.02988186 0.015106835 -0.017096339
0003a0 e8 a5 0d 3d 5e 90 da bd e6 ce 72 bc 08 b7 e7 3d
       0.03458205 -0.10672067 -0.014819836 0.11314207
0003b0 73 23 6c 3d 07 01 40 3b 32 7c e4 bc 7f 07 de bd
       0.057650995 0.0029297487 -0.027891252 -0.108412735
0003c0 45 e5 68 bc 7b f2 27 bb 62 c2 75 3c 06 68 b5 3c
       -0.014214818 -0.0025626707 0.014999958 0.022144329
0003d0 06 91 99 bd a6 96 ab 3c 84 44 a1 3c bc f4 86 3d
       -0.07498364 0.020945858 0.019685991 0.06589648
0003e0 4a 06 8d bd bb f0 bb bc 55 c5 14 bd e9 f3 06 3d
       -0.06885965 -0.022941938 -0.036321003 0.032947455
0003f0 8b d5 04 bc 17 f3 f1 bc 42 47 e3 3b f7 9f bd bc
       -0.008107553 -0.02953486 0.006935985 -0.023147566

bias f4 [128]
000000 cb e7 95 3d e7 5a 7a 3b 21 1d 3d 3c 63 7e 70 3d
       0.073196016 0.0038201155 0.011542589 0.05871428
000010 30 ba 85 bc ad 2b 00 3d a0 03 0a 3c 9f e0 6f 3c
       -0.016324133 0.031291652 0.008423716 0.014640956
000020 11 4f c1 3d a5 3b f6 3c e5 03 38 bd 2a ca ee bb
       0.09438909 0.030057738 -0.04492559 -0.0072872834
000030 91 07 45 3b f1 32 6b bc e0 ea 49 3d 6e 55 b3 3d
       0.0030064324 -0.014355407 0.04929626 0.08756529
000040 e4 49 6f 3d fe eb 8d bd 41 95 a3 bd 0d 30 78 3d
       0.058420077 -0.069297776 -0.07987452 0.0605927
000050 42 94 ef bc 2c 5d 8a bd 43 00 a6 3c 27 55 32 3d
       -0.0292455 -0.067560524 0.020263797 0.04353824
000060 7c 56 e2 bc 4a 7e 68 3b 71 ec 46 bd eb f6 b2 3d
       -0.02762913 0.0035475665 -0.04856533 0.08738502
000070 17 13 2d 3d 37 bc 20 3d 15 c6 7c 3c 0e cb 84 bd
       0.042254534 0.039241996 0.015428086 -0.06484042
000080 bb b4 00 bd e9 37 2b 3d f2 94 e8 3c 13 4f 07 3d
       -0.031422358 0.041801367 0.028391335 0.033034395
000090 91 d2 8b bd 79 fa ca bb 40 01 17 bd 63 a5 10 bd
       -0.06827272 -0.0061944094 -0.036866426 -0.035313975
0000a0 51 3f b5 3d a0 8e 4f bc e8 b4 d4 3c f4 53 b6 3d
       0.08849967 -0.012668282 0.02596517 0.089027315
0000b0 4d 88 f4 bc 40 18 47 3d bf 78 a8 3c 4b b2 5a 3b
       -0.02985015 0.04860711 0.020565389 0.003337043
0000c0 c2 b3 c3 bb 5f df 0e bd 41 a6 2f 3d f8 de b2 3d
       -0.0059723565 -0.034880992 0.04288316 0.08733934
0000d0 46 fa c8 3d 5e ba 5d bd 9d 23 9d bd d9 d2 21 bd
       0.09813361 -0.05413281 -0.07672808 -0.03950772
0000e0 15 cd 81 3c 4b ae 52 bd bc fe de 3b de 49 9b 3d
       0.015844861 -0.05143575 0.006805269 0.075824484
0000f0 17 73 07 bd 28 c8 73 3d 7b 22 17 bd 9e f1 2a 3d
       -0.033068743 0.059517056 -0.036898118 0.04173433
000100 79 29 76 3d 99 7a 37 3d 4c 7a 36 bd bb 31 dd 3c
       0.060098145 0.044794653 -0.044550225 0.027001252
000110 de aa 9f 3c b3 3d 38 bc 33 b9 86 3b 43 cb 27 3d
       0.019490656 -0.011245179 0.004111433 0.04096533
000120 13 b7 06 3d 71 47 82 bd 02 ad 3b 3d 97 ba 80 3c
       0.032889437 -0.063612826 0.04581929 0.015713973
000130 54 2f b8 3c c0 43 9d bd 4a 01 0f bd a7 2b 2c bd
       0.022483505 -0.07678938 -0.03491334 -0.042033818
000140 47 b0 d5 3c 1b 9b be 3c 24 0e 02 bd 1c 13 35 3d
       0.026085032 0.02326732 -0.031751767 0.044207677
000150 52 be 37 bd c5 60 82 bc 10 df 33 bd dd f1 82 3d
       -0.044859238 -0.015915284 -0.0439139 0.06393788
000160 7e 47 01 3d 8c 66 14 bd 85 a5 82 3c 29 d4 80 3d
       0.03156232 -0.03623061 0.015948066 0.06290466
000170 91 58 45 3d 98 18 46 bd 04 14 2c bc af 88 d0 3c
       0.048180167 -0.0483633 -0.010502819 0.0254558
000180 08 37 c4 3c 79 12 93 bd 16 04 c0 3b f6 3f d0 3c
       0.023952022 -0.07181258 0.005859862 0.025421124
000190 9f 24 77 3b a4 96 77 3c 39 8a 17 bd 40 50 21 3d
       0.0037711037 0.015111599 -0.036997054 0.039383173
0001a0 b2 eb e6 3c 78 91 5c 3d 0c cf 9e 3d c2 0c f0 bc
       0.02818856 0.053849667 0.07754335 -0.029302958
0001b0 76 75 4e bd 27 4e 2d 3d 94 da 55 3d e4 fd 83 3d
       -0.05040499 0.04231086 0.052210405 0.0644491
0001c0 48 8d 66 3c e6 16 32 bc 9b 7a 05 3c f5 98 2b 3d
       0.01407177 -0.010869717 0.008146907 0.041893918
0001d0 17 57 24 bd 74 9f a7 bc 59 7d 2a bd 7e 64 07 3d
       -0.040122118 -0.020461775 -0.041623447 0.03305482
0001e0 85 25 5c 3d 32 4d d8 bc 53 c6 d2 bc b9 84 49 3d
       0.05374672 -0.026403997 -0.025729334 0.04919884
0001f0 34 99 a2 3c 13 57 6b 3d a8 80 e1 bb 9f 40 08 bc
       0.019848444 0.057456087 -0.006881792 -0.008316188

weight f4 [64, 128]
000000 d1 10 87 3d c7 5a 10 3c 06 b4 9e 3d d6 55 c1 3d
       0.06595004 0.0088107055 0.077491805 0.094402
000010 c8 39 15 bc 90 65 f4 3d 84 f7 e5 bc b2 9f d3 bd
       -0.009108014 0.11933434 -0.028072126 -0.10333194
000020 3f 53 1c 3d 52 ec 69 3c 60 3b b2 bd d5 46 71 3c
       0.038165327 0.014277535 -0.08702731 0.01472636
000030 ea ee aa 3d 8a 19 ce bb 84 9e 17 3d 2a 2d 74 3d
       0.083463505 -0.0062896656 0.037016407 0.059613384
000040 5d 5d c6 3d b3 cd 1b bc 74 6b 90 bc 54 db ed 3d
       0.096857764 -0.009509492 -0.017629363 0.11614099
000050 1d de 14 3d 3f 1a 7b 3d ee c9 df 3d 40 b0 f1 3d
       0.036344636 0.061304327 0.10927187 0.11801195
000060 8f cf 9f 3d 49 48 54 3b c2 ec d2 bb 3d ee a7 3d
       0.078032605 0.0032391718 -0.006436915 0.08199737
000070 f9 0b 1c bd 90 ac 83 bd cf ee 41 3d 85 12 a8 3b
       -0.038097356 -0.06429398 0.047346886 0.005129161
000080 24 3e e3 3c ed e5 0c bd e7 45 1e bd 8a 89 68 3d
       0.027739592 -0.03439896 -0.038640883 0.056771792
000090 71 47 40 bc 3b c7 b6 3d 03 8a 89 bd 44 9b 70 bc
       -0.011735783 0.08924719 -0.06715777 -0.014685456
0000a0 0a 42 83 3d 57 a9 6d 3d ab b4 87 3c 3f 4c 23 3d
       0.0640908 0.058022823 0.016565641 0.039867636
0000b0 60 93 f3 bc 29 0c 00 3e 8b 34 68 bd 96 ee 6e 3d
       -0.02973336 0.12504639 -0.056690734 0.058333002
0000c0 60 df fc bc d0 10 77 3d 5f 98 43 3c 77 f2 a9 bb
       -0.030868232 0.060318768 0.011938184 -0.0051863748
0000d0 a0 91 18 bc 2b 7f 99 bd c7 f9 7a bd b8 b8 35 bd
       -0.009312063 -0.074949585 -0.061273362 -0.044365615
0000e0 46 b9 32 3d 3f 72 82 3c 60 10 e2 bd 32 ae b7 3d
       0.04363372 0.015923617 -0.110382795 0.08968772
0000f0 2d ca 06 bd f8 f0 3b bc 52 c5 55 3d 51 eb 0b 3d
       -0.032907654 -0.011471026 0.052190132 0.034159962
000100 88 04 7b 3d 3b 1b 65 3d 30 6c 15 bd f8 e1 60 bd
       0.06128362 0.055934172 -0.03648013 -0.054903
000110 44 20 26 3d fa d5 0a bd 02 ec 4b bd 27 a6 c9 3d
       0.040558115 -0.03389547 -0.04978562 0.09846144
000120 6a fb b5 bd e4 b3 d8 bd 65 53 de 3d e8 35 ee 3c
       -0.08885844 -0.105811864 0.1085575 0.029078439
000130 5e d9 68 3d 66 06 00 bd 9a 1b bd bc f0 ec 42 bd
       0.056847923 -0.031256102 -0.02308445 -0.047589242
000140 4e 2e cf 3c 0e 65 fa 3c 74 ce 20 bd 91 30 3d bc
       0.025290634 0.030565765 -0.03925939 -0.011547224
000150 2e 9b b7 3c af 97 64 3b 2b c0 1e 3d 46 16 75 bc
       0.022412863 0.003488045 0.038757484 -0.014958924
000160 22 51 0a 3c 0a 82 5e b9 65 98 51 bd 5a b6 83 3d
       0.008442195 -0.00021220013 -0.051170725 0.06431265
000170 71 b8 dd 3d 9e 08 dd bb 29 e9 ba bc 0c a8 f0 bc
       0.10826195 -0.006745412 -0.022816258 -0.029377006
000180 35 9c 82 bd 41 df d6 bc 95 25 48 3d 6d 64 bd bc
       -0.063774504 -0.026229503 0.048863966 -0.023119176
000190 39 eb 4e 3c 8a 09 86 3c ca b6 d3 bd 88 c1 e1 3c
       0.012629324 0.01636197 -0.103375986 0.027558103
0001a0 23 bc b9 bd ed 00 32 3d 27 79 4b 3d c7 8f 5f 3d
       -0.09069087 0.043457914 0.049676087 0.054580476
0001b0 98 c6 14 3d f6 cf 13 3d a2 c7 4e 3b fc 62 bb 3d
       0.036322206 0.036087 0.0031552096 0.09149739
0001c0 d6 8d 97 3d 48 cc 2b bc 97 ea ce 3d b4 2b 2c bd
       0.074001 -0.010485716 0.10103338 -0.042033866
0001d0 20 79 b3 bb 22 c7 81 bd 36 10 71 3d 25 44 ce bb
       -0.0054770857 -0.0633681 0.05885335 -0.0062947446
0001e0 fc dc 83 bc 4f f0 8f bd f5 e7 39 bd 73 02 87 3d
       -0.016096584 -0.07028257 -0.045387227 0.06592264
0001f0 b0 8a ac bd 99 a0 3e 3d 71 dc 8b 3c 1b 8a bb bd
       -0.0842489 0.046539877 0.017072888 -0.09157201
000200 ee ce 6a bd 14 70 75 3d d0 ea 15 3d bf 79 c7 3d
       -0.05732625 0.05992134 0.036600888 0.09740018
000210 58 11 c4 bd 57 2c de 3b 77 1a 0b 3d 9a af ae bd
       -0.095736206 0.006780188 0.033960786 -0.08529587
000220 ca 36 25 3d a1 c6 7e bd 8c ec 9b bd 24 ca c5 bd
       0.040335454 -0.062201146 -0.07613477 -0.09657696
000230 c5 ca 79 bb e4 cb 55 3d b8 72 be 3b 95 30 58 3c
       -0.0038115245 0.0521964 0.0058120154 0.013195177
000240 c7 6b 37 bd 5a 2f 82 3d 0f e6 af bd dc c2 33 3d
       -0.04478052 0.06356688 -0.08588802 0.043887004
000250 ae d2 d9 3c e8 a8 48 3d 0b 7b 74 bd db 40 c3 3d
       0.026589718 0.048989207 -0.059687655 0.095338546
000260 f5 01 62 bd 35 b4 52 3d 22 04 c8 bd 40 c1 97 3d
       -0.055177648 0.05144139 -0.09766413 0.074099064
000270 50 6c 85 bc c0 9a e0 3c a7 21 36 3d 70 44 29 3d
       -0.016286999 0.02741754 0.044465687 0.041325033
000280 a1 6e ba bd f3 a3 94 bc 5b 3c 2a bc 47 f0 03 3d
       -0.09103132 -0.018144583 -0.010390366 0.03221157
000290 0a ff ca 3c 61 43 e1 3d f4 44 12 bc e7 9f 84 3d
       0.024779815 0.1099918 -0.0089275725 0.064758115
0002a0 f2 76 56 3d b1 6d 51 3d 03 4a 59 bd 26 8c 8c 3c
       0.05235953 0.05113 -0.0530491 0.017156672
0002b0 97 c8 9b bc a5 ca 0a 3d eb de ce 3c 69 73 41 bc
       -0.019016547 0.033884663 0.02525278 -0.011807301
0002c0 d7 11 16 3d 03 9a 20 3d ce 78 9b bd 94 7c 35 bc
       0.036638107 0.039209377 -0.07591401 -0.011077065
0002d0 20 6f 56 bd 67 6f 6b bd 81 e2 4f bc 8e a4 c0 3d
       -0.05235207 -0.05747929 -0.01268828 0.09406386
0002e0 7b 77 42 bd 06 0e d6 3c bb 83 c8 bd 11 94 8a bd
       -0.047477227 0.026129734 -0.097907506 -0.06766523
0002f0 fd 71 b9 bb f0 44 4c 3c 0a ad a7 3d a0 f4 b2 3d
       -0.0056593404 0.012467608 0.081873015 0.08738065
000300 9c c9 ab bd be c8 c7 bd 86 35 ce bd 97 ff f1 3c
       -0.08388063 -0.097550854 -0.100688025 0.02954082
000310 36 19 55 bd c4 7e be bd 3f e6 f3 bc 82 c2 01 3e
       -0.052025996 -0.093015224 -0.029772876 0.12671855
000320 c0 8b 7f bd d6 62 39 3d 70 9a 79 3c d1 3e ef 3d
       -0.062389135 0.045260273 0.015234575 0.11681903
000330 00 ab 02 3b 2e 59 35 3d 1f 13 6e bd b2 3d d2 bc
       0.001993835 0.0442745 -0.058123704 -0.025664184
000340 51 c3 51 bd 21 45 9a 3d 41 fd de bd 6b bd bf 3b
       -0.05121166 0.075327165 -0.10888148 0.005851438
000350 9e c4 9b 3d 1f 18 51 3c 9b 29 a9 3d 83 12 9c bd
       0.07605861 0.012762099 0.08259889 -0.07620718
000360 46 4f 9e bd 6d 22 c6 3c 61 eb ca bd bc 48 75 3c
       -0.07729964 0.024186337 -0.09908176 0.0149709545
000370 89 b9 a8 3c 9b 55 be bc f8 09 fa 3b 11 69 85 3d
       0.020596283 -0.02323418 0.007630583 0.065141805
000380 d8 94 ad 3c e0 1d 2a 3c 01 0f e3 bd 4b e4 76 3a
       0.021189138 0.010383099 -0.11086846 0.00094181736
000390 b6 62 c6 3d 97 4f 2c 3a 14 85 9f bd 91 37 33 bd
       0.09686796 0.0006573139 -0.077890545 -0.043754164
0003a0 d3 63 af 3b 85 7b 8d bc 7d c2 29 3d ae e7 3b bd
       0.005352476 -0.017270813 0.041445244 -0.045875244
0003b0 a0 9f 98 bd be de a5 3d ca 5d 2a bd db 9e dc 3d
       -0.07452321 0.08099125 -0.04159335 0.10772487
0003c0 6b 83 ce 3d a8 ad 85 bc e1 4a 3a 39 a0 6c ac bd
       0.1008366 -0.016318157 0.00017766237 -0.08419156
0003d0 09 4a d7 bd bd 4d 54 bd 4d c3 a8 bd 22 ec c0 3c
       -0.10512168 -0.05183195 -0.08240376 0.023550097
0003e0 f0 fc 6e 3d b4 b5 26 3d 92 1b 5b 3d d2 72 d8 3b
       0.05834669 0.04070063 0.05349309 0.0066054845
0003f0 1d 4b 42 3d 16 bc 87 3d 82 95 95 3c 8c 44 0d bd
       0.047434915 0.066276714 0.018259767 -0.0344892

bias f4 [64]
000000 8a 67 eb bb 8c 97 e6 3c 17 0f ae 3d 67 d8 3f bc
       -0.0071839737 0.028148435 0.08498972 -0.011709309
000010 9b 7a c4 3c 05 0d 4f 3d 0e ed 82 3d f3 02 c7 3c
       0.023984244 0.050549526 0.06392871 0.024293398
000020 b4 11 ce bd 91 8c 80 3c 11 00 0d 3d 1d fd 97 3a
       -0.1006197 0.015692027 0.03442389 0.0011595819
000030 39 6b b5 3d b7 47 19 3c aa ee 22 bb f2 5e 02 bd
       0.08858342 0.009355477 -0.0024861493 -0.03182883
000040 28 f2 af bc 74 0f 9a 3d fb 25 0b bd 89 31 8b 3d
       -0.021477774 0.07522479 -0.033971768 0.067965575
000050 bc af 38 bd 1f 8d 9d bd f8 9b ae ba 0a 2c 11 bb
       -0.04508947 -0.07692932 -0.0013321629 -0.0022151493
000060 1a b4 24 bd 42 85 ad 3d 83 3f 18 bc c2 6f 94 3c
       -0.04021082 0.084726825 -0.009292486 0.018119697
000070 4b 55 8a 3d fb f8 ae bc 56 81 8e bd 51 2f d2 3d
       0.067545496 -0.021358958 -0.069582626 0.10262931
000080 e4 5a f0 3d e3 e5 31 3d 5d 99 ab 3d e3 91 52 bd
       0.11736086 0.043432128 0.08378861 -0.05140866
000090 d5 4b 27 bd 54 a8 42 3c 59 6b 87 3d 99 d1 b5 bc
       -0.040843803 0.011880953 0.06612272 -0.02219467
0000a0 0c 00 a0 3d a4 f5 1c 3d c8 cc 35 3b f4 69 b6 3c
       0.07812509 0.0383202 0.0027740467 0.02226732
0000b0 52 c2 7f 3d cb a8 d5 3d 50 97 50 3d c1 c8 a0 3c
       0.062441178 0.10432585 0.050925553 0.019626977
0000c0 46 7c a6 bd ec 9d 0b 3c df 65 7d 3d e0 00 af 3d
       -0.08129172 0.008521538 0.06186473 0.08545089
0000d0 b9 5e 1f 3c 03 43 d0 3d d7 63 94 bc e6 a8 87 bd
       0.0097271735 0.101690315 -0.018114014 -0.06624012
0000e0 23 e9 ad 3d 46 7f d0 3d b8 e5 bd bc fa 98 1a bd
       0.08491733 0.101805255 -0.023180827 -0.037743546
0000f0 9e 70 46 bd 0f fa a9 bb 56 8d 9c 3d 2f 21 56 3c
       -0.048447244 -0.00518728 0.07644145 0.013069435

weight f4 [5, 64]
000000 93 60 a7 bb 87 f5 91 bd 40 92 0a 3e 83 58 40 3e
       -0.005107948 -0.07126909 0.13532352 0.18783765
000010 85 81 48 3a 45 54 f2 3d 0b 49 58 3d 79 46 3f 3e
       0.00076486944 0.118324794 0.052804034 0.18679227
000020 7c a9 e5 bd 88 36 07 3e b2 b9 fc bd 8f 24 bf 3d
       -0.11213967 0.13204396 -0.12340106 0.09333145
000030 1c 3b b1 3c f6 b7 92 bd 4c 79 9f bb 01 53 26 be
       0.02163463 -0.07163994 -0.0048667546 -0.16242601
000040 69 7d d5 3d 35 bd 17 3e b5 be d6 bc 36 d4 d4 bd
       0.10424311 0.1481827 -0.026213983 -0.103920385
000050 ad 49 46 bd 07 94 19 be 8e 8e 43 bd c0 01 c6 3c
       -0.048410106 -0.14997874 -0.047743373 0.024170756
000060 9f 79 7c 3d 19 ab ab 3d bb 8d bf 3c 02 3d 35 bd
       0.061639424 0.08382244 0.023383012 -0.044247635
000070 a0 91 ea 3d 12 02 3e bd f5 66 96 3d 33 2c 30 3e
       0.11453557 -0.046388693 0.07343856 0.1720436
000080 6a 33 c0 3a 0a 7f 39 3e 29 ed e4 bd 13 8c ed bd
       0.001466376 0.18114868 -0.11178047 -0.11598983
000090 95 34 4b be d3 75 e8 3d e6 89 80 bb 86 b6 d9 3c
       -0.19844277 0.11350598 -0.003922689 0.026576292
0000a0 06 30 73 3d bc 1d 32 be fb f1 bd 3d 2f 3b de 3b
       0.05937197 -0.17394155 0.0927467 0.0067819576
0000b0 0b fd 0a 3d 4f 9e 5b 3d 27 6f 18 3e ca 32 f4 bd
       0.033932727 0.05361777 0.14886151 -0.1192375
0000c0 0d 2c fe bd 36 05 e8 bd 0a 76 82 3d b5 9c 3e be
       -0.12410746 -0.11329119 0.063701704 -0.18614466
0000d0 78 57 ce 3d 4d f8 a7 bd 44 69 36 bd 56 97 58 bb
       0.10075277 -0.082016565 -0.044533983 -0.0033049188
0000e0 ca 78 28 3e 5f b6 1e 3e da 10 14 3e 43 19 52 3d
       0.16452327 0.15499257 0.14459553 0.051293623
0000f0 7e 1d ee bd 1e ae 22 3e e8 97 c6 bb 91 9b 2b be
       -0.11626719 0.15886733 -0.006060589 -0.16758563
000100 23 5d 3e 3d 41 51 1e 3e 21 fd 86 bc 64 97 47 be
       0.04647554 0.15460683 -0.016478123 -0.19491345
000110 83 b9 09 bd 84 0b 16 be dd dc bd 3d e4 ea f7 bd
       -0.033624183 -0.1465283 0.09270642 -0.12105349
000120 ba 7f bf 3d 04 e9 c9 3d 5f 78 a1 3d ee 16 be bc
       0.09350534 0.09858897 0.07884287 -0.023204293
000130 b1 46 cd 3d df 18 e5 bb 70 eb 1d bd bf 9a e9 bd
       0.10023249 -0.0069914903 -0.03855461 -0.114064686
000140 3b 06 c7 bd 26 71 b7 3d 45 af 42 3c 1f cb 16 bc
       -0.09717985 0.08957128 0.011882608 -0.009203701
000150 68 ee 55 3d 0a 7c 0b 3e e5 15 bc 3d d7 9f 17 3d
       0.052229315 0.13621536 0.091838636 0.03701767
000160 b6 c3 b4 3d c0 f5 0a be 96 11 a3 ba b0 bb 81 3d
       0.088263914 -0.13570309 -0.0012441154 0.06334627
000170 c6 3e 4f bd 0b b7 1c 3e 15 98 21 bd 88 86 a6 3c
       -0.050596975 0.153042 -0.039451677 0.020327821
000180 45 97 05 3e 69 3a 5f bc 2d 22 f3 3d be dc 43 3c
       0.13045986 -0.013624766 0.11871753 0.0119544845
000190 aa ca 2e 3d c6 fd 04 be 84 0f e0 bd 73 ac 96 bd
       0.042673744 -0.12987432 -0.10940459 -0.07357111
0001a0 01 7d 16 3e b0 a1 ca bd 3a cd 01 be 02 48 0d bd
       0.14696123 -0.09894121 -0.12675944 -0.0344925
0001b0 63 fd 5a 3d bf f5 32 3d 17 b5 e5 bd 10 b6 50 3d
       0.053464305 0.043691393 -0.11216181 0.05095488
0001c0 79 f2 ca 3d 64 d0 f5 3c 26 95 ce 3c 9c d7 b9 bc
       0.09909529 0.030006595 0.025217604 -0.022685818
0001d0 10 8d 7c bd e9 25 1f 3e 87 77 0e 3e ad 08 ce 3d
       -0.061657965 0.15541805 0.13912784 0.100602485
0001e0 c0 38 48 3d 35 2e 7c 3d d2 b4 49 3c 48 54 9d 3d
       0.048882246 0.061567504 0.012311177 0.07682091
0001f0 c4 f9 d4 3d 55 54 48 3d 0b 0b 23 bc 3c 27 9a bc
       0.103992015 0.04890855 -0.009951363 -0.018817537
000200 14 5c 8d bd 85 8b 03 be 2f a1 d7 3d 8c 75 78 bd
       -0.06902328 -0.12846191 0.1052879 -0.060658976
000210 f1 23 80 3b 32 d3 c4 bd 33 9a 4a bd 23 08 91 3d
       0.0039105345 -0.09610595 -0.049463462 0.0708163
000220 ba 63 c7 3c 15 26 25 3d dc 17 46 bc 30 73 10 be
       0.024339546 0.04031952 -0.012090649 -0.1410644
000230 1b 14 da 3d 53 be b1 bd e4 e3 41 3b 16 6e bd bd
       0.10648366 -0.086788796 0.0029585296 -0.09249513
000240 b1 fd a8 3d dd f3 c6 3d 6f ba 4b bd de f0 d5 bd
       0.08251513 0.09714482 -0.049738344 -0.104463324
000250 05 10 95 3d 50 a1 43 3d 08 f4 97 3d 6e 2f a7 3d
       0.07278446 0.04776126 0.07419592 0.08163343
000260 bf 3e 94 3d b5 c8 43 bc 06 57 04 be 86 6a 61 bd
       0.0723853 -0.011949708 -0.12923822 -0.05503323
000270 42 31 f9 bc b7 a0 98 3d 2a fb 68 3b 82 66 33 3d
       -0.030418996 0.07452529 0.0035550096 0.04379893
000280 ef c0 49 bd e0 ae ab bd e8 3c 7e 3d 4a ac 9c bd
       -0.04925626 -0.08382964 0.062069803 -0.07650049
000290 18 5f f4 3d d1 47 ba 3d fa 7d f4 3d 9a 93 c2 3d
       0.119322 0.09095729 0.119380906 0.09500809
0002a0 91 5b a1 bd cd ec a5 3d a4 00 62 3d b7 08 33 3d
       -0.07878793 0.08101807 0.055176392 0.043709483
0002b0 56 09 9e bd 7f 8c 33 3d 13 6e e5 bd 43 d2 c1 bc
       -0.077166244 0.04383516 -0.112026356 -0.02365983
0002c0 a3 6f 62 bd 12 8d 59 bd 22 a0 a8 3b 35 fb b4 bd
       -0.055282246 -0.05311305 0.0051460424 -0.088369764
0002d0 1c 70 9f 3c 22 04 dc bd 56 87 a5 bb f9 44 6e bd
       0.019462638 -0.10742976 -0.0050515337 -0.058171246
0002e0 20 e7 c8 3d 8d a0 f3 bd d5 d7 79 bd d9 f9 c5 bb
       0.098097086 -0.11895857 -0.06099685 -0.006041747
0002f0 df 02 90 3d 32 ec a2 3d 73 59 84 3d 6a 96 22 3c
       0.070317976 0.07955207 0.064623736 0.009923557
000300 9e 49 26 3d ec 58 d4 bd d8 e8 7e bd 98 c5 e8 bb
       0.04059755 -0.10368523 -0.062233776 -0.007103633
000310 7c 36 9e 3c 12 41 39 bd 43 6e b3 bd 98 08 c1 3d
       0.01931309 -0.04522807 -0.08761265 0.09425467
000320 7f 60 fc 3d 4c 7b 1f 3d 2a e6 97 3d 51 64 e3 3c
       0.12323093 0.038935944 0.07416947 0.027757796
000330 07 61 2f bd 2a c8 b3 bb 4d ad 8a 3d c6 3f c0 3c
       -0.04281714 -0.005486508 0.06771336 0.02346791
000340 da 3b 83 3d 01 cb 6b bd 2b 5b f1 bb 68 e8 08 bd
       0.064079 -0.057566646 -0.0073656044 -0.033424765
000350 17 a8 dc bd 16 d1 ad 3c 02 49 56 bd d5 9f e6 3d
       -0.10774248 0.021217864 -0.05231572 0.11260954
000360 63 e5 2f 3c 37 11 db bd 5e 44 e5 3d f3 f7 5b 3d
       0.010735842 -0.10696643 0.11194681 0.05370326
000370 25 dc 0d 3d 4c 55 04 3d 15 0d b0 3d 71 a1 0c be
       0.034633774 0.032307908 0.08596245 -0.1373346
000380 95 c3 0c 3c 6a f8 a3 bb cf ef ad 3c 93 24 8a 3a
       0.008591552 -0.0050039785 0.021232514 0.0010539464
000390 d7 32 01 3e d6 60 3b bc e0 ea 89 bd 85 a5 a1 3d
       0.1261705 -0.011436662 -0.06734252 0.078928985
0003a0 d5 4e bb bc 37 f9 a9 3d cc 96 6b bd c6 b5 a0 3d
       -0.022864738 0.08299487 -0.057516858 0.078471705
0003b0 b5 72 9d bd f6 bb 02 bc 64 3a 52 3c f3 77 b9 3d
       -0.07687894 -0.007979384 0.012831304 0.090560816
0003c0 cf ac 80 3d 72 b1 cc 3d ee 6c 58 bd 1b f3 a2 3d
       0.062829606 0.099947825 -0.05283826 0.07956525
0003d0 15 3b bc bd 01 2e ad bd 63 4a 63 3d d8 56 4a bd
       -0.091909565 -0.0845604 0.055490863 -0.049399227
0003e0 cf 78 58 3d 32 90 68 3d 69 38 f8 bb 57 5b 5b 3b
       0.052849587 0.05677814 -0.007575084 0.003347119
0003f0 ed 83 35 bd 10 6c c6 ba e1 86 e9 3c ba c7 a5 3d
       -0.044315267 -0.0015138406 0.028506698 0.080947354

bias f4 [5]
000000 1f 88 fd 3d f8 6f c6 bd 15 d4 c6 3d a6 fc e2 3d
       0.12379479 -0.09689325 0.0970842 0.11083345
000010 fc 8d a5 bc
       -0.020209305
