Policy-Gradients/Poker-Agent/Henry_network.pt (torch, 227339 bytes, 8 tensors)

weight f4 [256, 55]
000000 a9 80 b5 3b be 48 eb 3d 62 e8 20 bd 83 64 9c bc
       0.005539019 0.11488484 -0.039284118 -0.019090896
000010 58 9e 61 bd 38 4a 2c 3d 6a 66 49 3d 30 c4 84 bc
       -0.05508265 0.042062968 0.049169935 -0.01620683
000020 dc b6 c5 3d 16 dc 0a be 17 10 0f be b0 a9 e5 bc
       0.09654018 -0.13560519 -0.13970982 -0.028035015
000030 d4 7b c3 bd 40 f3 ad bd fa 1a 03 3c 96 b1 5e 3d
       -0.09545103 -0.08493662 0.008002037 0.054368578
000040 0a 8a aa bd 0b 53 b3 3d 86 50 19 bd 80 f6 3a 3d
       -0.0832711 0.087560736 -0.03743031 0.045645237
000050 dc 92 e7 3d 5c e8 13 3c 9e 15 8e 3b af cc 0a 3e
       0.11307308 0.009027567 0.004336073 0.13554643
000060 0f 3c 51 bc e4 1b ff bc 4a ef cf bd 44 a8 af bc
       -0.012770667 -0.031141229 -0.10153063 -0.02144254
000070 81 17 30 3d 94 f4 be bd 37 5c c3 bd 7e b0 f4 39
       0.042991165 -0.09323993 -0.09539073 0.00046670804
000080 1f af d0 bc fe 21 20 bd 04 fd a2 bc 0e 13 88 3d
       -0.02547413 -0.039094917 -0.019896038 0.066442594
000090 88 76 7c 3d 24 81 dc 3c b5 ae aa 3c eb 22 a6 bd
       0.061636478 0.026917048 0.02083526 -0.08112129
0000a0 1b 74 03 3e 16 5d 64 bd 87 83 fe 3d 1e 8c b8 bc
       0.1283726 -0.055752836 0.124274306 -0.02252775
0000b0 a3 aa 0e bd 6b 8a 7c bb 20 84 c8 bc f8 83 b0 bd
       -0.0348307 -0.0038534652 -0.024477065 -0.08618921
0000c0 7f 29 34 bd 12 11 34 3d f9 ec b7 3c 41 11 15 bc
       -0.043984886 0.043961592 0.022451865 -0.009098352
0000d0 82 eb ac 3c e9 6a aa 3d 31 8a 04 be 05 2b 54 3d
       0.021108393 0.08321173 -0.12943341 0.05179884
0000e0 5e a7 1e 3c 44 e5 8e bd 9f 49 5d 3c cb be 42 bd
       0.009683458 -0.06977323 0.013506322 -0.047545236
0000f0 08 aa 1e bd 2d 84 ed bd c8 6f f6 3d ce e6 91 3c
       -0.038736373 -0.11597476 0.12033039 0.017810252
000100 e6 d0 d5 3d 96 ea 17 bc df b7 cf bd 8e f7 ca 3d
       0.10440235 -0.009272238 -0.101424925 0.099104986
000110 56 10 06 3e 20 d9 f0 3d 1d 0e 02 3c 88 b4 a8 bd
       0.13092169 0.11760163 0.007937935 -0.082375586
000120 3d 1d 81 3d a5 11 03 3d a4 9b 01 be 62 b8 83 3d
       0.06304405 0.03199925 -0.12657028 0.064316526
000130 71 de 39 bd 62 70 90 bd 61 1d ba bd 0d 8a 20 3e
       -0.045378152 -0.07052685 -0.09087635 0.15677662
000140 41 f0 e9 3d 38 2d 44 3c 00 9d af bd 7b 6c c5 3d
       0.11422778 0.011973672 -0.08574867 0.09639832
000150 d9 3d 56 3d 8a b5 14 bd 71 6b c3 bd 2e 4e 04 3e
       0.052305076 -0.03630594 -0.09541977 0.12920448
000160 c4 a4 93 3d 76 a1 fe 3d 4f 7a a9 bd 53 4a 51 bd
       0.07209161 0.1243314 -0.08275282 -0.05109627
000170 52 98 a0 3c b8 15 f0 3d 08 4f cf bd 70 a6 09 3d
       0.019603882 0.117228925 -0.10122496 0.033605993
000180 e8 fe e1 bd 76 4b 77 3d c6 93 48 bb 5f ca 0e 3e
       -0.11034948 0.0603747 -0.0030605658 0.13944386
000190 c6 23 d8 bc 74 d7 9b bd e9 ee d5 3d f0 5d fb 3a
       -0.026384246 -0.07609454 0.10445959 0.0019177776
0001a0 eb 93 83 bd 13 11 ec 3d 82 83 cd bd 14 cd b4 3d
       -0.064246975 0.11526694 -0.10034849 0.08828178
0001b0 9e d0 89 3d 2d 0b 76 3d d1 6a 4a bd 73 a9 e2 3d
       0.06729244 0.06006925 -0.049418274 0.11067476
0001c0 c7 c0 62 3d e6 0a d0 bd 01 fd f1 3d 4b 10 e7 bd
       0.055359628 -0.10158329 0.11815835 -0.112824045
0001d0 63 bf 7e 3d ab 7a ce 3b 67 ab 6f bd 61 2d 27 bd
       0.06219424 0.0063012443 -0.05851307 -0.04081476
0001e0 7f 8a dc 3d c2 8f 9a bd 80 da cc 3d 90 7f e4 3d
       0.107686035 -0.07546951 0.10002613 0.11157143
0001f0 3a 23 98 bd 6b dc 0b be 97 88 fc bc 99 2c b8 3d
       -0.07428594 -0.13658302 -0.03082685 0.08992881
000200 74 71 38 3d d0 1a 8b 3d af b1 b8 bc c8 94 2f 3e
       0.045030072 0.067922235 -0.022545664 0.171466
000210 97 37 51 3d 4d 73 85 3c c4 ef ae bd ed 59 85 bd
       0.051078405 0.016290331 -0.085418254 -0.065112926
000220 c4 45 ca 3d 48 73 a0 bd 7f fc 19 3c 07 8c f0 3d
       0.09876588 -0.07834488 0.009398579 0.11745458
000230 5b 55 27 bd 6b af 0a 3e 8e 56 93 3d db aa 05 3d
       -0.040852886 0.13543479 0.07194243 0.032633644
000240 d9 d9 07 3e 21 4b 87 3b a7 cf 47 3d 85 17 1a bd
       0.13266696 0.004128829 0.048782017 -0.037620086
000250 41 25 6c bd ea ba 5e 3d b5 85 4a 3d f1 0e a1 3d
       -0.057652716 0.054377474 0.04944392 0.07864178
000260 32 98 6f 3d fb 2e 5f 3d 04 2c 92 bd c6 b7 d9 3c
       0.058494754 0.054488163 -0.071373016 0.026576888
000270 c0 5a 65 3b ba 1c 04 3e 26 20 00 3c ab 6f 44 3d
       0.0034996718 0.12901583 0.007820165 0.047958057
000280 49 c9 02 3e 89 dd a2 ba 37 a1 d5 bd 6d f0 16 3e
       0.12772097 -0.0012425642 -0.1043114 0.14740153
000290 9f 54 85 3c c1 39 e2 bc cb 80 97 3d 87 f1 c1 bd
       0.016275702 -0.02761543 0.07397612 -0.09469896
0002a0 2a 32 9d bd 87 d0 f3 3d 1b 47 d8 bd 9d f9 e3 bd
       -0.07675584 0.11905008 -0.10560437 -0.11131594
0002b0 c0 ce 1f 3c 1f a3 05 3d 83 d4 d5 bd c9 8b 98 bd
       0.009753883 0.032626268 -0.10440924 -0.07448537
0002c0 eb 34 74 3d 4b b1 bb 3d e1 24 cf bd cc b9 ba 3d
       0.05962078 0.09164675 -0.10114456 0.09117469
0002d0 b0 cc 5d 3d 45 53 d0 ba 64 75 df bc 78 7f 2b 3d
       0.054150283 -0.0015893957 -0.027277656 0.04186961
0002e0 0b e5 af b9 65 d9 19 be fe a9 0f 3e 7e d1 67 3d
       -0.0003354925 -0.15024336 0.1402969 0.05659627
0002f0 49 bc e4 3c 02 0e 27 3d 02 23 b9 3d e7 20 72 3d
       0.027921813 0.040784843 0.0903988 0.05911341
000300 78 f4 1b 3d ce f4 c9 bd df 98 d6 3d 86 5a 13 3d
       0.03807494 -0.09861146 0.104783766 0.035975
000310 c9 d2 8c bd 82 9b f3 3d bb b8 01 bd f6 27 45 3d
       -0.068761416 0.11894895 -0.031670313 0.048133813
000320 a3 0d ac 3d 06 37 05 3e 3d c0 b5 bd 09 e4 e9 3d
       0.084010385 0.13009271 -0.08874557 0.114204474
000330 6d 65 4a bd 02 f2 01 3d bf 84 ae 3d 97 b6 ce 3d
       -0.049413133 0.031724937 0.08521413 0.1009342
000340 d2 cb f1 bc f0 3f 84 bd b0 c2 80 3c 58 ba 93 3c
       -0.029516134 -0.064575076 0.015717834 0.018033192
000350 22 60 83 bd 00 2f 49 3d 08 3b 48 bd 00 25 a2 3d
       -0.0641482 0.04911709 -0.04888442 0.079172134
000360 a8 c9 97 3d 45 04 f3 3d c9 70 67 3d 17 66 df 3d
       0.0741151 0.11866049 0.056504045 0.10908144
000370 02 d9 54 3d 0c c7 f6 3c 5f f7 cd 3d 3f 32 e7 3d
       0.051964767 0.03012421 0.10056948 0.112888806
000380 59 5e 01 3e 99 bc 22 bd 58 f5 d5 bd d1 99 0b 3e
       0.12633647 -0.039730642 -0.10447186 0.13632895
000390 fd 2d d0 3c da ad 6a 3d 56 f4 a9 3d 5b 80 ac 3d
       0.025412554 0.057294704 0.082985565 0.08422919
0003a0 7e c9 7c bd 74 f6 89 3d a9 11 99 3d 04 f8 c8 3d
       -0.061715595 0.0673646 0.074740715 0.0981293
0003b0 c2 26 97 3d 4c 9d 61 bd ed 0f f1 bd dc 02 b7 3d
       0.07380439 -0.05508165 -0.11770616 0.08936092
0003c0 03 78 53 3c 4e 66 cc bd fe 25 42 bb 8f 79 14 3e
       0.012907031 -0.099804506 -0.0029624696 0.14499496
0003d0 e4 ea b9 bd ed 98 d1 3d 85 7c 52 bc 0e 22 0a 3e
       -0.09078005 0.102342464 -0.012847071 0.13489553
0003e0 f0 55 d9 3d c4 c2 38 3d 56 58 d9 bd ea cc 9b bc
       0.106120944 0.045107618 -0.10612552 -0.01901861
0003f0 d1 5e 9a bd 1c 7e cd bc 02 bb 09 3e 2f 05 6b 3d
       -0.07537616 -0.025084548 0.13450244 0.05737799

bias f4 [256]
000000 de 51 9b bd a0 cc 74 bd b6 22 a1 b9 06 e5 ec 3d
       -0.07583974 -0.059765458 -0.00030734175 0.1156712
000010 24 9f ee bd fc 28 b4 3d d6 e1 cc 3d 4e 0b 74 bd
       -0.116514474 0.0879688 0.10004012 -0.059581093
000020 4c e2 41 bd 2f 87 ac 3c b2 3c d2 3d 2a 13 c7 bd
       -0.047334954 0.021060554 0.10265483 -0.09720452
000030 93 75 90 bd 4f 06 6d bd ee 05 05 3e 28 0f 76 3c
       -0.070536755 -0.057867344 0.12990543 0.015018262
000040 e2 05 85 bc cf 33 b9 3d 02 9f 40 3c b9 9c cb 3d
       -0.016238157 0.09043085 0.01175666 0.09942002
000050 fb e6 b6 bc a7 ed d9 bb 98 ab af bd 51 df 55 3d
       -0.022326937 -0.006650645 -0.08577651 0.052214924
000060 7c f7 91 3d 77 12 52 3c d4 24 fa bd 9f 09 b6 3d
       0.07127282 0.012821785 -0.12214056 0.08888554
000070 a9 4a a9 bd 93 f5 9d 3d 76 6e 01 be 0d d6 03 3e
       -0.082661934 0.07712855 -0.12639794 0.12874623
000080 c3 8c a3 bc e2 df fe 3d 23 88 e2 3d f1 2f 8c 3c
       -0.019964581 0.12445046 0.11061122 0.017112704
000090 39 44 f5 3d 19 f2 10 3e c4 07 5d 3c bd 33 d1 bc
       0.11975903 0.14154853 0.013490621 -0.025537366
0000a0 a8 45 b7 3d 5e 91 17 bd fd 7e d6 3c 4b 57 0b be
       0.08948833 -0.037003867 0.0261836 -0.13607518
0000b0 c2 c6 e4 3d 5e 44 9e 3d 10 4a 7c 3c 2b 31 10 3c
       0.111707225 0.07727884 0.015398517 0.008800785
0000c0 f1 6a db 3d 29 0a 98 bd 10 f3 b0 bd b3 15 db bc
       0.10713757 -0.07423813 -0.086401105 -0.026743745
0000d0 2b f7 06 bc 36 0d bd 3d f2 aa e1 bd e8 07 fe 3d
       -0.00823764 0.092310354 -0.11018933 0.12403852
0000e0 89 40 a4 bc 50 5e 0f bd c9 91 0e bd c6 a6 68 bc
       -0.020050304 -0.035002053 -0.034807 -0.014199918
0000f0 1c f1 17 bd 4c 7c cc 3c 14 15 95 bb 63 7a 92 bd
       -0.037095174 0.024961613 -0.004549632 -0.0715225
000100 58 d8 d6 3d c7 e8 7b bd 37 8e 37 3d 1e 1d c0 3d
       0.10490483 -0.06150129 0.04481336 0.09380554
000110 db 9d 9b bd fb 7d 0d 3e 7b a0 34 bd fd 0c f0 bd
       -0.07598468 0.13817589 -0.04409836 -0.11721227
000120 9e 05 76 bd 85 48 cb 3d 02 33 a6 bd f5 36 3e bc
       -0.06006395 0.099259414 -0.08115198 -0.011609782
000130 a7 27 fb 3d 64 09 d4 3b 9c c4 ae bd b1 7e 8b 3d
       0.122634225 0.006470846 -0.08533594 0.06811274
000140 57 6f ac bd ae 04 ff bc 9a e1 97 3d fa a8 c5 bc
       -0.08419674 -0.031130161 0.07416077 -0.024128426
000150 95 6f 92 3d dd 0c 1c 3e 36 b8 04 3e 84 d8 93 bd
       0.07150189 0.15239282 0.12960896 -0.072190315
000160 b9 2d 76 bd c6 2f ea bd da c6 47 bd 4f ca d6 3d
       -0.0601022 -0.11434893 -0.048773624 0.10487806
000170 6f 3c 11 bd 36 00 3e bd 17 5e 4b 3d a3 27 69 bd
       -0.035458025 -0.04638692 0.049650278 -0.056922566
000180 ea cf 83 3d 16 c4 ee 3d ea af 74 3d cf 10 f7 ba
       0.06436141 0.11658494 0.059738077 -0.0018849614
000190 8a 71 06 3e 6d 8e 88 bd 20 b5 2f bd b7 00 8c bc
       0.13129249 -0.066677906 -0.042897344 -0.017090185
0001a0 2d 51 07 bb fc 4c b8 3d 8b 45 94 3c de ac 05 3d
       -0.002064775 0.089990586 0.018099567 0.032635562
0001b0 3f 8c 07 3e 34 84 13 bd 82 a8 5f 3d f8 fc 9e 3d
       0.13237093 -0.03601475 0.05460406 0.07763094
0001c0 42 a8 85 3d 9b f0 e4 bd 5a 69 93 3d f3 a1 d8 bd
       0.06526233 -0.11178704 0.071978286 -0.10577764
0001d0 21 7f bb 3c 1d 86 f8 bd b8 eb 2b 3d 33 f9 f6 3c
       0.022887768 -0.12134955 0.041972846 0.030148124
0001e0 fe e2 ed 3d 4a 6a 71 bc 9b db 63 3d 85 43 65 bc
       0.11615561 -0.014734814 0.055629354 -0.013993149
0001f0 22 2a ff 3d 65 d6 85 3c 5c 3a 81 3c 71 03 94 bc
       0.12459208 0.016337583 0.015774898 -0.018068047
000200 7b c4 7b bd 31 d0 8d 3d 0d fa d7 3d ed b2 4e bc
       -0.061466675 0.06924475 0.1054574 -0.012615901
000210 87 4f 10 3d 2d 83 44 3d 9a 73 3e bd 65 97 de 3d
       0.035232093 0.04797666 -0.046496965 0.1086872
000220 84 52 29 bd 99 37 0f 3e c1 a0 7d 3c 00 ec 04 3e
       -0.04133846 0.13986053 0.015480221 0.12980652
000230 97 73 1b 3c 1b 72 d8 bd b2 e7 83 3d fc a3 b9 bd
       0.009488008 -0.10568639 0.06440677 -0.09064481
000240 a5 16 20 3d 15 9e 3a bc 44 41 17 bd 06 0c 38 3d
       0.039084096 -0.011390229 -0.036927477 0.04493334
000250 4b c7 0b 3e 41 63 fd bd e3 0d 01 bd ee 1e 12 3e
       0.13650243 -0.12372447 -0.031507384 0.14269611
000260 31 14 41 3d e0 44 34 3d 93 bc 03 be ef 51 bb bd
       0.047138397 0.044010997 -0.12864904 -0.09146487
000270 4b 02 f2 bc 5f 03 ac 3c d0 c5 35 3b 36 bb 7a bd
       -0.029542109 0.020997701 0.0027736314 -0.061213695
000280 e6 d5 d4 bd f0 fe 2a bd 6b 63 ca bd 9e 30 ac bd
       -0.103923604 -0.041747034 -0.09882244 -0.084077105
000290 c4 85 51 3d 80 60 dd 3d 97 25 91 3d 1a 57 e3 bd
       0.05115296 0.108094215 0.07087248 -0.11100598
0002a0 bf 40 49 bd 8c 0b d6 3d 71 78 08 3d 26 07 81 bc
       -0.049134012 0.10451421 0.033317987 -0.015750479
0002b0 d4 07 76 bd 7c ba a9 bc 1d 6b e9 3d d0 14 9f bc
       -0.06006606 -0.020718805 0.11397383 -0.019419104
0002c0 aa 3a 7d bd 8f 34 bd bc c7 e7 8c bc 55 61 1e 3e
       -0.061823525 -0.023096351 -0.017200364 0.15466817
0002d0 7f f3 3e bd 8e 4b e6 bd 5c 08 e3 3d 92 27 07 3e
       -0.046618935 -0.1124488 0.11085579 0.13198689
0002e0 f5 95 c7 bd 5a 38 6b 3d 24 24 fe 3d 87 c9 2a 3d
       -0.09745399 0.057426788 0.12409237 0.041696098
0002f0 fb 5a 03 3d 23 48 78 3d 4d 37 eb 3d 0b 4b f6 bc
       0.032069188 0.06061567 0.11485157 -0.03006508
000300 68 41 e2 bc de 84 11 bd 32 92 10 3e c5 03 71 bd
       -0.027619079 -0.035527103 0.14118269 -0.058841486
000310 19 fc 15 bd 22 4c e1 3d 33 bb 35 bd 46 7c c3 bc
       -0.036617372 0.11000849 -0.04436798 -0.02386297
000320 43 2d c6 3d 97 80 de bc 46 71 77 bd 07 34 56 bd
       0.09676602 -0.027160926 -0.06041076 -0.05229571
000330 46 92 95 3d 03 a2 86 3b 7f a0 ac bd f2 64 e5 3c
       0.0730329 0.004108669 -0.0842905 0.028002236
000340 ad 5c ca 3d d6 18 c9 3c 75 ec 9e bd ce ca aa bd
       0.09880958 0.024547976 -0.07759944 -0.08339463
000350 8b ad 5a 3d e4 22 f5 3c 26 c2 ae bd af 2d 54 3c
       0.05338816 0.029923864 -0.085331246 0.012950345
000360 99 28 35 3c ab d2 eb 3d c0 15 ba bd 9d b5 8e bd
       0.0110570425 0.11514791 -0.0908618 -0.06968234
000370 88 82 4f bc 7a af cb 3c 3e a3 c9 3d 9f 18 c9 bd
       -0.012665398 0.024863947 0.09845589 -0.09819149
000380 cc 2e 6c 3b 6b e8 68 3d 10 a6 ef 3c db 9c 82 bd
       0.0036038635 0.056862276 0.02925399 -0.06377574
000390 10 04 fd 3d 06 af 03 3e 49 d9 cc 3d e8 b1 c1 bc
       0.123542905 0.12859735 0.10002381 -0.023644403
0003a0 2c 55 9c bd 24 1e 06 3e 21 5f ba bd e4 d4 e9 3d
       -0.07633433 0.13097435 -0.09100176 0.11417559
0003b0 06 dd 00 bd ec b3 3a 3d f1 19 b2 bc 57 35 86 bd
       -0.031460784 0.045581743 -0.021740885 -0.065531425
0003c0 eb a8 f9 3d 37 61 a5 bd a1 66 ce bd a9 04 e4 bd
       0.12190422 -0.08075183 -0.10078169 -0.11133701
0003d0 94 2c 24 3e 24 52 da bd e6 05 93 3d 7b 88 6d 3d
       0.1603263 -0.10660198 0.071788594 0.057991486
0003e0 4b 3d cc 3c b2 3d 8c 3d 15 8f bb 3d d7 72 53 3d
       0.02493157 0.06847705 0.0915815 0.05162319
0003f0 4c 50 8f bc 1a a4 11 3e 72 d8 00 3e 4d 40 05 3e
       -0.017494343 0.14222756 0.12582567 0.1301281

weight f4 [128, 256]
000000 66 c2 65 3d 18 fa 18 3d a7 06 93 bb 42 00 44 3d
       0.056093596 0.037347883 -0.004486877 0.04785181
000010 96 eb 83 bd ee fb 0d bd a5 9a 12 bd 56 8f 0e bb
       -0.06441419 -0.034664087 -0.03579201 -0.0021752915
000020 52 f2 b3 bc c0 d6 4a bc a2 8d 32 bc ba a5 23 bd
       -0.021966133 -0.012380302 -0.010898026 -0.03995297
000030 b1 72 f2 ba 28 d3 20 3d ee 3b 9a 3c 90 b2 61 3c
       -0.0018497315 0.039263874 0.018827405 0.013775483
000040 ca 23 83 3d 22 7a 1a bc 5b 34 7a bd 50 31 77 3c
       0.064033106 -0.009428533 -0.061085086 0.015087441
000050 9e d9 b9 bb 63 b0 18 bc b8 08 67 bd 47 36 8a 3d
       -0.005671694 -0.009319398 -0.0564048 0.06748634
000060 34 06 48 bd 6b b1 b5 bb 5b 21 8b bc eb ef 29 bd
       -0.04883404 -0.0055448315 -0.016983679 -0.04148857
000070 db 4b c0 bc 1e 7b 99 3c 1e f6 f9 bc eb d6 48 3d
       -0.02347367 0.018735465 -0.030512866 0.049033087
000080 83 df 13 3d 21 28 fa bb b1 ff c8 3c 2c 81 db 3c
       0.03610183 -0.0076341783 0.024535986 0.026794992
000090 e8 f7 7d 3d 64 84 81 3d 13 0d 83 3d be 73 df bc
       0.062004 0.0632408 0.06398978 -0.02727687
0000a0 2b f9 95 3d 5a c9 33 bd e7 07 53 3c 64 6f 0d 3d
       0.07322916 -0.043893196 0.012880302 0.03453006
0000b0 c0 56 3f bd 45 fc 2d bd 96 5c 85 bc d7 12 3f 3d
       -0.04671359 -0.04247691 -0.0162795 0.046648826
0000c0 3b 3f ac 3c 33 8b 31 bd 5b 07 9b 3d 4b df 23 bd
       0.021026244 -0.04334564 0.07569762 -0.04000787
0000d0 ed 4d 73 bd b2 3a 4f 3c 86 56 4e bd 32 90 0d 3c
       -0.059400488 0.012648271 -0.050375484 0.008640336
0000e0 bc 06 08 bd 25 76 3d 3d 94 a9 d5 bb 82 2b a8 3c
       -0.033209547 0.04625525 -0.0065204594 0.020528559
0000f0 c9 f7 ce ba 17 6e 24 3d 97 cc aa 3c d8 72 0f bd
       -0.0015790398 0.040144052 0.02084951 -0.035021633
000100 c9 ce 7f bc 3f ac 25 3c 91 2b 92 3b f3 11 72 3d
       -0.015613266 0.010111867 0.00446076 0.05909915
000110 e9 9c 8f bb e0 46 d0 bb 6b 25 2b bd 9e c0 6d 3d
       -0.004382719 -0.006356105 -0.04178373 0.058045022
000120 64 90 6c bd d7 59 66 3d 0d aa 9d bc ee 0a 35 3c
       -0.05775489 0.05623802 -0.019246126 0.011049969
000130 5a 30 e5 bc 63 7e 8d 3d e8 aa b0 bc ac 53 81 3d
       -0.027977157 0.06908872 -0.02156587 0.06314787
000140 05 eb 93 3b ee 37 b0 3c 0b 7d ee bc e1 50 53 3d
       0.0045141005 0.021511044 -0.02911236 0.051590804
000150 fa 77 9f bc 50 2c 20 3d 66 b3 d2 3b a6 d8 68 bc
       -0.019466389 0.03910476 0.0064300774 -0.014211809
000160 39 4b 21 bd 0a 30 45 bd ed 60 9a 3c eb e7 16 3d
       -0.03937838 -0.048141517 0.018845046 0.036842268
000170 f1 ed 57 3c d5 b4 75 3d e4 0b 03 3c 4c 3a 96 3a
       0.013179288 0.059986908 0.00799844 0.0011461466
000180 d6 96 98 bb ef c6 0c 3d 06 d7 c8 bc 63 b3 4d 3b
       -0.004656653 0.034369405 -0.024516594 0.003138744
000190 66 4b 93 3c cc 18 0b bd 7f 12 78 bd d7 c7 51 3d
       0.017980289 -0.033959195 -0.060564514 0.051215973
0001a0 94 d3 3a 3d b1 26 6a 3d 3d 98 c1 bb 2b 43 62 3d
       0.045611933 0.057165805 -0.005908041 0.055239838
0001b0 92 6d a8 3d 3f bd 32 3c 6b 4d d2 bc 08 3f 93 3b
       0.08224024 0.010909378 -0.025671681 0.004493598
0001c0 12 d6 81 3d 42 83 82 bb 72 2b 20 3d f5 6f 0e bd
       0.06339659 -0.0039829323 0.039103933 -0.03477474
0001d0 54 d4 6f 3d f4 e5 6b bc 6d 57 4d 3c b3 cc 96 bb
       0.0585521 -0.014398087 0.012533051 -0.004602039
0001e0 17 d5 bc bc a1 d9 34 3d d9 c3 d6 3c f9 2b 66 3d
       -0.023050828 0.04415286 0.026216434 0.05619428
0001f0 48 07 68 bc 6d ec 4f bc b8 79 e1 bc 20 17 5f bc
       -0.014161892 -0.012690646 -0.02752386 -0.013616353
000200 84 75 26 3d 19 c1 85 3d de 7e 1b bc 0e f7 08 3d
       0.040639415 0.06530971 -0.009490697 0.033438735
000210 2a eb 31 bd 29 9c ca 3c 87 1e 83 bb 06 da 42 bd
       -0.04343716 0.024732666 -0.004001442 -0.047571205
000220 2c f9 31 bd c2 45 05 3d 1f 65 49 3d e2 79 e1 3c
       -0.04345052 0.03253723 0.049168702 0.027523939
000230 3c 99 2e bd 32 06 dc bb 2a e5 1b 3d 6e d0 43 3d
       -0.042626604 -0.0067146057 0.038060345 0.047806196
000240 3a fb 42 bd 64 2d 8c 3c 0e 38 dd 3c aa ed df 39
       -0.04760287 0.017111488 0.027004268 0.00042710948
000250 d6 a3 99 3d fd af 9e bb b6 59 72 3d c0 de e1 bc
       0.07501952 -0.004842757 0.059167586 -0.027572036
000260 7e f8 2d bd 5c bf 2b bc 4c 67 73 3c df b9 94 3c
       -0.04247331 -0.010482635 0.014856171 0.018155036
000270 f3 78 e5 3c 4c 4b 40 bd c9 c8 f0 bc c7 9a 93 3c
       0.028011775 -0.04694681 -0.029392617 0.01801814
000280 cc 75 89 bd 6d 13 1d 3d 2d f4 4f 3d e2 7a 27 bd
       -0.06711921 0.038348604 0.050769974 -0.040888675
000290 b3 69 67 bd dd e3 35 3c c4 ca fc bc c4 05 aa 3a
       -0.056497287 0.01110169 -0.030858405 0.0012971689
0002a0 f6 29 04 bd 27 c3 39 3d 39 51 92 3d fe 52 74 3c
       -0.03226658 0.045352127 0.07144398 0.014912365
0002b0 99 5a f6 bc 3c 38 89 bc 99 1f 81 3d 7a 41 51 bd
       -0.030072497 -0.016750447 0.06304855 -0.051087834
0002c0 d8 55 da 3b cc 9f 85 3c c0 c7 e6 bc e6 48 4c 3d
       0.0066630654 0.016311549 -0.02817142 0.04987421
0002d0 98 0f 75 3d 9c 03 3d 3c b4 dc 93 3d 97 dd 6a bd
       0.059829324 0.011536505 0.0721983 -0.05734023
0002e0 ca 08 10 bd 6a ed 7a 3c 7e f7 23 bd df e2 6a 3b
       -0.035164632 0.015315393 -0.04003095 0.0035840792
0002f0 51 c5 41 bd d9 97 d9 3c 78 aa 2a 3d 04 14 dc bb
       -0.047307316 0.026561664 0.041666478 -0.0067162532
000300 85 24 9d 3d 6e 86 16 3d f1 40 30 bd a3 41 12 ba
       0.07672981 0.036749296 -0.043030683 -0.00055792386
000310 e4 05 31 bc 6f be 96 3d 7e 1f 7e 3d e3 b7 c1 3c
       -0.010804627 0.07360541 0.062041752 0.023647254
000320 a7 f1 09 bc 25 b8 20 3c 8a bc 8f 3d 27 7b f1 3c
       -0.008419431 0.0098095285 0.07018383 0.029477669
000330 f8 a0 b7 3c f6 eb 65 bd 2e 54 e3 3b 76 d7 af 3c
       0.022415623 -0.056133233 0.0069375252 0.021465044
000340 6f 2b 46 3d 8e a4 4d bd 7a ec c1 3c 82 9b 4a bd
       0.048381265 -0.05020576 0.023672331 -0.04946471
000350 d0 b3 fb 3c ca dd e2 bc f4 4a 4f bb 98 2f 25 bd
       0.03072539 -0.027693648 -0.003163037 -0.040328592
000360 31 7a 11 bd c4 68 af 3c 97 bb 07 bb 79 d9 ee 3c
       -0.03551692 0.02141226 -0.0020711177 0.029156433
000370 76 da 81 3c 49 d0 64 bd fe 8d 15 3c 48 83 c4 bc
       0.01585124 -0.0558627 0.009128092 -0.023988381
000380 25 ba 28 bd 23 bc 11 3c 09 58 9d bd dd f2 19 3d
       -0.041193146 0.008894953 -0.07682807 0.037585128
000390 3e b0 41 bd 6a fc 61 3c 6b 5d 87 3d 2a 04 20 bc
       -0.04728722 0.01379309 0.06609615 -0.009766618
0003a0 a5 89 aa 3c b8 ce 1f 3d 2b ec 8c bb 64 37 b7 bc
       0.020817587 0.0390155 -0.0043006144 -0.02236528
0003b0 c4 d0 f9 3c 53 da 7d 3d d1 b3 c0 3c 14 57 44 3d
       0.030495055 0.06197579 0.023523243 0.047934607
0003c0 df 41 72 3d 67 c7 09 3d 57 1f 60 3d fa 4f 2f 3d
       0.05914485 0.03363743 0.054717388 0.04280088
0003d0 c9 91 9d 3d 25 56 2c bd a7 c9 be 3b c5 82 4e 3d
       0.07693822 -0.04207434 0.0058223787 0.05041768
0003e0 32 66 9f 3a 58 15 02 3b 1a 48 06 bd d7 00 e4 bc
       0.0012161194 0.0019849148 -0.032783605 -0.027832432
0003f0 23 d3 6b bb eb 51 5f 3d ec 9d a2 bc 73 37 3d 3c
       -0.0035984002 0.054521482 -0.019850694 0.011548865

bias f4 [128]
000000 df af 8f 3d 5d e6 90 3d a1 80 58 bd 4b 99 0e ba
       0.070159666 0.07075188 -0.052857045 -0.00054397125
000010 9b 7f 17 3d 50 a4 60 bd 07 b9 88 3d 5f c3 49 bd
       0.03698693 -0.0548442 0.06675916 -0.049258586
000020 21 a9 51 3d 52 8b 3e 3d 8e 0b 2b bc 0e 9d 18 bd
       0.051186685 0.046519585 -0.010439767 -0.037259154
000030 bd a5 85 3d b0 5a 92 bc 35 c3 16 bd eb 0c ac bc
       0.06525753 -0.017865509 -0.036807258 -0.021002254
000040 40 a3 b6 bc 55 9d 39 bc 22 d2 46 bd 0f 04 d7 3c
       -0.02229464 -0.011329015 -0.048540242 0.026247052
000050 b6 75 0c 3d d4 d4 e1 3b 33 c8 a4 bc 4e fe c8 bc
       0.034291945 0.006891826 -0.020114994 -0.024535324
000060 c6 93 3e 3d bb ef 46 bd 0e de c3 bb 3f ee ef 3c
       0.046527646 -0.04856847 -0.0059773987 0.02928841
000070 f4 bb 1c bd 61 62 55 3d b6 5f 43 3c ec 41 7b 3d
       -0.038265184 0.052095775 0.011924675 0.061342165
000080 c0 c5 38 3c d3 68 14 3d 9e b2 59 bd 93 e5 c1 3c
       0.011277616 0.03623278 -0.05314886 0.02366904
000090 18 75 73 3d 4b e7 8e bc 34 f5 c8 bc 0e 9f 6f 3d
       0.05943784 -0.017444273 -0.024530984 0.058501296
0000a0 82 b9 36 3c fd a9 79 3d 91 85 bc 3b c6 50 3a 3c
       0.011152627 0.06095313 0.005753227 0.011371797
0000b0 57 88 22 bd a8 91 28 3d d6 ff 12 bd e7 f6 ce 3c
       -0.039680805 0.041154534 -0.035888515 0.025264217
0000c0 bb b3 d0 bc 71 25 ec bc d8 c5 7a bd 20 43 16 bc
       -0.025476327 -0.028826447 -0.061223835 -0.009171277
0000d0 aa ef 2c bd 8f 45 8a 3c 89 b1 f7 3c b0 45 9b bc
       -0.04222075 0.016878871 0.030236023 -0.018954128
0000e0 4f 98 68 3d f3 ea 54 bd 99 26 6a 3d 42 2d 12 bd
       0.056785878 -0.051981878 0.057165716 -0.035687692
0000f0 e1 76 38 3d 79 5f 00 3d 4c 9a bc 3c fb 81 ba 3c
       0.045035247 0.03134105 0.023022793 0.022767058
000100 f4 85 86 3d ef 32 03 3a 4e 35 9e bc 97 40 0b 3d
       0.06568518 0.0005004843 -0.019312527 0.033997145
000110 e3 34 5e bc 52 b9 66 3c 76 b3 df bb 18 82 61 3c
       -0.013562414 0.01408227 -0.0068268133 0.013763927
000120 7f 71 f1 bc fe 2f c9 bc 7b f6 2d 3d 8f 92 60 3d
       -0.029473064 -0.024559017 0.04247139 0.05482727
000130 33 b0 f8 bb 79 6a 40 3d 88 57 6c bd a2 45 05 bd
       -0.007589364 0.04697654 -0.057700664 -0.03253711
000140 f6 b7 09 bd b5 20 c2 3c 74 6f ae bc c7 53 6e 3d
       -0.033622704 0.023697237 -0.02129338 0.058185365
000150 2d 8d 9b bb 56 bc 09 bd 7b 9c 78 3c ae f3 76 bd
       -0.004747054 -0.033626877 0.015174027 -0.060290985
000160 03 f2 e6 bc 61 ce 20 bd 86 4d f1 bc fb 65 3a 3d
       -0.028191572 -0.03925932 -0.029455911 0.045507412
000170 e6 07 1b 3c 8a b2 85 3d 76 3c a6 bc f5 f7 36 3d
       0.009462332 0.06528194 -0.020292502 0.044670064
000180 e0 ed 91 bd fd 34 33 bd ba cc a2 b9 7b 33 a4 bc
       -0.07125449 -0.043751705 -0.0003105158 -0.020044079
000190 55 89 09 3d 83 97 5d 3d e8 bd 82 3d 4f 27 8f 3b
       0.033578236 0.05409957 0.06383878 0.0043686996
0001a0 72 a9 47 3d 21 ac d1 3c 6d 76 46 bb f3 7a ba bc
       0.04874558 0.025594773 -0.003028299 -0.022763705
0001b0 44 45 e6 bc e0 35 40 3c 69 2f 25 3d 2a 47 1d bd
       -0.0281092 0.011731595 0.040328417 -0.038397945
0001c0 d4 50 13 3d 8a b9 24 bc c6 04 09 3d b5 b6 e1 3c
       0.035965756 -0.010054002 0.033451818 0.027552942
0001d0 36 8a 42 3d 77 75 47 3d 6f b0 40 3d 40 a2 5a 3d
       0.04749509 0.048696008 0.04704326 0.05337739
0001e0 0d 06 29 3d 51 d3 11 bd 0b 3e 14 3d c7 ae 08 3c
       0.041265536 -0.035601918 0.03619198 0.008342451
0001f0 42 c2 26 3c fc 38 1c 3d 2c 45 2f bd 34 ee 51 bd
       0.010178151 0.038140282 -0.042790577 -0.05125256

weight f4 [64, 128]
000000 c4 4f 92 bd 6e ca 58 bd be 7a 03 bd 4d 58 85 3d
       -0.0714412 -0.052927427 -0.032099478 0.06510983
000010 6c d3 31 3c 8b 19 57 bd 5a 42 f1 3b 8a 3d 9a 3d
       0.01085363 -0.052514594 0.007362646 0.07531269
000020 61 95 84 bc 3d af 54 bc ac 61 79 bd 67 8a 81 3b
       -0.01618451 -0.012981233 -0.060884163 0.0039532664
000030 fe 74 98 bd ea 55 76 bd 3f 9d 2d 3c 1e b3 b1 bd
       -0.074441895 -0.060140528 0.010596572 -0.08676742
000040 d3 8f 96 3c 9c 4c f3 bb df 22 0d bd 98 00 18 bd
       0.018379128 -0.007424904 -0.034457084 -0.03710994
000050 73 40 31 bd c0 5c b3 bc fa 7a 4e 3d 06 07 9b bd
       -0.043274354 -0.021894813 0.05041025 -0.07569699
000060 ef 0e ed 3c a8 45 80 3d 70 fe b6 3d f3 5e 90 bd
       0.028937785 0.06263286 0.08935249 -0.0704936
000070 88 59 de bc 0c 56 ce 3b a6 2f ac bd c5 bc 0e bd
       -0.027142301 0.0062968787 -0.08407526 -0.034847993
000080 88 e4 3c bd ed 33 2d bd 71 f1 7a 3d 0c f6 c2 bc
       -0.046116382 -0.04228585 0.061265413 -0.023798965
000090 3f 58 0e 3d ed d6 0a be e2 f1 b0 3d 19 ea c6 bb
       0.034752127 -0.1355855 0.086398855 -0.006070387
0000a0 58 59 a0 bd 33 c7 b2 bc d1 b2 69 3c 0c 8f d8 3c
       -0.07829541 -0.021823501 0.014263825 0.026435398
0000b0 6c 98 a8 bd a1 2a 30 bd 67 b0 0a bd 18 d9 22 bd
       -0.08232197 -0.043009404 -0.033859637 -0.039757818
0000c0 0e d5 42 3d 46 b6 b3 bd 58 8c 33 bd 97 54 24 bd
       0.047566466 -0.08775 -0.043835014 -0.040119734
0000d0 a8 0c a8 3d c9 ed 74 bd 81 24 c0 39 59 55 c1 3c
       0.08205539 -0.059797082 0.0003664829 0.023600267
0000e0 b6 64 5c 3c 4b 47 eb 3c 4f 6f 9e bd 7a cf 91 bd
       0.013451746 0.028720519 -0.07736074 -0.07119651
0000f0 0c 9b 6d 3c b3 99 19 bd 88 87 80 bc 46 54 37 3d
       0.014502298 -0.037500095 -0.015689626 0.044758104
000100 26 0b ae bd f8 60 86 bd 4a 18 d6 3c 31 5f f0 3c
       -0.0849822 -0.06561464 0.026134629 0.029342266
000110 d2 a2 90 ba a5 b1 90 3d 71 99 d4 bd 2f e0 14 3c
       -0.0011034852 0.07065133 -0.10380829 0.009086653
000120 f5 36 43 bd 42 6f d9 bd 00 dc d0 bd ed e1 24 3d
       -0.047659833 -0.10616924 -0.10198212 0.040254522
000130 f6 7e c8 bc 4b 89 19 3d 33 49 84 bc 41 00 a3 ba
       -0.024474602 0.03748445 -0.016148185 -0.0012435989
000140 fc 14 81 3b a2 57 9d bd 50 45 7f bd 43 c7 1c bd
       0.003939269 -0.0768273 -0.06232196 -0.03827597
000150 28 77 e2 3c 0e 3a 13 3c fe 83 b4 ba fc 36 c4 bd
       0.027644709 0.008986009 -0.0013772247 -0.095808
000160 31 aa d7 3b e3 39 9b 3d ba ae 79 3d ff c5 a7 bd
       0.0065815677 0.075794004 0.060957648 -0.08192062
000170 70 27 e5 ba 2f c5 0b bc 32 1c a4 3d c5 1d e0 bd
       -0.0017483067 -0.008530899 0.0801319 -0.10943178
000180 31 ed 80 bd 66 fe 5a bc 1d 0d 81 bd 84 cb 54 bc
       -0.06295241 -0.013366317 -0.06301329 -0.012987975
000190 87 ef 9c bd 97 7f c8 3c fa 2f e1 bd 8d 06 c0 bc
       -0.07662874 0.024474902 -0.10995479 -0.023440624
0001a0 80 2e 80 bd af f4 96 3b 88 bc 88 bd 45 35 8b bd
       -0.06258869 0.0046068053 -0.066765845 -0.0679727
0001b0 7b f4 a0 bc f1 43 e7 bd db 99 10 3d e4 0e d8 3c
       -0.019647827 -0.11292256 0.035302978 0.026374288
0001c0 35 0f 25 bd 2b 0e 9f 3d 65 99 2c bc c6 82 13 3d
       -0.040297706 0.07766374 -0.010534619 0.036013387
0001d0 b0 c8 94 bb 9c 2f af 3c 96 80 a0 bd 56 82 bd 3c
       -0.0045405254 0.021385007 -0.07837026 0.023133438
0001e0 28 3d 6f bd 76 a4 b8 3d fa 7d 64 bd bf 3f e4 bd
       -0.058407933 0.090157434 -0.055784203 -0.11144971
0001f0 41 ef c9 3d fe 07 22 bc 89 c5 7f bd bc 91 dd 3c
       0.09860087 -0.009889601 -0.062444244 0.02704703
000200 3a cf 91 bc 56 57 48 bc 16 9a 9d bd ff 5e 6d 3c
       -0.017799009 -0.012227854 -0.07695405 0.014487981
000210 ff e3 21 3d 51 a5 1c bd f8 61 81 3d 63 8c 13 3d
       0.039524075 -0.038243596 0.06317514 0.036022555
000220 b0 f2 29 bd 38 72 b4 3d e1 00 94 3d dd f6 54 3c
       -0.04149121 0.08810848 0.0722673 0.01299831
000230 ab c6 d1 3d 13 97 ed 3d 50 61 3d bc df c6 f1 bc
       0.10242971 0.11601081 -0.011558846 -0.029513774
000240 de f8 22 3c 5a 6c b8 3c ff a3 c1 3d 34 ad 75 bd
       0.00994703 0.022512604 0.09455108 -0.059979632
000250 60 63 d7 3d ee db fb bc fd 63 24 3d b3 f9 98 3d
       0.10517001 -0.03074452 0.04013442 0.07469501
000260 58 aa 9b bd c6 10 87 3d 44 6f d9 3d 7c 49 d5 3d
       -0.0760085 0.06594996 0.10616925 0.10414407
000270 af a4 10 3d 21 1c a0 bb 7c 61 3d 3d 6e f8 8c bb
       0.035313305 -0.0048861657 0.046235546 -0.004302076
000280 b3 48 ef 3c 9a 02 d7 bb 95 fd 20 bd a1 82 a0 3d
       0.02920947 -0.0065615894 -0.039304335 0.078374155
000290 dd 02 e3 bc 6f d3 82 bd d3 56 fd 3d b6 54 12 3d
       -0.027711326 -0.06387984 0.12370076 0.035725318
0002a0 9e 55 c5 bc 60 2c 52 3c b2 fb e8 3d 40 ea 9b 3d
       -0.024088677 0.012827963 0.11376132 0.07613039
0002b0 82 ab 9b bb ca 6f b3 bb b5 8e 61 bd 6f c4 73 bd
       -0.00475067 -0.005475973 -0.055067737 -0.059513506
0002c0 66 ea 1d 3d e6 27 3e 3d cd 00 c6 bd 70 79 f9 3b
       0.038553618 0.04642477 -0.096681215 0.0076133534
0002d0 82 7a f9 bc 83 b7 a1 3b 49 b2 b5 bd 85 58 c2 bd
       -0.030453924 0.0049352064 -0.08871896 -0.0948954
0002e0 31 1c 92 bd 2e b7 59 3d 0b 66 13 bd a3 45 96 3d
       -0.07134283 0.05315321 -0.035985988 0.07337501
0002f0 9a 22 c3 bc 03 f3 18 3c 9b 62 fb 3d ff 96 82 3d
       -0.02382021 0.009335282 0.12274667 0.063764565
000300 52 38 90 3d c7 17 fb bc 69 29 82 3d 77 d6 a1 bd
       0.07041992 -0.030650986 0.063555546 -0.07902234
000310 59 79 f0 bd 7a 43 9f 3d e8 00 56 3c a0 6a 49 3d
       -0.11741895 0.07776542 0.0130617395 0.04917395
000320 38 e0 f4 3c 8f 16 62 3d 9c 6d cc bc e4 c1 db bc
       0.029892072 0.055197295 -0.02495461 -0.026825853
000330 0d 72 54 bc 6b 00 94 bc b4 c4 21 3d 19 d2 5d 3d
       -0.012966645 -0.018066606 0.03949423 0.054155443
000340 1e 6c 7f ba dd 41 94 bd fc 51 69 3c a1 01 f3 38
       -0.0009743589 -0.07239125 0.014240738 0.00011587446
000350 45 6e af 3d af dc 83 3d 0e a0 33 3b db d7 29 bd
       0.08565954 0.064385764 0.0027408632 -0.04146562
000360 cd 9e b3 bc 6a 9a 7c 3d ce 91 0b bd c9 15 95 bd
       -0.021926308 0.0616707 -0.034074597 -0.07279546
000370 47 7c 51 bd 01 53 db bd 23 ed 0f 3d 43 75 b4 3d
       -0.05114391 -0.10709191 0.03513826 0.088114284
000380 ae ba a0 bb 73 7e 16 bd 02 d3 f3 bc 6e d7 0c bd
       -0.0049050665 -0.036741685 -0.029763702 -0.034385137
000390 7d 47 c0 3d 49 24 b6 3d 51 98 3d 3d c8 e5 12 bc
       0.09388635 0.088936396 0.04628784 -0.008965917
0003a0 54 4e a9 3c d1 3d b6 bd d8 ca 13 3d a9 b3 17 bd
       0.020667233 -0.08898509 0.03608212 -0.03703657
0003b0 c2 bf 4d bc 8c 0d 9c 3d 4c 47 b5 bd a2 36 69 bd
       -0.012557926 0.07619771 -0.088514894 -0.056936868
0003c0 db 66 18 bd 45 98 79 bd 01 29 c2 3d c5 71 f7 3c
       -0.037207466 -0.06093623 0.09480477 0.030205617
0003d0 62 50 77 bd 7f 69 86 bd bc 80 96 3d 4d 4b 4a 3d
       -0.060379393 -0.065630905 0.07348773 0.04938822
0003e0 2c 58 a0 3d de 8d 21 3d 0a 91 dd bc 86 a0 a3 bd
       0.078293175 0.039441936 -0.0270467 -0.07989602
0003f0 68 d8 d7 3d e9 9a 8a bd 87 f4 5d bd ca c9 9e 3d
       0.10539323 -0.06767828 -0.054188278 0.07753332

bias f4 [64]
000000 30 ef ab bd f3 80 78 bd 3d 02 b5 3c 39 c1 4b bd
       -0.08395231 -0.06066985 0.022095794 -0.04974482
000010 73 58 24 3c f7 42 c7 bb 6e 5b ac bd e4 6e 9d bd
       0.010030854 -0.006080981 -0.08415876 -0.07687166
000020 3b 71 ac bd f6 51 1f 3d 8c 26 f0 3b e6 e4 46 3c
       -0.084200345 0.038896523 0.007328814 0.012139535
000030 de 27 8d 3d dd 49 a7 bd 3c 0a e9 bc b3 42 70 3d
       0.0689237 -0.08168385 -0.028447263 0.05865736
000040 26 6b 52 3d 5a 1b 0a 3d 4a d6 66 3c 71 76 8c bd
       0.051371716 0.03371749 0.014089176 -0.068585284
000050 51 42 fe 3c 2e f8 a0 bd 17 99 6a 3d cf b7 99 bd
       0.031037482 -0.078598365 0.057274904 -0.07505762
000060 2d 80 77 bd 8a 2d 66 bd d9 f6 91 bd d7 00 b0 bc
       -0.060424972 -0.056195773 -0.071271606 -0.021484775
000070 2c 3b c7 3d e0 db af 3c a0 c4 19 bd b4 24 eb bc
       0.09728083 0.02146715 -0.03754103 -0.028704025
000080 ba e6 1f 3c cc b1 26 bd 30 59 7f 3d ed 0f 79 3d
       0.009759599 -0.040696904 0.062340915 0.060806204
000090 4e 97 c5 3b 49 90 b1 3c e2 70 28 bd 49 9e 30 bd
       0.00603 0.021675246 -0.04112328 -0.043119702
0000a0 9d eb b3 3a b8 2a 75 3d 8a 68 83 bd 30 67 20 bd
       0.0013726834 0.059855193 -0.064164236 -0.039160907
0000b0 81 e6 5f bd f8 f4 c4 3c e9 e6 51 3c e0 b8 4e 3c
       -0.054663185 0.024042591 0.012811401 0.01261732
0000c0 1c f9 1e 3d b5 34 24 bd 88 b0 8b 3c 56 70 8a 3d
       0.038811788 -0.040089328 0.01705195 0.06759708
0000d0 58 76 9e 3d bc b4 40 3d ce df b0 bc f1 d1 96 3d
       0.07737416 0.04704736 -0.021591093 0.07364262
0000e0 ef 21 a9 3d 4d dd d6 bc e5 e7 2a ba a0 5f 2f bc
       0.082584254 -0.026228571 -0.00065195403 -0.010703951
0000f0 e9 dd bd 3d 6d d7 6a bd 78 93 64 bd 57 c2 84 bd
       0.09270842 -0.057334352 -0.0558047 -0.0648238

weight f4 [5, 64]
000000 1c 6d e7 bd 9e 3d 1c be 0c c7 1d 3d 2e b5 4c 3d
       -0.11300108 -0.1525788 0.038519904 0.049977474
000010 fa 66 8c bd c0 5b ac bd 11 41 02 3d b5 f1 8d bd
       -0.06855579 -0.084159374 0.031800333 -0.069308676
000020 92 6d b2 3d d3 f1 6a bd d7 1c cf 3d d2 f4 7f 3c
       0.08712305 -0.057359528 0.10112923 0.015622335
000030 47 52 0c 3e cc 27 c8 bd 79 94 72 bd 37 a7 d8 bd
       0.13703261 -0.09773216 -0.059223626 -0.10578769
000040 16 5a c6 bd 07 f7 f7 bd bc d5 06 3d f0 2b 83 3d
       -0.09685151 -0.121076636 0.032918677 0.06404865
000050 88 96 f5 bd 54 9e 81 bd 6e 36 7a 3d ad 9d 55 bd
       -0.11991602 -0.06329027 0.061087064 -0.052152324
000060 65 c8 59 3c 11 3b 47 bc ba 86 5b 3d 7f bc 88 bd
       0.013292407 -0.012160079 0.053595282 -0.06676578
000070 92 b9 e9 3d 52 36 13 be 27 aa 91 bb 8c 4e b2 3d
       0.11412348 -0.1437619 -0.0044453326 0.08706388
000080 f6 84 26 be cf c8 05 3e 48 d9 de 3d d7 8e 05 be
       -0.16261658 0.13064884 0.10881287 -0.1304277
000090 74 24 42 39 7a 6d fe 3d dd 58 23 3e 66 b1 b0 3d
       0.00018514862 0.12423225 0.15951867 0.08627586
0000a0 43 b8 93 bd b7 33 ba 3d fe 27 17 3e c5 40 4e bd
       -0.072128795 0.09091895 0.1476135 -0.050354738
0000b0 1c 53 34 3d 09 39 0a be 79 d6 21 3e 58 79 01 be
       0.04402457 -0.1349832 0.15804471 -0.12643945
0000c0 4b 09 13 bd 17 de 8d 3d 2b 8f 3c 3d 7f 18 95 bd
       -0.035897534 0.06927126 0.046034973 -0.07280063
0000d0 f9 6a e8 3c 91 6e 00 be 4d 1a 68 3d 1c 86 10 be
       0.028371321 -0.12542178 0.056665707 -0.14113659
0000e0 41 09 04 be 57 03 ec 3d bb 99 5b bd b6 b9 f7 bd
       -0.12894155 0.115240745 -0.053613406 -0.120959684
0000f0 3c dc 05 3e 34 ba c3 bc 15 7f 6f bd 63 78 a4 bd
       0.13072294 -0.0238925 -0.058470804 -0.080307744
000100 0e 71 f7 bd 39 58 77 bd 1b c5 e2 bd ad 31 0a bd
       -0.1208211 -0.06038687 -0.11072751 -0.03373878
000110 17 86 43 bd c8 29 85 bd 6b bb 57 3d c9 2b 82 3d
       -0.0477353 -0.0650211 0.05266897 0.063560076
000120 3f e3 dd 3d ae 12 ba 3d 42 c6 e0 bd a6 51 b2 3d
       0.108343594 0.09085594 -0.10975315 0.087069795
000130 31 16 84 bd 49 f2 d2 3d ce 1a 79 3d e2 3c 8f 3d
       -0.06449545 0.103001185 0.06081658 0.06994034
000140 45 0c ac 3d b2 54 18 bc 1f 70 81 bd a5 56 f5 bd
       0.08400778 -0.009297537 -0.063202135 -0.11979417
000150 f0 2c 4e 3b ab 33 09 bc 3f 2c cf 3d b2 a6 dd 3b
       0.003145989 -0.008374135 0.10115861 0.0067642564
000160 57 3d 12 be f6 21 72 3d 41 a5 8d 3d ee 21 e6 39
       -0.14281212 0.05911442 0.06916285 0.00043894298
000170 8e 6e 96 3d 81 32 b4 3d 3d a1 3b 3d 02 c6 fb 3d
       0.073453054 0.08798695 0.045808066 0.12293626
000180 64 fd 68 bd 5e 27 05 3d 60 98 13 3c dd 21 a4 3d
       -0.056882277 0.032508247 0.009008497 0.080142714
000190 ee 24 49 3d 41 9b 7d 3d 40 7c 94 3d a8 36 67 3c
       0.049107485 0.06191564 0.07250261 0.014112152
0001a0 38 e3 ab bd 95 55 16 bd e1 e5 18 3d ef 6a 02 3e
       -0.08392948 -0.03670271 0.037328605 0.12736104
0001b0 76 30 02 3c 65 b9 be 3d fb 5b d2 3d 5b 85 a8 3d
       0.007946124 0.09312705 0.1027145 0.082285605
0001c0 72 53 b8 bc 74 7a dd 3d 9f d6 8b 3d f8 e6 4e 3d
       -0.022500727 0.10814372 0.06828045 0.050513238
0001d0 5c ec b2 3d a1 d7 98 3d 84 79 bf bc b6 53 fd bb
       0.08736488 0.07463003 -0.023373373 -0.0077309264
0001e0 87 54 26 ba 89 93 c5 bc 4a b8 f3 bd a8 bc 20 bd
       -0.0006344993 -0.024118202 -0.11900385 -0.039242417
0001f0 b6 af 1c bd 20 36 31 bd 59 3b a4 3a f9 b9 ab bd
       -0.03825351 -0.04326451 0.0012529894 -0.08385081
000200 13 a0 9e bc 9c 77 a4 3d a5 69 b1 3c 39 94 dc 3d
       -0.019363439 0.08030626 0.02165682 0.10770459
000210 dc 3a 00 3e 18 24 88 bd 9a a4 af bd af be ec 3c
       0.12522453 -0.06647509 -0.08576317 0.028899519
000220 2d ac 98 bd d7 2a ae bd 7d f5 df 3d c5 1d 2f 3d
       -0.07454715 -0.08504265 0.10935495 0.042753
000230 06 52 8d bd 56 3e f4 3d 05 50 1c 3d ca ca ab 3d
       -0.0690041 0.11925952 0.03816225 0.08388288
000240 d8 ac b8 bc 3e 8a 87 3d 87 7f 15 bd 7d 44 24 bd
       -0.022543356 0.066181645 -0.036498573 -0.040104378
000250 a9 13 26 bc b9 bb a7 bd e6 73 b3 3c e3 aa de 3c
       -0.010136523 -0.08190102 0.02190585 0.027181095
000260 de 01 cd ba ca af 87 bd 49 09 8a bd 66 10 aa bc
       -0.0015640815 -0.06625326 -0.06740052 -0.020759773
000270 51 57 eb 3d 1e e3 45 3c fa 15 04 bd f9 80 74 3d
       0.11491264 0.012078075 -0.03224752 0.05969331
000280 03 6e 8f bd 33 3f 3c 3d ca 1e 4f bd 00 ef 4f bd
       -0.07003405 0.04595871 -0.050566472 -0.050765038
000290 02 e5 bf 3c ac 48 63 3d 13 3f e8 bc d1 ad 5d bd
       0.02342463 0.055489227 -0.028350389 -0.054120842
0002a0 6d a5 8d 3d 92 0c 66 3c 74 1e fc 3d 86 07 85 bc
       0.06916318 0.014041083 0.12310496 -0.016238939
0002b0 a8 98 e0 bd e4 50 6e 3d 36 9c 2f 3d 0b 0e 50 3c
       -0.10966617 0.058182612 0.042873584 0.012698661
0002c0 6f 58 44 bd 91 09 81 3d 61 d6 a0 bd f5 f7 05 3e
       -0.0479359 0.06300653 -0.078533895 0.1308287
0002d0 ed d6 a1 bd 1c 41 99 3d 04 ac 1a bd 7e f2 bf bd
       -0.07902322 0.07483122 -0.037761703 -0.093724236
0002e0 7b 6b c9 3d 87 11 9f bd 9e db fc bd d9 f9 eb 3d
       0.098349534 -0.07767015 -0.12346576 0.11522264
0002f0 9c d8 fd 3d 17 d1 03 be 43 60 4c bd 2b 20 0f be
       0.123948306 -0.1287273 -0.04989649 -0.13977115
000300 54 bf 02 3e 2b f1 e9 bd db 4e b1 3d 37 bb ce 3c
       0.12768298 -0.11422952 0.086576186 0.025235755
000310 cd f1 71 bd 39 3a 12 3d c5 6e a6 3d a2 79 82 bd
       -0.05906849 0.035700057 0.08126596 -0.06370856
000320 9d 8e f7 3d 15 f2 34 bc d9 42 af 3d 10 80 54 3d
       0.12087748 -0.011044045 0.08557672 0.051879942
000330 64 81 bb bd 0d d6 02 3c 2a b5 d6 3d f5 b0 df bd
       -0.09155539 0.007985604 0.10483773 -0.10922424
000340 f7 9e 98 bd 87 85 ed bd 36 40 c1 bd 7e 3b 93 bd
       -0.07452195 -0.11597734 -0.094360754 -0.071890816
000350 98 fe ee bd 68 0a 79 bd ff 68 c8 3d b6 75 cf bd
       -0.11669654 -0.06080094 0.097856514 -0.101298735
000360 d0 c1 b9 bd c9 0d bf bd b5 12 98 b8 4f 33 e8 bd
       -0.0907017 -0.09328801 -7.251409e-05 -0.11337911
000370 dc 86 62 bd e5 5f ea bd 9b b2 ee 3d 1b f6 eb 3d
       -0.055304393 -0.11444072 0.1165516 0.1152155
000380 c9 91 19 b9 06 1e 87 3d 7f 2d 01 3d 67 c5 b1 bd
       -0.00014645526 0.065975234 0.03153753 -0.0868023
000390 1d 60 f0 3b 1d 84 d9 bc 10 36 9b 3d ea 89 bb 3d
       0.0073356763 -0.026552254 0.07578671 0.091571644
0003a0 12 c0 2b bd 0d 6a 03 bd a6 a9 c0 3d 6f c6 9c bc
       -0.04193122 -0.03208356 0.09407358 -0.01913759
0003b0 29 2b 3f bd fb b7 39 3d 64 fe 72 bc a9 49 28 bd
       -0.04667202 0.045341473 -0.014831159 -0.041085873
0003c0 6f 3b ce 3b 4a e2 d5 3d fc 68 3e bd c0 df 98 bd
       0.006293706 0.10443552 -0.04648684 -0.07464552
0003d0 16 72 ff 3d 81 fa ea 3d 7d 47 91 bc 92 9a bd bd
       0.12472932 0.11473561 -0.017734284 -0.092579976
0003e0 62 ba aa 3d 78 5c ce 3d e1 1a ab 3d 9e 9a b5 bc
       0.08336331 0.10076231 0.08354736 -0.022168454
0003f0 4c 06 13 bd 25 5c 20 3c d0 cd 6a bd 99 ce df 3d
       -0.035894677 0.009787594 -0.057325184 0.10928077

bias f4 [5]
000000 4b 3e 85 bd 72 1e 74 bc bd 26 9c 3c 7f 76 d2 bd
       -0.06506022 -0.014899837 0.01906144 -0.102765076
000010 0b 3d bb 3d
       0.091425024
