Policy-Gradients/Poker-Agent/Jarvis_network_11_24.pt (torch, 227383 bytes, 8 tensors)

weight f4 [256, 55]
-0.001371523 -0.018757608 -0.025917755 -0.039026294 -0.021472618 0.041435897 0.051505283 0.08746138
-0.06403329 -0.07191595 -0.006777743 -0.1616689 0.060550116 0.031035736 0.026186438 0.08682632
0.11789895 0.06329425 0.03042943 -0.087694705 -0.070461884 -0.067995965 -0.045471277 -0.106694676
-0.12010101 0.11680541 -0.065782644 0.012692568 0.08616412 0.13408239 -0.0636614 0.12179183
0.16283238 0.046489358 -0.09805393 -0.07081089 -0.10112071 -0.07310221 -0.14196567 -0.015993206
-0.020816037 0.21249671 0.01640431 -0.025922487 0.02050269 0.022065727 -0.014397672 -0.069987476
0.09620583 0.051482063 0.039221372 0.03741612 0.11455746 0.010822432 0.10657557 0.14490494
-0.07324617 -0.037221145 -0.056832954 -0.03168414 -0.0908663 0.16478053 -0.15226106 -0.14639656
-0.12898712 0.14327602 -0.19644985 -0.017993124 0.07554075 -0.23625827 -0.111560695 -0.08304347
0.11906636 -0.012365086 0.18847628 -0.0039289882 -0.06968286 -0.14829963 -0.06383661 0.092270665
-0.030402666 0.14192696 0.03960598 0.12439342 0.15583071 -0.012333639 0.0983275 0.018171407
0.11343061 -0.022622192 0.01767096 0.03363279 -0.063445054 0.048411034 0.00019381447 0.034796275
0.02147684 0.16833341 0.04036341 0.056109965 0.0147656435 0.026264597 -0.07582012 0.11560672
0.09149825 -0.005428984 0.16754593 0.015597789 -0.02267927 0.107854344 -0.09708875 -0.0972545
-0.02491024 0.034298144 0.15088177 -0.06973857 -0.020038975 0.090909846 -0.17674917 0.075752996
0.10919078 -0.11934912 -0.1040719 -0.08027658 0.018520048 0.074253485 -0.110595785 0.13743651
0.11424819 0.04781372 -0.12026556 0.041290674 0.12303323 0.101754665 -0.08146724 -0.14283098
0.12020786 -0.05484573 0.07186581 0.11874459 0.06364561 -0.13661265 -0.054675803 -0.09198212
0.036828652 0.09128171 0.02321704 0.10090595 -0.022887377 -0.11111624 0.04225423 0.21573217
0.17008524 0.101468965 -0.07998402 0.09263982 0.091181144 -0.03222203 0.09263775 0.05021311
0.05775642 0.020026803 0.093431816 0.105653085 0.18076973 0.009030753 0.039323468 -0.01550104
-0.16209958 -0.07206276 0.013706882 -0.029422188 -0.054532867 -0.15831345 -0.13232206 -0.10439762
-0.15161487 0.009795137 0.17200501 -0.07752504 0.016129183 -0.075315885 -0.06336944 -0.10922984
0.04661274 -0.038996227 -0.15384634 -0.13513733 -0.05813805 -0.021627609 0.1448249 0.14235124
0.11250778 0.092684895 -0.07174313 0.039459717 0.06861218 0.030478297 0.13397442 0.06295359
-0.036429804 0.079318956 0.011471888 0.06010484 0.05808574 -0.026792774 0.21366458 0.016922116
0.13806647 0.08773667 -0.050880563 0.048590146 0.02467954 0.09312478 0.09645226 0.1489801
0.0067793964 -0.040971164 -0.09016478 -0.027679225 -0.06265638 -0.056937557 0.00051696063 0.17327033
0.05371315 0.0150657585 0.05607974 -0.08253502 0.23817374 0.08797269 0.041514434 0.20568104
0.06746734 -0.1370495 -0.014581228 0.14710368 0.06452073 -0.058161568 0.1009306 0.10232919
0.16971385 -0.19206761 0.11512857 0.018921213 -0.018770188 0.10690815 0.0049447445 -0.095065996
-0.08656528 -0.06308465 -0.03475564 0.041070107 0.049817592 0.009295524 0.010934176 0.044485252
00000000: adc4 b3ba 8ea9 99bc 7951 d4bc 09da 1fbd
00000010: 58e7 afbc b0b8 293d 34f7 523d f41e b33d
00000020: e323 83bd ab48 93bd d417 debb 888c 25be
00000030: 6603 783d a83e fe3c f184 d63c ffd1 b13d
00000040: 0175 f13d 6aa0 813d 2447 f93c 4899 b3bd
00000050: 524e 90bd 7841 8bbd 1740 3abd bd82 dabd
00000060: 85f7 f5bd ad37 ef3d 0db9 86bd 7df4 4f3c
00000070: d076 b03d e54c 093e e860 82bd ff6d f93d
00000080: 88bd 263e a06b 3e3d 80d0 c8bd 4d05 91bd
00000090: 6018 cfbd 9db6 95bd 735f 11be 2f04 83bc
000000a0: 6586 aabc bd98 593e 5562 863c 655b d4bc
000000b0: 42f5 a73c 2fc3 b43c 37e4 6bbc 9855 8fbd
000000c0: 9007 c53d dbde 523d 97a6 203d a541 193d
000000d0: 1a9d ea3d 9250 313c 4b44 da3d f661 143e
000000e0: 1702 96bd 3375 18bd acc9 68bd 3bc7 01bd
000000f0: 1c18 babd 3abc 283e 53ea 1bbe fbe8 15be
00000100: 3315 04be f3b6 123e 262a 49be 5166 93bc
00000110: 1cb5 9a3d b0ed 71be ef79 e4bd b212 aabd
00000120: 10d9 f33d ee96 4abc edff 403e bebe 80bb
00000130: e3b5 8ebd dcdb 17be c5bc 82bd 67f8 bc3d
00000140: 030f f9bc 4d55 113e e139 223d fac1 fe3d
00000150: 1692 1f3e 0813 4abc ee5f c93d 34dc 943c
00000160: 4f4e e83d 2d52 b9bc b0c2 903c 89c2 093d
00000170: 7bef 81bd a64a 463d ad3a 4b39 8a86 0e3d
00000180: 33f0 af3c 985f 2c3e 1a54 253d 90d3 653d
00000190: 99eb 713c da28 d73c 9447 9bbd 37c3 ec3d
000001a0: 6f63 bb3d 9ee5 b1bb 2991 2b3e de8d 7f3c
000001b0: e0c9 b9bc bde2 dc3d 77d6 c6bd 5e2d c7bd
000001c0: 8f10 ccbc 367c 0c3d c080 1a3e 18d3 8ebd
000001d0: c728 a4bc f12e ba3d bcfd 34be 6324 9b3d
000001e0: 6a9f df3d 506d f4bd a623 d5bd 0c68 a4bd
000001f0: 5bb7 973c 3612 983d 0b80 e2bd 28bc 0c3e
00000200: f4fa e93d 52d8 433d ca4d f6bd 6920 293d
00000210: d9f8 fb3d c064 d03d 4cd8 a6bd 4942 12be
00000220: 8a2f f63d eba5 60bd 622e 933d 5d30 f33d
00000230: a158 823d 30e4 0bbe bcf3 5fbd 1f61 bcbd
00000240: a4d9 163d e8f1 ba3d a931 be3c c7a7 ce3d
00000250: 4f7e bbbc e990 e3bd c512 2d3d e5e8 5c3e
00000260: d32a 2e3e f6ce cf3d a9ce a3bd f2b9 bd3d
00000270: 2ebd ba3d 3ffb 03bd dcb8 bd3d 43ac 4d3d
00000280: ff91 6c3d 400f a43c 2e59 bf3d a560 d83d
00000290: b31b 393e b9f5 133c a511 213d 13f8 7dbc
000002a0: 6ffd 25be a495 93bd d492 603c cd06 f1bc
000002b0: db5d 5fbd ec1c 22be 6f7f 07be 6bce d5bd
000002c0: ee40 1bbe c87b 203c 1522 303e 73c5 9ebd
000002d0: 5921 843c 373f 9abd d6c7 81bd e5b3 dfbd
000002e0: 00ed 3e3d 82ba 1fbd e589 1dbe 7161 0abe
000002f0: 2a22 6ebd 622c b1bc fb4c 143e 86c4 113e
00000300: 7b6a e63d 94d1 bd3d 10ee 92bd 83a0 213d
00000310: 8b84 8c3d 9fad f93c 9730 093e d0ed 803d
00000320: 6b37 15bd fa71 a23d 96f4 3b3c 7e30 763d
00000330: 50eb 6d3d 857c dbbc e3ca 5a3e 40a0 8a3c
00000340: 4c61 0d3e 49af b33d 2368 50bd 7606 473d
00000350: bf2c ca3c 34b8 be3d c388 c53d 3d8e 183e
00000360: b325 de3b 61d1 27bd 50a8 b8bd 8bbf e2bc
00000370: fd51 80bd 5b37 69bd a484 073a c76d 313e
00000380: 5202 5c3d 5fd6 763c dfb3 653d 1f08 a9bd
00000390: d1e3 733e 072b b43d 0a0b 2a3d 0d9e 523e
000003a0: 512c 8a3d b456 0cbe 1ae6 6ebc 59a2 163e
000003b0: 7223 843d d33a 6ebd b4b4 ce3d f791 d13d
000003c0: 78c9 2d3e 5fad 44be 87c8 eb3d a900 9b3c
000003d0: f0c3 99bc a9f2 da3d 8607 a23b f6b1 c2bd
000003e0: 2349 b1bd 8632 81bd ee5b 0ebd 2139 283d
000003f0: 880d 4c3d 414c 183c 4225 333c 2b36 363d

bias f4 [256]
0.13973403 -0.031042539 0.14776742 0.07434018 0.018553244 0.0952451 0.104035154 -0.04464384
0.052056227 -0.068682104 -0.14461581 0.11105864 0.035659794 0.049034946 0.098461725 -0.08575349
0.044435125 -0.009978252 -0.075981766 0.001648345 0.08332538 -0.013347468 0.072437815 -0.049025405
0.10934114 0.038887154 0.07250774 -0.10165622 -0.114346236 0.007716219 0.18406223 0.0081555275
0.09657172 -0.03756919 0.109351695 0.07436689 0.08190512 0.13785546 0.13985159 0.062029164
0.031887557 -0.056500584 0.12207397 -0.0857081 0.078270525 0.109515674 0.08747191 0.17194447
-0.070241965 0.026154295 0.046763707 0.040604338 -0.116893366 0.06688443 0.0072409343 0.13769794
-0.11107347 -0.08970285 0.0915253 -0.123326354 -0.1262771 0.0065265326 -0.031952344 -0.08120717
-0.092298366 0.104657285 0.09903932 0.04349236 0.07810907 0.053949267 0.007386081 -0.052869525
-0.12019705 0.056546256 -0.024299946 0.04373191 0.1792431 0.049089253 -0.03760946 -0.031073174
0.002152431 0.05223361 0.056690887 0.14328857 -0.075961344 0.01969267 -0.014731781 0.14543149
-0.017021868 -0.07274014 0.053157866 0.07081438 0.11152058 0.020106032 -0.06812816 0.084306926
-0.045871392 0.17010924 0.06401242 -0.0134562235 0.116396725 -0.045765027 -0.102784574 -0.00963084
-0.04456893 0.1145818 -0.04809675 0.03407645 -0.06538795 -0.084421 0.10794693 0.07732296
0.0065250057 -0.08818401 -0.048549816 -0.040768623 -0.039115865 0.041942276 0.07963273 -0.010212127
-0.06999726 0.09856313 -0.017503845 0.15551229 -0.060648274 0.013658237 0.0041274354 -0.02849247
-0.034980364 0.07263553 -0.060364783 -0.033585582 -0.03061723 0.13117784 0.09812436 -0.008054347
0.111996576 -0.114264056 -0.0481813 0.16545485 0.022099402 0.042931993 0.17250583 -0.05393377
0.082564965 -0.01645642 0.17847319 -0.0400613 0.14111035 -0.09523876 -0.08900365 -0.10833406
0.00799308 0.06945597 -0.04488919 -0.08592362 0.08972154 0.065860674 -0.050951555 0.004380106
0.10445492 -0.015040159 0.09082542 0.10943609 -0.11625466 0.023210913 -0.035126854 0.13794638
-0.016722944 0.03738165 -0.09014896 0.050696265 -0.08650424 -0.088655055 -0.033713803 0.0885528
0.056767516 -0.029424056 0.15181747 0.051745918 0.081288286 -0.06509375 -0.057105094 0.073651135
0.03480488 -0.11348707 0.12213197 0.09123424 0.032127045 0.04061305 -0.020513834 -0.0923887
-0.007164886 -0.08948565 -0.045148812 -0.058241647 -0.045327097 -0.0069981404 -0.033709176 -0.01899902
0.12891562 0.013364804 0.016457943 0.05538904 0.09522211 -0.059228376 -0.038851626 -0.041976858
0.008033282 -0.014230328 0.09965484 -0.0797577 0.04868327 0.12641075 0.10597421 -0.07094426
-0.009441984 0.119181745 0.08332773 0.08925684 0.009011857 -0.05473405 0.06895435 -0.048281454
-0.050988063 0.031057248 -0.06465992 -0.018606698 0.060308285 0.060237415 0.0016739636 0.06971369
0.0128429895 -0.0510488 0.030436054 -0.09661368 0.0037008692 0.141867 0.112123385 -0.07263945
0.03000999 0.10974179 -0.11836554 0.09449518 -0.052912228 0.03633321 -0.04803482 -0.117610954
0.11948676 0.06630485 0.14265525 0.07863338 -0.021497827 0.106801 0.04494761 0.011980732
00000000: 7016 0f3e ec4c febc 5850 173e aa3f 983d
00000010: f9fc 973c dd0f c33d 6210 d53d 76dc 36bd
00000020: e938 553d 34a9 8cbd 2b16 14be b672 e33d
00000030: 0110 123d ded8 483d 4da6 c93d 879f afbd
00000040: 9b01 363d d37b 23bc 549c 9bbd 480d d83a
00000050: 7fa6 aa3d 57af 5abc 475a 943d ddce 48bd
00000060: 3fee df3d 2348 1f3d f07e 943d 2331 d0bd
00000070: 5c2e eabd 56d8 fc3b cf7a 3c3e c39e 053c
00000080: 65c7 c53d 27e2 19bd c8f3 df3d ab4d 983d
00000090: dfbd a73d fb29 0d3e 4135 0f3e 4b12 7e3d
000000a0: 879c 023d 286d 67bd eb01 fa3d ba87 afbd
000000b0: 4c4c a03d c149 e03d 7924 b33d 3612 303e
000000c0: 05db 8fbd 8841 d63c 4d8b 3f3d bc50 263d
000000d0: ca65 efbd b4fa 883d 5c45 ed3b b000 0d3e
000000e0: 7d7a e3bd 21b6 b7bd 9e71 bb3d 8792 fcbd
000000f0: c94e 01be 86dc d53b 76e0 02bd f24f a6bd
00000100: ed06 bdbd 8f56 d63d 21d5 ca3d 0b25 323d
00000110: a6f7 9f3d e8f9 5c3d f006 f23b b78d 58bd
00000120: df29 f6bd 0c9d 673d ae10 c7bc 3b20 333d
00000130: 818b 373e d011 493d 610c 1abd 2b8d febc
00000140: cd0f 0d3b e9f2 553d b434 683d 3dba 123e
00000150: 9f91 9bbd 8652 a13c 915d 71bc feeb 143e
00000160: 7271 8bbc c8f8 94bd 10bc 593d 2107 913d
00000170: e764 e43d 68b5 a43c c786 8bbd 1ca9 ac3d
00000180: a4e3 3bbd 1e31 2e3e f218 833d 7e77 5cbc
00000190: 6861 ee3d 1c74 3bbd b880 d2bd acca 1dbc
000001a0: e98d 36bd dda9 ea3d 1901 45bd bf93 0b3d
000001b0: 1eea 85bd ebe4 acbd 4813 dd3d 805b 9e3d
000001c0: b7cf d53b d199 b4bd 2cdc 46bd 00fd 26bd
000001d0: f537 20bd aacb 2b3d 7c16 a33d c450 27bc
000001e0: b95a 8fbd 77db c93d 3964 8fbc 9d3e 1f3e
000001f0: 536a 78bd ccc6 5f3c 703f 873b 0a69 e9bc
00000200: 9247 0fbd f0c1 943d 1041 77bd 0991 09bd
00000210: fcd0 fabc 7c53 063e 6df5 c83d 61f6 03bc
00000220: 765e e53d 4603 eabd c159 45bd ff6c 293e
00000230: ce09 b53c 75d9 2f3d 5ea5 303e a8e9 5cbd
00000240: d217 a93d 9dcf 86bc adc1 363e 5117 24bd
00000250: 3b7f 103e 8a0c c3bd 8c47 b6bd 3fde ddbd
00000260: 68f5 023c ee3e 8e3d badd 37bd b9f8 afbd
00000270: edbf b73d f6e1 863d 94b2 50bd fe86 8f3b
00000280: 76ec d53d 006b 76bc ae02 ba3d 0720 e03d
00000290: ec16 eebd d024 be3c 2de1 0fbd d141 0d3e
000002a0: 8efe 88bc 801d 193d 05a0 b8bd e3a6 4f3d
000002b0: 2329 b1bd c890 b5bd 7c17 0abd 2c5b b53d
000002c0: 0e85 683d b80a f1bc 0a76 1b3e 87f3 533d
000002d0: 797a a63d df4f 85bd 08e7 69bd 68d6 963d
000002e0: 908f 0e3d e96b e8bd 5420 fa3d 04d9 ba3d
000002f0: a697 033d df59 263d a10c a8bc 4936 bdbd
00000300: 6cc7 eabb 4144 b7bd f6ed 38bd cb8e 6ebd
00000310: e8a8 39bd a850 e5bb a212 0abd d5a3 9bbc
00000320: 7502 043e 0df8 5a3c cfd2 863c 9edf 623d
00000330: cf03 c33d 7499 72bd e222 1fbd edef 2bbd
00000340: 079e 033c 5226 69bc d617 cc3d 0158 a3bd
00000350: 1c68 473d d271 013e 0209 d93d 394b 91bd
00000360: 8db2 1abc 8f15 f43d bba7 aa3d 4acc b63d
00000370: 78a6 133c d030 60bd f037 8d3d c6c2 45bd
00000380: dcd8 50bd c56b fe3c 6c6c 84bd 136d 98bc
00000390: d205 773d 82bb 763d e668 db3a 0dc6 8e3d
000003a0: 676b 523c 8c18 51bd 0855 f93c 65dd c5bd
000003b0: 488a 723b 9545 113e f2a0 e53d fec3 94bd
000003c0: 83d7 f53c 4ec0 e03d a269 f2bd b086 c13d
000003d0: 7eba 58bd 22d2 143d 29c0 44bd 03de f0bd
000003e0: 79b5 f43d d6ca 873d 3814 123e 8a0a a13d
000003f0: 361c b0bc 7cba da3d fc1a 383d d54a 443c

weight f4 [128, 256]
-0.0076985243 -0.0021589783 0.061151545 0.011776641 0.10318434 -0.041060653 -0.007530981 0.087631434
-0.0047171568 0.09202037 0.032215595 -0.0065148026 0.09641283 0.0255172 -0.02225797 0.10320353
0.030785512 -0.10155111 -0.017819839 0.08222544 0.050544325 0.059748992 -0.0046601356 0.10324808
-0.068927586 0.042607896 0.050543644 0.027209688 0.052836757 0.06058171 -0.074039586 -0.03614268
-0.014796541 0.06519189 -0.05487295 -0.033340957 0.01935082 0.060888186 -0.096975185 0.104403585
0.023072576 -0.0108930925 -0.058551457 -0.039107975 -0.01534651 -0.0724143 0.095412694 -0.062227204
0.015194983 -0.008598764 0.023941422 -0.05885388 0.061668333 -0.0629075 0.098479144 0.03519883
-0.038724348 0.031055277 0.029879494 0.056970313 0.08385333 -0.07756246 0.09816435 -0.08327674
0.003662325 0.07416002 -0.0056399303 0.03501303 -0.022818841 -0.00624396 0.100438476 -0.016719582
0.09943147 0.0074311714 0.05018347 0.024740783 -0.005992602 0.03417963 0.14134556 -0.06237784
0.09311189 0.049445387 -0.049823027 -0.08476527 0.03522959 -0.0128608765 0.017365249 -0.034805078
0.034290537 0.04943869 -0.05320855 -0.02176209 -0.0010348026 -0.0011421882 0.05525104 -0.018551415
-0.0007756521 0.017317802 0.04414703 0.00016368231 -0.031653915 -0.020583674 -0.049090426 0.024352325
0.049910817 0.023436494 -0.021069651 -0.046806082 0.049179383 -0.044737216 0.023175113 0.043133777
-0.06958918 0.034571946 -0.013830643 0.090047136 0.03526482 0.06345775 -0.08235533 0.041762386
-0.0044114273 0.015028834 -0.028764796 -0.03766646 0.07864789 -0.0036504858 0.07432162 0.12401328
0.032921772 -0.01669867 -0.07463346 0.0528414 0.009505173 -0.031326935 0.014101174 -0.012176285
0.016190737 0.029682025 -0.028540172 -0.08638949 -0.050598964 0.0050224965 0.04025124 0.032280784
0.037813786 0.117814936 -0.050064422 0.033368506 -0.09864857 -0.011647517 0.046897575 -0.0059471554
0.056087114 0.063128084 -0.10469973 0.033079058 0.05350025 -0.0002382449 -0.017517358 0.028429607
0.073732525 0.10003127 0.025093462 0.02901109 0.029910043 -0.018644322 -0.0544721 0.026507424
-0.0042936304 0.06480637 0.04899814 0.13355775 -0.041287974 -0.058604468 0.07704951 -0.021255156
0.008653274 0.06919644 0.04090386 -0.0029886875 0.040563527 0.103767745 -0.003784122 0.03639907
-0.02747782 0.098221004 0.048564944 -0.09973166 0.09662776 0.08616718 0.003620912 -0.083700545
-0.03961443 0.12720703 -0.13700585 0.02547976 0.022588175 0.078027636 0.057765875 -0.008948566
0.066386946 0.01521877 0.03987119 0.025202192 0.07341743 0.061533816 -0.021376338 0.037002187
0.06591815 -0.0662367 -0.12349061 0.13435052 -0.018767608 0.06398011 -0.0455032 0.054673534
-0.07822268 0.10053338 0.085012846 0.0073393486 0.057631865 0.0016132214 0.054278206 0.09384818
0.0487709 0.07255347 0.076914266 0.15646043 -0.032500368 0.0017750239 0.014215854 0.072820485
0.14080897 -0.0049955496 0.10230024 0.10593228 0.044169508 0.0396735 -0.059011914 -0.056012023
-0.0024444738 -0.037946016 -0.008819489 -0.052163776 0.039637633 -0.09939934 0.08094239 0.011186851
-0.12322864 -0.04929245 -0.0035406293 0.07217385 0.034219857 -0.028276794 0.05495672 -0.045907408
00000000: e743 fcbb a57d 0dbb 0b7a 7a3d d0f2 403c
00000010: 5052 d33d 372f 28bd 73c6 f6bb 1c78 b33d
00000020: 6192 9abb 2d75 bc3d 80f4 033d 207a d5bb
00000030: 1774 c53d 7209 d13c 5956 b6bc 5f5c d33d
00000040: e631 fc3c 07fa cfbd e9fa 91bc d065 a83d
00000050: 9107 4f3d 5cbb 743d 0db4 98bb bb73 d33d
00000060: e829 8dbd 9e85 2e3d da06 4f3d dae6 de3c
00000070: 5b6b 583d 8724 783d 11a2 97bd 590a 14bd
00000080: 316d 72bc 5383 853d 75c2 60bd 8790 08bd
00000090: 9c85 9e3c e465 793d ed9a c6bd 8cd1 d53d
000000a0: b302 bd3c f178 32bc a7d3 6fbd af2f 20bd
000000b0: ee6f 7bbc f34d 94bd bb67 c33d f4e1 7ebd
000000c0: 61f4 783c d5e1 0cbc cd20 c43c c410 71bd
000000d0: ef97 7c3d a6d5 80bd 6faf c93d a62c 103d
000000e0: 6c9d 1ebd a367 fe3c d7c5 f43c b459 693d
000000f0: 4bbb ab3d 11d9 9ebd 640a c93d ff8c aabd
00000100: 9e03 703b 35e1 973d 2acf b8bb d369 0f3d
00000110: 94ee babc 229a ccbb b0b2 cd3d 81f7 88bc
00000120: baa2 cb3d 2f81 f33b 2f8d 4d3d 2fad ca3c
00000130: 975d c4bb f1ff 0b3d e4bc 103e e87f 7fbd
00000140: 72b1 be3d 3f87 4a3d 3b13 4cbd 6a99 adbd
00000150: e74c 103d 6db6 52bc 9141 8e3c c58f 0ebd
00000160: 3c74 0c3d 3980 4a3d 35f1 59bd 6946 b2bc
00000170: 37a2 87ba 7ab5 95ba ea4e 623d 23f9 97bc
00000180: 2255 4bba 10de 8d3c 84d3 343d 23a2 2b39
00000190: 89a7 01bd 189f a8bc 0b13 49bd 877e c73c
000001a0: 496f 4c3d e4fd bf3c 439a acbc bcb7 3fbd
000001b0: 5270 493d 5f3e 37bd bcd9 bd3c 0bad 303d
000001c0: c684 8ebd 509b 0d3d ec99 62bc a26a b83d
000001d0: d871 103d 23f6 813d e9a9 a8bd 090f 2b3d
000001e0: bc8d 90bb 803b 763c 26a4 ebbc 2548 1abd
000001f0: 2512 a13d fd3c 6fbb ef35 983d adfa fd3d
00000200: fbd8 063d a6cb 88bc 6dd9 98bd 3970 583d
00000210: 96bb 1b3c ac50 00bd 9c08 673c 0a7f 47bc
00000220: 70a2 843c b827 f33c 14cd e9bc f9ec b0bd
00000230: dc40 4fbd c193 a43b 7cde 243d db38 043d
00000240: a1e2 1a3d f548 f13d 5a10 4dbd 6aad 083d
00000250: 4308 cabd 3ad5 3ebc ac17 403d 5be0 c2bb
00000260: 9abb 653d 4c49 813d d06c d6bd e87d 073d
00000270: 1423 5b3d 61d1 79b9 9080 8fbc 35e5 e83c
00000280: 1401 973d 32dd cc3d ce90 cd3c aaa8 ed3c
00000290: e805 f53c fabb 98bc 231e 5fbd 1926 d93c
000002a0: 95b1 8cbb 34b9 843d 46b2 483d 5dc3 083e
000002b0: 941d 29bd 3d0b 70bd 22cc 9d3d 4b1f aebc
000002c0: 76c6 0d3c ddb6 8d3d ce8a 273d dbdd 43bb
000002d0: f125 263d 2f84 d43d 08ff 77bb 3117 153d
000002e0: 2a19 e1bc 1828 c93d 09ec 463d 1d40 ccbd
000002f0: c6e4 c53d 6b78 b03d d34c 6d3b 316b abbd
00000300: be42 22bd 8f42 023e 434b 0cbe eeba d03c
00000310: d60a b93c f4cc 9f3d e99b 6c3d 029d 12bc
00000320: e1f5 873d 2658 793c f94f 233d d474 ce3c
00000330: e15b 963d e20a 7c3d 6e1d afbc 9b8f 173d
00000340: 1800 873d 1ba7 87bd a5e8 fcbd 2f93 093e
00000350: 87be 99bc 0108 833d 9061 3abd 5bf1 5f3d
00000360: 3633 a0bd 72e4 cd3d 371b ae3d eb7e f03b
00000370: 640f 6c3d ba72 d33a d352 5e3d 7933 c03d
00000380: ffc3 473d ea96 943d 3a85 9d3d 2a37 203e
00000390: 1b1f 05bd eba7 e83a 9de9 683c e822 953d
000003a0: 3a30 103e b5b1 a3bb ca82 d13d 06f3 d83d
000003b0: 16eb 343d ae80 223d 7ab6 71bd dd6c 65bd
000003c0: 7733 20bb 486d 1bbd 9e7f 10bc afa9 55bd
000003d0: 125b 223d e291 cbbd 20c5 a53d 0e49 373c
000003e0: 4c5f fcbd e1e6 49bd e709 68bb e2cf 933d
000003f0: 1f2a 0c3d bca4 e7bc 4c1a 613d 6809 3cbd

bias f4 [128]
0.04281356 0.010676828 0.06539374 0.033126157 0.06458413 -0.029062858 -0.007815756 0.0059589073
0.020360064 0.0019175657 0.05224465 0.021600517 0.061463423 0.037968118 0.0297876 -0.050550234
0.05908561 -0.04555352 0.0075091044 0.041175872 -0.00073229836 0.0851857 0.05210151 -0.0796839
-0.016382603 0.07525472 -0.038709123 0.01389792 -0.07529746 -0.009187011 0.019448657 -0.025773454
0.009671807 -0.00019581939 -0.006183872 -0.061699256 0.0822339 0.0026051344 0.027619978 -0.0139976805
-0.03546921 -0.027039148 -0.017472997 -0.010081911 0.075244166 -0.027633749 -0.062593944 0.040188678
0.024511175 0.008332581 -0.023675844 0.050012447 0.03218034 0.027847772 -0.05230124 -0.02187764
0.01578771 0.0034576494 -0.006612965 -0.0059494195 -0.015038131 0.064385615 0.02770995 0.070088685
0.07144844 -0.007168826 -0.019933388 0.009985153 -0.02073064 0.019588964 -0.0015839073 0.06363903
0.02489035 0.043591246 0.08785018 0.006114328 0.00898559 0.050704762 0.012089838 0.012521989
-0.00880278 -0.0022755363 0.08345033 0.10394003 0.09290409 0.0015802917 0.055966254 0.01647704
-0.040919118 -0.056218456 -0.020704588 0.009268221 -0.07387784 0.0077220653 -0.07449363 0.027587771
-0.02178401 -0.063459285 0.035481665 0.09411547 0.0394585 0.030490583 -0.015763577 0.077481866
0.013319045 0.077250265 -0.00641071 -0.036745347 -0.018344237 0.09955304 0.079827935 0.050010122
0.058511417 -0.005939924 0.081544414 0.034731805 -0.03529106 -0.04613775 0.04834537 0.10296179
0.07750013 -0.008542697 0.03356965 0.009716478 0.055376377 0.07878693 -0.048936468 0.034198694
00000000: 465d 2f3d dded 2e3c 27ed 853d 4baf 073d
00000010: af44 843d 3b15 eebc a80d 00bc f042 c33b
00000020: 26ca a63c d456 fb3a 7cfe 553d 91f3 b03c
00000030: 12c1 7b3d 7584 1b3d 2005 f43c c30d 4fbd
00000040: c103 723d 5496 3abd ef0e f63b 08a8 283d
00000050: b6f7 3fba d775 ae3d 6568 553d 5031 a3bd
00000060: cf34 86bc 261f 9a3d 758d 1ebd 1ab4 633c
00000070: 8e35 9abd 1e85 16bc ca52 9f3c da22 d3bc
00000080: 8076 1e3c de54 4db9 14a2 cabb 5cb8 7cbd
00000090: 3f6a a83d e7ba 2a3b 4b43 e23c 8756 65bc
000000a0: 2a48 11bd 3481 ddbc 8823 8fbc 9a2e 25bc
000000b0: 9d19 9a3d 2c60 e2bc 4131 80bd e29c 243d
000000c0: a9cb c83c 6185 083c d8f3 c1bc dad9 4c3d
000000d0: 88cf 033d 0321 e43c d339 56bd bd38 b3bc
000000e0: 3a55 813c bb99 623b 92b1 d8bb 59f3 c2bb
000000f0: 7e62 76bc 9bdc 833d faff e23c a88a 8f3d
00000100: 8f53 923d 79e8 eabb 584b a3bc c498 233c
00000110: 4ed3 a9bc 0979 a03c 1c9b cfba 2e55 823d
00000120: d9e6 cb3c bc8c 323d ccea b33d b35a c83b
00000130: 4c38 133c ccaf 4f3d 7514 463c 0729 4d3c
00000140: 8939 10bc 2a21 15bb 02e8 aa3d 83de d43d
00000150: 8044 be3d ca21 cf3a df3c 653d dbfa 863c
00000160: ce9a 27bd 5345 66bd ab9c a9bc bdd9 173c
00000170: 444d 97bd 6109 fd3b 1e90 98bd c0ff e13c
00000180: 6174 b2bc f1f6 81bd 3955 113d 9dbf c03d
00000190: 3c9f 213d 63c7 f93c 9e22 81bc d0ae 9e3d
000001a0: 2038 5a3c 6335 9e3d ef10 d2bb 4a82 16bd
000001b0: a746 96bc 77e2 cb3d d47c a33d 6ad7 4c3d
000001c0: aba9 6f3d b2a3 c2bb c200 a73d f042 0e3d
000001d0: 5c8d 10bd f0fa 3cbd cb05 463d a2dd d23d
000001e0: 63b8 9e3d abf6 0bbc 5480 093d dd31 1f3c
000001f0: 57d2 623d 0b5b a13d 9b71 48bd ee13 0c3d

weight f4 [64, 128]
0.019278908 -0.07317872 -0.011428837 -0.07209241 0.049497183 -0.04649505 0.054804504 -0.0030506444
0.026561456 0.013489114 -0.091288835 -0.0019288872 0.034928028 -0.0072946697 0.05517664 0.019911287
-0.087215744 0.13481753 -0.17708002 -0.031372655 -0.030857483 0.062900454 0.09250155 0.115268625
0.0067112963 -0.03558104 0.09466621 -0.075045966 0.057762448 0.08930117 0.04355647 0.14560546
0.07793046 -0.031828444 0.04661135 0.022723315 -0.009182739 -0.032969385 -0.033650756 -0.07244024
0.075574145 0.021076104 -0.12224338 0.013582908 -0.11512799 -0.018593593 -0.057090312 0.070060976
-0.060642537 -0.091710776 0.045836516 0.06735922 -0.06821934 0.022726981 0.09982813 -0.018498933
0.0913164 0.078847654 -0.06828592 0.020129532 0.04557606 -0.01683044 0.07061832 0.06323517
0.046690296 0.049846295 0.103837065 0.02203486 -0.03191075 0.023552371 0.029148817 -0.052907728
0.059756666 -0.005246737 0.019206686 -0.060381245 0.029591266 0.021490093 -0.03520467 -0.086505294
-0.00790422 0.052861832 0.00808524 0.10317745 0.01049728 0.015607144 0.047492452 0.004359012
0.03273293 -0.06880699 0.03816913 -0.12970516 0.10856264 -0.08987001 0.050236885 -0.029542718
-0.032083016 0.07021918 -0.011247836 -0.071099594 0.08359453 0.0371686 0.047308743 0.09810919
-0.097903445 0.06453871 0.044310905 0.025520643 0.067542896 -0.07670321 -0.05743919 0.036501452
0.02441371 -0.07417626 -0.09231116 -0.057174906 -0.030534023 -0.036447447 -0.11797882 -0.023227287
-0.0632371 0.0017322128 0.020291766 -0.083804555 -0.007317283 0.04433127 0.054679964 -0.115928076
0.0907861 0.038758464 -0.06974695 -0.09296163 0.04273982 0.04724495 -0.061943013 0.080684975
0.07333283 -0.015885314 -0.06031072 0.017669393 0.0049244207 0.034929045 0.07730206 0.0594457
0.02135809 0.045024335 -0.009156295 0.03594118 -0.12560809 -0.01817669 0.0661514 -0.0031099524
-0.042267475 0.06568041 -0.007771482 -0.091402605 -0.007027617 -0.07156961 0.024229541 -0.03712157
0.03072697 0.06249227 0.06423753 -0.031058826 -0.07832742 -0.08502113 -0.028079297 -0.0619645
0.070635095 0.011378356 -0.11985866 0.062248614 0.057485636 -0.10518589 0.03135821 0.0055589885
-0.05068207 -0.12548226 0.077570535 0.0636882 -0.043296594 0.060987238 0.11464421 0.054567628
-0.02395323 0.10657027 -0.01864436 -0.040563997 0.10606053 0.07373897 0.08331965 -0.001087226
0.11542676 0.11591703 -0.03883894 -0.06723467 0.028532347 0.07373587 0.09087787 -0.03226965
0.04859916 -0.0032903447 0.07529681 0.014775888 0.07345039 0.0007533084 -0.05278305 0.08957672
0.09396417 0.012899056 -0.025184773 0.09903128 -0.0663386 0.039539233 -0.018103866 -0.07857221
0.06941211 0.056154564 -0.0669089 -0.0017378384 -0.030193612 -0.17738715 0.065358356 0.0260559
0.0171455 0.080318466 -0.025052963 -0.021528397 0.08843199 0.058494024 -0.16659035 0.07262656
-0.034047447 0.06341356 -0.053558286 0.14666109 0.06509706 -0.0014874573 0.075158454 -0.11762193
0.037829548 -0.07192585 -0.023214178 0.0353452 0.09376355 -0.032065548 0.043557886 -0.017439526
-0.07133988 -0.01923189 0.098318085 0.049600597 -0.07287952 0.03577747 -0.013222988 0.056661602
00000000: cdee 9d3c bade 95bd 0440 3bbc 2fa5 93bd
00000010: 8fbd 4a3d 9871 3ebd b07a 603d 52ed 47bb
00000020: 6997 d93c 7201 5d3c a4f5 babd b7d2 fcba
00000030: b110 0f3d 2008 efbb e700 623d ff1c a33c
00000040: 2b9e b2bd 9b0d 0a3e 7754 35be 9d80 00bd
00000050: d5c8 fcbc f4d1 803d 7471 bd3d f511 ec3d
00000060: 6fea db3b 6dbd 11bd 5ce0 c13d b3b1 99bd
00000070: 5198 6c3d 88e3 b63d 4568 323d 9919 153e
00000080: 019a 9f3d 8b5e 02bd 8beb 3e3d 3f26 ba3c
00000090: 3373 16bc e80a 07bd 60d5 09bd 8c5b 94bd
000000a0: 9ec6 9a3d cba7 ac3c bd5a fabd d88a 5e3c
000000b0: 39c8 ebbd 9751 98bc 88d7 69bd 217c 8f3d
000000c0: 4f64 78bd dcd2 bbbd 12bf 3b3d a1f3 893d
000000d0: 95b6 8bbd ef2d ba3c b172 cc3d 138b 97bc
000000e0: 1804 bb3d e17a a13d 7dd9 8bbd b0e6 a43c
000000f0: f6ad 3a3d fedf 89bc 56a0 903d 7181 813d
00000100: 533e 3f3d a12b 4c3d 87a8 d43d 7382 b43c
00000110: d9b4 02bd e7f0 c03c 80c9 ee3c c6b5 58bd
00000120: 68c3 743d d2ec abbb 5757 9d3c 5352 77bd
00000130: 6269 f23c fe0b b03c c632 10bd b029 b1bd
00000140: b480 01bc a685 583d f477 043c b34e d33d
00000150: c9fc 2b3c 1bb5 7f3c 7287 423d 0bd6 8e3b
00000160: f712 063d aeea 8cbd 3c57 1c3d 6ed1 04be
00000170: 1756 de3d c50d b8bd 31c5 4d3d 9203 f2bc
00000180: 7b69 03bd 13cf 8f3d d848 38bc aa9c 91bd
00000190: 9c33 ab3d 1a3e 183d d0c6 413d 79ed c83d
000001a0: 9a81 c8bd df2c 843d 5a7f 353d ab10 d13c
000001b0: ee53 8a3d 9316 9dbd 5b45 6bbd 8c82 153d
000001c0: 43ff c73c b9e9 97bd a20d bdbd 3c30 6abd
000001d0: 7d22 fabc eb49 15bd e19e f1bd 2747 bebc
000001e0: 7482 81bd 6b0b e33a eb3a a63c b9a1 abbd
000001f0: d2c5 efbb b594 353d 19f8 5f3d b36b edbd
00000200: 10ee b93d 32c1 1e3d 7dd7 8ebd ab62 bebd
00000210: f30f 2f3d ec83 413d f5b7 7dbd 2a3e a53d
00000220: 862f 963d eb21 82bc 6008 77bd 67bf 903c
00000230: 095d a13b c211 0f3d 8b50 9e3d 567d 733d
00000240: 29f7 ae3c 706b 383d 4904 16bc 0f37 133d
00000250: 689f 00be 48e7 94bc 637a 873d 58d0 4bbb
00000260: a920 2dbd 7383 863d eba7 febb 4a31 bbbd
00000270: ed47 e6bb 1693 92bd 087d c63c ca0c 18bd
00000280: 20b7 fb3c e5f7 7f3d f78e 833d 146f febc
00000290: 206a a0bd 8f1f aebd 8e06 e6bc 7dce 7dbd
000002a0: 22a9 903d 496c 3a3c 7578 f5bd 67f8 7e3d
000002b0: 0f76 6b3d b36b d7bd 7771 003d 2d28 b63b
000002c0: 0198 4fbd 6c7e 00be 4ddd 9e3d f66e 823d
000002d0: c557 31bd c1cd 793d 95ca ea3d 4e82 5f3d
000002e0: 9039 c4bc 8441 da3d 0fbc 98bc 6f26 26bd
000002f0: 4336 d93d 7504 973d 7ea3 aa3d 4081 8eba
00000300: dd64 ec3d e865 ed3d 9515 1fbd 55b2 89bd
00000310: abbc e93c d502 973d 2d1e ba3d 2e2d 04bd
00000320: ea0f 473d d3a2 57bb 3735 9a3d 9116 723c
00000330: 286d 963d ac79 453a 0a33 58bd 0074 b73d
00000340: 4970 c03d 9056 533c 4c50 cebc e9d0 ca3d
00000350: 88dc 87bd e4f3 213d 8f4e 94bc 78ea a0bd
00000360: f027 8e3d 5402 663d 8907 89bd 2ec8 e3ba
00000370: 9858 f7bc faa4 35be 9ada 853d 2f73 d53c
00000380: b874 8c3c 027e a43d df3b cdbc 525c b0bc
00000390: d51b b53d 6e97 6f3d a996 2abe 3cbd 943d
000003a0: 5675 0bbd f8de 813d ef5f 5bbd 532e 163e
000003b0: 9b51 853d c9f6 c2ba adec 993d c4e3 f0bd
000003c0: 28f3 1a3d dc4d 93bd a92b bebc 21c6 103d
000003d0: 1b07 c03d 2a57 03bd c169 323d 56dd 8ebc
000003e0: a51a 92bd 328c 9dbc fe5a c93d ff29 4b3d
000003f0: dc41 95bd 658b 123d 3ba5 58bc ff15 683d

bias f4 [64]
0.100218914 -0.024454273 -0.0017759152 0.06498769 0.10039871 -0.06837335 -0.09200922 0.005325598
0.056521013 -0.05988401 -0.05623184 0.06897386 0.11072341 0.0028119884 0.09406618 0.017461404
-0.10386336 0.06566225 -0.0141794635 -0.0486646 0.043052346 -0.006613039 -0.0156987 -0.023214975
0.017302634 -0.03132864 0.018896066 -0.0814736 0.06247576 -0.04616314 0.08191085 0.071659915
0.034029823 0.042652268 -0.05965235 -0.054124992 -0.00882618 -0.11546003 -0.0066557215 -0.031898312
-0.07776612 -0.02936126 0.103161156 -0.03541752 -0.0026671407 0.06703077 0.017534861 -0.005703746
-0.006835937 0.10441781 -0.010046071 -0.101107694 -0.00041604612 0.055030067 -0.04931852 0.043947212
-0.0799969 0.124529146 0.036868103 -0.012329763 -0.10448461 -0.008133658 -0.047746085 -0.050375566
00000000: 933f cd3d 5454 c8bc d3c5 e8ba 4418 853d
00000010: d79d cd3d 5407 8cbd 546f bcbd 5b82 ae3b
00000020: 9482 673d f048 75bd 5c53 66bd 2b42 8d3d
00000030: f5c2 e23d 5649 383b c5a5 c03d 380b 8f3c
00000040: 50b6 d4bd ee79 863d fb50 68bc 8854 47bd
00000050: a857 303d 31b2 d8bb 8f9a 80bc 552d bebc
00000060: 41be 8d3c 7652 00bd eccb 9a3c a1db a6bd
00000070: 95e6 7f3d 9015 3dbd e0c0 a73d 6fc2 923d
00000080: db62 0b3d 25b4 2e3d 0656 74bd 2bb2 5dbd
00000090: af9b 10bc 4f76 ecbd 3d18 dabb cea7 02bd
000000a0: d843 9fbd 0687 f0bc 2846 d33d f611 11bd
000000b0: 32cb 2ebb 6e47 893d 45a5 8f3c 7de6 babb
000000c0: ffff dfbb 01d9 d53d 4798 24bc 8d11 cfbd
000000d0: c420 dab9 3567 613d 3702 4abd fe01 343d
000000e0: 6ad5 a3bd 2309 ff3d 0203 173d c602 4abc
000000f0: 07fc d5bd 0943 05bc 6691 43bd 9c56 4ebd

weight f4 [5, 64]
-0.13576014 -0.13291724 -0.229682 -0.14020105 -0.006205865 -0.13004225 -0.080089845 0.07741069
0.046452913 -0.0020933803 -0.16465591 0.14663522 0.02391841 -0.065179735 0.11565721 -0.03672549
-0.08862026 0.14624582 0.15648435 -0.1879447 -0.033517383 -0.023316741 0.08289741 -0.11914861
-0.042200312 0.049638268 0.10230653 -0.2548392 -0.24326076 -0.0987364 0.07319021 -0.13601695
0.15190025 -0.0728135 0.041238017 0.08189993 0.059264265 -0.06613524 0.0013868877 -0.050364114
-0.18240568 -0.1941462 0.11141837 0.019304905 0.1495085 0.08952803 -0.27563718 -0.28565407
0.109174654 0.06407303 0.23580232 -0.02385683 -0.07948961 -0.10529822 -0.039647177 -0.12911232
0.17618354 0.0033827915 0.14817792 0.075104244 -0.059627432 0.091621265 -0.13754392 -0.013141525
-0.09807151 0.075089686 -0.0051950803 0.040106148 0.107269384 0.11784602 -0.06571541 0.076597154
0.020444918 -0.024819585 0.15392385 0.012848818 -0.021044852 -0.03541649 0.0028799928 0.11975569
0.04337762 0.045547597 -0.053838827 0.119618855 0.028884055 0.11044848 -0.04476749 0.13068147
0.09806958 -0.0426453 0.046709634 0.035195243 -0.10352016 -0.08387228 0.037988126 0.114905104
0.08288114 -0.0029652426 -0.052403383 -0.13560764 -0.04462271 -0.07617584 0.08014375 0.11276071
-0.10868979 -0.120347835 -0.059806846 0.10604472 -0.009699689 0.029504636 0.067488655 -0.08435074
-0.03979633 -0.010889583 -0.16343014 -0.05624564 -0.065563776 -0.0890121 -0.08168661 0.017400855
0.08178936 0.013333793 -0.14263815 0.05874646 0.04562897 -0.0097290035 0.03504327 0.1317358
0.0377031 -0.06573536 0.027834604 0.040735815 0.061353907 0.07370378 0.092521384 0.10253735
-0.023336709 0.08687266 -0.090123504 -0.058416218 0.007514899 -0.057033543 0.011584784 0.14263496
0.016020482 -0.071173385 0.05069139 -0.019588314 0.045026973 0.037699692 -0.07490306 0.09034543
-0.11330732 0.023049131 0.046749797 0.088064194 -0.007825803 -0.060544122 -0.10217873 0.1248828
0.07237011 0.010032334 -0.06396831 -0.118469656 0.07025932 -0.023601836 0.023719475 -0.052184336
0.1422016 0.15001482 -0.0042362977 0.033516888 0.018955603 -0.116829686 0.11090104 0.15491363
-0.061784483 0.035190694 -0.08211374 0.036310572 -0.023948865 0.08822628 -0.07880257 0.10642724
-0.076029055 -0.063379936 -0.024258388 -0.085552216 -0.07117831 -0.14091535 -0.054229733 -0.021963613
-0.04019905 0.11650833 0.02205298 0.02094405 0.04520495 -0.081633374 0.046702925 0.028991
0.04491842 0.10945838 0.011286763 -0.0498242 -0.042718258 -0.026737744 -0.00013914006 0.045625802
-0.0068263523 -0.10079798 0.08388808 0.13281807 0.07739123 -0.11732882 -0.07255114 0.14438857
0.1258144 -0.06045557 0.042404022 0.059981942 0.06599529 0.01828431 -0.021218767 0.17660691
0.006515923 0.047229808 -0.15003717 0.09943347 -0.07600058 -0.07585261 -0.10390232 -0.06900818
0.10688599 0.15196307 0.020300686 0.0067196568 0.022022523 -0.07877675 -0.010734432 0.13503592
0.010377231 0.11056753 -0.048427608 -0.069102176 0.1442116 0.051101282 -0.053577874 -0.06340909
-0.11001416 -0.011871213 -0.14762616 -0.059638884 -0.04724549 -0.12352015 0.08291035 -0.13924757
00000000: b504 0bbe 751b 08be c231 6bbe dd90 0fbe
00000010: 925a cbbb cc29 05be 2506 a4bd 7f89 9e3d
00000020: 6945 3e3d 1831 09bb 8f9b 28be 8b27 163e
00000030: 8bf0 c33c f47c 85bd b0dd ec3d 786d 16bd
00000040: 8a7e b5bd 77c1 153e 6f3d 203e 9374 40be
00000050: 8649 09bd c002 bfbc 1ec6 a93d 3004 f4bd
00000060: 3cda 2cbd 7f51 4b3d 1686 d13d 497a 82be
00000070: 5919 79be 4f36 cabd c0e4 953d 0748 0bbe
00000080: bd8b 1b3e 3f1f 95bd 32e9 283d 27bb a73d
00000090: 16bf 723d ea71 87bd 3bc8 b53a 9a4a 4ebd
000000a0: 8ec8 3abe 43ce 46be 502f e43d 5225 9e3c
000000b0: c218 193e 795a b73d 5120 8dbe 4041 92be
000000c0: f696 df3d b938 833d 2a76 713e 666f c3bc
000000d0: 73cb a2bd 98a6 d7bd 1465 22bd 0536 04be
000000e0: 7569 343e d3b1 5d3b f4bb 173e 41d0 993d
000000f0: e53b 74bd eea3 bb3d 50d8 0cbe 8d4f 57bc
00000100: b7d9 c8bd 9fc8 993d 7e3b aabb 5846 243d
00000110: 0db0 db3d 4159 f13d cd95 86bd f8de 9c3d
00000120: 1a7c a73c 7152 cbbc 379e 1d3e d983 523c
00000130: 4166 acbc e210 11bd 43be 3c3b 7942 f53d
00000140: bbac 313d 1e90 3a3d 1a86 5cbd bbfa f43d
00000150: 419e ec3c d032 e23d 1e5e 37bd 5dd1 053e
00000160: b4d8 c83d d7ac 2ebd 9a52 3f3d e328 103d
00000170: 6102 d4bd 3bc5 abbd 7099 1b3d 5e53 eb3d
00000180: 96bd a93d 8454 42bb eea4 56bd bbdc 0abe
00000190: 4ec6 36bd 1402 9cbd 6822 a43d 16ef e63d
000001a0: c198 debd ed78 f6bd 06f8 74bd f92d d93d
000001b0: 72eb 1ebc b5b3 f13c 7e37 8a3d 15c0 acbd
000001c0: 7a01 23bd 396a 32bc 3b5a 27be d461 66bd
000001d0: 4d46 86bd fa4b b6bd 4f4b a7bd 3d8c 8e3c
000001e0: 2e81 a73d fb75 5a3c bc0f 12be 21a0 703d
000001f0: 71e5 3a3d 6666 1fbc 8889 0f3d c0e5 063e
00000200: 916e 1a3d 43a0 86bd 6505 e43c 99da 263d
00000210: 3c4e 7b3d 02f2 963d da7b bd3d 1aff d13d
00000220: a02c bfbc 4bea b13d ac92 b8bd d845 6fbd
00000230: 8b3f f63b 019c 69bd 1bce 3d3c e60e 123e
00000240: 633d 833c 5ac3 91bd c6a1 4f3d ac77 a0bc
00000250: 346e 383d fe6a 1a3d c766 99bd 0607 b93d
00000260: ab0d e8bd 88d1 bc3c b77c 3f3d 005b b43d
00000270: cc37 00bc 1dfd 77bd 1543 d1bd 8ec2 ff3d
00000280: c836 943d a95e 243c d101 83bd 38a0 f2bd
00000290: 1ee4 8f3d a358 c1bc 584f c23c 3ebf 55bd
000002a0: 4c9d 113e 7c9d 193e a4d0 8abb 0149 093d
000002b0: c848 9b3c 6744 efbd 1620 e33d aea1 1e3e
000002c0: ba11 7dbd 1e24 103d 402b a8bd 65ba 143d
000002d0: 6930 c4bc fbaf b43d 3e63 a1bd 86f6 d93d
000002e0: 1fb5 9bbd 57cd 81bd 87b9 c6bc 0036 afbd
000002f0: efc5 91bd 1d4c 10be ff1f 5ebd 09ed b3bc
00000300: c2a7 24bd eb9b ee3d 73a8 b43c db92 ab3c
00000310: d328 393d 662f a7bd 914b 3f3d 897e ed3c
00000320: 61fc 373d b72b e03d 1dec 383c 7614 4cbd
00000330: 57f9 2ebd 1d09 dbbc 20e6 11b9 1fe2 3a3d
00000340: 98af dfbb 2c6f cebd 84cd ab3d 7601 083e
00000350: 4b7f 9e3d 184a f0bd b195 94bd 99da 133e
00000360: 7dd5 003e 43a0 77bd d7af 2d3d a0af 753d
00000370: 8a28 873d fac8 953c fbd2 adbc 71d8 343e
00000380: 8683 d53b 0b74 413d 58a3 19be c6a3 cb3d
00000390: 31a6 9bbd 9d58 9bbd bdca d4bd 2954 8dbd
000003a0: 0be7 da3d 359c 1b3e a04d a63c 9130 dc3b
000003b0: 9468 b43c b455 a1bd 79df 2fbc db46 0a3e
000003c0: 4305 2a3c 3b71 e23d 075c 46bd 7185 8dbd
000003d0: 35ac 133e 944f 513d 7974 5bbd a0dc 81bd
000003e0: 1b4f e1bd 7a7f 42bc 502b 17be e747 74bd
000003f0: 7d84 41bd 22f8 fcbd e7cc a93d ea96 0ebe

bias f4 [5]
0.034199916 -0.024784999 -0.04170884 0.001901891 -0.0309692
00000000: 3615 0c3d e909 cbbc e3d6 2abd df48 f93a
00000010: 1fb3 fdbc
