Policy-Gradients/Poker-Agent/Nov_21_Good_Network_Tom.pt (torch, 227339 bytes, 8 tensors)

weight f4 [256, 55]
0	0x3a627506	0.00086386537
1	0xbdc10ce2	-0.09426285
2	0xbdbc029c	-0.09180185
3	0x3d1753a0	0.036944985
4	0xbe0edaeb	-0.13950698
5	0x3db0dc17	0.08635729
6	0x3db88cb2	0.090112105
7	0x3d20846d	0.03918879
8	0x3c684c43	0.014178338
9	0xbbd154c7	-0.00638828
10	0x3c0a2681	0.008432032
11	0xbdbd4598	-0.092417896
12	0xbdfcac95	-0.12337605
13	0x3e40a7ea	0.18814054
14	0xbdecd12a	-0.115633324
15	0xbe28c51d	-0.16481443
16	0x3d6d55f9	0.057943318
17	0xbd2bcbf8	-0.041942567
18	0xbdfa34e4	-0.12217119
19	0x3da17ff5	0.07885734
20	0x3d8df61a	0.06931706
21	0x3cc540d1	0.024078758
22	0xbe0a1d7a	-0.13487807
23	0xbc2b8e7a	-0.010470981
24	0xbd9bdec5	-0.07610849
25	0xbce29fb3	-0.027664041
26	0x3e16b4e3	0.1471744
27	0xbd9b5b17	-0.075857334
28	0x3d9f7bdb	0.077872954
29	0xbd8ede4a	-0.06975992
30	0xbde6e7ac	-0.11274657
31	0xbcbebd99	-0.023283767
32	0xbe2f652b	-0.17128436
33	0xbb68185b	-0.0035414908
34	0x3e455788	0.19271672
35	0x3d821ea5	0.06353501
36	0xbd50835f	-0.050906535
37	0x3db1b43d	0.08676956
38	0xbdfb7f31	-0.12280119
39	0xbe165ed9	-0.14684619
40	0xbdc4005f	-0.09570383
41	0x3e0c8a0c	0.13724536
42	0xbce6f1bf	-0.028191445
43	0xbd783d3a	-0.060605265
44	0x3d776818	0.060402006
45	0xbda9a2fc	-0.0828304
46	0xbde32da6	-0.11092691
47	0x3e10f9ee	0.1415784
48	0x3dff2ffc	0.12460324
49	0xbc3f5f71	-0.01168047
50	0x3db72688	0.08942896
51	0x3ccbf48a	0.024896879
52	0x3d0c8df1	0.034315053
53	0xbd281144	-0.04103209
54	0xbc8f9bc8	-0.017530337
55	0x3e0815db	0.13289587
56	0x3df1f173	0.11813631
57	0x3c000417	0.007813475
58	0x3c76442e	0.015030904
59	0x3de556b0	0.11198175
60	0x3d025e88	0.031828433
61	0xbc0d2523	-0.008614811
62	0xbe4d3918	-0.20041311
63	0xbe7648be	-0.24051186
64	0x3d8d15a3	0.068888925
65	0x3c747493	0.014920372
66	0xbddafeb9	-0.10693116
67	0x3b06e110	0.0020580925
68	0x3df85821	0.12126184
69	0xbe715e75	-0.23571189
70	0xbdd9f2ba	-0.106419995
71	0x3d09a09e	0.033600442
72	0xbca9881c	-0.020694785
73	0x3de5942e	0.11209904
74	0x3d2270bc	0.039658293
75	0xbe244c5f	-0.16044758
76	0x3da675ba	0.08127923
77	0xbd335cd6	-0.043789707
78	0xbde821f6	-0.113346025
79	0xbd89c59a	-0.06727143
80	0x3d1d6d77	0.038434472
81	0xbcd93928	-0.026516512
82	0xbda48af1	-0.080343135
83	0x3de29652	0.110638276
84	0x3d4e0b98	0.050304025
85	0x3df3e2a4	0.11908463
86	0xbd43da5a	-0.04781566
87	0xbe379fad	-0.17932005
88	0xbd9a4709	-0.0753308
89	0x3d3eb1e7	0.04655638
90	0xbda3d391	-0.079993375
91	0xbd23288b	-0.039833587
92	0xbcecd64a	-0.028910775
93	0x3da7bd48	0.081903994
94	0x3d4d40ef	0.050110754
95	0x3dde70d1	0.10861362
96	0x3e003b22	0.12522557
97	0xbd88a00d	-0.06671152
98	0x3d1fd1ec	0.039018556
99	0x3d5f5b9e	0.054530732
100	0xbdfa3575	-0.12217227
101	0x3da5d017	0.080963306
102	0xbd1395e4	-0.03603162
103	0x3ceac6d1	0.028659256
104	0xbb1a3b01	-0.0023533704
105	0x3cf6165e	0.030039962
106	0x3dec9e7f	0.11553668
107	0x3e0eadda	0.13933507
108	0x3d3c65c6	0.045995496
109	0xbbe148b0	-0.00687512
110	0x3cd6890c	0.026188396
111	0x3d9ca4f4	0.0764865
112	0x3ddf5fd2	0.10906948
113	0x3dd95553	0.106119774
114	0x3df067cd	0.117385484
115	0x3cc3c3fb	0.023897162
116	0xbce52483	-0.027971512
117	0x3c23354a	0.009961436
118	0x3e387f55	0.18017323
119	0xbc8cfd30	-0.017210573
120	0x3d40d113	0.04707439
121	0x3defae4c	0.11703166
122	0xbcfbc315	-0.03073267
123	0xbd085530	-0.033284366
124	0x3d38fa29	0.045160446
125	0x3dc9262b	0.09821733
126	0xbd3f72f6	-0.046740495
127	0x3d616252	0.055025406
128	0x3e210518	0.157246
129	0xbd3b69eb	-0.045755308
130	0x3cf50bf1	0.02991292
131	0x3ce413da	0.027841497
132	0x3da8049d	0.08204005
133	0x3dfc63d9	0.12323732
134	0xbdbca9d5	-0.092120804
135	0x3e13ea64	0.14444882
136	0x3d824d48	0.063623965
137	0x3dc35c5f	0.09539103
138	0x3de4fc7f	0.11180972
139	0x3d0b20ec	0.033966944
140	0xbcc3ab55	-0.023885408
141	0xbd3a52b4	-0.045489028
142	0x3e4c09fb	0.19925682
143	0x3dab2fd3	0.08358731
144	0x3d946d58	0.07247418
145	0x3dbf7f91	0.09350503
146	0x3dbc6aa1	0.09200025
147	0xbdb8464f	-0.08997785
148	0xbc8e1a5a	-0.01734655
149	0xbdf08189	-0.11743457
150	0xbd57f78f	-0.052726325
151	0x3d4e00b1	0.050293628
152	0x3e1253e1	0.1428981
153	0xbd80f1b6	-0.06296103
154	0xb925b1a2	-0.000158018
155	0xbccb5413	-0.024820363
156	0xbcaf6b8a	-0.021413583
157	0x3d887198	0.06662291
158	0xbcc968c6	-0.024586093
159	0x3d82cf86	0.06387238
160	0xbaa733d0	-0.001275653
161	0x3d25ecf1	0.040509168
162	0xbd5016ac	-0.05080287
163	0xbd3fb366	-0.046801947
164	0xbcef0264	-0.029175945
165	0x3d2af075	0.041733224
166	0xbcc1dddc	-0.023665361
167	0xbdc24563	-0.09485891
168	0xbdadddaa	-0.08489545
169	0x3e19a3c1	0.15003873
170	0x3d94363c	0.07236907
171	0x3c8ca3f9	0.017168032
172	0x3ddd23e6	0.10797863
173	0x3df28bda	0.11843081
174	0x3e13ca99	0.14432754
175	0x3ae02fb4	0.001710406
176	0x3e355792	0.17709187
177	0x3d072b30	0.03300017
178	0x3bcec75a	0.0063103857
179	0xbc7ffcdd	-0.015624252
180	0x3ded0fe2	0.11575295
181	0x3cb35355	0.021890322
182	0xba25d55b	-0.0006326043
183	0x3dc64339	0.096807905
184	0x3e2bc67f	0.16774939
185	0x3e0f3739	0.1398591
186	0xbd8ae304	-0.06781581
187	0xbdb50f17	-0.08840769
188	0x3c9ee12f	0.019394485
189	0x3e11ed57	0.14250694
190	0x3dad1c16	0.084526226
191	0xbdbadab8	-0.091237485
192	0xbd047c8f	-0.03234535
193	0xbbfb25f2	-0.0076644355
194	0xbd765f6f	-0.060149606
195	0xba50a05b	-0.0007958465
196	0x3d568f80	0.052382946
197	0xbc528802	-0.01284981
198	0xbd23705e	-0.039902084
199	0xbd76f687	-0.0602937
200	0xbd4de0f8	-0.050263375
201	0xbd09bd84	-0.033628
202	0xbd629159	-0.055314396
203	0x3c85466a	0.016268928
204	0xbd4b5e91	-0.049650732
205	0xbde4acf9	-0.111658044
206	0xbd1276f3	-0.03575797
207	0x3d305bc0	0.04305625
208	0x3dacc67e	0.08436297
209	0x3dd62fe3	0.104583524
210	0x3db735da	0.08945818
211	0xbc0fd435	-0.008778621
212	0x3d154407	0.03644183
213	0xbe21da55	-0.15805943
214	0x3c3ab81b	0.011396433
215	0xbd98db38	-0.07463688
216	0xbdbb7602	-0.091533676
217	0xbd6308f6	-0.055428468
218	0x3d2e2a53	0.042520832
219	0x3db3867a	0.08765884
220	0x3d88fea2	0.06689192
221	0x3ddd4698	0.1080448
222	0x3da4898c	0.080340475
223	0x3cb183aa	0.021669228
224	0x3dc8f0c1	0.09811545
225	0xbc2feedd	-0.010738102
226	0x3cf74f9c	0.030189328
227	0xbcad680c	-0.021167777
228	0x3e395444	0.18098551
229	0x3de21776	0.11039631
230	0x3d84f1cb	0.06491431
231	0x3e88e46b	0.2673677
232	0x3bd7d253	0.006586352
233	0xbb80e995	-0.003934095
234	0x3d15a079	0.03652999
235	0x3e55792e	0.20847008
236	0x3e1085f8	0.14113605
237	0xbced11ef	-0.028939215
238	0xbc485f31	-0.012229727
239	0x3dcccb3a	0.099997
240	0x3d8e15bc	0.06937739
241	0xbe1a6603	-0.15077977
242	0xbdec38d2	-0.11534275
243	0x3cb47d44	0.022032388
244	0x3d8ff17b	0.070284806
245	0x3dec8091	0.115479596
246	0xbd9c7367	-0.07639199
247	0x3b94e8b6	0.004544343
248	0xbd9ca0ee	-0.076478824
249	0x3d8d7d08	0.069086134
250	0x3ceeac47	0.029134883
251	0x3ccb2335	0.024797061
252	0x3e0362d5	0.1283067
253	0xbc536350	-0.012902096
254	0xbdbbdb3d	-0.09172676
255	0x3c82d99c	0.015972905

bias f4 [256]
0	0x3c8b232a	0.016984541
1	0x3dcec21f	0.100956194
2	0xbd418e97	-0.047255125
3	0x3dfc3a8c	0.123158544
4	0x3a3f5b23	0.0007299652
5	0xbcf741aa	-0.030182678
6	0x3d2a9914	0.041649893
7	0xbd852215	-0.06500641
8	0xbb65d812	-0.0035071415
9	0xbc80bda5	-0.01571543
10	0x3ca1190f	0.01966527
11	0x3e0434b5	0.12910731
12	0x3dcffe34	0.10155907
13	0x3def8697	0.11695593
14	0xbd281aa2	-0.041041024
15	0x3d8be279	0.068303056
16	0xbccdb3e1	-0.025110187
17	0xbc9f58e3	-0.019451564
18	0xbdb4f272	-0.08835305
19	0x3a9b4245	0.0011845311
20	0x3d38ea66	0.045145415
21	0x3dea0e36	0.11428492
22	0xbdf09938	-0.11747974
23	0xbdcdab84	-0.1004248
24	0x3ca9e27f	0.020737885
25	0xbd8bf51e	-0.06833862
26	0xbd97bdc4	-0.07409242
27	0x3df600d2	0.12011875
28	0xbb91c970	-0.004449062
29	0x3d08e261	0.033419017
30	0x3cac2850	0.021015316
31	0x3d7a1680	0.061056614
32	0xbd4b4277	-0.049623933
33	0xbbfecd42	-0.0077759335
34	0xbcded8a4	-0.027202912
35	0x3e1db61b	0.15401499
36	0xbd991a0f	-0.074756734
37	0x3a1d9f37	0.00060127996
38	0xbd899413	-0.06717696
39	0x3d494146	0.049134515
40	0x3d010780	0.031501293
41	0xbda5faa1	-0.08104444
42	0x3d487a34	0.048944667
43	0xbda657a6	-0.08122186
44	0xbdf0d147	-0.117586665
45	0xbd1f7e94	-0.038939074
46	0xbd5ee4b2	-0.05441732
47	0x3c724ca7	0.014788783
48	0xbd37a4d0	-0.04483491
49	0xbd290030	-0.041259944
50	0xbd405971	-0.046960298
51	0x3d725d30	0.0591709
52	0x3dfaf888	0.12254435
53	0x3dab6736	0.08369295
54	0x3e29c850	0.1658032
55	0x3e23ec64	0.16008145
56	0xbdc9f2f1	-0.098607905
57	0x3d5b0051	0.0534671
58	0x3b71b2ad	0.003688018
59	0xbd8ca651	-0.0686766
60	0x3bbf2ac0	0.0058339536
61	0x3df53fb7	0.11975043
62	0x3e258a83	0.1616612
63	0xbdb8de1e	-0.090267405
64	0x3d8cbf57	0.06872433
65	0xbdbc6c23	-0.09200313
66	0x3de237e7	0.11045819
67	0xbdc7a1a6	-0.09747629
68	0xbdc29e17	-0.095028095
69	0xbdf7f34d	-0.12106953
70	0x3d7888e0	0.06067741
71	0xbcf9d11d	-0.03049522
72	0xbcd9beae	-0.026580181
73	0xbd08c694	-0.033392504
74	0x3e1f64c8	0.15565789
75	0x3e207076	0.156679
76	0x3bb88033	0.005630517
77	0x3dd66902	0.104692474
78	0x3e002500	0.12514114
79	0x3df079b9	0.11741967
80	0xbd0bc958	-0.034127563
81	0x3d9db978	0.07701391
82	0x3e07073b	0.13186352
83	0x3ddf1440	0.10892534
84	0x3e324db8	0.1741246
85	0xbdd4878f	-0.10377418
86	0x3c0433e0	0.008069009
87	0x3cfccf53	0.030860579
88	0x3d9a2dc1	0.07528258
89	0x3e0575d3	0.13033228
90	0xbdcf99f7	-0.10136788
91	0xbdb391df	-0.08768057
92	0xbd3f25e6	-0.046667002
93	0x3d75f3c6	0.060046934
94	0xbdcc9f23	-0.099912904
95	0x3da8c5c8	0.08240849
96	0xbcf7c3d9	-0.030244755
97	0x3ce9ed81	0.028555634
98	0x3dac838a	0.084235266
99	0x3d87b052	0.06625427
100	0x3d249c3e	0.040188067
101	0xbdd3ad34	-0.1033577
102	0xbdc2d76d	-0.095137455
103	0xbd66c664	-0.056341544
104	0xbd918cd6	-0.071069404
105	0x3dd9e8d1	0.10640109
106	0xbd3e46a4	-0.046454087
107	0x3da629a0	0.08113408
108	0x3a9b4949	0.0011847402
109	0xbd428afc	-0.047495827
110	0xbc317ff5	-0.01083373
111	0x3e21b3f1	0.15791298
112	0xbd44a02c	-0.048004314
113	0x3d53fc50	0.051754296
114	0xbda34044	-0.07971242
115	0x3df44d54	0.11928812
116	0xbda35965	-0.07976035
117	0xbc42f01b	-0.011898066
118	0x3d3a581b	0.04549418
119	0xbde7cdcc	-0.113185495
120	0xbdaa3724	-0.083112985
121	0x3c120b75	0.008913864
122	0x3b1bdb0e	0.002378169
123	0x3dd617c5	0.104537524
124	0x3e172dd4	0.14763576
125	0x3d5c13fe	0.053730004
126	0x3d1e2059	0.038605068
127	0xbe148dff	-0.14507292
128	0x3dc618f5	0.09672729
129	0x3d881bbb	0.06645914
130	0x3da0234c	0.07819232
131	0x3da31663	0.07963254
132	0xbdd3f8cf	-0.10350191
133	0x3dbd5e5d	0.09246514
134	0xbcf947c7	-0.030429734
135	0x3df257d4	0.11833158
136	0x3d2e315a	0.042527534
137	0xbd991483	-0.074746154
138	0x3e1e7321	0.15473606
139	0x39a5f345	0.00031652502
140	0x3c8b2824	0.016986914
141	0xbdfca15c	-0.12335464
142	0x3e09cb97	0.1345657
143	0x3dbd259b	0.09235688
144	0xbdf611ed	-0.12015138
145	0xbd6cca24	-0.057809964
146	0x3d824074	0.0635995
147	0x3db35a98	0.08757514
148	0x3d922163	0.07135274
149	0x3d81b887	0.06334024
150	0x3d82e270	0.06390846
151	0x3d906298	0.07050055
152	0x3dcc3a23	0.09972026
153	0xbc0183ff	-0.0079050055
154	0x3cf7adfa	0.030234326
155	0xbde8fa01	-0.113758095
156	0xbc245902	-0.010030987
157	0x3c81e503	0.015856272
158	0x3df994ba	0.121865705
159	0x3b25e68a	0.0025314414
160	0xbba92048	-0.005161319
161	0xbdb6e908	-0.08931166
162	0xbc96cd5e	-0.018408474
163	0x3cd453a5	0.025918791
164	0xbdaa4dc8	-0.08315617
165	0xbe187bc6	-0.14890966
166	0xbd9bbeb3	-0.07604732
167	0xbdedc676	-0.11610119
168	0x3ddc0a8a	0.10744198
169	0xbd9ac766	-0.075575635
170	0x3e11d584	0.14241606
171	0xbd4cf0c8	-0.050034314
172	0xbd7fb24c	-0.062425897
173	0x3dcce741	0.10005046
174	0x3d57194e	0.052514367
175	0xbd7bd2d4	-0.06148036
176	0x3dc8f39d	0.098120905
177	0xbd37f263	-0.044908892
178	0xbcc3bb34	-0.023892976
179	0x3cc6bf01	0.024261
180	0xbdb99d09	-0.09063155
181	0x3aa6d00e	0.00127268
182	0x3c451fe7	0.012031532
183	0x3de3e1c8	0.11127049
184	0xbd75cd94	-0.060010508
185	0xbd6cc484	-0.0578046
186	0xbd6733ee	-0.05644601
187	0x3e0b9ab4	0.13633233
188	0xbda0f906	-0.078599975
189	0xbd88ab57	-0.066733055
190	0xbdb8030e	-0.08984958
191	0xbaad6674	-0.0013229386
192	0x3d8f3a22	0.0699351
193	0xbcc108b9	-0.02356373
194	0xbca36d1c	-0.019949488
195	0x3e0c2a5a	0.13688031
196	0x3c8ae9a0	0.016957104
197	0x3d9e1c38	0.07720226
198	0xbb498b2d	-0.0030753121
199	0x3e0f0ffb	0.1397094
200	0x3e08d60a	0.133629
201	0xbd8c48df	-0.068498366
202	0xbde4e3cd	-0.11176262
203	0xbdbf05f7	-0.093273096
204	0xbda40057	-0.08007877
205	0x3cbcd2b4	0.02304969
206	0xbe13c973	-0.14432316
207	0x3e18cc97	0.14921795
208	0xbaa1b513	-0.001233729
209	0x3cdeca70	0.02719614
210	0xbdc5ec70	-0.096642375
211	0x3df76a84	0.12080863
212	0x3e285d16	0.1644176
213	0xbdd0ed06	-0.10201459
214	0x3d813f00	0.063108444
215	0x3d332f65	0.04374637
216	0xbdea44bc	-0.11438891
217	0x3d6b958d	0.05751567
218	0x3d0e9e28	0.0348188
219	0xbd819440	-0.063271046
220	0x3e0fd526	0.14046153
221	0xbd46b384	-0.048511043
222	0xbd3c4722	-0.045966275
223	0x3c22646d	0.009911639
224	0xbcf2e417	-0.029649777
225	0x3b233cbe	0.0024908031
226	0xbdd6271d	-0.10456679
227	0x3d91ef07	0.07125669
228	0x3abf6bd5	0.001460428
229	0x3e095905	0.13412865
230	0x3e0c1c1b	0.13682596
231	0x3e09bc9b	0.13450854
232	0x3da45f2c	0.08025965
233	0x3d0b6ea7	0.034041073
234	0xbd9f9777	-0.077925615
235	0xbe123c98	-0.14280927
236	0x3c4909f2	0.012270438
237	0x3dd30ddd	0.103053786
238	0xbd19d2c8	-0.037554532
239	0x3e10592c	0.14096516
240	0xbd619e6b	-0.05508272
241	0x3d2946b9	0.041327212
242	0xbd0e1ed8	-0.034697384
243	0x3d092691	0.033484045
244	0xbe13fbe1	-0.14451553
245	0x3dfa4e0c	0.122219175
246	0xbdb7b5c7	-0.08970218
247	0xbddb6a79	-0.107136674
248	0x3d357951	0.04430515
249	0xbda5303a	-0.08065839
250	0xbd57559d	-0.05257188
251	0x3c7fb68f	0.01560749
252	0x3ca4451e	0.020052489
253	0x3e39a86c	0.18130654
254	0xbd402afa	-0.046915986
255	0x3dffc10b	0.12487992

weight f4 [128, 256]
0	0xbd1fd4a1	-0.039021138
1	0xbd84731f	-0.0646727
2	0xbd27f495	-0.041004736
3	0x3da47ba5	0.08031396
4	0x3d69ea41	0.057108168
5	0x3de4752e	0.11155163
6	0xbda2cf0e	-0.07949649
7	0x3d0754cc	0.033039853
8	0x3d918405	0.07105259
9	0xbcb6c603	-0.022311216
10	0xbd60bc9d	-0.054867376
11	0x3ce6e165	0.028183648
12	0xbb8099f4	-0.0039246026
13	0xbdaf6ed1	-0.085660584
14	0x3cbf109e	0.023323353
15	0x3a1fe048	0.0006098789
16	0xbd50dcef	-0.05099195
17	0xbcb85b80	-0.022504568
18	0xbcc5529f	-0.024087248
19	0xbca43c0c	-0.020048164
20	0xbd6376c1	-0.055533174
21	0xbc359102	-0.011081936
22	0x3d4831e9	0.048875723
23	0x3cf5c0e3	0.029999202
24	0x3d9b95d2	0.07596935
25	0xbbb29134	-0.0054494385
26	0xbd43bf06	-0.047789596
27	0x3cb89c6e	0.022535529
28	0x3d990797	0.07472151
29	0x3cb2dcad	0.021833742
30	0x3dd1a3d3	0.10236325
31	0xbbb78c56	-0.005601446
32	0xbc60063b	-0.01367336
33	0xbd16df71	-0.036834184
34	0x3ccb9bed	0.024854625
35	0xbd778196	-0.060426317
36	0x3d2ffa3b	0.042963248
37	0x3da0ccbb	0.07851549
38	0xbd779080	-0.06044054
39	0x3c56ad5a	0.013102854
40	0xbc04e51c	-0.008111265
41	0x3ddb1f80	0.106993675
42	0xbbcf0742	-0.006318004
43	0x3d375777	0.044761147
44	0x3ce03d20	0.027372897
45	0xbd323c38	-0.04351446
46	0xbc8c51cd	-0.01712885
47	0x3d9ab3ba	0.07553811
48	0x3d5f16f3	0.054465245
49	0xbd5058d4	-0.050865963
50	0x3e1b9162	0.15192178
51	0x3dc9cdb6	0.098536894
52	0xbdbdf87c	-0.0927591
53	0xbd596f6b	-0.053084772
54	0x3bc1ed4a	0.0059181796
55	0xbd13a68d	-0.036047507
56	0x3cb2010a	0.021729011
57	0x3d80875b	0.06275817
58	0x3d80193b	0.06254812
59	0xbc6d7e15	-0.014495392
60	0x3d1366a3	0.035986554
61	0x3cb608df	0.022221027
62	0xbdcf19c4	-0.10112336
63	0x3baebbe4	0.005332457
64	0xbc9cd332	-0.019143675
65	0xbd4d1fbd	-0.050079096
66	0x3d5de2d3	0.054171395
67	0x3cd6f4b8	0.026239738
68	0xbd8eef18	-0.06979197
69	0xbc562397	-0.013070009
70	0x3dab4d46	0.08364348
71	0x3c1f545c	0.009724703
72	0xbc8c0aa6	-0.017094921
73	0xbc9d25aa	-0.019182999
74	0xba329270	-0.0006811982
75	0xbd4d8045	-0.050171155
76	0x3da42314	0.08014503
77	0xbc02b67f	-0.007978081
78	0xbd236644	-0.03989245
79	0xbdc402eb	-0.09570869
80	0x3d9a6e02	0.075405136
81	0xbb7b9ccb	-0.0038393016
82	0x3beca8ff	0.0072222943
83	0xbcc9cf8d	-0.0246351
84	0xbcce5f33	-0.025191879
85	0xbd75b515	-0.059987146
86	0xbce1e935	-0.027577022
87	0xbcbb17b4	-0.022838451
88	0x3d3dcd91	0.04633862
89	0xbd8a801c	-0.06762716
90	0x3b7efc31	0.0038907642
91	0x3cd84683	0.02640081
92	0x3d8e655a	0.06952925
93	0x3ce7fcc2	0.028318767
94	0x3dbaf86e	0.091294155
95	0xbd3891f0	-0.04506105
96	0xbd8d9803	-0.069137596
97	0x3cca0190	0.024658948
98	0xbd2b97d2	-0.041892834
99	0x3dfe8a9d	0.12428782
100	0x3d3c3eab	0.045958202
101	0x3ad8cbe8	0.0016540261
102	0x3bbe2277	0.0058024484
103	0x3d226757	0.039649334
104	0xbada9d7d	-0.0016679015
105	0x3d15c9f4	0.03656955
106	0x3b89b913	0.004202971
107	0xbcece74b	-0.028918883
108	0x3db223a8	0.08698207
109	0x3d55b51a	0.052174665
110	0xbd3c81c3	-0.046022188
111	0xbdc8de9e	-0.09808086
112	0xbcfdcc44	-0.03098119
113	0xbc1fa56f	-0.009744032
114	0x3d296692	0.041357584
115	0x3d1bbc39	0.0380213
116	0xbcb73d35	-0.022368053
117	0x3c014ce7	0.00789187
118	0xbd0fc376	-0.035098515
119	0xbd3504ac	-0.04419391
120	0xbd574353	-0.05255444
121	0xbb8c9a53	-0.004290858
122	0xbcaeb20d	-0.021325136
123	0xbc872085	-0.016494999
124	0xbc8287ac	-0.015933834
125	0xbca31e2e	-0.019911852
126	0xbd62ac16	-0.055339895
127	0x3dc9252b	0.09821542
128	0x3b9878cc	0.004653072
129	0x3d35f5ab	0.04442374
130	0xbd1eb4fc	-0.03874682
131	0x3d60be51	0.054869
132	0x3d6d4d85	0.057935257
133	0x3ccf356f	0.025294034
134	0xbc9de767	-0.01927538
135	0xbc953e11	-0.018218072
136	0xbc273232	-0.010204839
137	0x3d0fda77	0.035120454
138	0xbd49b163	-0.049241435
139	0x3dc89c1b	0.097954
140	0xb9974f04	-0.00028859836
141	0xbc5bafee	-0.013408644
142	0x3d00a9d7	0.031411972
143	0xbca46496	-0.020067494
144	0xbd98e6d3	-0.07465901
145	0x3d1990ff	0.037491795
146	0xbd8df532	-0.06931533
147	0xbcee4d00	-0.02908945
148	0xbd9ce1b3	-0.07660236
149	0x3c7f854d	0.015595746
150	0x3d4b8acd	0.049692918
151	0xbc4531a6	-0.012035763
152	0x3d5c4ff6	0.053787194
153	0xbade6380	-0.0016966909
154	0x3d5845e7	0.05280104
155	0x3d19efc9	0.037582193
156	0x3c3e299f	0.011606603
157	0xbdd3252c	-0.10309824
158	0xbbcc4d1a	-0.006234777
159	0x3d9a0ef1	0.07522381
160	0xbd92ea43	-0.07173588
161	0xbd0ea505	-0.034825344
162	0x3cbddd52	0.023176823
163	0xbcd8d74b	-0.026469847
164	0x3c5db2a5	0.013531362
165	0xbd4ca200	-0.049959183
166	0xbd84b01f	-0.06478905
167	0x3d959443	0.07303669
168	0xbd0d2b33	-0.034465026
169	0x3dce5c6f	0.10076224
170	0xbd25f614	-0.04051788
171	0x3d7c3a4c	0.061579034
172	0x3dcbf96c	0.09959683
173	0xbd526f8b	-0.051375907
174	0x3c00909f	0.00784698
175	0xbd829e32	-0.063778296
176	0x3da49589	0.08036334
177	0x3d1f2c25	0.03886046
178	0xbbd0d3b5	-0.0063728937
179	0x3d105acd	0.035242844
180	0x3df907a6	0.12159662
181	0x3d1fa84d	0.038978864
182	0xbc38c7a3	-0.011278066
183	0x3d90ad9a	0.07064362
184	0xbd8351c5	-0.06412081
185	0xbc5d0120	-0.013489038
186	0xbbfd6317	-0.0077327597
187	0x3d1acf84	0.03779556
188	0xbd12c9ea	-0.03583709
189	0xbdb68a73	-0.08913126
190	0xbd02cfc2	-0.031936415
191	0x3d996aab	0.074910484
192	0x3d91036d	0.070807315
193	0x3dc6eaa0	0.0971272
194	0x3c553b4b	0.013014625
195	0xbcb724d7	-0.022356434
196	0x3db14651	0.0865599
197	0xbdb93455	-0.09043185
198	0xbd1fa8fe	-0.038979523
199	0xbccf4654	-0.02530209
200	0x3c093e59	0.008376681
201	0x3ca7bfa1	0.020477118
202	0xbdbe6550	-0.092966676
203	0x3d92ad30	0.07161939
204	0x3b8043ff	0.0039143558
205	0xbc5ea744	-0.013589684
206	0xbc404707	-0.011735684
207	0xbb47bd86	-0.0030477955
208	0xbc5d791c	-0.013517644
209	0xbc7aca78	-0.015307061
210	0x3dc5992c	0.09648356
211	0xbd94f493	-0.07273211
212	0xbd3c60d8	-0.045990795
213	0xbb206862	-0.002447628
214	0x3d931ec9	0.07183606
215	0x3c83ae8e	0.016074445
216	0x3d8f1707	0.06986814
217	0xbc675d50	-0.0141213685
218	0x3d738f45	0.059462804
219	0x3c214e27	0.009845293
220	0x3c83515a	0.016030002
221	0x3d34cc0f	0.044139918
222	0x3dddef7d	0.108366944
223	0x3be2990a	0.0069152163
224	0x3d003335	0.031298835
225	0xbd64e0c1	-0.055878405
226	0xbc1aa0e9	-0.009437778
227	0xbd6465e0	-0.055761218
228	0xbd05966a	-0.03261415
229	0x3ccb733a	0.024835218
230	0xbd4fe1c8	-0.05075243
231	0xbd00367d	-0.031301964
232	0xbd3a3303	-0.045458805
233	0x3a8b1310	0.001061054
234	0x3c2bb200	0.01047945
235	0x3bd5a752	0.0065201903
236	0xbd16e094	-0.03683527
237	0x3d853fb7	0.06506293
238	0x3b895534	0.004191065
239	0x3b2fa7de	0.0026802938
240	0xbcf966d8	-0.030444548
241	0x3d738800	0.05945587
242	0x3cf538ca	0.029934306
243	0x3ca13c10	0.01968196
244	0x3bc8d6b9	0.0061291126
245	0xbd2486d7	-0.040167656
246	0x3ddee659	0.10883779
247	0xbc7cabdb	-0.015421833
248	0xbdb780ef	-0.08960139
249	0xbd05948f	-0.03261238
250	0xbc1b4af8	-0.009478323
251	0xbd2b9478	-0.041889638
252	0x3cac4c4c	0.021032475
253	0xbdd3ae6e	-0.10336004
254	0x3cda610c	0.026657604
255	0x3d1f51f3	0.038896512

bias f4 [128]
0	0x3d31e9a4	0.043435708
1	0x3d276e89	0.0408769
2	0xbd0d069e	-0.03443014
3	0xbd176f4a	-0.036971368
4	0x3d4e7575	0.050404985
5	0xbd0a4e2d	-0.03376596
6	0x3cf4fd80	0.029906034
7	0x3dbf2980	0.09334087
8	0x3d0c09b8	0.034188956
9	0xbc4ef399	-0.01263132
10	0x3d54a745	0.051917333
11	0x3d49cb5a	0.049266197
12	0xbd440291	-0.04785401
13	0x3d8b6cec	0.068078846
14	0xbcd25b6b	-0.025678357
15	0xbd125710	-0.03572756
16	0xbd1607b6	-0.036628447
17	0x3c091511	0.008366839
18	0x3d451062	0.048111327
19	0x3cde03bd	0.027101392
20	0x3d26600a	0.040618934
21	0xbd1b6ae4	-0.037943736
22	0xbd5459a4	-0.0518433
23	0xbd22f454	-0.03978379
24	0xbc477cc4	-0.012175743
25	0xbc31f274	-0.010861028
26	0x3ce04264	0.027375408
27	0x3ce52dff	0.027976034
28	0xbd404390	-0.046939433
29	0xbcaf9eea	-0.02143808
30	0xbb14cd29	-0.0022705293
31	0xbd12a227	-0.03579917
32	0x3ae43055	0.0017409424
33	0x3d3f9a9b	0.046778303
34	0x3d10c10a	0.035340346
35	0x3cd7f7ba	0.026363242
36	0xbbf09621	-0.0073421155
37	0x3cb17d93	0.021666324
38	0x3d1eebda	0.038799144
39	0x3d8b6ef5	0.06808273
40	0x3be1b2ef	0.0068877856
41	0x3d405c7f	0.04696321
42	0x3cd4a390	0.025956899
43	0x3d52314f	0.051316556
44	0xbd820390	-0.06348336
45	0xbca511a9	-0.020150023
46	0x3d9f886e	0.07789694
47	0xbac55261	-0.0015054458
48	0xbd191319	-0.03737173
49	0x3cc0b879	0.023525463
50	0x3be9e566	0.007137942
51	0x3bbad696	0.00570185
52	0xbd09b7e2	-0.03362263
53	0xbc8a6335	-0.016893009
54	0x3c36d8ea	0.011160115
55	0x3d8ad781	0.06779385
56	0x3b9f8f30	0.004869364
57	0x3bfbf3b6	0.0076889647
58	0x3d4c5e0e	0.049894385
59	0xbd3ef689	-0.046621833
60	0xbcfed40e	-0.031106975
61	0x3d37f2a8	0.04490915
62	0x3ab37f95	0.0013694639
63	0x3c0a9720	0.008458883
64	0xbaba0a3a	-0.0014193722
65	0xbc838ffa	-0.016059864
66	0x3b769af3	0.0037628978
67	0x3d2669df	0.04062831
68	0xbbd476b2	-0.006483876
69	0x3d72d629	0.05928627
70	0x3cbae14f	0.022812514
71	0x3ca50d57	0.020147962
72	0xbd529351	-0.051410023
73	0xba35aeb7	-0.00069306366
74	0x3d3f21d0	0.046663105
75	0xbb1f15a0	-0.0024274364
76	0xbc9efb6f	-0.019407002
77	0x3d6ce679	0.057836983
78	0xbcf9ec9c	-0.030508332
79	0xbd06a52e	-0.03287237
80	0x3d5af49c	0.053455934
81	0x3d428f1b	0.047499757
82	0xbc879c0e	-0.016553905
83	0x3d307bda	0.043086864
84	0x3d0c69e6	0.03428068
85	0x3d7537ef	0.059867796
86	0xbd01b2d7	-0.031664696
87	0x3b637ac3	0.0034710623
88	0xbc6973bc	-0.014248785
89	0x3d681ed8	0.05667004
90	0xbd383efb	-0.044981938
91	0x3c338eb4	0.010959316
92	0x3cc904b9	0.024538385
93	0x3cc9dc9a	0.024641324
94	0x3c5313e9	0.012883165
95	0x3db00137	0.08593982
96	0x3cb2a423	0.021806782
97	0x3d36dea2	0.044645913
98	0x3cc3f716	0.02392153
99	0xbc99935a	-0.01874702
100	0xbc947944	-0.01812423
101	0x3c5792cf	0.0131575605
102	0x3d4e4c63	0.050365817
103	0xbd015a96	-0.03158053
104	0xbd35e230	-0.044405162
105	0x3ceea02f	0.029129116
106	0xbb1b7728	-0.0023722146
107	0x3d87a41d	0.06623099
108	0x3d27d822	0.040977605
109	0xbd4d8105	-0.05017187
110	0x3ceee4ff	0.029161928
111	0xbd9254ba	-0.071450666
112	0x3d9f742f	0.07785832
113	0x3d289ae4	0.04116334
114	0xbb89bc52	-0.0042033577
115	0x3c0c64b5	0.008568932
116	0xbd301676	-0.04299017
117	0x3a713109	0.0009200727
118	0x3d2859dc	0.04110132
119	0xbcf20f56	-0.029548328
120	0x3d2b4107	0.04181006
121	0x3cf85dc2	0.030318145
122	0x3d320cb0	0.04346913
123	0x3cb8580d	0.022502923
124	0xbd19b7ef	-0.03752893
125	0x3cac7ed0	0.021056563
126	0x3d036623	0.032079827
127	0xbcc8b052	-0.024498139

weight f4 [64, 128]
0	0xbdc0299c	-0.09382936
1	0xbb27c950	-0.002560217
2	0xbcbfa4f2	-0.023394082
3	0xbd553ad4	-0.052058056
4	0xbd905ce1	-0.07048965
5	0x3d0a0ae4	0.033701792
6	0xbd13afd4	-0.036056355
7	0x3c7fe39b	0.01561823
8	0x3d0e2835	0.034706313
9	0xbcae95cd	-0.021311665
10	0xbd671140	-0.056412935
11	0x3be7cb6b	0.00707381
12	0xbd6f54ef	-0.05843061
13	0xbd3e8089	-0.0465093
14	0x3d2d1adb	0.04226194
15	0xbd5c6b19	-0.053813074
16	0x3d7990a9	0.060928974
17	0xbb1dd8d1	-0.0024085531
18	0x3d879564	0.06620291
19	0x3cc68e9b	0.024237921
20	0xbd952653	-0.072827004
21	0x39829f39	0.00024914162
22	0x3cc4116d	0.02393409
23	0xbafc7c06	-0.0019263036
24	0x3d2825ef	0.0410518
25	0xbd0b73c3	-0.034045946
26	0x3d5c4f68	0.053786665
27	0x3d41fb7a	0.047358967
28	0xbd9786ae	-0.07398735
29	0x3d5c583e	0.05379509
30	0x3cf18f87	0.029487384
31	0xbc5fd48f	-0.013661518
32	0x3dae8ccc	0.085229486
33	0x3da5eede	0.08102201
34	0xbd8ada89	-0.067799635
35	0xbda56c95	-0.08077351
36	0x3da07da9	0.07836468
37	0xbd594a4e	-0.053049378
38	0x3d2eeeaf	0.042708095
39	0x3d2c3a50	0.0420478
40	0xbb4d5a1a	-0.0031334222
41	0xbd8e7e0d	-0.06957636
42	0xbcacc660	-0.021090686
43	0x3c9c79c3	0.01910103
44	0xbd5233e2	-0.05131901
45	0x3b023618	0.0019868668
46	0x3d5a1729	0.053244743
47	0xbbc3b4bf	-0.0059724743
48	0x3d419ebb	0.047270518
49	0x3ce25e5d	0.027632887
50	0x3c9b975e	0.018993076
51	0x3abe0c3e	0.0014499498
52	0xbdb26505	-0.08710674
53	0xbd8f89a0	-0.07008672
54	0xbdb547b2	-0.088515654
55	0xbd4f9b4a	-0.050685205
56	0xbc0167b2	-0.007898258
57	0xba0c2908	-0.00053466903
58	0x3da62f32	0.081144705
59	0xbd9bebdb	-0.07613345
60	0x3da0c723	0.07850482
61	0x3c972de8	0.018454507
62	0xbd6d3fe4	-0.05792226
63	0xbcad999d	-0.021191413
64	0xbd72e4c2	-0.05930019
65	0x3da7a8ab	0.08186468
66	0x3d764a44	0.06012942
67	0x3d9bfbc4	0.0761638
68	0xbde5beab	-0.11218008
69	0x3d8a1c8c	0.06743726
70	0x3a58e773	0.0008274235
71	0x3d561486	0.052265666
72	0xbd9ffbec	-0.07811722
73	0xbd73fbd7	-0.059566345
74	0xbd57ff01	-0.052733425
75	0x3d83b481	0.06430913
76	0xbd497647	-0.049185064
77	0x3bf7441a	0.00754596
78	0x3ca4453e	0.020052548
79	0xbd26b486	-0.040699504
80	0x3c60b465	0.013714884
81	0x3d98c74b	0.07459887
82	0xbda776e5	-0.08176974
83	0x3d60caf3	0.054881047
84	0xbc898e0c	-0.016791366
85	0x3d46817f	0.04846334
86	0x3dc9a1b3	0.09845295
87	0xbdadb41d	-0.084816195
88	0xbd42638a	-0.04745821
89	0xbd48f720	-0.0490638
90	0xbd41b438	-0.04729101
91	0xbd4819a2	-0.04885257
92	0x3d586262	0.0528282
93	0x3d84f3fc	0.06491849
94	0xbda5d562	-0.0809734
95	0xbccf5880	-0.025310755
96	0x3c3db0ac	0.011577766
97	0xbd2bb15f	-0.0419172
98	0x3c39355d	0.011304227
99	0xbd41b080	-0.047287464
100	0xbd4217bf	-0.047385927
101	0xbd65a227	-0.056062844
102	0x3d76c0de	0.060242526
103	0xbddfc896	-0.109269306
104	0xbccd78d0	-0.025082022
105	0x3d508ce9	0.050915632
106	0xbd13f49c	-0.03612195
107	0x3d9a9f26	0.075498864
108	0x3cbed26c	0.023293696
109	0x3d6709ea	0.05640594
110	0x3db9bbdb	0.09069034
111	0x3af57d80	0.0018729419
112	0xbc3baa14	-0.011454124
113	0xbda0f80e	-0.07859813
114	0xbb53e948	-0.0032335091
115	0x3a3aba22	0.0007123073
116	0x3d84c71d	0.0648329
117	0x3ca1a982	0.019734148
118	0x3d334d76	0.043775044
119	0xbca2b8c1	-0.019863488
120	0xbd6be05f	-0.057587024
121	0xbd9df5ff	-0.07712936
122	0xbd811a98	-0.063039005
123	0x3d36a002	0.04458619
124	0xbd7f1921	-0.062279824
125	0x3db3bf03	0.08776667
126	0x3d6e840c	0.0582314
127	0xbd51d635	-0.051229674
128	0xbddcdba6	-0.10784082
129	0x3b9d10fb	0.004793284
130	0xbc01db5c	-0.0079258345
131	0xbd8395b2	-0.064250365
132	0xbd0a9204	-0.033830658
133	0x3cce2f50	0.025169045
134	0xbdfde5ab	-0.12397321
135	0x3db034d4	0.08603826
136	0xbdb72964	-0.089434415
137	0x3da56926	0.08076696
138	0x3dba6969	0.09102137
139	0x3bd21c57	0.00641207
140	0xbdbb5604	-0.091472656
141	0x3d9410b0	0.072297454
142	0x3d8f4b84	0.06996825
143	0xbcc2916b	-0.023750981
144	0x3d9611b5	0.07327596
145	0x3c87fdb1	0.016600462
146	0x3cc07190	0.02349165
147	0xbc2dbbfe	-0.010603903
148	0x3d56e5c7	0.052465227
149	0xbc96ebc1	-0.018422963
150	0xbd79f3e6	-0.061023615
151	0xbc894f9f	-0.0167616
152	0xbc02ec0b	-0.007990847
153	0x3de9c4b8	0.11414474
154	0x3e140a47	0.14457045
155	0xbd8355bf	-0.06412839
156	0x3d393a30	0.045221508
157	0x3b73229c	0.0037099486
158	0x3d9fe678	0.0780763
159	0x3bee1d7c	0.0072666984
160	0xbcc08afa	-0.02350377
161	0xbd903531	-0.070413955
162	0x3c8b80b0	0.017029136
163	0x3c47b11d	0.012188223
164	0xbc34c2e5	-0.011032795
165	0x3dd22123	0.102602266
166	0xbdecc4b1	-0.115609534
167	0xbb5050d9	-0.003178647
168	0x3d3454a6	0.04402604
169	0xbc8a3c2e	-0.016874399
170	0x3cb0b4f8	0.021570668
171	0x3d813882	0.06309606
172	0x3d1a8201	0.037721638
173	0x3decacbc	0.11556384
174	0x3ca84231	0.020539375
175	0x3d949429	0.07254822
176	0xbb8db542	-0.004324586
177	0xbda5f320	-0.08103013
178	0x3de41119	0.111360736
179	0xbd889b51	-0.06670249
180	0xbdc275ba	-0.09495111
181	0x3d07ed82	0.03318549
182	0x3cf0ac14	0.029378928
183	0xbbf9b7c8	-0.0076207854
184	0x3df9dab9	0.12199921
185	0x3e25c53c	0.1618852
186	0x3c91d202	0.017800335
187	0x3d69ad00	0.05704975
188	0xbb132fcf	-0.0022458916
189	0xbd23f7f3	-0.040031385
190	0x3d94d17d	0.07266519
191	0x3be57d41	0.007003457
192	0xbd869fff	-0.065734856
193	0x3b1d45e4	0.0023997957
194	0x3e1812b0	0.14850879
195	0x3cca6fac	0.024711452
196	0x3b1d4d08	0.0024002213
197	0x3d1c319f	0.03813326
198	0xbd92e34a	-0.07172258
199	0x3a9c3a0c	0.0011919155
200	0x3d4634e2	0.048390277
201	0xbdb11ea2	-0.08648421
202	0xbd12b496	-0.03581675
203	0xbdb7cb12	-0.089742795
204	0x3dd2f13f	0.1029992
205	0x3d016d54	0.031598404
206	0xbcbec2f0	-0.023286313
207	0xbba8713a	-0.005140451
208	0x3df82f40	0.12118387
209	0x3cb45c1a	0.022016574
210	0xbc58deb5	-0.013236691
211	0xbca9e787	-0.020740284
212	0xbda927af	-0.08259522
213	0xbd82c8ac	-0.063859314
214	0x3d879724	0.06620625
215	0xbd709a4e	-0.058740906
216	0xbc9e6591	-0.01933554
217	0x3d49fdf2	0.049314447
218	0xbde672fc	-0.112524
219	0x3e20d359	0.15705623
220	0x3cd986ee	0.026553597
221	0xbd845fb9	-0.0646357
222	0x3d450107	0.048096683
223	0x3df21972	0.118212596
224	0x3d7cd37a	0.061725117
225	0xbd949a0f	-0.07255947
226	0x3e287093	0.16449194
227	0x3cc169ae	0.023609962
228	0xbbc59c70	-0.0060306117
229	0xbd8eb57e	-0.06968211
230	0x3be1f20c	0.0068953093
231	0xbd8db94b	-0.069201075
232	0xbcbfe518	-0.02342467
233	0xbd24e27b	-0.04025505
234	0x3dc8bd94	0.09801784
235	0x3de33d13	0.11095633
236	0xbd1014b1	-0.035175983
237	0x3bde8c0a	0.0067915963
238	0x3e08d572	0.13362673
239	0x3d46fb47	0.04857948
240	0x3cc1b18e	0.023644235
241	0xbd099b93	-0.033595633
242	0xbbc06114	-0.0058709476
243	0x3d9f1514	0.07767692
244	0x3d0c94c7	0.034321573
245	0x3d418e9a	0.047255136
246	0x3dfb3a3c	0.12266967
247	0xbde2bc61	-0.11071087
248	0x3cf37ec9	0.029723542
249	0x3d370bc7	0.044688966
250	0x3d0e7788	0.034781963
251	0x3c90bca4	0.017668076
252	0x3d08a5fd	0.033361424
253	0x3d5a205d	0.05325352
254	0x3d631616	0.055440985
255	0xbb9a593e	-0.0047103455

bias f4 [64]
0	0xbcba9902	-0.022778038
1	0x3cbf336a	0.023339946
2	0x3ca1d2b0	0.019753784
3	0x3c0527a1	0.008127124
4	0xbd223dcb	-0.03960971
5	0xbd99cbe9	-0.07509596
6	0x3bb009bf	0.0053722556
7	0x3d562266	0.0522789
8	0x3d98b93f	0.07457208
9	0x3ddcffce	0.10790978
10	0xbd930e3c	-0.07180449
11	0x3dac56f8	0.084150255
12	0xbd3c581e	-0.045982473
13	0x3d80da2b	0.06291612
14	0xbce6caee	-0.028172936
15	0x3ccaaddf	0.024741111
16	0x3d4c3847	0.049858358
17	0x3d9d8446	0.07691245
18	0x3da44f1d	0.08022902
19	0xbdafc020	-0.08581567
20	0xbd94cf21	-0.07266069
21	0xbd99be5d	-0.07507012
22	0x3c36d9a5	0.011160289
23	0x3d34d752	0.044150658
24	0x3d15b407	0.03654864
25	0xbd3595dc	-0.04433237
26	0x3cb61130	0.022224993
27	0x3d8def7c	0.06930444
28	0xbd971562	-0.07377125
29	0x3ce5a9cb	0.028035065
30	0xbc7c5a40	-0.015402377
31	0xbd95f25b	-0.07321616
32	0xbd9c634f	-0.07636129
33	0x3db31ec8	0.087461054
34	0x3d3e7fa0	0.04650843
35	0x3c1ad7d5	0.009450872
36	0x3dcb542a	0.099281624
37	0xbc990c3d	-0.018682593
38	0x3d5276e4	0.051382914
39	0x3d74bb74	0.05974908
40	0xbce09f7e	-0.027419802
41	0x3d92de82	0.07171346
42	0x3b88d7ad	0.004176101
43	0x3d84f765	0.06492499
44	0xbb7df253	-0.0038749173
45	0xbd939e39	-0.07207913
46	0xbd8df74d	-0.069319345
47	0xbc9e5c70	-0.019331187
48	0xbd4de46d	-0.050266672
49	0x3e01f14c	0.12689704
50	0xbb932f01	-0.0044916873
51	0x3d21e90c	0.03952889
52	0x3dbe8e87	0.09304529
53	0x3d7301bd	0.05932783
54	0x3ddf2d0d	0.10897265
55	0x3cb3ce4e	0.02194896
56	0x3d915e8f	0.07098114
57	0xbc1d617f	-0.009605764
58	0x3d586096	0.052826487
59	0xbc95f341	-0.018304469
60	0x3d49837e	0.049197666
61	0xbcfd8016	-0.030944865
62	0xbd38e85f	-0.04514348
63	0x3d50584c	0.050865456

weight f4 [5, 64]
0	0xbd93e20c	-0.072208494
1	0x3ca5f24e	0.020257141
2	0x3e39ea03	0.18155675
3	0x3da08f70	0.078398585
4	0xbd8f6ace	-0.07002793
5	0x3cb01367	0.021493627
6	0x3ddbca21	0.107319124
7	0x3e38b3ee	0.18037388
8	0xbdcba603	-0.099437736
9	0x3e024a3c	0.1272363
10	0xbe4c7fdc	-0.1997065
11	0xbc8aa1e7	-0.016922904
12	0x3dd3d5be	0.103435025
13	0xbde77c68	-0.113030255
14	0x3d62200c	0.055206344
15	0xbc3fa549	-0.011697122
16	0xbe3d56f6	-0.18490204
17	0x3e3fa7b8	0.18716323
18	0xbd861db0	-0.06548631
19	0xbc69be02	-0.014266493
20	0x3c42a1a6	0.01187936
21	0xbc13473f	-0.008989154
22	0xbd35eae7	-0.044413473
23	0xbe57cb8d	-0.21073742
24	0xb9798048	-0.00023794279
25	0xbe37cd3f	-0.17949389
26	0xbe5da087	-0.21643268
27	0x3e0b535f	0.13606022
28	0x3db948c8	0.09047085
29	0xbdbf50d4	-0.093415886
30	0x3dbd54a6	0.09244661
31	0x3df71d53	0.1206614
32	0x3c9742a1	0.018464388
33	0x3d3bf2f9	0.045886014
34	0xbd5f9ca4	-0.054592744
35	0xbdddd537	-0.10831683
36	0xbd8815da	-0.06644793
37	0x3da90305	0.08252529
38	0x3d388739	0.045050833
39	0xbe19fa51	-0.15036894
40	0xbe5e88a2	-0.21731809
41	0x3d995b5a	0.07488127
42	0xbe04a722	-0.12954381
43	0x3d08ea02	0.033426292
44	0x3e1503b9	0.14552201
45	0xbc7b8fed	-0.015354139
46	0xbb82ec26	-0.0039954362
47	0x3d0d1bd6	0.034450375
48	0x3ded9c1e	0.116020426
49	0x3df66c17	0.12032335
50	0xbd1db425	-0.038501877
51	0xbda868ca	-0.08223112
52	0x3e2fa1ce	0.17151567
53	0x3e1ee84c	0.15518302
54	0xbdab1ac3	-0.08354714
55	0x3e4997b8	0.19686782
56	0x3e3b0906	0.18265161
57	0xbdc79fff	-0.09747314
58	0xbe01dd3f	-0.12682055
59	0x3dbb7b9a	0.091544345
60	0x3d56a28d	0.052401114
61	0x3ba4d1e7	0.005029905
62	0xbd96b6f9	-0.07359118
63	0xbe09c5d5	-0.13454373
64	0xbcd1003e	-0.02551281
65	0x3d965b90	0.07341683
66	0x3d9fd060	0.07803416
67	0xbdb05d23	-0.086115144
68	0xbd025a78	-0.03182456
69	0xbe03a7ec	-0.12857026
70	0xbd6e7946	-0.058221124
71	0xbdb7c771	-0.08973587
72	0x3dac955a	0.08426924
73	0x3cf78d7e	0.030218836
74	0xbda6f0be	-0.08151387
75	0x3e007583	0.12544827
76	0xbdea6a21	-0.11446024
77	0xbdc6fc79	-0.09716124
78	0xbd683279	-0.05668876
79	0x3d6bf905	0.05761053
80	0x3d3135fc	0.043264374
81	0x3cf57c79	0.02996658
82	0xbd166540	-0.036717653
83	0x3a740d1a	0.00093098136
84	0x3d0f83c1	0.03503776
85	0x3d6e13c4	0.05812432
86	0xbaba8e9f	-0.0014233178
87	0x3e0248b7	0.12723051
88	0x3dc25235	0.09488336
89	0x3cc1386b	0.023586472
90	0x3d2d9d2f	0.04238623
91	0x3db78faa	0.089629486
92	0xbdaeecc7	-0.085412554
93	0x3daa3b7f	0.08312129
94	0xbd25d089	-0.040482078
95	0xbdead948	-0.11467224
96	0xbd90aa3a	-0.07063718
97	0x3cc6ce49	0.024268286
98	0x3de2190b	0.11039933
99	0x3e239be0	0.1597743
100	0x3df985ea	0.12183745
101	0xbd86cb4e	-0.06581746
102	0xbe0298d5	-0.12753613
103	0xbdfc3dae	-0.12316452
104	0x3d4a3388	0.04936555
105	0x3e1cf9e7	0.15329705
106	0xbd5c52b8	-0.053789824
107	0x3da1f334	0.079077154
108	0x3c64716a	0.013943056
109	0xbac4dfeb	-0.0015020346
110	0x3c8920c8	0.016739264
111	0x3e03c6cc	0.12868804
112	0xbe062122	-0.13098577
113	0x3d28bac6	0.041193746
114	0xbe181c3e	-0.14854524
115	0x3e086a59	0.13321818
116	0x3c61c78d	0.013780487
117	0x3d3a08b5	0.04541846
118	0x3e227c76	0.1586779
119	0xbde3388d	-0.110947706
120	0xbd4985a3	-0.04919971
121	0xbdb4a608	-0.088207304
122	0xbdcfa856	-0.101395294
123	0x3dc658fa	0.0968494
124	0xbca6994f	-0.020336775
125	0x3d314847	0.04328182
126	0xbd757d1c	-0.059933767
127	0xbcc1dd89	-0.023665207
128	0xbd539598	-0.051656336
129	0x3d65208c	0.055939242
130	0x3c737433	0.014859247
131	0xbc77ffb3	-0.015136647
132	0xbe078004	-0.13232428
133	0xbda3dae5	-0.08000735
134	0x3e071a86	0.13193712
135	0xbd825bb2	-0.06365146
136	0x3d848fe4	0.064727575
137	0x3d95e13c	0.07318351
138	0xbdbdb4bb	-0.09262987
139	0x3d8d2ad5	0.06892935
140	0x3d804e37	0.06264918
141	0x3de1e836	0.11030619
142	0xbdc720d0	-0.09723055
143	0x3e0407ea	0.12893644
144	0x3d9d00d4	0.076661736
145	0x3d2887f0	0.041145265
146	0x3d261334	0.040545657
147	0xbc1ff4a6	-0.009762919
148	0x3d4e8a7e	0.050425045
149	0xbda3f806	-0.08006291
150	0x3d3cc895	0.046089727
151	0x3c5861f7	0.01320695
152	0xbd98511e	-0.07437347
153	0x3da3e9cd	0.08003578
154	0x3b6e183c	0.0036330363
155	0x3a4a3fb2	0.000771518
156	0xbdae1349	-0.08499772
157	0xbcc46d9f	-0.023978053
158	0x3da40b90	0.08010018
159	0x3ce9b0e2	0.028526727
160	0x3c80bfd6	0.015716475
161	0x3e066230	0.13123393
162	0xbdc21bf4	-0.09477988
163	0xbddd112c	-0.10794291
164	0x3dcd0558	0.10010785
165	0x3cdc7351	0.026910456
166	0x3cb9eee4	0.02269692
167	0x3ca40507	0.020021928
168	0x3dbdccbb	0.09267565
169	0x3d99483d	0.074844815
170	0x3d31311a	0.043259718
171	0xbd891c50	-0.06694853
172	0x3c1c421a	0.009537244
173	0x3ba468eb	0.00501739
174	0x3c6d23ad	0.014473838
175	0xbd946719	-0.07246227
176	0x3cc81bdd	0.024427349
177	0x3d2b8722	0.04187692
178	0xbc48a45d	-0.0122462185
179	0x3c788107	0.015167481
180	0x3d4c8d80	0.049939632
181	0x3d6ab500	0.05730152
182	0xbbc10009	-0.005889897
183	0xbdc6ca97	-0.0970661
184	0x3cb074ee	0.021540131
185	0xba9db73f	-0.0012032761
186	0x3deeeb42	0.116659656
187	0xbdac574c	-0.08415088
188	0xbde28a05	-0.110614814
189	0xbd585a76	-0.052820645
190	0xbde6b3c5	-0.11264757
191	0x3de980a9	0.11401493
192	0x3d4a9d58	0.04946646
193	0xbcac5f22	-0.021041457
194	0xbd51d04e	-0.051224045
195	0xbd360437	-0.044437613
196	0x3bd1be47	0.0064008567
197	0x3dd0b48e	0.10190688
198	0xbdc4d488	-0.096108496
199	0xbdac6357	-0.08417385
200	0xbce9595e	-0.028484996
201	0xbcfa80dc	-0.030579023
202	0xbda7bd06	-0.0819035
203	0xbb97d44b	-0.0046334616
204	0x3d8d125a	0.06888266
205	0xbd7b3102	-0.061326034
206	0xbca8cdc8	-0.020605937
207	0xbdb231b9	-0.0870089
208	0x3d934f57	0.07192867
209	0x3d233a93	0.039850783
210	0xbcf0b960	-0.029385269
211	0xbdbf7b26	-0.093496606
212	0xbd22aa81	-0.039713386
213	0x3e053c63	0.13011317
214	0x3d883117	0.06649988
215	0xbd342833	-0.04398365
216	0x3d260d4e	0.040540032
217	0x3d919131	0.07107771
218	0x3d63fde7	0.055662062
219	0xbd4a2362	-0.04935015
220	0x39e0e66c	0.00042896287
221	0xbd91e820	-0.071243525
222	0xbd412233	-0.047151756
223	0xbd001a8b	-0.031275313
224	0x3cc37c45	0.023862967
225	0x3d86558a	0.06559284
226	0x3dca77be	0.0988612
227	0x3c207684	0.009793881
228	0xbd48f764	-0.049064055
229	0x3daa3b65	0.0831211
230	0x3c73063a	0.0148330275
231	0xbdb51c63	-0.08843305
232	0x3b5e37a7	0.0033907683
233	0x3d5b2156	0.05349859
234	0x3d25390a	0.0403376
235	0x3dad8c67	0.08474045
236	0xbd5e3c3b	-0.05425666
237	0xbd75e713	-0.060034823
238	0x3c6212e3	0.013798448
239	0x3da1f275	0.07907573
240	0xbcf51c49	-0.029920714
241	0x3cdeac25	0.027181694
242	0xbd444fef	-0.047927793
243	0x3d9fa490	0.0779506
244	0xbd8d4427	-0.06897765
245	0x3d8dd3d2	0.06925167
246	0x3d82869e	0.063733324
247	0xbe054b08	-0.13016903
248	0x3dd901cc	0.10596046
249	0xbdb5edcb	-0.08883246
250	0x3d9b0626	0.07569532
251	0xbccaf958	-0.0247771
252	0x3c6588d6	0.014009675
253	0x3dca671f	0.0988295
254	0xbd4cf32c	-0.050036594
255	0x3d81c85f	0.06337046

bias f4 [5]
0	0x3c5cb0a8	0.0134698525
1	0x3e1329de	0.1437144
2	0x3d39dce7	0.045376685
3	0xbde2ade7	-0.110683255
4	0x3da43018	0.08016986
