Policy-Gradients/Poker-Agent/Your team Name_network.pt (torch, 227493 bytes, 8 tensors)

weight f4 [256, 55]
000000 f7 d9 22 3c 2b 70 bd bd 4a ae 52 bd 77 c3 1e 3b
       0.009939662 -0.0924991 -0.051435746 0.0024225393
000010 db 86 9d 3d 34 5d 56 3d 5a c5 83 3d 0d 48 5e 3e
       0.07691737 0.05233498 0.06434126 0.21707173
000020 e0 11 37 3e e3 f9 f9 3c d4 67 1d be 23 6b 8a bd
       0.17877913 0.030514663 -0.15371639 -0.06758716
000030 a5 85 06 3e bc cb 21 bd 2b fe 74 3d 66 bd 34 bc
       0.13136919 -0.039500937 0.059812706 -0.011031484
000040 84 67 49 3d 48 02 59 3d 47 b1 c3 3d a4 fc f3 bd
       0.049170986 0.05298069 0.09555297 -0.11913422
000050 81 b8 28 3c af ae 14 be c0 fe 96 bd fb ed 9d 3d
       0.010297895 -0.14519762 -0.073728085 0.07711407
000060 b5 6a 2c 3e 43 c3 2c bc ad ae cd bd 5a 07 ff 3d
       0.1683758 -0.010544601 -0.100430824 0.12452574
000070 bb 78 84 bd 5a c5 ae 3c 24 d1 dd 3d 72 f5 90 3d
       -0.0646834 0.021334339 0.10830906 0.07078065
000080 77 03 b8 3c 9f 7b 9b 3d 91 1b e4 bd 47 de 5d 3c
       0.02246259 0.07591938 -0.111380704 0.013541765
000090 36 df ec bc 0b 07 d3 bd 7f e1 48 bd e4 83 c4 bc
       -0.028915029 -0.10304078 -0.049043175 -0.023988672
0000a0 5e 94 0a be 77 ef 82 bd bc df 22 3d 92 33 c7 3c
       -0.1353316 -0.063933305 0.03976415 0.024316583
0000b0 fa 1d 0b be 0c 5c 44 bd f1 bc 66 bd 45 ee dd 3c
       -0.13585654 -0.047939345 -0.056332532 0.027091155
0000c0 ef 9d 37 bd 18 61 17 3d bb 1b c6 3d 53 3c 0a bc
       -0.04482835 0.03695783 0.09673258 -0.008437234
0000d0 30 de fc bd 0f 89 83 3d 68 8e b2 bd 99 3d 2f 3c
       -0.123470664 0.06422626 -0.08718568 0.010695838
0000e0 f4 09 67 bd 4a 78 e3 3d 83 32 93 3b 49 88 09 3e
       -0.056405976 0.11106928 0.0044921055 0.13430895
0000f0 88 55 24 3e 6a d2 ab 3c 3a 99 1c 3d e9 74 78 3e
       0.16048253 0.020974357 0.038232066 0.24263348
000100 cb ef 14 3e 4f 39 0e bb ff c1 9e 3e fc ba 3f 3e
       0.14544599 -0.002170164 0.31007382 0.18723673
000110 0b 56 1e 3d c7 03 9d 3d 15 c1 06 3e f2 a0 73 3d
       0.038656276 0.07666736 0.13159592 0.05947966
000120 c2 1d 81 bd df 6d 6d bd f2 d1 c9 3d 08 87 0d 3d
       -0.06304504 -0.05796611 0.09854497 0.034552604
000130 70 43 ea 3c 2d cc d2 bd 9a 32 26 bd d6 ae 10 3e
       0.02859661 -0.1029285 -0.0405756 0.14129195
000140 2e 56 60 3d 1f 49 ee bd 60 4c a1 bd da 83 aa bb
       0.054769687 -0.116350405 -0.078758955 -0.005203706
000150 2f 6e f0 bd 7a 9e a3 bd a2 cf 90 bd 06 b0 86 3e
       -0.11739766 -0.079892114 -0.07070853 0.2630617
000160 09 38 93 bd 93 56 17 3e 5b 7a 17 3d 6e fe 13 bd
       -0.07188422 0.14779119 0.03698192 -0.036131315
000170 6b bf 83 3d b3 88 6f bc 47 d3 6f 3d 4b 0a ec bd
       0.064329945 -0.014619994 0.0585511 -0.11525401
000180 b8 82 17 3d 6b 61 99 bc af 58 0e 3e 61 09 c2 3d
       0.036989897 -0.01872321 0.13901018 0.09474445
000190 0d 7a 7b bd 80 6f ef 3d f5 79 fc 3d 39 8d 2d bd
       -0.061395694 0.11691189 0.12327949 -0.04237101
0001a0 ad c3 9e bc 67 0b 0a 3d cb d3 f8 bd 88 1f c6 bd
       -0.019380415 0.03370228 -0.12149771 -0.09673983
0001b0 84 28 fc 3d c5 c0 77 bd 1b 36 b4 3c 29 ea 53 3c
       0.12312415 -0.060486574 0.021998456 0.012934246
0001c0 20 e6 51 bc c7 31 63 3c c3 d2 d9 3c 5a 9e 86 3d
       -0.012811214 0.013866848 0.026589757 0.06573172
0001d0 6e 3e c0 3d 86 8e 2b be cc e8 37 be 81 b3 00 3d
       0.093869075 -0.16753587 -0.17959899 0.03142119
0001e0 44 4e eb bb cc 97 74 be 32 02 52 bd a5 34 a1 bd
       -0.007180961 -0.23886031 -0.051271625 -0.07871369
0001f0 6a 17 f3 bd cb b5 d5 bd ca b5 96 bd 17 a2 a3 bd
       -0.118697 -0.10435065 -0.07358892 -0.079899006
000200 ad c6 c7 3d 38 87 ac bd 18 44 03 be 98 41 8b 3d
       0.09754691 -0.084242284 -0.12818944 0.067996204
000210 61 2b d1 bc 75 77 5b bd c2 c2 a0 bc bf 8c 28 bd
       -0.02553338 -0.05358072 -0.019624118 -0.04114985
000220 6b 7b 26 bd 07 02 be 3d 93 be a7 bd eb b2 54 3c
       -0.040645044 0.092777304 -0.08190646 0.0129821105
000230 41 75 86 3d cb 5c c0 bd 2f a8 44 be cf de 8d bd
       0.06565333 -0.09392699 -0.19204782 -0.06927263
000240 bd 85 05 3e 62 8e 10 bd 69 39 d1 3b ad 9e 8c bd
       0.13039298 -0.035292037 0.0063850177 -0.068662025
000250 cd 36 86 bd 02 cc 0b bd 61 15 bc bd 0b 5e 05 bc
       -0.06553421 -0.034130104 -0.09183765 -0.008140097
000260 55 20 10 3d 1b 44 62 3d 2a 6e d2 3d 7b a0 45 bd
       0.035187084 0.05524073 0.102749184 -0.04824875
000270 ed 7a c6 bd 55 de a4 3d 86 68 7b bd 45 de 85 bc
       -0.09691415 0.08050219 -0.06137898 -0.016341338
000280 2e ec 5d 3d 03 ed eb 3d e7 93 53 bd f2 49 77 bc
       0.054180317 0.11519816 -0.051654723 -0.0150933135
000290 15 84 0f 3e 17 91 02 3e c0 15 c4 3d 83 91 84 bd
       0.14015229 0.1275066 0.09574461 -0.06473067
0002a0 ec 03 b8 bd 19 f3 1a bd 3a 63 9a 3c d5 9b de bc
       -0.08985123 -0.037829492 0.018846143 -0.027173916
0002b0 e8 19 05 3c 4d e3 77 be 38 0a 6c bd 9c 03 de bd
       0.008123852 -0.24207802 -0.057626933 -0.10840532
0002c0 c2 37 35 be a7 57 48 bd ea c8 81 bd f6 4a 48 bd
       -0.17697051 -0.048911717 -0.063371494 -0.048899613
0002d0 7f f2 46 3d e6 1a 53 bd 1b 2c 02 3e 16 1b 82 3d
       0.048571106 -0.051539324 0.12712137 0.063528225
0002e0 7b ce 20 3e 55 8c b0 3d 5b 5c 13 3d 09 fb 85 bd
       0.15703766 0.08620516 0.03597675 -0.06542022
0002f0 e4 02 21 bd 94 c7 02 bd d7 72 d7 bd 2e cc 8a 3d
       -0.039309397 -0.031928614 -0.10519951 0.067772254
000300 a5 27 66 3d 83 9a b7 3d 62 29 f8 3d 68 b8 af bd
       0.05619015 0.08965018 0.12117268 -0.085800946
000310 15 ff d8 bd 23 9e a7 bd 70 9a ef 3d 58 e4 42 bd
       -0.10595528 -0.08184459 0.116993785 -0.047581047
000320 81 19 1d bd 72 90 01 bd 11 e2 d3 3c f4 ca 90 bd
       -0.0383544 -0.031631894 0.025864633 -0.0706996
000330 c7 fc 1b 3d c3 3f cc 3d 77 f7 99 bd e4 4a d3 39
       0.038082864 0.09973099 -0.07517903 0.00040300854
000340 de f2 8f ba 5d fe 6a bd 8d 8e 00 be eb 4a 4b bb
       -0.0010982414 -0.057371486 -0.12554379 -0.0031019996
000350 13 72 44 bd 4d 59 f3 3d d4 ba ad 3c 63 ab de 3d
       -0.047960352 0.11882267 0.02120725 0.10872533
000360 21 e3 be 3d a0 a5 6e 3c 75 44 de 3d f6 29 7d bc
       0.09320665 0.014565855 0.10852901 -0.015451899
000370 8c fe 0e be 49 77 87 bd 7c 70 af 3d 10 97 86 bc
       -0.1396429 -0.06614549 0.085663766 -0.016429454
000380 6a 1c 0e 3e ec 0f 09 3d 72 40 49 bd 57 37 f3 3d
       0.13878027 0.03346245 -0.049133725 0.118757896
000390 6b 73 25 3e a9 f0 8c 3d a6 d1 73 bc 12 8f 9d 3e
       0.1615731 0.0688184 -0.014881527 0.30773216
0003a0 e8 8c 09 3d 3c 3f 8d bd c3 87 7f 3e d8 7b 28 3e
       0.033581644 -0.068968266 0.24954133 0.16453493
0003b0 4c f6 32 3e 5b 7d 49 3a cb b0 31 3e 83 df 23 be
       0.17476767 0.0007686221 0.17352597 -0.16003232
0003c0 04 c2 03 3e fc 2b d6 bd 3e 03 98 bd b8 60 01 3e
       0.1286698 -0.10457608 -0.074224934 0.12634552
0003d0 13 4c 28 3e 57 43 8c bd 90 c1 bf bc aa 35 b3 3d
       0.1643527 -0.068487816 -0.023407727 0.0875047
0003e0 9a 84 68 3d 76 66 d1 3c 99 cc 1c bb 71 1b 52 3d
       0.056767084 0.025561552 -0.002392566 0.0512957
0003f0 28 25 38 bd 06 b4 f0 3d cc d9 ce 3c c8 76 a2 3d
       -0.04495731 0.11753087 0.025250338 0.07932812

bias f4 [256]
000000 43 1d 4d 3d 30 96 ba bd 5a 17 1a 3e 3e 3f 9c bd
       0.050076734 -0.09110677 0.1504797 -0.0762925
000010 e7 5a 82 3d 2b 1b d5 3d c8 07 b7 bc d0 9f 79 bd
       0.063649945 0.104055725 -0.022342578 -0.060943425
000020 1b 7c 31 bd f5 78 fe 3b a6 7d f4 bd 3e da a6 3d
       -0.043331247 0.007765884 -0.11938028 0.08147095
000030 f5 58 47 3d 0a bb 47 3a b8 f5 1b 3e 3b 9e 5b bd
       0.04866882 0.00076191186 0.15230453 -0.053617697
000040 cb 68 a5 bd d6 ea 0b 3e 8e 7d 32 3d 75 f2 7b bc
       -0.08076628 0.13663802 0.04357677 -0.0153776305
000050 58 2b 9e bd f8 22 62 3d 0c b6 5c 3d 2c 95 49 3d
       -0.07723111 0.05520913 0.05388455 0.049214527
000060 20 54 b4 3d 6e fc 8f 3c 48 c8 b4 3d 8e 7b 25 3e
       0.08805108 0.017576423 0.08827263 0.16160414
000070 4c 27 e6 bd 51 ec 4e 3d f4 33 39 3e 87 bb 12 be
       -0.11237964 0.050518338 0.18086225 -0.14329349
000080 6a f5 8f 3d b5 13 ef 3d 7d f5 c6 bc 94 64 7a 3b
       0.07029231 0.11673681 -0.02428698 0.0038206922
000090 19 c0 b1 bd 33 1d 4b bd e2 6b 3f 3d a3 89 14 3e
       -0.08679218 -0.049588393 0.046733744 0.14505629
0000a0 ef b0 18 3d b6 ad b7 bd 75 4d da 3c 37 3d 82 3b
       0.037278112 -0.089686796 0.026648263 0.0039745825
0000b0 26 69 47 3d 5e 35 de bc a8 af c4 3d a8 b4 1b 3d
       0.04868426 -0.027125057 0.09603816 0.038014084
0000c0 1a 03 f8 bc ba fd 0d bd 24 40 9c 3d 4a 22 93 3c
       -0.030274916 -0.0346658 0.07629421 0.017960686
0000d0 59 1c fd bd f0 13 a8 bd 4b fa ef 3d e5 7a 68 3d
       -0.123589225 -0.08206928 0.117176615 0.056757826
0000e0 c7 b7 e6 bd 99 bf dc bc 21 f9 cb bd 3e 88 be 3d
       -0.112655215 -0.02694683 -0.09959627 0.0930333
0000f0 4c 65 ef 3c d2 3d 3a bd 16 4c db 3d d8 af a2 bc
       0.029223107 -0.045469113 0.107078716 -0.01985924
000100 dc 59 13 3c c0 24 01 be a9 c5 b1 3a 38 98 25 3e
       0.008993592 -0.12611675 0.0013562936 0.16171348
000110 c1 1c e1 bd de f8 eb bd 80 f4 69 3d ad 50 89 3b
       -0.109918125 -0.11522077 0.05711794 0.0041905255
000120 c9 ba bf 3c e1 76 0c 3e d7 84 bf bc b3 96 83 3d
       0.023404496 0.13717224 -0.023378773 0.06425228
000130 7d c4 50 3d 98 e3 5b bd 30 54 8f 3d 2b 43 a0 bc
       0.050968636 -0.053683847 0.06998479 -0.019563278
000140 5b ab 13 be de cd d6 3c 45 83 8b 3d 94 ab e6 bd
       -0.14420836 0.026221212 0.06812147 -0.11263195
000150 84 ac 8e 3c 78 56 50 bc 80 f0 34 bc b9 92 10 3e
       0.017416246 -0.012715928 -0.011043668 0.1411847
000160 83 99 f5 3d f5 9f 77 bd 72 af 0d be 8a 33 49 3c
       0.11992171 -0.06045528 -0.13836458 0.012280354
000170 57 75 6f 3d 38 86 e3 bd 86 91 40 3c dd da 22 3e
       0.058461513 -0.111095846 0.0117534455 0.15903802
000180 66 6b 3f bd 40 45 8c bd 11 ec 06 bd d4 51 18 bd
       -0.046733283 -0.06849146 -0.032939974 -0.037187412
000190 90 f1 80 bd cb 88 05 be 66 a7 ec bd 7d 78 c1 3c
       -0.062960744 -0.13040464 -0.11555366 0.023617024
0001a0 e6 4f 32 bd 39 6d 02 bc 21 5a a2 bb ef 69 d4 bc
       -0.04353323 -0.007960611 -0.004954592 -0.02592942
0001b0 2b 8f e6 bd 0c 6a 21 3d f4 2e 30 3c 7a bd 33 3d
       -0.11257776 0.039407775 0.010753382 0.04388187
0001c0 12 f6 df bc 27 66 14 bc 65 3f 0a 3e 98 f0 e6 37
       -0.027339015 -0.009057558 0.13500746 2.7530172e-05
0001d0 ae 42 5a bd 00 e5 cb bd c7 ce 06 be ef 5c b0 3d
       -0.053286247 -0.09955788 -0.13164817 0.08611476
0001e0 42 03 cb 3b 92 9a c6 bd d1 27 19 3e 9d d1 7f bd
       0.0061954567 -0.09697451 0.14956595 -0.062455762
0001f0 db 79 12 3d 7e bd b0 bd 22 09 1d 3e 06 dc 6f 3d
       0.03576074 -0.08629893 0.15335515 0.05855944
000200 a1 6e f8 3c 65 6a e4 bd bc cb 99 3d b2 a5 f1 bc
       0.03032619 -0.11153106 0.075095624 -0.029497955
000210 cd db 12 bd 06 c5 52 bd d4 d6 c1 bd 52 c4 79 3d
       -0.03585415 -0.051457427 -0.09464803 0.06097824
000220 e0 41 71 bd 18 e5 61 3d 16 a9 7d 3d 00 5a c1 3d
       -0.058900714 0.05515012 0.06192883 0.09440994
000230 10 71 b7 3d ea 9c 2b 3d dc 2e 9e bd 1e 76 e0 bd
       0.08957112 0.04189769 -0.077237815 -0.10960029
000240 17 db 0e bd 6d 83 4c bd 3c 14 19 bd 64 1a 2c bd
       -0.03487691 -0.049930025 -0.037372813 -0.042017356
000250 42 42 4f 3d fd c3 fb bd 64 25 e4 3c 21 2e ce bb
       0.050600298 -0.12293241 0.02784986 -0.00629212
000260 13 36 a4 3d f8 70 95 b6 f3 d8 6a 3d a6 71 9e 3d
       0.08018126 -4.4536973e-06 0.057335805 0.077365205
000270 27 45 e9 3c 80 02 3f bc eb ec 4f bb 34 61 64 bd
       0.028475357 -0.011658311 -0.0031726907 -0.055756763
000280 fe 40 6c bc 99 1b 85 bd 50 05 32 3d 04 8f dc 3d
       -0.014419792 -0.064994045 0.043462098 0.107694656
000290 64 ac 79 3d 47 80 2b 3e 31 94 ed 3c 23 96 cc 3d
       0.06095542 0.16748153 0.029001327 0.09989574
0002a0 09 57 40 bd 77 dd 19 3d 19 20 a5 bc a6 7a a8 3d
       -0.046958003 0.03756472 -0.020156907 0.08226518
0002b0 5f 8b c6 3d a8 1c b8 3d 84 1b 85 bc 15 13 08 3e
       0.09694552 0.08989841 -0.016248472 0.13288529
0002c0 9a 94 0a bb dc 68 79 bd 8f 40 e1 3d aa f2 d7 3d
       -0.0021145702 -0.060891017 0.10998642 0.10544331
0002d0 5c 39 91 bd 7f 51 20 bd 23 88 ff 3d 9a e2 e2 3c
       -0.070910186 -0.03914022 0.12477138 0.027695943
0002e0 08 38 fd 3d 5b ab 1b bb cb 8f 91 3d 28 41 85 3b
       0.12364203 -0.002375326 0.071075045 0.004066605
0002f0 c0 60 17 bd ea d8 00 bd 09 52 c7 bd bf d3 dd 3d
       -0.036957502 -0.031456865 -0.09732444 0.10831403
000300 fa 01 48 3d 83 dd e4 3d d0 15 93 bd 38 db 72 bd
       0.04883001 0.111750625 -0.07181895 -0.059291095
000310 ec a4 b0 bd 8e 91 6e bd 7e a9 2d bd ff 65 27 3e
       -0.08625206 -0.05824428 -0.04239797 0.16347502
000320 bf d8 9e 3d af 13 66 bc 5e 65 dd 3c 19 95 98 bd
       0.07756185 -0.014042779 0.027025875 -0.07450313
000330 00 cb bd 3d ae 3a af bd 45 76 ed bd e7 82 34 3d
       0.09267235 -0.08556114 -0.11594824 0.04407015
000340 26 b9 bc bd b8 17 31 3e 30 44 dd 3b b5 f6 3f 3d
       -0.09215002 0.17294204 0.0067525133 0.046866138
000350 b9 c5 89 3c 20 7a 1e ba 0b 04 dd 3d f5 2c a0 bd
       0.016817914 -0.000604542 0.10791787 -0.07821075
000360 ea 23 23 be 31 58 22 bd d6 d7 82 3d 98 19 53 3d
       -0.15931669 -0.039634887 0.06388824 0.05153808
000370 89 a4 58 3d d2 f0 98 bd 2b 9f a5 bd fb 5e 75 bd
       0.052891288 -0.07467808 -0.080869995 -0.059905034
000380 44 b7 a9 bc 41 9c 32 3c d0 fd 46 3d 8f 7a 0e be
       -0.02071727 0.010901512 0.0485819 -0.1391394
000390 e4 c3 77 3d f0 cd ac 3d 4d 9c 3e bd 30 1d e8 bb
       0.06048955 0.08437717 -0.04653578 -0.0070835575
0003a0 0f 31 b6 bd 67 97 c7 bd 6b b2 62 3d e9 a3 65 3d
       -0.08896076 -0.097456746 0.055345934 0.05606452
0003b0 15 0e fb 3d 78 f9 0c be a0 c1 bc 3d aa 3e 0d be
       0.12258545 -0.1376704 0.092166185 -0.13793436
0003c0 b7 7d b0 bd ec b2 b0 3d 52 4c c8 bd c6 55 a8 3d
       -0.08617728 0.08627877 -0.09780182 0.08219485
0003d0 e9 81 22 3d 5b 94 a0 3d 70 47 c3 bd 59 17 43 bd
       0.039674673 0.078407966 -0.0953511 -0.047629688
0003e0 89 21 e5 bc 20 ab 81 3d 5f 24 6a 3d cc b3 04 3e
       -0.027970092 0.06331468 0.057163592 0.12959212
0003f0 4c ae d9 39 06 6c e9 3d 69 6d 78 bc 46 73 fb bb
       0.00041519327 0.11397557 -0.015162804 -0.007673654

weight f4 [128, 256]
000000 60 b3 27 bd 72 9f e1 bd a9 79 87 3d d6 cf 9a 3d
       -0.04094255 -0.1101674 0.06615002 0.07559173
000010 72 95 ba 3c 3c 3b ca 3c 3c 6f 20 3d 49 3d 28 3d
       0.02277634 0.024686448 0.03916858 0.04107407
000020 b7 11 2c bd ce 32 84 3d 80 b4 6c bd 46 67 3e 3d
       -0.04200908 0.06455003 -0.057789326 0.046485208
000030 29 49 05 3d 12 5c 42 bd 79 b6 a8 3d a4 ed f3 3d
       0.032540474 -0.047451086 0.08237929 0.11910561
000040 c1 6c 8c bd c7 e0 93 3d df ea 6a bc 43 a3 9f 3d
       -0.06856681 0.07220607 -0.014338224 0.077948116
000050 7b 82 ea bc ee 4e 98 3d 2f bd 9d 3d ad 9d 4b bd
       -0.028626671 0.0743693 0.077020995 -0.04971092
000060 60 1c 44 3c 1c 81 17 3d cf c4 28 ba 6a d7 f2 3c
       0.011969656 0.036988363 -0.0006438018 0.029643733
000070 11 3c d7 bd a5 76 d4 3d 73 03 a9 3d 56 2f 0a bc
       -0.10509504 0.10374192 0.08252611 -0.008434137
000080 f7 0c e0 3d 2c b7 87 3d bb b0 17 bd 9a 71 3f bd
       0.10939973 0.06626734 -0.037033778 -0.0467392
000090 94 48 d3 bc de 4d c5 3c 18 b1 7e bc 59 21 69 3d
       -0.025791444 0.024084982 -0.015545152 0.05691657
0000a0 76 ae 13 3d c1 3f f2 3d 8a a1 08 bc d2 4f 52 bd
       0.03605505 0.11828566 -0.008339295 -0.051345654
0000b0 19 ca 7a bd 6a 09 6c 3b e9 9c 4d 3d 85 06 48 3d
       -0.06122789 0.0036016353 0.05019847 0.048834343
0000c0 db 2e c4 bc 13 50 38 bd 99 a3 77 bc a6 ad 61 3d
       -0.023948124 -0.04499824 -0.015114688 0.055097245
0000d0 db 36 1d bc 09 cf ee bc c7 cd f3 3c ea 6e b8 bd
       -0.009595598 -0.029151456 0.029761208 -0.0900553
0000e0 ea bf f6 3b 16 a6 f4 3c 8d 30 44 bd 66 7a 05 3d
       0.007530202 0.029864352 -0.047897864 0.03258743
0000f0 57 4c 71 bd 79 cb 54 3c e9 d7 bd 3d e6 dd 1b bd
       -0.058910694 0.012987965 0.09269697 -0.038053416
000100 6e 0d 4a bd bf e8 cb 3b a3 4c 1c 3d 3d 61 ab 3d
       -0.049329214 0.006222814 0.038159024 0.08368156
000110 28 fc 14 3d a7 8e 0e bd 33 f4 37 3d 53 05 6a bc
       0.036373287 -0.034804013 0.04491062 -0.014283496
000120 90 a7 5e bc 18 fc e6 bc c3 5e 12 bd d9 4a 9c bd
       -0.013589755 -0.02819638 -0.035734903 -0.076314636
000130 e0 76 38 bd 4f f1 6e bd be 8c 8a 3d cd 60 1b bd
       -0.045035243 -0.0583356 0.06765126 -0.037934113
000140 f6 89 3e 3d db a8 47 bd 47 7e 90 bd dd 2f a8 bd
       0.04651829 -0.048745017 -0.070553355 -0.08212254
000150 96 64 9f bd 5d 08 5a 3d bc e1 9e 3d fb 59 ca 3d
       -0.07782857 0.053230632 0.07757899 0.09880444
000160 de 6a 71 3d 3c e3 55 3c f3 13 94 bd a0 86 a9 bd
       0.058939807 0.013054665 -0.072303675 -0.08277631
000170 10 ee 61 3d a1 54 f9 bc a7 64 31 bd f1 9b d7 3c
       0.055158675 -0.030435862 -0.04330888 0.026319476
000180 34 5a 8a bd f3 85 fb 3b 61 d7 56 3c c8 19 af 3c
       -0.06755486 0.00767588 0.013112874 0.021374598
000190 4c e0 b7 3c d2 1b 81 bd bb 1b c5 bc bb 45 77 bd
       0.02244582 -0.063041344 -0.024061074 -0.060369235
0001a0 d9 7a 6c 3c e0 bb 1f 3d 97 18 00 3d 9d 8e aa 3d
       0.014433586 0.03899753 0.03127345 0.083279826
0001b0 15 cb e4 bc 63 91 92 bd 11 d9 5f 3d bc 4b 86 3d
       -0.027928868 -0.071566366 0.05465037 0.06557414
0001c0 e5 c3 e0 bd 50 9f e2 bb c6 92 c6 bc 01 90 35 3d
       -0.10974864 -0.006915964 -0.024239909 0.044326786
0001d0 4b f1 84 bd 00 0d 02 be a3 68 87 bd 73 7c 13 3d
       -0.064913355 -0.12700272 -0.06611755 0.036007356
0001e0 28 a0 87 bc ff 62 d2 bc d5 63 82 3d 65 38 4d bc
       -0.01655586 -0.02568197 0.06366698 -0.012525653
0001f0 56 3f 8d bb 40 55 99 3d ee 92 b4 3d ba 90 0a 3e
       -0.0043105287 0.07486963 0.08817087 0.13531771
000200 8c 54 ac bd bf 65 1c bd 7e 9a 23 bc 55 46 2c bc
       -0.084145635 -0.03818297 -0.009985564 -0.010514815
000210 a9 cf f9 bc f4 9b 82 3a ba 2f b7 bd 42 a3 14 3c
       -0.030494528 0.000996469 -0.0894465 0.009072127
000220 87 76 98 bd 0b 42 64 3d e1 74 d6 bc e8 0f 81 3d
       -0.07444482 0.055727046 -0.02617878 0.06301862
000230 65 18 73 3d 31 68 c9 3c 91 ec 39 bd ae 5f 3d bd
       0.059349436 0.024585815 -0.045391623 -0.046233825
000240 97 6e a5 3b cf 43 e2 bc 4b c9 86 bd ad 3e f3 3b
       0.0050485837 -0.027620224 -0.06581362 0.007423243
000250 c3 6a fc bc 9a e6 c5 bd 01 8d de 3d cb 25 0c bd
       -0.030812627 -0.096631244 0.10866738 -0.03421573
000260 d3 1c a1 3d 20 3c bc 3c 27 80 96 ba 19 0c 6f bc
       0.07866826 0.022977889 -0.0011482284 -0.014590287
000270 a3 e7 8c bd dd e6 10 bd 77 81 c9 3c e5 53 5e 3d
       -0.06880119 -0.03537642 0.024597866 0.054279227
000280 a1 d1 2a bb 7e 31 99 b9 57 5f 11 bc c1 2c 3e 3c
       -0.002606489 -0.0002921931 -0.008872828 0.01160735
000290 be 4a 77 bd db 9a 93 bc bc 08 0c 3e 9c 12 a4 bc
       -0.060374014 -0.018018177 0.13675207 -0.020028405
0002a0 99 a2 ea bc 33 c5 0e 3d d3 00 9e bb ae 8c 88 bc
       -0.028641986 0.034856033 -0.0048218756 -0.016668644
0002b0 49 2d e3 3a 5d de 1a 3c 23 13 54 3c c9 47 d0 bb
       0.0017332222 0.00945243 0.012944016 -0.0063562137
0002c0 0a bc fd 3c 8a 84 91 3b 2a 22 d6 bb b0 71 97 bd
       0.030973453 0.0044408487 -0.0065348344 -0.07394731
0002d0 d7 4e fa bb 61 06 3b bd cd 12 f4 3b b6 8b 89 3b
       -0.007638793 -0.04566038 0.0074485303 0.004197563
0002e0 69 5e ae 3d 22 44 5f 3a 67 05 10 3d 26 e0 2b bd
       0.08514101 0.00085169275 0.035161402 -0.04196181
0002f0 97 04 35 3d 0b bb 37 bd ec 16 6e 3d f0 8a 98 3d
       0.04419383 -0.044856112 0.05812733 0.07448375
000300 38 a6 f2 3c 0c c5 9a 3c d7 cc d3 bd 44 07 dd 3d
       0.029620275 0.018892787 -0.103418045 0.107924014
000310 f0 6e c5 3c fe c1 83 3d 9e f9 d0 3d 69 e8 ab 3d
       0.02410075 0.064334854 0.10203861 0.08393938
000320 02 b0 d4 3c e5 6f 52 3c f9 74 3c bc 55 76 ac bd
       0.025962833 0.012844061 -0.011502498 -0.084210075
000330 51 71 0d bd ec 5a e4 bd 6e c6 f9 bd 2e d4 96 3c
       -0.034531895 -0.111501545 -0.121960506 0.018411722
000340 fc b1 25 3d 73 a4 00 3e b2 a9 48 3d c1 07 ff 3b
       0.040452942 0.12562732 0.04898996 0.0077829068
000350 1b ea 36 bd fb c7 9f 3d 19 fd 51 bc e4 14 c2 3d
       -0.044656854 0.07801815 -0.012816691 0.09476641
000360 76 d3 8c 3c 5e 4a 1b bd df 8f 0b 3d 99 50 88 3d
       0.017190676 -0.03791272 0.034072753 0.06655998
000370 1f 55 5e 3d 4a c6 3f ba 1c 86 33 3d c3 85 99 3c
       0.054280397 -0.0007315619 0.04382907 0.01874054
000380 04 52 b3 bc d3 d9 b0 3d 2a 53 4a bd ae fa e6 3c
       -0.021889694 0.08635297 -0.049395718 0.028195705
000390 17 54 f9 bc 1e 3c 8d 3c 47 d0 7f 3c eb a2 b2 bc
       -0.030435605 0.01724058 0.015613622 -0.021806201
0003a0 c1 4e f3 3c 88 76 e5 bd 0d b7 0b bc 99 ba f1 3d
       0.029700639 -0.11204249 -0.008527529 0.11803169
0003b0 6b c1 84 3d 8e c2 dd 3b 0b 55 dd bc 1c cb f9 bd
       0.06482204 0.0067675775 -0.02701809 -0.12196943
0003c0 63 d8 32 bc d3 02 8a 39 e8 28 a5 3c 9f 92 c3 3c
       -0.010915848 0.00026323515 0.020161107 0.023873625
0003d0 96 ce 9a bd 2d c8 a6 3c e8 ee 89 3c 0e b2 92 3d
       -0.075589344 0.020359123 0.016837552 0.071628675
0003e0 43 ef 84 bd de fa 5f bc 27 c5 07 bd 01 ee 03 3d
       -0.06490948 -0.013670651 -0.033147004 0.0322094
0003f0 68 a4 35 bb 31 95 d4 bc db e3 4e 3c 09 55 12 bd
       -0.0027716402 -0.025950046 0.012627567 -0.035725627

bias f4 [128]
000000 ee b2 8f 3d 2a 4c 78 3b 46 9b cc 3b 42 40 60 3d
       0.0701655 0.0037887194 0.006244096 0.05474878
000010 20 ca 9d bc b4 d3 bd 3c db 69 06 3c 96 0e 86 3c
       -0.01926142 0.023172237 0.008203949 0.016364377
000020 d2 73 ac 3d e5 2a 0c 3d 5c f9 4d bd 14 3a 1c bc
       0.084205285 0.034220595 -0.050286636 -0.009535331
000030 40 30 ea b8 4a fd 2e bc 4f 73 36 3d 41 44 a5 3d
       -0.00011166977 -0.010680506 0.04454356 0.08069659
000040 b3 38 84 3d 72 c0 91 bd 2c 9d aa bd 25 f7 65 3d
       0.06456127 -0.07116784 -0.083307594 0.0561439
000050 ea 4c 0e bd aa 18 8c bd 1d 7c 6a 3c 64 bc 21 3d
       -0.03474132 -0.06840642 0.0143118175 0.039486304
000060 88 d6 d6 bc 2a e1 e1 b9 26 4c 3c bd 16 15 ab 3d
       -0.026225343 -0.00043083105 -0.04597106 0.08353631
000070 d7 4a 16 3d 27 f5 41 3d 78 0b 22 3c 5c 6f 8d bd
       0.036692467 0.047352936 0.00989043 -0.06906006
000080 8c 48 0e bd 29 df 2a 3d 22 b6 cd 3c 65 fd 03 3d
       -0.034737155 0.04171673 0.025111262 0.032224078
000090 50 1a 95 bd a4 c2 17 bc 32 85 3f bd a1 46 02 bd
       -0.07280409 -0.009262715 -0.046757884 -0.03180564
0000a0 b6 5f a5 3d 70 15 b4 bc ba 54 c0 3c a0 55 a3 3d
       0.08074896 -0.021982878 0.0234779 0.07975316
0000b0 30 04 0d bd ee e3 37 3d d8 aa a6 3c dc 31 7d bb
       -0.03442782 0.044895105 0.020345137 -0.0038634455
0000c0 4e 43 23 38 7a e2 f7 bc 26 84 13 3d 41 74 a2 3d
       3.892491e-05 -0.03025936 0.0360147 0.0793233
0000d0 c7 5f b6 3d b3 e7 4c bd 4f ee 97 bd 5d 25 24 bd
       0.08904987 -0.050025653 -0.07418501 -0.040074695
0000e0 29 f2 03 3c e3 97 49 bd 69 a3 10 3c e4 9d 91 3d
       0.008053341 -0.049217116 0.0088280225 0.07110193
0000f0 97 d3 05 bd 8a 64 5f 3d 57 3a 2d bd 6b ef 0a 3d
       -0.03267249 0.05453924 -0.042291965 0.033919733
000100 2c 31 7e 3d d1 bc 27 3d 72 47 2d bd 2a 92 de 3c
       0.062058613 0.040951554 -0.042304464 0.027169306
000110 87 6a 9f 3c 0d 11 56 bc 4f 52 0b 3c 49 c3 11 3d
       0.019459976 -0.013065589 0.008503511 0.03558663
000120 44 dc 1e 3d 2e b8 8e bd 14 b9 25 3d 40 b8 10 3c
       0.03878428 -0.06968723 0.040459707 0.008832991
000130 7b c8 bc 3c 49 8b a0 bd 25 c7 0e bd 0e 7b 25 bd
       0.023044815 -0.078390665 -0.034857888 -0.040400557
000140 3e 8e e4 3c d7 37 91 3c 78 ba f6 bc c7 00 32 3d
       0.027899858 0.017726822 -0.030118212 0.043457773
000150 e4 8d 56 bd fb 00 84 bc cf b7 32 bd 86 a9 6e 3d
       -0.05238141 -0.016113749 -0.043632325 0.05826714
000160 43 c0 f5 3c a4 d8 06 bd a6 f7 41 3c bc 01 78 3d
       0.029998904 -0.03292145 0.011838829 0.06054853
000170 3b 4c 5a 3d a7 8a 36 bd 26 f7 96 bc 01 36 93 3c
       0.053295355 -0.044565823 -0.018428396 0.017970087
000180 3b c7 d3 3c cb d1 a5 bd cb 76 7a 3b fe bf fb 3c
       0.025851836 -0.080966555 0.0038217779 0.030731197
000190 ba 30 28 bb e9 f0 85 3c 72 68 29 bd 54 88 28 3d
       -0.002566381 0.016350226 -0.041359372 0.041145638
0001a0 a7 c3 b9 3c d3 55 40 3d e2 a4 94 3d 62 86 0a bd
       0.022676302 0.04695685 0.072580114 -0.033819564
0001b0 00 2c 4b bd 30 9e 18 3d 2f 0c 53 3d fb 05 65 3d
       -0.04960251 0.037260234 0.05152529 0.055913907
0001c0 48 ef 1e 3c 88 4f 0b bc 56 fa 93 3b 43 59 2d 3d
       0.009700604 -0.008502848 0.0045159264 0.042321455
0001d0 e3 38 ce bc 7a 71 8c bc 13 5b 21 bd fb f4 fc 3c
       -0.02517361 -0.017143954 -0.039393496 0.030878535
0001e0 35 6a 52 3d aa 22 b5 bc 5a 6a de bc 61 e8 1a 3d
       0.05137082 -0.022111256 -0.027150322 0.03781927
0001f0 54 ac 9e 3c a3 89 50 3d 80 35 0c bc 8f 16 be bb
       0.019369282 0.05091251 -0.008557677 -0.005801029

weight f4 [64, 128]
000000 60 19 8d 3d 48 56 80 3b 52 23 9b 3d dd c4 c1 3d
       0.068896055 0.0039165355 0.07575096 0.09461377
000010 ac 8c 75 bc b6 e8 f2 3d 37 7c d3 bc 2c 36 d5 bd
       -0.014987152 0.11860792 -0.025816066 -0.10410723
000020 4f 1b 21 3d 98 f2 41 3c b7 0e b3 bd a6 44 fe 3a
       0.039332684 0.011837624 -0.08743041 0.0019399121
000030 a6 8f a6 3d 58 fd 50 bc 4e f7 0a 3d e9 e3 70 3d
       0.081328675 -0.012755714 0.033927254 0.058811102
000040 32 21 bf 3d 6d df 06 bc 18 cf 80 bc 98 60 e9 3d
       0.093325034 -0.00823198 -0.01572375 0.11395377
000050 e4 45 05 3d 68 5f 73 3d 1d b9 df 3d 54 63 f0 3d
       0.032537356 0.05941716 0.109239794 0.11737695
000060 32 24 a7 3d 24 20 f7 3a 86 e8 e0 bc 8c 92 ae 3d
       0.081612006 0.0018854183 -0.027454626 0.08524045
000070 55 e0 26 bd 4a 89 95 bd 92 9b 41 3d 3e b2 15 3c
       -0.040741283 -0.073015764 0.047267504 0.0091367345
000080 7f 84 c0 3c ad aa 53 bd d5 28 27 bd 0e 20 6a 3d
       0.023500679 -0.05167644 -0.040810425 0.057159476
000090 80 26 21 bc e2 f4 b5 3d 86 64 84 bd be c5 78 bc
       -0.009835839 0.08884598 -0.06464486 -0.015183864
0000a0 0d 00 75 3d 89 3f 74 3d 54 bf 9c 3c a2 4d 20 3d
       0.0598145 0.059630904 0.019134201 0.039136536
0000b0 75 73 d4 bc 9d d3 fd 3d 9d ea 63 bd 89 28 75 3d
       -0.02593396 0.12393878 -0.055643667 0.05985311
0000c0 a5 46 f0 bc b9 72 64 3d 4c e8 8e 3b 56 6c bb bb
       -0.029330561 0.05577347 0.004361188 -0.0057197018
0000d0 ae 8a 14 bc 17 51 9a bd 35 6d 7e bd 64 15 38 bd
       -0.009066267 -0.07534998 -0.062115867 -0.044942275
0000e0 d4 8e 28 3d 4c 82 c6 3c 0d 8f e4 bd 59 b3 a2 3d
       0.041151837 0.024232052 -0.11160097 0.07944364
0000f0 b0 56 0f bd e6 0c 17 bc 6a d8 4c 3d ec 31 07 3d
       -0.03499478 -0.009219384 0.050011076 0.033006594
000100 1e cf 50 3d 86 fe 75 3d 4d 58 1a bd 71 ca 5e bd
       0.050978772 0.060057186 -0.037681866 -0.054392282
000110 08 7a 33 3d e0 75 0f bd 95 91 55 bd b6 82 c7 3d
       0.04381755 -0.035024524 -0.05214079 0.09741728
000120 41 f0 bf bd e3 28 d9 bd 6b 18 d6 3d 23 86 c8 3c
       -0.09371997 -0.10603502 0.10453876 0.024478024
000130 52 86 67 3d aa 6b ef bc 2f 6e 26 bd 25 43 52 bd
       0.056524582 -0.029226143 -0.040632423 -0.051333565
000140 1d 80 bb 3c 3d 1d f6 3c 39 0e 5d bd fd 14 28 bc
       0.022888238 0.030043239 -0.053968642 -0.01025891
000150 54 66 9a 3c af 78 48 3b d8 e7 11 3d de b3 0b bd
       0.018847622 0.003058951 0.035621494 -0.03410708
000160 9d e2 d8 3b 78 2c 40 ba 0f 25 88 bd 24 75 80 3d
       0.0066188113 -0.0007330845 -0.06647693 0.06272343
000170 6c 5e d7 3d 6c 05 29 bc 70 86 c0 bc 86 72 0a bd
       0.105160564 -0.010316234 -0.023501605 -0.033800624
000180 e7 c0 74 bd 34 d8 00 bd c7 fe 0b 3d 74 23 e7 bc
       -0.05975428 -0.031456187 0.03417852 -0.028215148
000190 e4 8e 6e 3c 56 e4 64 3c 26 c8 d8 bd 04 d6 c7 3c
       0.014560435 0.013970455 -0.1058505 0.024394043
0001a0 cb 87 b7 bd aa f5 2d 3d 22 6b 44 3d f0 bd 56 3d
       -0.08961447 0.04247061 0.047953732 0.052427232
0001b0 e6 aa 06 3d f6 59 16 3d da 3b 2f bc 23 86 b8 3d
       0.032877825 0.036706887 -0.010695422 0.090099595
0001c0 6e ea 93 3d d5 9b 09 bd ce 60 d0 3d 4a 67 2c bd
       0.07222448 -0.03359588 0.10174714 -0.04209069
0001d0 5c b7 e7 ba b5 95 79 bd ad 2e 66 3d c9 65 00 bc
       -0.0017678547 -0.060933787 0.056196857 -0.0078367675
0001e0 56 da 8c bc 52 f1 94 bd 28 e8 41 bd d0 ce 85 3d
       -0.017193954 -0.07272591 -0.047340542 0.06533587
0001f0 e6 3f b4 bd 86 58 42 3d 7d d5 57 3c 22 69 c1 bd
       -0.0880125 0.047447704 0.013173458 -0.094438806
000200 f9 33 5c bd 4e ad 60 3d 16 00 1d 3d 0e d8 c5 3d
       -0.053760502 0.054852776 0.03833016 0.0966035
000210 1a df c1 bd c6 87 15 3c 77 b0 10 3d 91 9c b6 bd
       -0.09466381 0.009126609 0.03532454 -0.089165814
000220 24 bc 30 3d 7c 0f 89 bd fb 6d 9d bd ac c0 ca bd
       0.043148175 -0.066924065 -0.07686993 -0.099000305
000230 d1 94 06 bc 35 67 6d 3d b6 ba da 3b f3 87 5b 3c
       -0.0082141915 0.057959754 0.0066750897 0.013399112
000240 56 a1 55 bd d4 95 89 3d 0f 37 aa bd 83 2c 2a 3d
       -0.052155815 0.067180306 -0.08311283 0.041546356
000250 a3 e8 e7 3c 67 34 41 3d e1 5f 79 bd 80 ff c4 3d
       0.028309172 0.047169115 -0.060882453 0.09619045
000260 53 0f 4d bd 45 36 47 3d 72 92 d2 bd 5b 96 a1 3d
       -0.050063442 0.04863574 -0.102818385 0.07890006
000270 95 b2 34 bc 3b 05 e3 3b f1 ba 40 3d 58 a6 1f 3d
       -0.011028905 0.0069281138 0.04705328 0.038976997
000280 c8 48 c6 bd 4f 6a bb bc 68 44 52 bc 57 33 08 3d
       -0.09681851 -0.02287784 -0.012833692 0.033252086
000290 be 9a 04 3d 32 35 e8 3d d0 bf ef ba 80 f2 8c 3d
       0.032374136 0.11338271 -0.0018291418 0.06882191
0002a0 4b eb 4f 3d 57 65 6b 3d 2d 3c 4f bd f5 11 8a 3c
       0.050761502 0.057469692 -0.050594497 0.016854266
0002b0 09 9f 6e bc c2 48 01 3d 31 5a e9 3c ea 79 22 bc
       -0.014564284 0.031563528 0.02848539 -0.009916762
0002c0 cb b0 22 3d d9 22 0b 3d 38 8a 97 bd 3a 35 0d bc
       0.039719384 0.03396878 -0.0739941 -0.008618647
0002d0 93 cd 4f bd 41 9f 73 bd 93 c2 83 bc 0b a1 c0 3d
       -0.05073316 -0.05947805 -0.016083991 0.094057165
0002e0 cd d3 4e bd e3 32 0c 3d d0 a3 cc bd ac c2 92 bd
       -0.050494958 0.034228217 -0.09992182 -0.07166037
0002f0 46 0e 12 bc a7 69 7f 3c 9a df a6 3d 60 48 ab 3d
       -0.008914536 0.015589154 0.08148117 0.08363414
000300 9e 2d af bd 81 70 be bd f2 12 d1 bd 34 e4 e6 3c
       -0.08553623 -0.09298802 -0.10208692 0.028184988
000310 9e 89 3e bd 16 9f c0 bd 27 47 00 bd 32 3b 01 3e
       -0.04651796 -0.09405343 -0.031317856 0.12620237
000320 70 9e 89 bd 5f 3c 3e 3d c0 68 81 3c 46 a7 f0 3d
       -0.06719673 0.046444293 0.015797019 0.11750655
000330 d4 6c 1e 3b 1a 82 45 3d 26 0f 7d bd 35 09 00 bd
       0.0024173753 0.048219778 -0.061782025 -0.03125878
000340 13 0d 60 bd f5 30 9f 3d a7 88 e4 bd aa 32 bb 3b
       -0.05469997 0.0777301 -0.11158877 0.0057128267
000350 d6 2b 92 3d 56 34 6a 3c ad ff a0 3d d1 91 a5 bd
       0.07137267 0.014294704 0.07861266 -0.08084453
000360 71 e1 a5 bd 4d 8f b9 3c a4 3e da bd 76 63 80 3c
       -0.0809964 0.022651339 -0.10656479 0.015672427
000370 c1 6e 88 3c fe 8b cf bc f8 67 e1 3b c3 2f 7b 3d
       0.016654374 -0.025335308 0.006878849 0.061324846
000380 f7 fd 93 3c ce e9 a6 3b 16 a3 ed bd f8 f3 22 bc
       0.018065436 0.0050937897 -0.11603372 -0.009945862
000390 76 40 cc 3d 62 24 0d bb d8 a1 aa bd 5d be 48 bd
       0.099732324 -0.0021536578 -0.083316505 -0.04900967
0003a0 d7 61 54 3b 1b 99 ae bc 6b 91 34 3d b5 d6 4d bd
       0.003240695 -0.02131324 0.044083994 -0.05025359
0003b0 31 cc 93 bd b7 d9 a9 3d 4b af 3e bd 2b e5 df 3d
       -0.07216681 0.08293479 -0.04655389 0.10932382
0003c0 46 0d d1 3d 6a 00 c4 bc 11 5f 02 3b 79 54 aa bd
       0.1020761 -0.023925979 0.001989309 -0.08316893
0003d0 7d 5c d1 bd 93 1d 59 bd a7 80 b1 bd d3 79 f4 3c
       -0.10222719 -0.05300672 -0.086671166 0.029843247
0003e0 bb 75 73 3d e5 da 1b 3d b0 11 50 3d ef 8f ab 3b
       0.05943845 0.03805055 0.050798118 0.005235664
0003f0 9f f3 30 3d b9 4a 8c 3d 1f 8a c0 3c c4 e8 08 bd
       0.043201085 0.0685019 0.023503361 -0.033425108

bias f4 [64]
000000 20 86 2e bc 04 61 ae 3c ce 21 b7 3d c5 dd 6a bc
       -0.010652095 0.021286495 0.089419946 -0.014335101
000010 94 59 c1 3c 7c 54 39 3d b6 56 6f 3d 71 45 6e 3c
       0.023602284 0.045246586 0.058432303 0.014542923
000020 91 b3 db bd 36 f2 89 3c 20 b1 05 3d 2c 31 18 bc
       -0.10727609 0.016839128 0.032639623 -0.009289067
000030 4a 34 c1 3d 8c 3e dd 3b de ae 0b ba 62 11 ec bc
       0.094338015 0.006751841 -0.00053284864 -0.028816883
000040 e7 12 c7 bc 11 e3 9d 3d fc 26 20 bd d8 1f 82 3d
       -0.024301006 0.07709325 -0.03909968 0.0635373
000050 f8 26 28 bd aa dd 97 bd 78 cc 75 ba dc 3b 38 bb
       -0.04105279 -0.07415326 -0.00093764765 -0.002811185
000060 41 19 31 bd 55 4e c9 3d 22 64 98 bc fa 69 82 3c
       -0.043236975 0.09829394 -0.018602435 0.015919674
000070 e1 f9 6c 3d 4f 90 a1 bc 9f 1a 9c bd bc 8a ce 3d
       0.05785549 -0.019722132 -0.07622265 0.10085055
000080 ee 45 ed 3d 0d 39 2a 3d 62 af b1 3d 04 f7 4d bd
       0.11585604 0.041558314 0.0867603 -0.0502844
000090 d0 c7 09 bd 6a 66 09 3c 62 b4 92 3d 66 5c c3 bc
       -0.03363782 0.008386234 0.071633115 -0.02384777
0000a0 fb d3 8c 3d ec ce 49 3d bf 98 3d 3b d8 85 0c 3d
       0.068763696 0.0492696 0.0028930155 0.03430733
0000b0 2a 4c 5d 3d c3 87 e3 3d 91 3e 20 3d 3c 9c 6e 3c
       0.054027714 0.11109879 0.039122168 0.014563616
0000c0 23 59 a7 bd 63 0e a4 3b f1 92 6a 3d 37 46 af 3d
       -0.08171298 0.005006598 0.05726904 0.08558314
0000d0 17 22 a7 3b b6 7e c7 3d c7 44 9f bc 66 dd 94 bd
       0.0051004994 0.09740965 -0.019441975 -0.07268791
0000e0 54 52 a7 3d af 76 b2 3d b1 0a 04 bd e1 2d 46 bd
       0.0817 0.08714043 -0.03223676 -0.048383597
0000f0 84 4e 3a bd 1d 7b 7e bb 10 4e b4 3d b9 29 96 3c
       -0.045485035 -0.0038830705 0.08803952 0.018330442

weight f4 [5, 64]
000000 88 ef 27 bc 1a c1 9e bd 1b d5 08 3e 31 93 55 3e
       -0.01024998 -0.07751675 0.13362543 0.2085693
000010 ad 1d 8e 3b f2 03 09 3e 35 90 76 3d 40 57 4f 3e
       0.0043370337 0.13380411 0.06019612 0.20248127
000020 49 38 0c be 96 47 02 3e ae 93 14 be eb c5 95 3d
       -0.13693346 0.1272262 -0.1450946 0.073131405
000030 ae 2e 85 3c fa 1e 91 bd f1 d1 6c bc b7 bd 35 be
       0.01625761 -0.070859864 -0.014454351 -0.17748152
000040 d5 45 eb 3d 43 fa 12 3e 16 f4 12 bd cb 59 c4 bd
       0.11487929 0.1435328 -0.03587731 -0.09587439
000050 2c f4 72 bd 04 8e 29 be 5f be 69 bd 35 61 03 3d
       -0.05931489 -0.16558081 -0.057066318 0.032075126
000060 02 5e 91 3d 4b 71 b2 3d 81 b3 0c 3d f0 b8 74 bd
       0.07098009 0.08713015 0.034350876 -0.059746683
000070 e8 fd e6 3d a5 6b 72 bd 90 75 bc 3d 2a 30 2d 3e
       0.112788975 -0.05918469 0.09202111 0.16912904
000080 cd 7f 94 bb df 75 42 3e 38 42 02 be 24 a3 df bd
       -0.0045318366 0.18990277 -0.12720573 -0.109197885
000090 b0 c4 64 be ee 94 01 3e 4c 66 9d bb 6b 87 0e 3d
       -0.22340655 0.12654468 -0.0048034545 0.034797113
0000a0 94 0b 5e 3d 20 c8 46 be 0a 75 e2 3d 72 cb dc 3a
       0.05421026 -0.19412279 0.1105748 0.0016845299
0000b0 3d 87 f6 3c 2e 3f 4a 3d 78 7c 26 3e 5c 76 eb bd
       0.030093784 0.04937666 0.16258419 -0.11497185
0000c0 a1 9b 14 be b6 a5 06 be c2 b1 71 3d d3 66 51 be
       -0.14512493 -0.13149151 0.059007414 -0.2044938
0000d0 44 60 d4 3d 89 11 bb bd bf 45 52 bd 72 3f 52 bc
       0.10369924 -0.09134204 -0.051336046 -0.012832509
0000e0 e4 1c 24 3e 7e f6 1a 3e 21 f6 14 3e 02 ad 86 3d
       0.16026646 0.15133092 0.14547016 0.06575967
0000f0 37 58 03 be 22 22 1e 3e 7b 04 47 bc 67 68 40 be
       -0.1282662 0.15442708 -0.012147064 -0.18789826
000100 da aa 3c 3d 21 60 1f 3e f1 1d 9c bc 73 68 5e be
       0.046061374 0.15564014 -0.019057246 -0.21719532
000110 92 95 fd bc d6 52 27 be 2f 30 bf 3d a7 31 0d be
       -0.03095511 -0.16340193 0.09335362 -0.13788472
000120 1f c3 be 3d 32 7f c9 3d 71 8b 99 3d 22 28 32 bc
       0.0931456 0.09838714 0.074972995 -0.010873826
000130 f1 1e cc 3d 25 1b 53 bb cb 42 29 bd 16 ea f1 bd
       0.09966839 -0.0032212224 -0.041323464 -0.118122265
000140 8b e0 c2 bd 37 db b6 3d a9 4e 2c 3c b2 c4 20 bc
       -0.095154844 0.08928531 0.010516801 -0.009812521
000150 85 24 4c 3d dd 26 0a 3e e8 18 b7 3d 29 a0 12 3d
       0.049839515 0.13491388 0.08940297 0.035797272
000160 3d b1 b1 3d 10 5d 14 be f0 6c 50 3a d7 b5 76 3d
       0.08676384 -0.14488626 0.0007950803 0.06023201
000170 6e 03 59 bd f3 4e 1b 3e 25 9b 72 bd e2 2b a1 3c
       -0.052981786 0.15166835 -0.05922999 0.019674245
000180 0f 46 06 3e 1f 53 bc bc 4a 5c ef 3d 98 00 c0 3c
       0.13112663 -0.022988854 0.116875246 0.023437783
000190 70 75 27 3d f6 a4 15 be c5 0b e3 bd 82 1d 93 bd
       0.04088348 -0.14613709 -0.11086229 -0.071833625
0001a0 85 d3 16 3e ab 0f d0 bd c8 89 17 be e7 e8 1a bd
       0.14729126 -0.101592384 -0.14798653 -0.03781977
0001b0 e9 7b 57 3d bc d3 2f 3d 1c 2b 02 be 4f eb 59 3d
       0.052608404 0.042926535 -0.12711757 0.053202923
0001c0 47 c5 c4 3d 41 33 d8 3c 9a 4b cc 3c 11 41 c7 bc
       0.0960794 0.026391627 0.024938393 -0.024323018
0001d0 5e 52 88 bd c1 d8 1e 3e 26 81 0e 3e 2f ce c8 3d
       -0.06656335 0.15512373 0.13916454 0.098049514
0001e0 38 4e 46 3d 8a 10 78 3d 1b 5f 1f 3c 15 2a a4 3d
       0.04841444 0.060562648 0.009727265 0.08015839
0001f0 af 6e cf 3d 8e 2c 49 3d cd 3f 35 bc c5 f9 b2 bc
       0.10128533 0.049114756 -0.011062575 -0.021847615
000200 42 72 58 bd 2a 27 ec bd 25 09 f9 3d 64 07 2d bd
       -0.05284334 -0.115309075 0.12159947 -0.042243376
000210 33 45 24 bc 84 25 a0 bd 47 fa 7b bd 25 0f ae 3d
       -0.010026264 -0.078196555 -0.06151798 0.08498982
000220 14 1b 14 3d 16 fc 6e 3d 4d 95 19 3a 68 6f f6 bd
       0.036158636 0.058345877 0.00058587344 -0.12032968
000230 a2 ae fa 3d c6 de c2 bd bf d0 39 3c d1 e1 ad bd
       0.1224034 -0.09515147 0.011341273 -0.08490337
000240 a0 bb 84 3d ec 20 eb 3d 54 ff 08 bd 0b a4 ce bd
       0.06481099 0.11480889 -0.033446625 -0.100898825
000250 0c 0c b0 3d 9a d5 7d 3d 1d 40 b8 3d c3 49 92 3d
       0.08596048 0.061971284 0.08996604 0.07142975
000260 93 71 6b 3d 54 a4 5d 3b 89 76 0f be f4 a3 3b bd
       0.05748136 0.003381987 -0.14010061 -0.045810655
000270 86 ac 8a bc 9c f9 b7 3d 25 71 81 3c 9b e3 71 3d
       -0.016927969 0.08983156 0.015801022 0.059054952
000280 0f 40 0d bd a3 cb 8b bd bc 4b 9b 3d 01 a7 99 bd
       -0.03448492 -0.0682595 0.075828046 -0.075025566
000290 1f e1 04 3e 5e 59 e6 3d 7b 33 01 3e fa 3c a1 3d
       0.12976502 0.11247514 0.12617294 0.078729585
0002a0 c9 08 83 bd bf 38 bc 3d 7d ff 96 3d 29 cb 78 3d
       -0.0639816 0.09190511 0.07372949 0.060740624
0002b0 8f 9f 78 bd da c5 7e 3d b9 42 c7 bd e2 d1 06 bd
       -0.060699042 0.062200405 -0.09729523 -0.032915004
0002c0 d6 5b 35 bd 09 98 32 bd 5b 4e bd 3c 1e 29 99 bd
       -0.044277035 -0.043602023 0.023108652 -0.074785456
0002d0 58 e0 01 3d 61 04 ba bd 8f c4 23 3c fb 8d 3f bd
       0.03170809 -0.090828665 0.009995594 -0.046766263
0002e0 e2 ae ed 3d 9a 2f d7 bd eb 6f 50 bd c0 e0 cd bc
       0.11605622 -0.10507126 -0.050887983 -0.025131583
0002f0 d4 37 af 3d 05 45 c7 3d d8 7d ab 3d 9a be a4 3c
       0.0855557 0.09729961 0.08373612 0.020110417
000300 b6 be 27 3d 99 f8 d5 bd 53 e4 86 bd 2b 7f d1 bc
       0.04095336 -0.10447807 -0.06586518 -0.025573334
000310 f4 f4 7c 3c c4 1d 82 bd 87 da bc bd e3 ac a2 3d
       0.015439261 -0.063533336 -0.09221368 0.07943132
000320 34 5f 04 3e 72 e8 1e 3d a9 50 ac 3d 0c cd 17 3d
       0.12926942 0.038795896 0.08413822 0.037060782
000330 92 af 27 bd 8c d7 b0 bb 10 00 87 3d 96 f3 f1 3c
       -0.04093892 -0.005396789 0.06591809 0.029535096
000340 76 d5 71 3d ef d9 69 bd 67 3e cc ba 08 e3 1e bd
       0.059041463 -0.057092603 -0.0015582562 -0.038790733
000350 8f 8f ce bd 77 6b da 3c dd ba 41 bd f9 c4 da 3d
       -0.100859754 0.026662571 -0.047297347 0.10682101
000360 51 5f 9b 3c 10 2c 01 be 95 1b dc 3d f3 3c 78 3d
       0.018966349 -0.12614465 0.10747448 0.060605
000370 d4 6a 0f 3d e2 1c 1c 3d 75 a3 95 3d 44 4c 0e be
       0.03501399 0.038113482 0.073065676 -0.1389628
000380 8c 04 20 3c 49 78 9f bc f2 6e df 3c 00 c9 74 3b
       0.009766709 -0.019466536 0.027274583 0.003735125
000390 f8 00 0a 3e b1 88 e7 bc d0 b2 94 bd b4 41 9d 3d
       0.13476932 -0.028263422 -0.07260668 0.076785475
0003a0 f1 74 b3 bc 6e 0d b5 3d 9c 7c 9d bd 78 ff ad 3d
       -0.021906348 0.08840452 -0.07689783 0.084959924
0003b0 a2 b8 9d bd 9c 68 15 bc c0 b8 b3 ba f1 18 b0 3d
       -0.077012315 -0.009119179 -0.0013711676 0.08598507
0003c0 19 49 92 3d 8d f5 d7 3d a4 f3 58 bd e5 b5 ad 3d
       0.071428485 0.10544882 -0.05296673 0.08481959
0003d0 95 33 c7 bd 3a a0 a6 bd 81 b6 64 3d d0 7c 3e bd
       -0.09726635 -0.081360295 0.05583811 -0.04650575
0003e0 8c 2c 52 3d 9e a7 77 3d dc 91 2a bc 32 de 17 ba
       0.051312014 0.060462587 -0.010410752 -0.00057933026
0003f0 5b 42 18 bd 6d e4 82 bb a8 7b fb 3c 66 03 b5 3d
       -0.037172657 -0.0039945156 0.030698612 0.08838539

bias f4 [5]
000000 7f 0c f0 3d d5 b0 d2 bd 15 e6 ed 3d 24 e4 e1 3d
       0.117211334 -0.10287634 0.1161615 0.110298425
000010 a6 35 95 bc
       -0.018214058
